model/epoch_7895.pth (torch_old, 299096 bytes, 10 tensors)

lstm.weight_ih_l0 f4 [256, 20]
0.9810808 3.2828937 4.281498 -0.68566686 -0.2529549 0.79858446 2.5537226 0.789767
0.13089073 -0.17568834 -0.107232906 -0.9232648 1.2400535 -2.402585 0.25815937 -0.28320616
3.6343446 -0.46894813 6.1410985 -1.7087969 -0.8799702 0.747037 0.9595016 -0.9176887
2.188976 0.2105582 -1.1419315 -0.4158291 3.8586984 2.7501838 1.0229411 -0.06615606
1.7513808 -1.1750066 -0.3933565 -0.08066056 -0.26388732 -4.2992435 2.4383204 -0.026927749
1.0229937 1.6670406 0.406422 2.193911 -1.6426919 0.5389306 -0.13841394 0.5005288
7.070139 2.5217822 -1.276477 -0.5104436 2.2566261 2.1547585 -1.882429 3.871932
-1.3967204 0.07607873 -2.5095341 1.1120569 2.3436983 3.5753706 -1.5584016 0.07469515
1.2943447 -0.004776082 0.41073647 -0.8436867 -3.7209594 6.4007487 -0.64976496 0.24368778
0.22339098 -0.7186777 8.961373 -0.036197748 0.5075052 1.6194386 -0.4631595 1.6119739
-0.9649667 -0.71444106 2.0993598 0.29864255 0.24375606 1.0914739 -0.79398113 -1.0316164
-0.12563859 0.36217692 1.3295639 -0.8804549 3.4968326 3.3060558 9.694699 -0.571686
1.0531147 1.0188454 5.5757265 -0.38324153 0.9425121 5.5452714 -0.9256522 2.608769
-0.5069946 0.7669972 -2.4436047 4.7230325 1.2810237 0.65283275 -0.5553835 -0.13669759
1.1770525 -0.12860407 -2.3351479 2.753326 -1.1280701 -0.56295323 -0.127389 -0.13824727
-1.7039393 2.998441 4.6844516 -0.57363915 -0.45074368 -0.03421248 1.4926823 4.377485
1.4513302 1.6269956 1.8516897 -0.7680168 0.05752329 -0.78981346 0.35222283 0.46583706
3.380318 0.7883451 2.2765975 -0.88700265 -0.6983431 0.31421757 1.3618025 -0.25396785
4.635918 0.31371132 0.7509016 1.6838624 -4.633315 2.2155368 -1.1992545 -1.8851166
0.36953327 2.5251188 6.2937174 2.318736 0.5064648 -0.76634717 -1.7000186 0.5306423
-0.97167504 6.238293 -0.6207989 0.2719342 -0.05219069 -1.6712979 3.915337 1.9494673
-0.7517553 1.8334727 -2.5356572 0.57233024 -0.98527277 1.848681 -0.27048832 -1.2927456
2.7828615 0.17052111 -0.4923125 -0.99919295 1.4544075 -1.2626706 2.530916 1.2402796
-2.1680167 0.29953754 0.67427105 -0.23610821 -1.6434898 5.3550134 0.736431 0.28551707
3.3278913 -1.9199417 2.4235516 0.27801225 -0.32984564 -2.251294 1.1044948 0.017282583
1.4828744 2.456101 0.031006232 -0.8898536 0.5639161 1.5930107 -0.46812078 0.8762048
-0.6801018 0.7810566 0.291747 -1.7628261 1.0238458 -1.288111 1.5989337 -0.08437032
1.6119158 2.0550737 2.2836683 -0.92865765 -1.7468549 -0.4380613 -1.1467211 -0.70034724
1.3700242 -0.5845997 0.2151411 2.195832 2.7772944 0.37627602 0.8503959 -0.6361826
-0.832771 0.82572865 2.5034785 1.3539596 0.8933838 0.51150066 -1.0373011 -0.3504158
-0.18533279 -0.40650728 -0.38724405 0.9936957 -0.3224962 1.5991658 1.3273314 0.9351368
-1.3464057 -2.7554712 -2.6583128 1.2497352 2.7217028 1.4882417 0.09408123 -1.4973305
00000000: 1c28 7b3f ee1a 5240 0802 8940 dd87 2fbf
00000010: 4e83 81be 0870 4c3f 3170 2340 2c2e 4a3f
00000020: 3808 063e a5e7 33be ed9c dbbd 155b 6cbf
00000030: 13ba 9e3f f4c3 19c0 772d 843e 6600 91be
00000040: 1a99 6840 f819 f0be e183 c440 dbb9 dabf
00000050: ba45 61bf d13d 3f3f e6a1 753f a6ed 6abf
00000060: 2f18 0c40 929c 573e d02a 92bf 8de7 d4be
00000070: eaf4 7640 0303 3040 bcef 823f d47c 87bd
00000080: 3f2d e03f 9e66 96bf 0666 c9be 5d31 a5bd
00000090: 3d1c 87be 6793 89c0 710d 1c40 9597 dcbc
000000a0: 75f1 823f 9661 d53f 8b16 d03e 0a69 0c40
000000b0: ba43 d2bf 5bf7 093f 62bc 0dbe a822 003f
000000c0: 943e e240 e164 2140 9963 a3bf 6fac 02bf
000000d0: 906c 1040 90e7 0940 6ff3 f0bf bccd 7740
000000e0: bcc7 b2bf 2acf 9b3d 359c 20c0 e157 8e3f
000000f0: 27ff 1540 dfd2 6440 b479 c7bf c5f9 983d
00000100: 16ad a53f ae80 9cbb 0d4c d23e dafb 57bf
00000110: 3324 6ec0 efd2 cc40 ff56 26bf 4a89 793e
00000120: 9bc0 643e 43fb 37bf c961 0f41 1744 14bd
00000130: dceb 013f c449 cf3f 3e23 edbe 2955 ce3f
00000140: 0f08 77bf 9ce5 36bf e95b 0640 ade7 983e
00000150: 309b 793e 6bb5 8b3f 5942 4bbf 020c 84bf
00000160: 67a7 00be 416f b93e 262f aa3f 7e65 61bf
00000170: 1bcc 5f40 6b96 5340 7d1d 1b41 045a 12bf
00000180: 76cc 863f 8769 823f 5a6c b240 3c38 c4be
00000190: 7948 713f dd72 b140 8bf7 6cbf 12f6 2640
000001a0: 66ca 01bf ee59 443f 0564 1cc0 1523 9740
000001b0: 96f8 a33f 0c20 273f 9d2d 0ebf 74fa 0bbe
000001c0: a8a9 963f c9b0 03be 1073 15c0 7e36 3040
000001d0: 9a64 90bf b41d 10bf 4372 02be b190 0dbe
000001e0: af1a dabf 75e6 3f40 07e7 9540 04da 12bf
000001f0: e0c7 e6be 6322 0cbd 3710 bf3f 5b14 8c40
00000200: 30c5 b93f 6441 d03f 2b04 ed3f c09c 44bf
00000210: 8b9d 6b3d 3731 4abf 8d56 b43e 3282 ee3e
00000220: 2157 5840 fcd0 493f c6b3 1140 9b12 63bf
00000230: 9dc6 32bf 20e1 a03e 8b4f ae3f 1308 82be
00000240: 7159 9440 c59e a03e 163b 403f ce88 d73f
00000250: 1e44 94c0 5bcb 0d40 2c81 99bf 804b f1bf
00000260: 7733 bd3e 8c9b 2140 2266 c940 2c66 1440
00000270: ada7 013f 542f 44bf 369a d9bf 2cd8 073f
00000280: b2bf 78bf 19a0 c740 adec 1ebf f63a 8b3e
00000290: e8c5 55bd 17ed d5bf e294 7a40 2588 f93f
000002a0: 0973 40bf 3caf ea3f 3548 22c0 3c84 123f
000002b0: d63a 7cbf 94a1 ec3f 727d 8abe b078 a5bf
000002c0: 671a 3240 169d 2e3e 6210 fcbe 1ccb 7fbf
000002d0: 062a ba3f 319f a1bf 87fa 2140 7bc1 9e3f
000002e0: c9c0 0ac0 fc5c 993e 079d 2c3f 5ac6 71be
000002f0: e05d d2bf 455c ab40 be86 3c3f 4b2f 923e
00000300: 2cfc 5440 a6c0 f5bf 781b 1b40 9f57 8e3e
00000310: 87e1 a8be 3315 10c0 1660 8d3f 3494 8d3c
00000320: d4ce bd3f c230 1d40 c800 fe3c 72cd 63bf
00000330: ce5c 103f c6e7 cb3f 87ad efbe f54e 603f
00000340: 271b 2ebf 53f3 473f dd5f 953e 49a4 e1bf
00000350: 610d 833f d2e0 a4bf dca9 cc3f 59ca acbd
00000360: 4253 ce3f 5486 0340 9f27 1240 82bc 6dbf
00000370: f198 dfbf 9249 e0be c2c7 92bf f549 33bf
00000380: f45c af3f 53a8 15bf f34d 5c3e 8388 0c40
00000390: 31bf 3140 40a7 c03e 8cb3 593f dddc 22bf
000003a0: 7b30 55bf f462 533f fe38 2040 8c4e ad3f
000003b0: cdb4 643f b5f1 023f 48c6 84bf b369 b3be
000003c0: e1c7 3dbe b921 d0be da44 c6be d762 7e3f
000003d0: 391e a5be 77b1 cc3f ffe5 a93f 2065 6f3f
000003e0: 0657 acbf a459 30c0 cc21 2ac0 53f7 9f3f
000003f0: 6130 2e40 b47e be3f a9ad c03d 87a8 bfbf

lstm.weight_hh_l0 f4 [256, 64]
-0.4869691 1.2948266 1.1371156 0.97157186 1.5981901 0.83444434 -0.43834874 0.7903522
-0.6367562 1.0538428 0.03353038 0.13853766 -0.5371268 -0.38065213 0.3996977 -1.2098311
-1.8366245 0.62180626 -1.0565809 1.1354808 0.12162301 -0.07043164 -1.2599256 -0.27369106
-0.8812797 -0.68903494 -0.9140463 -0.18194717 0.68492055 0.17758612 -0.13205881 0.39035663
0.096945114 0.026784867 -0.5570523 0.5645675 -0.35095328 0.16041644 -1.0079373 -0.38277957
0.7708894 -0.4739219 0.19983429 0.606437 -0.785985 -0.13864191 -0.0042960853 -0.07610791
0.41366673 1.3177663 0.2128123 1.3005891 0.44396323 0.5494848 -1.3803687 1.909496
0.007857837 0.2781267 -0.87906045 0.1085364 0.5715123 -2.0223262 -0.81171745 0.66101116
-1.7115561 0.2555456 -0.83426356 -1.2498395 -0.61606914 1.878225 1.3350191 0.76453114
1.7005658 0.36552733 0.6031471 -0.7846825 -0.9452464 0.26973328 -0.14993213 -0.597152
-1.1991026 -1.1214894 0.82555634 0.5406608 -0.550662 -1.5144311 -0.02273945 0.4960656
-0.5964437 0.4100526 -0.45877296 -1.6136744 0.23502328 -0.21534608 0.2338411 0.7289335
0.23571205 0.61401355 -1.5172975 0.29505867 -0.95560074 0.32086807 0.9678169 -0.61847657
0.64179945 -0.112747826 -0.42835316 -0.11500191 0.5917735 -0.09449927 0.3988886 1.4365345
0.7723135 -1.0592408 -0.3454603 0.034772445 1.6615841 0.6464119 0.5462943 1.0024438
-0.7531711 -0.47743323 0.42665574 -0.80469346 0.47381416 -0.04396322 -0.7608629 -0.17945755
-0.61000985 1.0857979 0.07231197 0.944399 -0.78873515 0.21087526 0.7627401 -1.0238646
-0.9343914 0.7980636 1.1370883 -1.6660804 -0.6851407 -1.0411559 -0.42678472 0.14170699
-0.2857192 0.7476823 0.22687273 -0.83397543 -0.40421999 -0.6081161 -0.9455888 -0.9826381
-1.2619232 0.42102495 -0.5123681 -1.3761333 1.0515782 0.41510218 -0.09765954 -0.35882488
-0.21277644 -0.9168529 -1.2498223 0.38809252 -0.2859862 0.37223896 0.91251695 2.1561487
0.7869173 0.5061559 -0.054639228 0.31055614 -0.37819177 0.106456205 -1.2694755 -0.13838519
-0.47673166 0.2597783 0.5059759 1.2414064 0.4137178 0.58831125 0.35359898 1.5693175
-0.5083618 -0.5841068 -0.45255634 -0.70001477 0.76059467 -1.2468611 -0.418162 -0.9627798
0.70241284 1.0034807 -0.3683022 0.47297522 0.37761417 -0.48450723 -0.24799785 1.1389459
-1.0697807 0.2718769 -0.024648307 -0.14963967 -1.2497334 -0.49281192 0.5653514 -0.56814235
-0.87191117 -0.3211402 -1.283498 1.4050375 0.273935 -0.7038121 0.2735775 -0.94573814
-2.7357104 0.1170013 -0.09214145 0.67128474 0.64492434 0.37089005 -0.45846948 -0.62992024
0.9809353 0.08840114 -0.7631191 -0.48488966 -0.89992446 1.595244 -0.11448479 -1.2003574
-1.4301764 -0.82150716 1.1371351 0.8402964 0.2648426 -0.028132899 -0.80881387 -0.45970193
-0.06955711 0.03469074 -0.7073097 1.6765465 -1.6252061 -0.27118817 0.56456596 0.8421892
0.5150468 0.6202173 0.36862543 -0.5243545 -0.25668475 0.3641715 -0.2721001 -0.33633086
00000000: 0454 f9be e1bc a53f 018d 913f efb8 783f
00000010: 7e91 cc3f 259e 553f 3f6f e0be 8654 4a3f
00000020: 7402 23bf 52e4 863f 2757 093d d1dc 0d3e
00000030: 2481 09bf d6e4 c2be 2da5 cc3e bfdb 9abf
00000040: 8316 ebbf b22e 1f3f 0b3e 87bf 6f57 913f
00000050: 7c15 f93d 773e 90bd 3e45 a1bf 3c21 8cbe
00000060: 8c9b 61bf 9864 30bf f0fe 69bf 5c50 3abe
00000070: f456 2f3f 23d9 353e 6d3a 07be d3dc c73e
00000080: 298b c63d f06b db3c fb9a 0ebf 7f87 103f
00000090: 26b0 b3be 3544 243e 1704 81bf affb c3be
000000a0: 0259 453f e4a5 f2be 5ca1 4c3e 753f 1b3f
000000b0: 5036 49bf 25f8 0dbe 2dc6 8cbb 77de 9bbd
000000c0: 20cc d33e 91ac a83f 78eb 593e b479 a63f
000000d0: 264f e33e 09ab 0c3f ecaf b0bf 5d6a f43f
000000e0: 28be 003c 9f66 8e3e 1b0a 61bf 5548 de3d
000000f0: a14e 123f cb6d 01c0 b7cc 4fbf 0738 293f
00000100: 4514 dbbf dfd6 823e 4c92 55bf befa 9fbf
00000110: b5b6 1dbf ad69 f03f e8e1 aa3f 50b8 433f
00000120: 24ac d93f 6626 bb3e d967 1a3f f4e0 48bf
00000130: abfb 71bf 7b1a 8a3e cf87 19be f4de 18bf
00000140: 327c 99bf f78c 8fbf a957 533f bf68 0a3f
00000150: 2ff8 0cbf e1d8 c1bf 1548 babc 4ffc fd3e
00000160: 89b0 18bf 6af2 d13e 4ae4 eabe e28c cebf
00000170: f1a9 703e af83 5cbe 0b74 6f3e 639b 3a3f
00000180: 805e 713e fe2f 1d3f ce36 c2bf ee11 973e
00000190: 40a2 74bf d248 a43e d9c2 773f 7b54 1ebf
000001a0: f84c 243f 55e8 e6bd 1b51 dbbe 1f86 ebbd
000001b0: 787e 173f d588 c1bd 203b cc3e 5de0 b73f
000001c0: 56b6 453f 3495 87bf 2ce0 b0be 8d6d 0e3d
000001d0: caae d43f 407b 253f f1d9 0b3f 1450 803f
000001e0: d2cf 40bf 2172 f4be 9f72 da3e 6400 4ebf
000001f0: c597 f23e c712 34bd e9c7 42bf b8c3 37be
00000200: 9b29 1cbf 6dfb 8a3f 4c18 943d 22c4 713f
00000210: 8cea 49bf afef 573e ef42 433f ff0d 83bf
00000220: 4634 6fbf e54d 4c3f 1c8c 913f 1f42 d5bf
00000230: 6265 2fbf 9944 85bf 8783 dabe a31b 113e
00000240: c949 92be 1b68 3f3f 5351 683e 6a7f 55bf
00000250: ecf5 cebe 7fad 1bbf 1c12 72bf 2c8e 7bbf
00000260: b386 a1bf 9590 d73e 8e2a 03bf 2325 b0bf
00000270: 1d9a 863f 4688 d43e ba01 c8bd e5b7 b7be
00000280: 11e2 59be dfb6 6abf 2dfa 9fbf 10b4 c63e
00000290: c96c 92be 1b96 be3e b69a 693f 57fe 0940
000002a0: 6a73 493f 6f93 013f 62cd 5fbd 3701 9f3e
000002b0: 5aa2 c1be b605 da3d 2c7e a2bf d9b4 0dbe
000002c0: 2c16 f4be a901 853e a387 013f 68e6 9e3f
000002d0: d2d2 d33e 919b 163f ed0a b53e 65df c83f
000002e0: 0024 02bf 0688 15bf 77b5 e7be 2b34 33bf
000002f0: 55b6 423f 2599 9fbf 5419 d6be bd78 76bf
00000300: 54d1 333f 0e72 803f 1b92 bcbe cf29 f23e
00000310: a556 c13e 5511 f8be 26f3 7dbe fbc8 913f
00000320: 93ee 88bf 7333 8b3e 3feb c9bc 243b 19be
00000330: 44f7 9fbf d851 fcbe dfba 103f c771 11bf
00000340: 9235 5fbf 7d6c a4be aa49 a4bf 45d8 b33f
00000350: 3541 8c3e 082d 34bf 5a12 8c3e e51b 72bf
00000360: e115 2fc0 619e ef3d a8b4 bcbd 51d9 2b3f
00000370: c319 253f 4de5 bd3e 83bc eabe 7442 21bf
00000380: 931e 7b3f a80b b53d c65b 43bf 7543 f8be
00000390: 7361 66bf f530 cc3f 0077 eabd 50a5 99bf
000003a0: 0510 b7bf 4b4e 52bf a58d 913f aa1d 573f
000003b0: 7399 873e f776 e6bc 6d0e 4fbf 0d5e ebbe
000003c0: f573 8ebd e117 0e3d 4012 35bf 1399 d63f
000003d0: c106 d0bf 2dd9 8abe 6587 103f b699 573f
000003e0: 1bda 033f 90c6 1e3f 79bc bc3e 193c 06bf
000003f0: 2f6c 83be b074 ba3e b450 8bbe 8f33 acbe

lstm.bias_ih_l0 f4 [256]
0.19400285 0.49530005 0.85098284 0.91418266 0.45721948 0.8337261 0.72943944 0.81616974
-0.2203228 0.80101264 0.3591006 0.39561668 0.6273968 0.60607094 0.77069515 0.3620585
0.14141282 0.9773527 0.6701199 0.9240025 0.5187682 0.8479468 0.67012405 0.8095344
0.55174166 0.79173684 0.31510058 -0.05115386 0.19323939 1.1147258 1.1486322 0.27679273
1.0079945 -0.08932794 0.51244146 0.78485554 0.70600224 0.8160177 0.5438802 0.5427557
1.2411901 1.045868 0.5616248 0.6623453 0.43714052 0.548069 1.0979759 0.20455982
0.9297261 0.63784856 1.0612348 0.3014702 0.6611439 0.20366447 0.60349846 -0.18282993
0.33037513 -0.055356 0.49825752 1.4116763 0.7154447 0.2375825 0.8525789 0.6444124
-0.2897789 0.15347488 0.27275953 0.16644475 0.2514337 -0.22032957 0.057160813 0.045489293
0.42489108 0.29138112 0.477395 0.2559178 -0.4793135 0.37235802 0.027307777 -0.19188902
0.22798815 -0.39854974 0.3656228 -0.054131143 -0.030366344 -0.13523515 0.072054744 -0.12777038
0.057951644 0.08415234 -0.3623982 0.14451109 0.048608005 0.060263287 0.54698694 0.02619178
0.31678295 -0.0384831 -0.10780338 0.011056134 -0.047766667 0.33204016 0.1262168 0.0707279
-0.10448985 0.06414494 0.09017876 0.2661784 0.031274747 -0.016764667 0.57299495 -0.15046807
-0.11166907 -0.0034808067 0.0862699 -0.41893667 -0.23293722 0.24621004 0.11780474 0.44186157
-0.042917203 0.38963544 -0.17625877 0.07650863 0.24498977 0.44406602 -0.0707239 0.39379948
0.024509855 0.19530298 -0.14106107 0.15244119 0.3002531 -0.11736208 -0.09454227 0.05168664
-0.09647232 0.13644025 0.17679763 -0.25442 -0.15518293 -0.12783945 0.15676072 -0.13897839
-0.18435934 -0.011722311 0.038432166 0.10170403 0.011437294 -0.062225483 -0.13190848 -0.07335002
-0.21594608 -0.11696747 -0.005982571 -0.13978016 0.04369582 0.009167859 -0.3042203 0.2537149
-0.1595074 -0.05195761 -0.17309444 0.032723375 0.017606877 -0.09441045 -0.048307173 0.017090155
-0.06667543 -0.008194185 0.07785399 -0.20657225 -0.29557946 -0.039123233 -0.15570593 -0.11265824
-0.106884725 0.11920098 -0.22837953 0.04881675 -0.101186685 0.113023646 -0.05986682 0.13447465
0.06719951 -0.011631674 0.08495942 -0.13778856 0.056860816 -0.11051004 -0.1549788 0.07888897
0.3680318 0.5434579 0.5867914 0.45577198 0.18242498 0.32496223 0.7166783 -0.009749649
-0.10536684 0.08694611 0.23747918 -0.27261263 0.36884344 -0.24161842 0.59569514 0.44094867
-0.20409183 0.2592104 0.037342645 0.15052369 0.1910135 0.049022462 -0.16060688 0.5431152
-0.1919998 0.055994015 -0.3295088 0.07797927 -0.078601085 0.62885773 0.47602403 0.558029
0.45765382 0.48608315 -0.122937486 0.28437966 0.10089917 0.117642276 -0.13693208 0.21870403
0.30463865 0.22181018 0.14447394 0.13688542 0.6842131 0.47432578 -0.45063034 0.33689207
0.9896699 0.69312596 0.1784912 0.10223548 0.31565595 -0.013429353 1.0657758 0.18102558
0.7505246 -0.21489471 0.24036668 0.43263894 1.1447586 0.053421307 0.3995361 0.292213
00000000: afa8 463e f897 fd3e 03da 593f e007 6a3f
00000010: ac18 ea3e 136f 553f 8bbc 3a3f 80f0 503f
00000020: 4d9c 61be 2a0f 4d3f 09dc b73e 458e ca3e
00000030: 149d 203f 7727 1b3f 474c 453f bb5f b93e
00000040: 86ce 103e c933 7a3f fa8c 2b3f 6e8b 6c3f
00000050: fecd 043f 0b13 593f 408d 2b3f a53d 4f3f
00000060: f13e 0d3f 44af 4a3f dd54 a13e b686 51bd
00000070: 8ce0 453e 56af 8e3f 6106 933f c7b7 8d3e
00000080: f705 813f 91f1 b6bd 5d2f 033f 4bec 483f
00000090: 90bc 343f 89e6 503f bc3b 0b3f 0af2 0a3f
000000a0: 51df 9e3f 01df 853f a5c6 0f3f 768f 293f
000000b0: e2d0 df3e 404e 0c3f 798a 8c3f 2178 513e
000000c0: 8802 6e3f 0b4a 233f 8bd6 873f 4d5a 9a3e
000000d0: ba40 293f 6b8d 503e e07e 1a3f c537 3bbe
000000e0: ee26 a93e f9bc 62bd 9c1b ff3e cfb1 b43f
000000f0: 6227 373f d448 733e 9c42 5a3f 36f8 243f
00000100: e65d 94be 8528 1d3e 23a7 8b3e 7e70 2a3e
00000110: ebbb 803e 139e 61be 7521 6a3d fb52 3a3d
00000120: 538b d93e e82f 953e 1e6d f43e a807 833e
00000130: 9468 f5be b6a5 be3e 8fb4 df3c 8e7e 44be
00000140: ba75 693e b60e ccbe e932 bb3e 9eb8 5dbd
00000150: d7c2 f8bc 157b 0abe 7091 933d 3dd6 02be
00000160: b45e 6d3d 1058 ac3d 428c b9be b7fa 133e
00000170: 3019 473d a3d6 763d 5607 0c3f 2590 d63c
00000180: 6031 a23e 74a0 1dbd 05c8 dcbd c924 353c
00000190: fba6 43bd 2b01 aa3e fa3e 013e cad9 903d
000001a0: c6fe d5bd 6c5e 833d a4af b83d 8948 883e
000001b0: f319 003d 0e56 89bc ccaf 123f 4d14 1abe
000001c0: c1b2 e4bd 3f1e 64bb 46ae b03d de7e d6be
000001d0: 1887 6ebe 7c1e 7c3e 9d43 f13d ae3b e23e
000001e0: f3c9 2fbd 4c7e c73e 2e7d 34be 8eb0 9c3d
000001f0: 99de 7a3e 9f5c e33e b1d7 90bd 16a0 c93e
00000200: e4c8 c83c 81fd 473e 5072 10be 8b19 1c3e
00000210: c6ba 993e 885b f0bd 619f c1bd 5fb5 533d
00000220: 4893 c5bd feb6 0b3e 700a 353e 5743 82be
00000230: 46e8 1ebe 58e8 02be e285 203e 5a50 0ebe
00000240: b2c8 3cbe f00e 40bc 0c6b 1d3d 344a d03d
00000250: 7d63 3b3c 26e0 7ebd 0413 07be 8938 96bd
00000260: f820 5dbe a48c efbd 7109 c4bb 8822 0fbe
00000270: 63fa 323d ca34 163c c3c2 9bbe ebe6 813e
00000280: e855 23be 81d1 54bd ab3f 31be f208 063d
00000290: 4c3c 903c 445a c1bd bedd 45bd a700 8c3c
000002a0: 218d 88bd e740 06bc ea71 9f3d ad87 53be
000002b0: 3156 97be af3f 20bd 6071 1fbe 5db9 e6bd
000002c0: 61e6 dabd a51f f43d 53dc 69be 13f4 473d
000002d0: f73a cfbd f178 e73d e936 75bd b9b3 093e
000002e0: e69f 893d c792 3ebc 34ff ad3d 7218 0dbe
000002f0: e3e6 683d 1653 e2bd c3b2 1ebe 8a90 a13d
00000300: aa6e bc3e 0f20 0b3f f637 163f f25a e93e
00000310: 9dcd 3a3e 7361 a63e 3b78 373f febc 1fbc
00000320: 92ca d7bd cd10 b23d be2d 733e e293 8bbe
00000330: 0cd9 bc3e d26a 77be 7a7f 183f 06c4 e13e
00000340: 73fd 50be 3ab7 843e 9af4 183d e222 1a3e
00000350: 0b99 433e c7cb 483d 2176 24be 9909 0b3f
00000360: 989b 44be fb59 653d 61b5 a8be 98b3 9f3d
00000370: 9bf9 a0bd d2fc 203f 6cb9 f33e fdda 0e3f
00000380: 9a51 ea3e e4df f83e a6c6 fbbd 369a 913e
00000390: 39a4 ce3d 6fee f03d ec37 0cbe f3f3 5f3e
000003a0: 99f9 9b3e 3522 633e faf0 133e b12b 0c3e
000003b0: 9728 2f3f d4da f23e 05b9 e6be 1e7d ac3e
000003c0: 025b 7d3f b470 313f 66c6 363e d660 d13d
000003d0: a89d a13e ca06 5cbc 576b 883f c55e 393e
000003e0: 6122 403f 5c0d 5cbe af22 763e da82 dd3e
000003f0: 7387 923f 4dd0 5a3d ff8f cc3e f19c 953e

lstm.bias_hh_l0 f4 [256]
0.08029294 0.45240763 0.83422565 0.735424 0.5293138 0.78927535 0.6522814 0.85246366
-0.052036628 0.74662495 0.5112622 0.35147944 0.65158004 0.7878061 0.7687678 0.22675987
0.32420173 1.0691671 0.46064404 0.7436952 0.52817917 0.77334714 0.8868152 0.77956104
0.65707016 0.91510016 0.44049475 -0.24305756 0.2569011 1.1887345 1.2240704 0.3246601
1.0889208 -0.014029419 0.57699144 0.8572972 0.6048064 0.8105983 0.4796608 0.52954924
1.0638624 1.08003 0.42906064 0.4477084 0.55788636 0.721456 0.8681823 0.25114062
0.72814405 0.7316364 0.9870709 0.40794533 0.8102082 0.121657185 0.4564187 -0.1747023
0.36024836 0.041296393 0.5211874 1.3452585 0.8067357 0.37841925 0.8420261 0.41956043
-0.2881549 0.20766367 0.34829587 0.1589859 0.39412668 -0.19084029 -0.04688799 0.06075221
0.5021636 0.18792002 0.5142832 0.20528412 -0.3162601 0.34422272 0.007042001 0.006265956
0.1890156 -0.2989625 0.29378077 0.013578522 0.03937409 -0.026937967 -0.10104099 -0.17271774
0.17736174 0.08419507 -0.381108 0.03468286 -0.16119944 -0.061730377 0.450249 0.15670061
0.35096344 0.0032530467 -0.01271407 0.057525028 -0.013997421 0.23720813 0.19687726 0.10485719
-0.1126597 0.10176352 0.036884837 0.13978744 -0.057599112 -0.00703134 0.6534573 -0.04322643
-0.14113767 -0.1856404 -0.05151073 -0.22395056 -0.21834826 0.09717141 0.1199233 0.35581675
-0.08990937 0.23633982 -0.15380542 0.24906693 0.21656206 0.485789 -0.024393437 0.5748364
-0.04379499 0.1704543 -0.26623836 0.16489999 0.35966465 -0.2360574 -0.1038314 0.26672992
0.015761465 -0.0043974263 0.101166286 -0.35882616 -0.005111184 -0.18230249 0.19311292 -0.12475813
-0.19948334 0.022232415 -0.00086237985 0.12793607 0.10538683 0.06633505 -0.11295359 -0.002224466
-0.15047906 0.02745769 -0.14046589 -0.06752696 -0.15229227 -0.009002509 -0.25087017 0.12613848
-0.13221224 0.0055529573 -0.21123429 -0.0003071917 0.011663849 0.077439055 -0.01821714 0.07081865
-0.07305745 0.025498332 0.13574924 -0.079871505 -0.17556393 -0.11793837 -0.13339394 0.050441515
0.04019065 0.14401495 -0.23793396 -0.015804546 -0.19338757 0.07136865 0.02892795 0.08158523
0.09918567 -0.009311947 -0.01724114 -0.026290605 0.004562398 -0.04132974 -0.02856946 -0.13048679
0.41777727 0.48041627 0.4757334 0.56606627 0.1694897 0.5290422 0.75830674 0.13569227
-0.1292013 0.10770634 0.20849752 -0.23373803 0.3375393 -0.14323881 0.6058466 0.6102411
-0.06986848 0.1773856 -0.005843833 0.2275106 0.1665417 -0.033829655 0.0019348742 0.576716
-0.028447958 0.11147508 -0.1354183 0.037590165 0.02408325 0.57504684 0.45737132 0.6970578
0.3972442 0.504173 0.020270353 0.44881666 0.28929973 0.27920097 -0.26454717 0.13101156
0.15294805 0.25343978 0.19924557 0.27057758 0.69014883 0.25751784 -0.45244193 0.31195596
0.96047854 0.6443196 0.121121645 0.2899626 0.22872546 0.20149285 0.95791215 0.19755961
0.8753914 -0.22857168 0.23844655 0.5508709 1.2280424 -0.054647814 0.30657846 0.2806267
00000000: a070 a43d f9a1 e73e d08f 553f bf44 3c3f
00000010: 1c81 073f f30d 4a3f eafb 263f 0f3b 5a3f
00000020: 5c24 55bd d022 3f3f 14e2 023f 1df5 b33e
00000030: f3cd 263f a9ad 493f f7cd 443f bd33 683e
00000040: c5fd a53e 78da 883f 89d9 eb3e cf62 3e3f
00000050: c036 073f 14fa 453f 5206 633f 5091 473f
00000060: c035 283f 0144 6a3f 8788 e13e 15e4 78be
00000070: 8a88 833e 7428 983f 57ae 9c3f d939 a63e
00000080: c261 8b3f a6db 65bc b6b5 133f d477 5b3f
00000090: 98d4 1a3f 5f83 4f3f 1a96 f53e 8a90 073f
000000a0: a52c 883f 6c3e 8a3f d6ad db3e 093a e53e
000000b0: a4d1 0e3f 57b1 383f 3241 5e3f 8195 803e
000000c0: a667 3a3f 864c 3b3f aeb0 7c3f 36de d03e
000000d0: ce69 4f3f 6727 f93d b6af e93e 29e5 32be
000000e0: 7972 b83e 6826 293d 8a6c 053f 6e31 ac3f
000000f0: 3b86 4e3f 2bc0 c13e 068f 573f a0d0 d63e
00000100: 0a89 93be c9a5 543e d653 b23e 33cd 223e
00000110: f9ca c93e a36b 43be 9f0d 40bd 4fd7 783d
00000120: cb8d 003f 1b6e 403e 10a8 033f 0036 523e
00000130: d8ec a1be f63d b03e 96c0 e63b a652 cd3b
00000140: 4e8d 413e 9d11 99be 6f6a 963e 7378 5e3c
00000150: ba46 213d 03ad dcbc 94ee cebd ebdc 30be
00000160: 519e 353e 776e ac3d 9620 c3be 9d0f 0e3d
00000170: 7711 25be fed8 7cbd 0987 e63e 2076 203e
00000180: 7bb1 b33e 1131 553b ad4e 50bc 5d9f 6b3d
00000190: 7055 65bc b0e6 723e 319a 493e 5ebf d63d
000001a0: 21ba e6bd 6469 d03d 8e14 173d 7024 0f3e
000001b0: 0ced 6bbd 2867 e6bb fa48 273f 320e 31bd
000001c0: 6586 10be 8418 3ebe eafc 52bd 4c53 65be
000001d0: b096 5fbe ce01 c73d 599a f53d 9d2d b63e
000001e0: 6722 b8bd 1103 723e 2b7f 1dbe 670b 7f3e
000001f0: 72c2 5d3e 56b9 f83e bfd4 c7bc 7a28 133f
00000200: 6062 33bd 928b 2e3e 6550 88be 8bdb 283e
00000210: f725 b83e 08b9 71be 8fa5 d4bd d390 883e
00000220: 301e 813c 4918 90bb 4530 cf3d 10b8 b7be
00000230: b87b a7bb 81ad 3abe 65bf 453e 3181 ffbd
00000240: 5c45 4cbe c120 b63c 5511 62ba ac01 033e
00000250: 0dd5 d73d acda 873d 3654 e7bd 59c8 11bb
00000260: 2f17 1abe f3ee e03c 4ad6 0fbe 934b 8abd
00000270: 81f2 1bbe 427f 13bc 0e72 80be 722a 013e
00000280: a562 07be 95f5 b53b cd4d 58be 920e a1b9
00000290: bb19 3f3c 5e98 9e3d 1d3c 95bc 5e09 913d
000002a0: 259f 95bd e1e1 d03c d901 0b3e ac93 a3bd
000002b0: 08c7 33be ac89 f1bd 6c98 08be c39b 4e3d
000002c0: f39e 243d a878 133e f6a4 73be 8978 81bc
000002d0: 6407 46be ba29 923d 4ffa ec3c 2816 a73d
000002e0: db21 cb3d 2391 18bc 4b3d 8dbc 655f d7bc
000002f0: 2b80 953b 6049 29bd 800a eabc 549e 05be
00000300: e7e6 d53e 1ff9 f53e 5493 f33e b8e9 103f
00000310: b58e 2d3e 4f6f 073f 6420 423f eaf2 0a3e
00000320: 584d 04be 2495 dc3d 6080 553e 0659 6fbe
00000330: f3d1 ac3e 32ad 12be c318 1b3f c338 1c3f
00000340: 3517 8fbd 92a4 353e a07d bfbb 8af8 683e
00000350: e889 2a3e f790 0abd 9b9b fd3a a9a3 133f
00000360: b10b e9bc 0c4d e43d 18ab 0abe 25f8 193d
00000370: 3c4a c53c 4536 133f 932c ea3e 6172 323f
00000380: 9763 cb3e 7b11 013f 030e a63c 4ccb e53e
00000390: 181f 943e 6ef3 8e3e ba72 87be e527 063e
000003a0: 6a9e 1c3e dcc2 813e 0807 4c3e 2589 8a3e
000003b0: 98ad 303f 61d9 833e 78a6 e7be b1b8 9f3e
000003c0: ece1 753f 21f2 243f a00e f83d fa75 943e
000003d0: 0237 6a3e 2454 4e3e bb39 753f 114d 4a3e
000003e0: a719 603f b20e 6abe 552b 743e e005 0d3f
000003f0: 7e30 9d3f 63d6 5fbd daf7 9c3e 4eae 8f3e

lstm.weight_ih_l1 f4 [256, 64]
-0.6323757 -0.103014156 0.12640242 0.37196508 -0.046397228 0.22173958 0.16600063 -0.0478369
-0.24770994 0.21455522 -0.043978482 -0.3442425 0.43951914 -0.21419673 -0.17149998 -0.39476222
0.028469406 0.06625619 0.07239489 0.18402298 -0.31475222 0.05871583 -0.28102034 -0.18215087
0.19788298 0.03561338 0.26431164 -0.12874259 -0.19779642 -0.006396297 0.023488129 -0.06571559
0.21567167 -0.07246904 -0.025303347 0.07503089 0.58865434 0.1350059 -0.2172306 0.22825871
-0.23158003 0.35172787 0.29379654 -0.02325765 0.16233 0.3633363 -0.16372824 0.14181095
0.17271075 0.33831993 -0.1888959 -0.055942286 -0.30035335 0.38414586 0.1569433 0.034734357
-0.042153396 -0.5085506 0.03603268 -0.22401668 -0.023717389 0.20048845 0.14829779 0.19523993
0.16649252 0.030724293 -0.4842078 1.0660627 -0.005850727 -0.09417444 -0.4963779 -0.16712901
0.5149849 -0.40142366 -0.35755515 0.100568384 -0.089291565 0.4134505 0.3353327 -0.34982818
0.13696177 -0.25925428 0.17376906 0.24752222 0.17608722 0.5154993 0.01444306 0.01168114
-0.25858334 0.11691526 0.8540904 -0.0913932 0.29396325 0.31676328 0.009885979 -0.021171365
0.13944949 0.07192206 0.22417828 0.35463175 -0.3169667 -0.66429746 -0.7463904 -0.30085394
-0.3021284 -0.038208444 0.6330474 0.12950781 0.4374427 -0.06657169 0.19384116 0.38537452
-0.15113682 0.17406887 -0.37147477 -0.20537633 -0.22425315 0.52490985 -0.23756471 -0.12984826
0.21532117 -0.21316256 -0.20483984 -0.081783734 0.3212115 0.47067788 0.24187815 -0.08173587
-0.5127514 -0.14829665 -0.2233844 -0.18576896 -0.03810161 -0.0047422503 0.12818915 0.2782454
0.393324 0.1476711 -0.13867773 -0.31711993 0.18525371 0.63087344 0.019776855 -0.22148585
-0.027908161 0.3006529 -0.13136543 -0.21275948 0.2868192 -0.33442286 0.3817894 -0.030292034
-0.0027071335 -0.17763627 -0.15672053 -0.31464502 0.70162743 0.10507619 -0.06599464 -0.07153161
-0.23691641 0.111725375 -0.100732446 -0.41187418 -0.52648354 0.38753742 -0.09034565 -0.03159538
-0.27766758 -0.27457467 0.15057088 0.069227815 0.22155283 -0.25262257 0.03685583 0.2196921
0.03398669 -0.39126998 0.27706432 -0.005945592 -0.20646672 0.32194528 0.21169029 0.29293427
0.41593266 0.21644989 0.13415249 0.23015174 -0.24345075 0.00070598855 0.28296307 0.0026460898
0.30942053 0.0008159961 0.31104374 0.16378681 -0.34061262 -0.30137107 0.93672836 0.71000594
0.2523459 0.19473869 -0.015038718 -0.2517543 -0.047833126 0.27771813 0.039726853 -0.21940872
-0.31319705 0.42731997 0.072751656 -0.2891673 1.3101071 -0.14878388 0.38162327 0.25026128
0.09903485 -0.04484809 0.18383792 1.3183289 -0.26001766 -0.18609071 0.00836933 -0.1723752
-0.6257562 0.01422383 0.27360794 0.2012691 0.38040632 0.94577295 -0.31249243 -0.47601297
-0.21859309 -0.41111487 -0.009323548 0.030317834 -0.52849597 -0.24199447 -0.28667018 -0.10654396
0.07311055 -0.003742908 0.078545325 0.93101627 0.31197956 0.088528365 0.046330355 0.11184315
-0.229062 0.56682175 0.3333093 -0.05660062 -1.0969285 -0.1660892 0.3027119 0.14524624
00000000: 60e3 21bf 16f9 d2bd a36f 013e 3572 be3e
00000010: 050b 3ebd b30f 633e 12fc 293e a0f0 43bd
00000020: ada7 7dbe 5db4 5b3e c822 34bd 8e40 b0be
00000030: a708 e13e 6356 5bbe b19d 2fbe 461e cabe
00000040: ac38 e93c 53b1 873d c643 943d 8570 3c3e
00000050: 3427 a1be 0380 703d e6e1 8fbe c285 3abe
00000060: d6a1 4a3e 56df 113d db53 873e 19d5 03be
00000070: 258b 4abe 0798 d1bb 2d6a c03c e595 86bd
00000080: 09d9 5c3e a66a 94bd f748 cfbc cca9 993d
00000090: 0db2 163f fd3e 0a3e b371 5ebe a7bc 693e
000000a0: 5123 6dbe ad15 b43e 806c 963e d486 bebc
000000b0: d639 263e 3707 ba3e 60a8 27be e436 113e
000000c0: 16db 303e 4538 ad3e ed6d 41be bd23 65bd
000000d0: eac7 99be c4ae c43e bfb5 203e 9d45 0e3d
000000e0: 0aa9 2cbd 5f30 02bf 0197 133d a164 65be
000000f0: f84a c2bc d84c 4d3e 60db 173e faec 473e
00000100: 047d 2a3e 83b1 fb3c 16ea f7be be74 883f
00000110: 75b7 bfbb 87de c0bd 3e25 febe de23 2bbe
00000120: 0dd6 033f 6787 cdbe 7811 b7be ccf6 cd3d
00000130: 7fde b6bd c9af d33e bab0 ab3e ae1c b3be
00000140: b53f 0c3e fabc 84be 84f0 313e 7776 7d3e
00000150: 3550 343e c3f7 033f 96a2 6c3c 4162 3f3c
00000160: 0965 84be 4571 ef3d aba5 5a3f 5c2c bbbd
00000170: 5a82 963e cc2e a23e cdf8 213c 926f adbc
00000180: d9cb 0e3e df4b 933d fe8e 653e 4b92 b53e
00000190: 7649 a2be 660f 2abf 7113 3fbf 8709 9abe
000001a0: 93b0 9abe 7580 1cbd 650f 223f b29d 043e
000001b0: 7df8 df3e bd56 88bd 4c7e 463e cf4f c53e
000001c0: 9cc3 1abe 1c3f 323e f131 bebe 2c4e 52be
000001d0: 9ea2 65be 7e60 063f 2a44 73be f1f6 04be
000001e0: 277d 5c3e 4947 5abe 89c1 51be 3b7e a7bd
000001f0: d575 a43e b1fc f03e e8ae 773e 2365 a7bd
00000200: ad43 03bf 14db 17be e1be 64be 383a 3ebe
00000210: 6f10 1cbd e164 9bbb 0444 033e 2e76 8e3e
00000220: c361 c93e 1837 173e 8901 0ebe 8b5d a2be
00000230: 26b3 3d3e ec80 213f 1203 a23c 30cd 62be
00000240: a89f e4bc 2def 993e a984 06be 9fdd 59be
00000250: f7d9 923e 7939 abbe e679 c33e 0027 f8bc
00000260: 2a6a 31bb 48e6 35be 597b 20be 2719 a1be
00000270: db9d 333f 2f32 d73d 3328 87bd 2a7f 92bd
00000280: 379a 72be 46d0 e43d d04c cebd 2ce1 d2be
00000290: a0c7 06bf 4e6b c63e 2407 b9bd 286a 01bd
000002a0: 722a 8ebe 0d95 8cbe 412f 1a3e 50c7 8d3d
000002b0: bfde 623e bf57 81be 24f6 163d f7f6 603e
000002c0: a135 0b3d 8a54 c8be 60db 8d3e 3ed3 c2bb
000002d0: 036c 53be 03d6 a43e 57c5 583e 7bfb 953e
000002e0: 20f5 d43e 0aa5 5d3e 455f 093e e6ac 6b3e
000002f0: 274b 79be 1712 393a 89e0 903e 056a 2d3b
00000300: 5e6c 9e3e 92e8 553a 2041 9f3e bbb7 273e
00000310: c764 aebe 4f4d 9abe 6ecd 6f3f f3c2 353f
00000320: 7b33 813e 9469 473e f464 76bc f1e5 80be
00000330: abec 43bd 1231 8e3e a0b8 223d aeac 60be
00000340: 5d5b a0be afc9 da3e d2fe 943d bd0d 94be
00000350: 97b1 a73f cd5a 18be 2064 c33e 3f22 803e
00000360: c9d2 ca3d a1b2 37bd 0240 3c3e 00bf a83f
00000370: 0921 85be 908e 3ebe 841f 093c 2083 30be
00000380: 8f31 20bf 110b 693c 5716 8c3e 7d19 4e3e
00000390: 9ec4 c23e 2d1e 723f 02ff 9fbe f9b7 f3be
000003a0: ded6 5fbe a67d d2be cbc1 18bc 1b5d f83c
000003b0: 834b 07bf 66cd 77be 6fc6 92be b833 dabd
000003c0: fcba 953d 934b 75bb 5fdc a03d 1557 6e3f
000003d0: c9bb 9f3e 5c4e b53d e6c4 3d3d 050e e53d
000003e0: 3b8f 6abe 3b1b 113f 84a7 aa3e 0dd6 67bd
000003f0: 2768 8cbf 4a13 2abe 0efd 9a3e 6ebb 143e

lstm.weight_hh_l1 f4 [256, 64]
0.7144 -0.10245961 0.108896084 0.35809204 -0.5424327 0.873327 -0.08091263 -0.29894167
-0.67643166 -0.8689264 -0.50378156 -0.7010597 0.8287831 -0.54831105 0.66841316 -1.351961
-0.06510243 -0.013052004 -0.10576458 -0.8207861 0.2615743 -0.28408706 -0.05472404 1.5984044
-0.51812583 -0.041658867 -0.4186089 0.007172837 0.35865092 -0.4941482 -0.48161086 0.87897
0.10616588 -0.3244606 -0.70568156 0.07101555 0.33945516 -1.0981487 -0.3042624 1.1369604
-0.004000012 -0.59581393 0.15508598 1.0353993 0.19757262 -0.09249552 0.83294046 0.19792357
-0.2549191 1.6108686 -0.2885817 -0.5714661 -1.0624522 1.1187177 0.6652994 0.7715099
0.60241324 0.6274997 1.0803981 0.7083873 0.8723671 0.7156191 0.5592333 -1.5644394
-1.1562084 -0.33156836 0.061640754 0.42138368 -0.011770667 -1.431009 -0.41505578 0.07288233
-0.4046541 0.32922924 -0.9575653 -0.21094573 -0.6276883 1.0371413 0.27277946 -0.340978
-0.28103346 0.9522902 -0.8013449 0.38119206 -0.538023 0.6379757 0.111328915 -0.11835244
0.8831743 1.2717988 -0.4034314 0.020409504 -0.24093601 1.0304809 0.23141143 -1.132238
0.6627269 0.63182706 0.21722987 -1.8934709 0.040640146 0.7178026 0.57401735 0.6207305
0.82223135 0.9681144 -0.14636488 0.22434194 1.1785443 -0.52623 -0.229549 0.9059676
0.49045128 0.28011695 -1.3385227 -0.8498494 -0.39148486 0.80113167 -0.043277834 -1.5751665
-1.0580473 -0.71597475 0.30095077 0.64682776 -0.47567153 -1.0260571 -1.3518217 -2.048444
0.7320581 0.2960554 0.23554201 0.5369203 -0.51874423 0.31714943 0.4966269 -0.21658097
0.11822744 1.0645156 0.68192184 0.1313382 -0.06930911 0.39078996 0.15689385 0.0054100296
0.28648514 -0.027252898 -0.20032194 -0.0012349851 -0.17092952 -0.121728435 0.56434566 0.014021569
-0.24857038 0.25843936 -1.3681418 -0.45144504 -0.638833 -0.79887456 -0.6741394 0.34137774
0.5232 -0.91177505 0.7127972 0.5398921 0.7279303 0.5097185 0.5943817 -0.8904678
-0.73013866 0.20751688 -1.1995243 -2.6006622 -0.5793946 -0.3879522 0.5802276 -0.69340813
-0.1910544 -0.10333467 -0.30307657 0.69658595 -0.34906074 -0.12456095 0.06164752 -0.11274887
-0.5574796 -1.8742899 0.32251048 0.5955559 -0.14643522 -0.005725275 -0.46862853 -0.2840345
-1.5048305 1.0510764 -0.8073262 0.5794668 -0.9468912 -0.85110414 -0.6986185 0.061876193
0.922959 1.4416516 2.5237536 0.36384174 -0.49447203 1.1553111 0.6425859 0.41035464
-1.195502 -1.3019516 1.1920459 -1.2875333 -0.053870417 -1.016705 -0.65148264 -0.345043
-0.8087962 -0.9148939 0.7468769 -1.5229349 0.41307834 0.08627328 -1.252844 0.12296746
-0.47341478 0.99577785 0.19463688 -1.2822026 0.33498544 -1.1981238 0.19712846 -0.4741107
-0.10783261 -0.38923392 -1.8426068 0.3766478 -2.8842192 0.5022429 -0.7768833 -0.29568207
-1.2134453 0.87718576 0.6576678 1.1548878 -0.4825936 -0.3426308 -1.116068 0.9024294
-0.7860095 -0.36349213 -0.24381922 0.5920903 0.052041605 1.5037608 -1.997791 0.458237
00000000: ebe2 363f 58d6 d1bd e904 df3d d757 b73e
00000010: dfdc 0abf 5c92 5f3f 85b5 a5bd e20e 99be
00000020: a02a 2dbf f671 5ebf d4f7 00bf a678 33bf
00000030: 212b 543f 1d5e 0cbf 201d 2b3f 0f0d adbf
00000040: 6c54 85bd 13d8 55bc 1a9b d8bd 0a1f 52bf
00000050: 11ed 853e dc73 91be 5126 60bd 8498 cc3f
00000060: e5a3 04bf 7da2 2abd e853 d6be 1e0a eb3b
00000070: 18a1 b73e fe00 fdbe b395 f6be 2e04 613f
00000080: 7f6d d93d b31f a6be 8ca7 34bf 9a70 913d
00000090: 11cd ad3e 2390 8cbf 48c8 9bbe eb87 913f
000000a0: 8812 83bb 4387 18bf dcce 1e3e f787 843f
000000b0: 7a50 4a3e 4b6e bdbd 963b 553f 7aac 4a3e
000000c0: c284 82be f130 ce3f fbc0 93be 9a4b 12bf
000000d0: 6ffe 87bf 2432 8f3f 1051 2a3f ac81 453f
000000e0: c137 1a3f d2a3 203f 7c4a 8a3f df58 353f
000000f0: 7353 5f3f d032 373f ea29 0f3f 8d3f c8bf
00000100: a3fe 93bf 54c3 a9be 047b 7c3d 9abf d73e
00000110: c1d9 40bc 4e2b b7bf 3182 d4be 5543 953d
00000120: d22e cfbe bc90 a83e 0023 75bf 2802 58be
00000130: 2eb0 20bf 0cc1 843f c0a9 8b3e ab94 aebe
00000140: 9ee3 8fbe 4ac9 733f f024 4dbf 9b2b c33e
00000150: e0bb 09bf 6052 233f 6a00 e43d c462 f2bd
00000160: b617 623f 4eca a23f 8f8e cebe d531 a73c
00000170: eeb7 76be cce6 833f 1ef7 6c3e 2ded 90bf
00000180: 78a8 293f 6bbf 213f 8271 5e3e 415d f2bf
00000190: 4876 263d e9c1 373f cdf2 123f 32e8 1e3f
000001a0: c17d 523f 58d6 773f ade0 15be e5b9 653e
000001b0: 8ada 963f 02b7 06bf e50e 6bbe 7eed 673f
000001c0: 6e1c fb3e 7d6b 8f3e b654 abbf bb8f 59bf
000001d0: b470 c8be f716 4d3f 1944 31bd 0e9f c9bf
000001e0: 186e 87bf 1f4a 37bf 3816 9a3e 8196 253f
000001f0: 388b f3be d755 83bf 7e08 adbf b519 03c0
00000200: 2968 3b3f 9394 973e ed31 713e 9c73 093f
00000210: 6ccc 04bf 6961 a23e e245 fe3e 67c7 5dbe
00000220: 3a21 f23d 0c42 883f 6e92 2e3f 857d 063e
00000230: eff1 8dbd 9f15 c83e c8a8 203e 9e46 b13b
00000240: 2eae 923e 7841 dfbc 3221 4dbe 39df a1ba
00000250: 2608 2fbe c24c f9bd f578 103f b9ba 653c
00000260: 3c89 7ebe 2a52 843e 451f afbf ce23 e7be
00000270: 8f8a 23bf 0b83 4cbf 6694 2cbf 10c9 ae3e
00000280: 6ff0 053f 176a 69bf e179 363f 5e36 0a3f
00000290: a459 3a3f e97c 023f 6629 183f b3f5 63bf
000002a0: 5eea 3abf 4e7f 543e 038a 99bf 4071 26c0
000002b0: 3453 14bf aca1 c6be cc89 143f 3283 31bf
000002c0: c4a3 43be 21a1 d3bd da2c 9bbe 7553 323f
000002d0: 17b8 b2be d019 ffbd 1c82 7c3d e1e8 e6bd
000002e0: fcb6 0ebf bbe8 efbf 1820 a53e 5a76 183f
000002f0: 1df3 15be 169b bbbb 14f0 efbe f86c 91be
00000300: 499e c0bf ac89 863f eeac 4ebf f057 143f
00000310: 7667 72bf f6e1 59bf a9d8 32bf e471 7d3d
00000320: 0b47 6c3f 0a88 b83f 2e85 2140 7749 ba3e
00000330: 702b fdbe 3ce1 933f 8280 243f 011a d23e
00000340: 3606 99bf 5aa6 a6bf f694 983f e4cd a4bf
00000350: 3aa7 5cbd 6423 82bf 91c7 26bf 7aa9 b0be
00000360: 450d 4fbf 7d36 6abf 5333 3f3f 88ef c2bf
00000370: 017f d33e 0cb0 b03d 315d a0bf 5dd6 fb3d
00000380: 6c63 f2be 4ceb 7e3f e44e 473e 371f a4bf
00000390: 3683 ab3e 1f5c 99bf 0bdc 493e a3be f2be
000003a0: 58d7 dcbd ab49 c7be 8ada ebbf fbd7 c03e
000003b0: 0c97 38c0 fe92 003f d3e1 46bf a463 97be
000003c0: 2d52 9bbf 3f8f 603f eb5c 283f 5dd3 933f
000003d0: 8216 f7be 4e6d afbe 51db 8ebf 9d05 673f
000003e0: eb37 49bf a41b babe bfab 79be 3b93 173f
000003f0: 9429 553d 3c7b c03f 9eb7 ffbf 0a9e ea3e

lstm.bias_ih_l1 f4 [256]
1.1913055 1.0430996 0.3238875 -0.10745302 0.3565776 -0.51173 0.18951438 -0.055334244
-0.39994353 -0.06279311 0.47815004 -0.3462059 0.22501019 0.55390924 0.6760112 0.85879964
0.5438409 0.40413606 0.5165051 0.4561138 0.22783285 0.1321747 0.22163028 0.20947719
0.30304655 -0.34459606 0.07382637 0.88486016 0.90219134 0.08800322 0.9776251 0.06231444
0.38438845 0.734269 0.81251913 -0.616011 0.02360861 0.07757311 -0.39173257 1.4284654
-0.1397989 0.5762235 0.3366179 0.5435423 1.738654 0.9225514 -0.48991948 0.23758686
-0.78253865 0.07740669 0.42793375 0.1957823 -0.021130823 -0.29614943 0.56074136 0.6584249
0.2635669 0.69692284 0.9435262 -0.6693617 -0.1808758 1.2317141 0.33555925 -0.1338994
-0.6230743 -0.09766815 -0.9179185 0.02283615 -0.023043072 0.30197752 -0.5863782 -0.42191827
-0.30735904 -0.23720415 0.40590602 -0.29427627 -0.27549037 0.30849838 -0.47313747 -0.49929404
0.465656 -0.5687267 0.4105233 -0.17729726 0.338802 -0.51253957 -0.34118396 -0.28281555
0.27753782 -0.63030094 -0.74377406 -1.0931269 -0.64500886 -1.146917 -0.5422895 0.31982073
0.08503525 -0.47887343 -0.10744251 0.41903883 -0.5930341 0.082606144 -0.6357803 0.17058149
-0.5385869 0.114919625 0.26130208 0.0014822155 0.44025627 -0.19532861 0.36667284 0.60081035
0.039337844 -0.77312 0.002376017 0.037668496 -0.6704408 -0.16296639 -0.08074301 -0.17940044
-0.49559858 -0.073386125 0.96778536 -0.4723326 0.51968426 0.37429643 0.7576068 -0.92861503
-0.14540543 -0.17404059 0.17245238 -0.12003154 0.1032336 -0.48206255 0.119803146 -0.18813191
-0.3591497 0.050194565 0.030151503 0.3524731 -0.2445929 0.14433698 -0.18994477 0.052330248
0.49916127 -0.103224374 -0.01540009 -0.14977969 0.18992575 -0.12019617 0.0826667 0.005248297
-0.21323082 0.03490381 0.13831191 0.64644706 0.30998996 0.37838528 0.15176818 -0.15855171
-0.069069795 0.35974205 0.08460358 0.257495 -0.059574753 -0.039290283 -0.20462123 0.1178019
0.49614692 -0.118151344 -0.11448515 -0.31007037 0.09015736 -0.38446385 -0.4975183 0.07356625
-0.026856774 0.28132853 0.0065534343 -0.20188023 -0.018777372 -0.47473153 0.4186559 0.24655128
0.26199347 0.095716 -0.120684765 0.15376015 0.368188 0.5881373 -0.27191007 0.22848304
0.19816005 0.096357554 -0.124238275 -0.5751468 0.10529858 1.0134293 0.32755753 0.40898305
0.33419934 -0.05806627 -0.40335277 0.64870936 0.63261664 -0.35983986 1.346149 0.4345321
0.43790466 -0.6593851 0.24426262 -0.13606755 -0.13047937 0.76721925 -0.49236524 -0.17015986
-0.040488183 -0.08597892 0.42959806 0.9469632 0.6872017 0.630412 0.83079225 0.098212905
-0.41995546 1.1145582 -0.6711707 0.52948236 1.4538902 -0.13043739 0.0759021 0.055260073
-0.11368384 0.05681006 -1.4208778 0.18021153 0.27012998 0.40373015 0.2994575 -0.23122253
0.54578745 0.12462256 0.27005845 0.61479044 0.62409145 -0.8506101 -0.03899284 0.2307246
0.46719924 -0.7716155 -0.23506132 0.45266196 0.02674148 -0.29250276 -0.08240178 0.66677105
00000000: b37c 983f 4a84 853f 95d4 a53e 5410 dcbd
00000010: 5791 b63e bd00 03bf 0f10 423e 29a6 62bd
00000020: 66c5 ccbe ad99 80bd 15d0 f43e e641 b1be
00000030: 1269 663e ffcc 0d3f 120f 2d3f 4bda 5b3f
00000040: 2839 0b3f ecea ce3e ae39 043f bf87 e93e
00000050: 044d 693e ce58 073e 0cf3 623e 3081 563e
00000060: eb28 9b3e e56e b0be 4832 973d 3286 623f
00000070: 03f6 663f 083b b43d a345 7a3f 6d3d 7f3d
00000080: 90ce c43e 0ef9 3b3f 4101 503f e6b2 1dbf
00000090: d866 c13c a7de 9e3d 2c91 c8be f4d7 b63f
000000a0: 7127 0fbe 6283 133f 2e59 ac3e 9725 0b3f
000000b0: 378c de3f 542c 6c3f bad6 fabe f849 733e
000000c0: 7454 48bf 6687 9e3d 221a db3e 287b 483e
000000d0: 8c1a adbc e6a0 97be bf8c 0f3f 898e 283f
000000e0: 3ef2 863e 8969 323f ef8a 713f 4a5b 2bbf
000000f0: 8137 39be cfa8 9d3f 6cce ab3e ed1c 09be
00000100: cc81 1fbf 3d06 c8bd b5fc 6abf e112 bb3c
00000110: d3c4 bcbc cc9c 9a3e e21c 16bf ac05 d8be
00000120: 2a5e 9dbe a5e5 72be ead2 cf3e 61ab 96be
00000130: 130d 8dbe 80f3 9d3e 133f f2be 78a3 ffbe
00000140: 776a ee3e 1398 11bf 1c30 d23e 6a8d 35be
00000150: 7577 ad3e cb35 03bf aaaf aebe 33cd 90be
00000160: 7019 8e3e 675b 21bf fa67 3ebf 95eb 8bbf
00000170: 4d1f 25bf 2dce 92bf 7cd3 0abf 8bbf a33e
00000180: f626 ae3d e62e f5be d20a dcbd 428c d63e
00000190: 15d1 17bf 692d a93d 7fc2 22bf eaac 2e3e
000001a0: d5e0 09bf fb5a eb3d 63c9 853e e646 c23a
000001b0: 4569 e13e 3904 48be 8bbc bb3e b5ce 193f
000001c0: b820 213d 31eb 45bf f3b6 1b3b 484a 1a3d
000001d0: 02a2 2bbf a9e0 26be 975c a5bd c0b4 37be
000001e0: 19bf fdbe 774b 96bd c8c0 773f 94d5 f1be
000001f0: 070a 053f c8a3 bf3e 85f2 413f b7b9 6dbf
00000200: 29e5 14be b237 32be 5b97 303e 19d3 f5bd
00000210: 236c d33d e7d0 f6be 5a5b f53d a7a5 40be
00000220: 78e2 b7be d198 4d3d 4900 f73c 5b77 b43e
00000230: 9076 7abe 13cd 133e e280 42be 3e58 563d
00000240: 1192 ff3e 4d67 d3bd a950 7cbc d95f 19be
00000250: e57b 423e 6929 f6bd 294d a93d e8f9 ab3b
00000260: 2e59 5abe 4cf7 0e3d a3a1 0d3e 8e7d 253f
00000270: 01b7 9e3e b7bb c13e 1e69 1b3e 615b 22be
00000280: 7774 8dbd 1c30 b83e a444 ad3d 62d6 833e
00000290: a804 74bd d9ee 20bd 3a88 51be 1f42 f13d
000002a0: f806 fe3e 55f9 f1bd 3177 eabd 8bc1 9ebe
000002b0: 6ca4 b83d 72d8 c4be b8ba febe e7a9 963d
000002c0: bd02 dcbc 4b0a 903e 31be d63b b1b9 4ebe
000002d0: 01d3 99bc 0310 f3be 115a d63e f077 7c3e
000002e0: 0224 863e c006 c43d 9329 f7bd 4d73 1d3e
000002f0: 2383 bc3e 2b90 163f cc37 8bbe 75f7 693e
00000300: 78ea 4a3e 1c57 c53d a370 febd d23c 13bf
00000310: c8a6 d73d 0db8 813f 9fb5 a73e 3a66 d13e
00000320: 2d1c ab3e e6d6 6dbd 4184 cebe d111 263f
00000330: 2af3 213f ee3c b8be 9c4e ac3f fe7a de3e
00000340: 0a35 e03e 76cd 28bf fb1f 7a3e 4b55 0bbe
00000350: 629c 05be 7b68 443f 4c17 fcbe 633e 2ebe
00000360: f0d6 25bd b715 b0bd 47f4 db3e 2e6c 723f
00000370: 73ec 2f3f ae62 213f cdae 543f d923 c93d
00000380: 6704 d7be d8a9 8e3f d8d1 2bbf 288c 073f
00000390: 1319 ba3f 6191 05be 8f72 9b3d 6358 623d
000003a0: 13d3 e8bd aab1 683d 53df b5bf 5f89 383e
000003b0: 7a4e 8a3e b8b5 ce3e 7e52 993e 99c5 6cbe
000003c0: bab8 0b3f 1d3a ff3d 1a45 8a3e e862 1d3f
000003d0: 75c4 1f3f 95c1 59bf f5b6 1fbd 1243 6c3e
000003e0: bd34 ef3e 9888 45bf eab3 70be 4fc3 e73e
000003f0: f310 db3c ecc2 95be 44c2 a8bd 82b1 2a3f

lstm.bias_hh_l1 f4 [256]
1.3947331 1.132411 0.54346985 -0.16895473 0.5040491 -0.3637239 0.14800298 -0.07149661
-0.27097046 -0.22859727 0.47962183 -0.40437675 0.20793879 0.40299392 0.75459224 0.9623987
0.41687462 0.43426263 0.47978616 0.40160438 0.23730229 0.07400669 0.04866861 0.1312226
0.36970374 -0.42347258 0.18946685 0.92687 0.69326395 0.29878902 0.9890787 -0.10949649
0.41177523 0.9152224 0.61415976 -0.5220793 0.17286935 -0.033624206 -0.39524227 1.2737226
-0.17744982 0.56727123 0.41369945 0.4486296 1.7894232 1.0024792 -0.41265854 0.22477935
-0.6372665 0.05474509 0.24539994 0.2806165 -0.061607677 -0.22669603 0.45885703 0.6079281
0.28217855 0.7876915 0.91829985 -0.5433535 -0.095710546 1.2180731 0.32796592 -0.2671228
-0.6787321 -0.12233066 -0.8518785 0.007742355 0.12821862 0.2795716 -0.6239186 -0.5049383
-0.30666775 -0.10930675 0.59918857 -0.4829523 -0.2784376 0.122761235 -0.43608075 -0.68491876
0.39457047 -0.52145433 0.45540035 -0.016344097 0.34300625 -0.50836414 -0.39217559 -0.363677
0.17564191 -0.5643236 -0.6859616 -1.1282654 -0.79040045 -1.0402657 -0.6218324 0.21797322
-0.13890179 -0.6515512 -0.027444074 0.4495334 -0.5049503 0.09597539 -0.71127903 -0.053072773
-0.47467422 0.34194937 0.08982439 0.06956092 0.56816083 -0.23512745 0.48847392 0.4035961
-0.15878639 -0.7140712 0.08762631 0.1052213 -0.6492574 -0.26402247 0.06680322 -0.16720714
-0.5631302 -0.13861263 0.8839992 -0.5803637 0.36217687 0.32496268 0.6242845 -0.8113547
-0.12245813 -0.27618682 0.1553419 -0.2301016 -0.08707893 -0.49490196 0.26876092 0.0419781
-0.14421624 0.12649383 -0.047226988 0.2703204 -0.053365495 0.008128603 -0.14522925 0.069260284
0.47015843 -0.09027859 -0.10671544 -0.19527818 0.20890276 0.041243877 0.08132247 0.039759204
-0.14126202 0.012541281 0.031520456 0.6015271 0.2838814 0.3137065 0.16891058 0.056463
-0.2641492 0.174879 0.16420755 0.24998663 -0.098124385 -0.031625766 -0.3030074 0.18753596
0.57865316 -0.1205691 -0.20947824 -0.3287856 0.18661873 -0.4414923 -0.4995982 -0.029037843
-0.14503634 0.1121756 -0.019958202 -0.21267399 -0.032609843 -0.4913136 0.3454367 0.26491764
0.08393211 0.060001004 0.035586778 0.10000705 0.2857949 0.6180225 -0.39790648 0.34396714
0.25672126 0.13168932 -0.23597151 -0.5244118 0.14335547 0.9245704 0.35720015 0.5092906
0.46901706 0.04970946 -0.5133026 0.7295411 0.53221476 -0.33451352 1.5312477 0.58555394
0.31881458 -0.6854465 0.2795941 -0.0027481616 -0.11509212 0.57335496 -0.53005105 -0.2532547
-0.05991496 -0.16896547 0.4829062 1.081226 0.6729451 0.7379854 0.7486831 -0.04980641
-0.50141037 1.0272801 -0.6567371 0.3341823 1.3017519 0.0039036789 0.18766993 0.16759337
0.07742532 0.17353317 -1.3843257 0.27828434 0.16738752 0.34565607 0.14237085 -0.36029685
0.67232585 0.16717517 0.26616228 0.5029364 0.47740066 -0.92838806 0.013583862 0.41964445
0.4678927 -0.7256714 -0.09758236 0.53703463 0.053438775 -0.15804388 0.042340808 0.70675904
00000000: 9d86 b23f d8f2 903f d720 0b3f 7802 2dbe
00000010: 5d09 013f 053a babe 188e 173e d16c 92bd
00000020: a4bc 8abe 6715 6abe fe90 f53e 780a cfbe
00000030: e8ed 543e 3855 ce3e f52c 413f c35f 763f
00000040: 9770 d53e ac57 de3e 88a6 f53e 179f cd3e
00000050: 5fff 723e d290 973d bd58 473d 385f 063e
00000060: cf49 bd3e 66d1 d8be 9903 423e 5a47 6d3f
00000070: bf79 313f e0fa 983e 4334 7d3f b23f e0bd
00000080: 34d4 d23e 044c 6a3f 9339 1d3f fda6 05bf
00000090: aa04 313e 89b9 09bd 325d cabe 5809 a33f
000000a0: 68b5 35be b038 113f 6ad0 d33e c7b2 e53e
000000b0: d20b e53f 3d51 803f fb47 d3be 8f2c 663e
000000c0: e623 23bf 633c 603d 1f4a 7b3e f7ac 8f3e
000000d0: 5558 7cbd 0123 68be 4fef ea3e 2da1 1b3f
000000e0: b579 903e 26a6 493f b315 6b3f 3719 0bbf
000000f0: e403 c4bd d2e9 9b3f 26eb a73e 52c4 88be
00000100: 63c1 2dbf 7f88 fabd b614 5abf 95b3 fd3b
00000110: be4b 033e 0224 8f3e 21b9 1fbf a343 01bf
00000120: 8e03 9dbe 38dc dfbd 6c64 193f 8645 f7be
00000130: 608f 8ebe 3e6a fb3d fa45 dfbe d656 2fbf
00000140: 2405 ca3e 087e 05bf 3c2a e93e 0ee4 85bc
00000150: 849e af3e 2724 02bf 3dcb c8be df33 babe
00000160: 79db 333e 8377 10bf 2e9b 2fbf 006b 90bf
00000170: af57 4abf 6d27 85bf 6830 1fbf 5f34 5f3e
00000180: 453c 0ebe 0fcc 26bf 65d2 e0bc 3e29 e63e
00000190: 6c44 01bf bf8e c43d 6216 36bf d662 59bd
000001a0: 8008 f3be fd13 af3e daf5 b73d f575 8e3d
000001b0: fd72 113f 40c5 70be 4119 fa3e 26a4 ce3e
000001c0: e698 22be 5fcd 36bf 6c75 b33d 447e d73d
000001d0: bc35 26bf f42d 87be 20d0 883d 5938 2bbe
000001e0: 4d29 10bf 78f0 0dbe c64d 623f b792 14bf
000001f0: 3f6f b93e 8261 a63e 1cd1 1f3f f1b4 4fbf
00000200: 54cb fabd 5c68 8dbe f211 1f3e c19f 6bbe
00000210: 7056 b2bd ca63 fdbe 089b 893e 3af1 2b3d
00000220: 6cad 13be 9987 013e 1671 41bd 6f67 8a3e
00000230: c795 5abd d52d 053c fab6 14be 56d8 8d3d
00000240: 9bb8 f03e fbe3 b8bd a08d dabd 01f7 47be
00000250: 9bea 553e 57ef 283d 658c a63d 8cda 223d
00000260: fea6 10be f279 4d3c 981b 013d aefd 193f
00000270: e758 913e 239e a03e e5f6 2c3e bf45 673d
00000280: 903e 87be 7b13 333e 0626 283e 7ffc 7f3e
00000290: 70f5 c8bd 058a 01bd c923 9bbe 6d09 403e
000002a0: 9d22 143f efec f6bd 7781 56be 9656 a8be
000002b0: fb18 3f3e 470b e2be 56cb ffbe c5e0 edbc
000002c0: 6884 14be 52bc e53d 627f a3bc 36c7 59be
000002d0: e691 05bd 758d fbbe 14dd b03e 49a3 873e
000002e0: 99e4 ab3d 9dc3 753d 71c3 113d 7fd0 cc3d
000002f0: b653 923e b936 1e3f 66ba cbbe 761c b03e
00000300: f870 833e 91d9 063e 84a2 71be da3f 06bf
00000310: c7cb 123e a5b0 6c3f f0e2 b63e de60 023f
00000320: 0123 f03e 269c 4b3d cd67 03bf 35c3 3a3f
00000330: 3a3f 083f 5b45 abbe edff c33f dde6 153f
00000340: aa3b a33e 6c79 2fbf f526 8f3e 801a 34bb
00000350: 6bb5 ebbd 64c7 123f 6db1 07bf 9aaa 81be
00000360: 6469 75bd 4905 2dbe 7b3f f73e 9d65 8a3f
00000370: 2146 2c3f 9cec 3c3f b2a9 3f3f ce01 4cbd
00000380: 6e5c 00bf ea7d 833f ec1f 28bf f119 ab3e
00000390: ce9f a63f ddd4 7f3b 8c2c 403e 999d 2b3e
000003a0: 2b91 9e3d aeb2 313e 9631 b1bf 497b 8e3e
000003b0: a267 2b3e d5f9 b03e aac9 113e d478 b8be
000003c0: 8c1d 2c3f f82f 2b3e 6c46 883e 71c0 003f
000003d0: dc6d f43e d7aa 6dbf d98e 5e3c a3db d63e
000003e0: a28f ef3e 9ac5 39bf 43d9 c7bd 1a7b 093f
000003f0: 9ee2 5a3d 41d6 21be 8e6d 2d3d 29ee 343f
