model/epoch_1579.pth (torch_old, 242240 bytes, 10 tensors)

lstm.weight_ih_l0 f4 [256, 20]
000000 5d e3 cb 3f ca 61 8a 3f 37 77 80 40 24 b1 3e bf
       1.5928761 1.0811093 4.0145526 -0.74489045
000010 7c 18 3b 3d 06 cc df 3e ec ac 08 3d fe f8 9a be
       0.045677647 0.43710345 0.033368036 -0.3026809
000020 92 c5 4c 3f 3f ad ee be b9 08 a6 bd 06 2d c1 be
       0.7998897 -0.4661655 -0.081071325 -0.37729663
000030 c1 6e 1f 3f 1b b5 32 bf 68 82 a7 3f 6d ea d6 be
       0.6227837 -0.69807595 1.3086672 -0.41975728
000040 4b d0 00 40 0c 65 50 3f 70 15 79 3f 2c 90 70 bf
       2.0127132 0.81404185 0.97298336 -0.9396999
000050 70 ca c3 bf 79 e9 87 3f 93 d3 7f 3f 04 8b b7 be
       -1.5296154 1.0618125 0.9993221 -0.35848248
000060 5d 90 b2 3e 24 51 1a 3f 55 85 8b 3f 41 2b fa be
       0.34875765 0.6028006 1.0900065 -0.48861125
000070 f5 ab fc 3f 0c 8f 82 3f 8b 8b 7b 3e e5 c3 04 3d
       1.9739977 1.0199904 0.2456495 0.032413382
000080 d8 3d e0 3f 26 30 6d 3f 1f 35 ec be d2 87 7e bd
       1.7518873 0.92651594 -0.46134278 -0.062141247
000090 24 78 13 bf 10 94 08 bf 88 2a 35 40 5a 8d 08 be
       -0.57605195 -0.53350925 2.830721 -0.13335171
0000a0 20 3f 2e bf 6d 8b 09 be cd f1 82 3f fe 7f cc 3f
       -0.6806507 -0.13432093 1.0230042 1.597656
0000b0 24 b9 a9 bf fd f5 3d 3f e4 02 fe be ce bb 10 bd
       -1.3259625 0.74203473 -0.4961158 -0.035335355
0000c0 15 a0 b8 3f 5e 6e 35 3e fd be b7 bd 2e a4 e8 bd
       1.4423853 0.17717883 -0.08971975 -0.1135944
0000d0 44 a4 ab 3f da 2c 0f 40 4c 43 ce 3e 2f 68 ae 3f
       1.3409505 2.2371125 0.40285718 1.3625544
0000e0 4b 0c 1c 3f 58 4f d0 be 8c d9 48 bf ce ac ee 3f
       0.6095626 -0.40685534 -0.7845695 1.8646486
0000f0 76 3a 0c 40 4f e8 b5 3f d7 b4 8f bf b3 e6 1d 3f
       2.1910682 1.421152 -1.1227063 0.61680144
000100 64 41 ef 3e c0 4b e5 bd 43 ed 1c 3f 47 3a e1 be
       0.46729577 -0.11196089 0.6129953 -0.43989775
000110 8e c9 02 c0 dc f4 7e 40 82 0f 3a 3e aa 89 b5 be
       -2.043552 3.983695 0.18169978 -0.35456592
000120 ca e7 9d 3f 21 65 69 bf 81 da 37 40 c6 c0 52 bc
       1.2336361 -0.91169935 2.8727114 -0.012863344
000130 d4 ec 92 bf 53 55 8e 3f 38 73 c2 3c 14 f2 ba 3f
       -1.1478524 1.1119789 0.023736581 1.4605126
000140 b0 e9 35 3e 8a 00 76 3e b7 38 b1 3d a9 5b 84 3c
       0.17764926 0.24023643 0.086533956 0.016156988
000150 f7 85 06 bf 48 43 81 3f 3f 2e 38 bf d9 8a c2 be
       -0.52548164 1.0098658 -0.71945566 -0.37996557
000160 1f b7 be 3e ef 83 ec 3e 6a b9 7a 3f 54 51 5b be
       0.37249085 0.46194407 0.9793917 -0.21417743
000170 0e 97 ad 3f e6 9a c7 3e 13 b6 01 40 3c cd a4 be
       1.3561723 0.38985366 2.026738 -0.3218783
000180 19 fc 9a 3e 5d 23 28 3f 05 ab 35 3f 6d 22 b3 3f
       0.3027046 0.6567896 0.7096408 1.3994881
000190 16 0f ab 3e cd 3f 3a 40 d0 1b 4a bf 7f 3f 4a 3f
       0.33409947 2.910144 -0.7894869 0.7900314
0001a0 7e 41 64 bf 83 ec 0e 3f 88 e0 5e bf 03 22 da bd
       -0.89162433 0.5582964 -0.8706136 -0.106510185
0001b0 da 30 be bd a7 ce ec 3e 85 e4 89 3d 40 eb d6 3d
       -0.092866614 0.46251413 0.0673304 0.10494089
0001c0 a2 08 10 3f 16 09 17 bf 02 24 03 bf 72 a3 b6 3f
       0.5626317 -0.5899824 -0.5122682 1.426863
0001d0 62 cb 0f 3f 5c 38 96 be 20 48 b4 bf 65 20 64 3f
       0.5616971 -0.29339874 -1.4084511 0.8911193
0001e0 f4 a3 2f bf 94 c5 81 3e 76 2a 0f 40 28 28 78 be
       -0.6860955 0.25346053 2.2369666 -0.24234068
0001f0 5e 89 91 be 49 ad 0e 3f 52 b0 60 3c 8d 1d 85 3f
       -0.28425115 0.5573316 0.013713913 1.0399643
000200 3a c3 b0 3f 5f 6c 17 40 71 44 92 3f 5e b4 c2 be
       1.3809578 2.3659894 1.1427137 -0.38028234
000210 45 6e 22 3f 4a 84 12 bf b1 fc 00 3f 45 ed 3f 3f
       0.6344951 -0.5723311 0.50385576 0.7497142
000220 aa 67 47 bf bc 30 90 bf 08 14 82 3f 03 be cb be
       -0.77892554 -1.1264873 1.0162363 -0.39793405
000230 24 2c 73 3f a8 89 7e 3f 8e d3 0c 3f 24 95 a4 3e
       0.9498923 0.99428797 0.55010307 0.32145035
000240 82 26 f0 3f c4 cf 96 be e0 85 be be 50 ae 11 3f
       1.8761752 -0.29455388 -0.37211514 0.56906605
000250 0f 8b 35 c0 1f ae 73 bf 04 a4 d2 3b 5a 0a d1 bd
       -2.8366125 -0.9518756 0.0064282436 -0.102070525
000260 25 fd d9 3d 63 80 c2 3f 07 62 db 3f d6 13 0e be
       0.106439866 1.519543 1.713929 -0.13874754
000270 10 d3 13 3f 2a a3 b7 3d 0f c2 da bf 77 7e b5 3e
       0.5774393 0.08966668 -1.7090472 0.35448048
000280 17 fa 24 bf dd 32 4a 40 2d a3 66 3e 6b 4b c4 3e
       -0.64444107 3.1593544 0.22523184 0.3833879
000290 0c e9 2a bd 39 16 9e bf e5 80 08 40 c3 76 c6 3e
       -0.041726157 -1.2350532 2.132867 0.38762483
0002a0 83 3f a8 be f4 d8 13 3e 87 4d 54 bf 1c 11 97 3e
       -0.32860956 0.1443823 -0.829308 0.2950524
0002b0 89 36 c9 be c8 7b 31 3e f6 83 f0 3c 2b 82 76 be
       -0.3929942 0.17332375 0.029359799 -0.24073093
0002c0 da 41 d4 3f 21 cb 96 3f 4c f0 c9 be 59 56 91 3e
       1.6582596 1.178074 -0.39441144 0.2838619
0002d0 eb b0 2c 3f da 6e 46 be 5b 7d 9d 3c 77 71 6c 3e
       0.67457455 -0.19378224 0.019224813 0.23090158
0002e0 5a 60 f2 be 7c d8 80 bf 0e 34 d3 3f 15 5d 1c bf
       -0.47339135 -1.0066066 1.6500261 -0.6107953
0002f0 27 24 bb be 9e 0b 3e 3f 35 05 ac be 6e bc 5a 3f
       -0.3655102 0.74236476 -0.33597723 0.8544377
000300 be 28 bc 3f 4c 30 dc bf 43 17 25 3e 4b ad 49 3f
       1.4699934 -1.7202239 0.16122155 0.7878005
000310 db 4f 0b bf c4 0c 54 bf b5 5d b2 be b3 c0 e4 3e
       -0.54418725 -0.8283198 -0.34837118 0.44678268
000320 f9 94 f5 bd f1 4a f1 3e 9e cb b3 be ba db cd 3c
       -0.11991305 0.47127488 -0.35116285 0.025129188
000330 7c 0b f5 3e fd 20 fa be cb 0d 20 bf c8 19 14 40
       0.47860324 -0.48853293 -0.62521046 2.3140736
000340 13 2b 91 3f f2 c7 d5 be 7b 3a b5 3a 1d 55 e0 be
       1.134127 -0.4175411 0.0013826633 -0.43814936
000350 9d ce 9f 3e be 44 21 be 56 95 39 3f 48 f2 c9 3d
       0.3121232 -0.1574888 0.72493494 0.098606646
000360 f1 f3 5b 3f ea 9d c0 3f a9 f6 79 3f fb dc 81 bd
       0.859191 1.5048192 0.97642 -0.06340977
000370 f8 3b 37 bf 2c bb a0 3e 36 64 8b 3e 04 3f 25 bf
       -0.7157588 0.313928 0.27224892 -0.6454928
000380 b7 06 56 be 22 f7 05 3f 8f e4 d6 3c c8 34 93 3f
       -0.20900999 0.5233022 0.026232032 1.1500483
000390 73 00 00 40 78 5b 12 be d4 7f dc be 88 0f 94 3e
       2.0000274 -0.14292705 -0.43066275 0.289181
0003a0 d1 3f 00 3f 2b 1c 47 be 9f d8 f7 3f da 07 56 3e
       0.50097376 -0.19444339 1.9362983 0.20901433
0003b0 7c 47 29 3f f1 b4 27 3f 98 11 7c bf 27 32 29 3f
       0.661247 0.6551047 -0.98464346 0.6609215
0003c0 ca cb 0f c0 65 ac 7e bf b5 13 1c bf d7 c0 3e 3e
       -2.2468133 -0.99481803 -0.6096757 0.1862825
0003d0 71 31 26 bf ec 20 2e 3f 5e 7c 02 3f 85 22 d5 be
       -0.6491919 0.68018985 0.5097102 -0.416279
0003e0 be cc 8a 3f f3 ec 63 3d 1a 5f 46 bf 83 b8 a4 3f
       1.0843732 0.055645894 -0.77488863 1.2868809
0003f0 93 dd d5 3f 80 aa b9 3f dd d4 45 3e ef ab 64 bf
       1.6708244 1.4505157 0.19319482 -0.8932485

lstm.weight_hh_l0 f4 [256, 64]
000000 ad 1f f7 3e 61 a5 8f 3e a2 b8 66 3f ee 52 e9 3e
       0.48266354 0.28055862 0.9012548 0.45571083
000010 56 f8 2d 3f 45 cf 52 3f bd cc d3 3e 69 f0 02 3f
       0.67957056 0.8234752 0.4136714 0.51148087
000020 30 d1 50 be b8 37 56 3f 91 43 57 bd c6 ad 62 be
       -0.20392299 0.8367877 -0.05255467 -0.22136602
000030 23 cf 32 3e c6 2b 69 bf a5 49 10 3f 50 52 0e bf
       0.17461829 -0.9108242 0.5636237 -0.5559435
000040 ad ae c9 bf 83 9d be 3e 14 0a 06 bf 0c e9 23 3f
       -1.5756432 0.37229547 -0.5235913 0.64027476
000050 e5 db 26 bd ba 9d 74 bd 52 04 72 bf 05 75 20 bf
       -0.04073705 -0.059720732 -0.9453784 -0.6267856
000060 ae 17 09 bf eb df 10 bf ec a9 40 bf 36 1b 5e 3e
       -0.5355176 -0.5659167 -0.7525928 0.21690068
000070 b2 cd 84 be 6e 0f d8 bb bb 74 14 3e d2 25 71 3f
       -0.25938183 -0.0065936362 0.14497654 0.94198334
000080 04 79 96 be b0 6c 0a 3f 6f 51 0e bf 80 f7 70 3f
       -0.29389203 0.54072094 -0.5559301 0.94127655
000090 97 6e 09 bf 7a 4a 91 3e 6d 19 6d bd 46 e2 66 be
       -0.5368437 0.28377134 -0.057885576 -0.22547254
0000a0 0e b0 91 be ba 0a 27 bf 3e 4c 30 3f 06 b6 c5 be
       -0.28454632 -0.6525074 0.68866336 -0.38615435
0000b0 bb bb 0b bf af 5f 27 bf 90 d0 0f be e1 05 88 be
       -0.5458333 -0.65380377 -0.14044404 -0.26566985
0000c0 23 d4 83 3e 95 30 0b 3f ca 27 c9 3e 21 b1 2b 3f
       0.25747785 0.54371005 0.3928817 0.6706715
0000d0 df 75 36 3f 26 93 71 3b 80 41 62 bf 62 3c 8d 3f
       0.71273607 0.003686139 -0.88381195 1.1034052
0000e0 22 46 02 3f 40 2b 18 3f 9e f0 56 bd 4a 96 4b 3d
       0.50888264 0.59440994 -0.052475564 0.049703874
0000f0 86 a8 a8 3e 40 e4 69 bf d0 ed d9 be 17 02 14 3f
       0.32941073 -0.91363907 -0.4256425 0.5781569
000100 47 f1 16 bf 14 6b ef 3e ea 3c 76 bd f1 78 99 bd
       -0.5896191 0.46761382 -0.060116686 -0.07493771
000110 3b ad 67 bf bd 94 81 3f 7a ac 01 3f c4 d1 c3 3d
       -0.90498704 1.0123516 0.50653803 0.09561494
000120 57 fd 43 3e c2 57 85 3f 4f 41 c2 3e 29 65 c7 be
       0.1913961 1.0417407 0.37940452 -0.38944367
000130 cf e8 e9 be 0c ce 40 3d 35 1c 87 3d d7 34 0d bf
       -0.4568543 0.0470715 0.06597177 -0.5515875
000140 07 a3 46 bf cf 92 21 bf d6 6c 86 be 4b 88 6c 3f
       -0.7759251 -0.6311464 -0.2625491 0.92395467
000150 a3 99 00 3f e4 71 e6 3e 17 5c 59 3e b2 f8 f7 bd
       0.5023443 0.45008767 0.21226536 -0.12107982
000160 2a 4f df bd 4f 3c 87 be d3 f5 22 bc 74 cc 86 bf
       -0.10903771 -0.264132 -0.009946304 -1.0531144
000170 45 1b 0b bf 8a 0a 5c bd f0 c1 55 be bb fb 2c 3f
       -0.54338485 -0.05372099 -0.20874763 0.6757161
000180 5e e8 b1 be 86 a5 78 3f e6 c0 39 bf 5e a0 2a 3f
       -0.34747595 0.9712757 -0.72559965 0.6665095
000190 9f 54 71 bf 85 b6 40 3e e9 f6 07 3f 36 dd db bc
       -0.94269747 0.18819626 0.5311113 -0.02683888
0001a0 89 64 93 3e 6b 66 b7 bd bf 19 c7 be 1f 74 e9 be
       0.2878764 -0.089550816 -0.3888683 -0.45596406
0001b0 99 df 26 3e 1f 63 77 be 9f 7e 54 bc f4 25 b8 3e
       0.16296233 -0.24158905 -0.012969642 0.35966456
0001c0 8c f5 05 be 1c 56 88 be 7e 0e 03 bf 91 74 22 3d
       -0.1308195 -0.26628196 -0.5119399 0.039661948
0001d0 bb 9b 25 3f 8e c0 7f 3e e8 99 74 3f 4f fa 2b 3f
       0.6469075 0.24975798 0.9554734 0.67178816
0001e0 fa 7b 08 bf 8a ef e1 be 9a 50 1e 3f 12 ef a9 3d
       -0.53314173 -0.44128066 0.6184174 0.08297552
0001f0 cd 8d 72 3e 56 17 c1 3c b7 e4 d4 3c 31 1d e2 bd
       0.23686905 0.023570698 0.025987966 -0.11040724
000200 69 da 0f bf b3 4b a4 3f 21 0d 8e 3e 2f 21 cb 3e
       -0.5619264 1.2835602 0.27744392 0.39673755
000210 d9 03 d3 be b6 46 f8 be 6a df 09 3f 7a af 34 bf
       -0.41213873 -0.48491448 0.5385653 -0.70580256
000220 ef 0e 11 bf ad 37 93 bd 93 02 1b 3f 2d 1b 9d bf
       -0.5666341 -0.07188354 0.605508 -1.2273918
000230 eb 4e 87 be 5b 87 18 be 0b e3 78 be 79 ec 0c 3e
       -0.26427397 -0.14895384 -0.2430536 0.13762082
000240 80 fd 5f bf 38 e3 e1 be dc c8 10 be fb b7 fa be
       -0.87496185 -0.44118667 -0.14139122 -0.4896849
000250 3a c7 1b 3f 3d cd 12 bf 22 53 5d bf 75 c5 04 bf
       0.6085087 -0.5734442 -0.86454976 -0.51863796
000260 86 e4 60 bf 65 c3 cb 3e b4 df 97 bd aa d4 d8 be
       -0.878487 0.39797512 -0.07415715 -0.4234975
000270 c5 b2 ff 3e b7 d6 62 be 57 07 78 be 66 30 6d bd
       0.49941078 -0.2215222 -0.2422155 -0.057907484
000280 d9 c8 1b be 93 a0 43 bd de 89 1f bf a4 7f 0e bf
       -0.15213336 -0.047760557 -0.62319744 -0.55663514
000290 20 ef 86 be dc 75 2c 3f 7b 0b d2 3e 1b 48 81 3f
       -0.26354313 0.6736734 0.41024384 1.010013
0002a0 1b 08 40 3d 38 07 32 3b 2c 1f 8c 3e 30 e8 32 3e
       0.04688273 0.0027164947 0.27367532 0.17471385
0002b0 34 b9 af 3e 57 e1 3e 3e 75 0f 7f bf b3 81 d2 be
       0.34320986 0.18640648 -0.9963296 -0.41114578
0002c0 e7 76 e8 be 87 3e 2c be e8 65 3d 3e b7 96 f3 3e
       -0.45403215 -0.16820727 0.18495905 0.47575924
0002d0 b8 a1 4b 3f 11 2d 10 3f ab 2c f0 3d fa a5 7b 3f
       0.7954364 0.56318766 0.1172727 0.98300135
0002e0 94 76 af 3c 19 3d 76 bf c8 d6 38 bf 5b 4c 70 3d
       0.021418847 -0.9618698 -0.7220273 0.05866657
0002f0 dd 5e 7a 3e fe af cd be fc 88 3b bf 96 1b 4a be
       0.2445025 -0.40173334 -0.73255897 -0.19737086
000300 ed 4c 80 3d 80 34 2c 3f 90 7e 02 bf d9 53 23 3e
       0.062646724 0.6726761 -0.5097437 0.15949954
000310 a6 25 c6 3e a0 c8 5f 3a 82 d5 b1 3e 89 80 92 3e
       0.38700598 0.00085366704 0.34733206 0.2861369
000320 0c df 10 bf f4 51 a9 3c ac a9 1b 3d 42 73 d6 3d
       -0.5659034 0.020668961 0.03800361 0.104712024
000330 99 54 50 bf 5e 61 2a 3f 12 de 6a 3e ba 94 86 bf
       -0.81379086 0.6655482 0.22936276 -1.0514138
000340 e8 0a dd be 77 bb 91 3e 7b f1 43 bf 80 7a c4 3f
       -0.43172383 0.28463337 -0.76540345 1.5349884
000350 f0 25 c3 3e be cc 26 bf 0a 49 fc 3e c1 1a bd be
       0.38114882 -0.6515616 0.49274474 -0.36934474
000360 9a 32 8d bf 9b 2d ba 3e 84 f5 ab bd f0 81 cc be
       -1.1031067 0.3636292 -0.08396438 -0.39942884
000370 42 a9 46 3f 86 fe 7f 3e 82 85 11 bf 28 79 f5 be
       0.77602017 0.24999437 -0.5684434 -0.47943997
000380 bb ab 9c be da 11 90 be 03 d2 0a bf 99 63 07 bf
       -0.3059977 -0.2813862 -0.542267 -0.5288635
000390 b9 96 0c bf cd 49 a2 3f ab 93 92 be 6b e5 39 bf
       -0.54917485 1.2678772 -0.28628287 -0.7261569
0003a0 f3 f2 9e bf 19 3d 03 bf b2 98 7d 3f 65 93 aa 3e
       -1.2417892 -0.512651 0.9906112 0.33315578
0003b0 de 6e 39 bf 84 e4 93 be 6c c4 92 bf f1 4e a7 be
       -0.72434795 -0.2888528 -1.1466193 -0.32677415
0003c0 4f a6 64 be b7 6c 33 be f5 37 eb be 5a d5 d3 3f
       -0.22329067 -0.1752194 -0.4594113 1.6549485
0003d0 97 ca a7 bf af 51 92 bd 53 12 34 3f 71 c2 0d 3f
       -1.31087 -0.07144486 0.7034046 0.5537482
0003e0 41 c9 30 3d a2 81 71 3e fe 0b 68 3f 8c 60 4f bf
       0.04316068 0.23584607 0.906433 -0.81006694
0003f0 34 e9 29 bd 09 c8 60 bf 90 cc 3d 3d 7c f5 07 bf
       -0.041482165 -0.8780523 0.046337664 -0.53108954

lstm.bias_ih_l0 f4 [256]
000000 3a 1f 06 3e e1 1b f5 3e 08 a8 2c 3f 71 e6 16 3f
       0.1309785 0.47872832 0.67443895 0.58945376
000010 b9 79 66 3e 8c 71 3d 3f 81 0d 43 3f 14 be aa 3e
       0.22507371 0.74001384 0.7619248 0.33348143
000020 5d 19 bd 3e 63 df 10 3f 74 64 a9 3e 7a e8 ba 3e
       0.36933413 0.5659086 0.33084452 0.3650549
000030 00 17 aa 3e b7 d1 9a 3e e9 0f 05 3f 39 7d c6 3e
       0.33220673 0.30238125 0.519774 0.38767412
000040 a2 53 a0 3e e9 c9 d3 3e 21 7e bd 3e 85 b9 ce 3e
       0.31313807 0.41364983 0.3701029 0.40375915
000050 07 4a 71 3e 97 b3 02 3f 51 83 05 3e 78 09 51 3f
       0.23563395 0.5105528 0.13038374 0.81655073
000060 42 0a 1a 3f 2e 9e 31 3f 21 f0 a7 3d 58 aa 09 3e
       0.601719 0.6938199 0.08200098 0.13443887
000070 09 bf 59 3e ba e7 19 3f 42 9c 0e 3f 05 3b 61 3e
       0.2126428 0.6011921 0.5570718 0.2199517
000080 73 16 05 3f eb 40 69 3e aa 7f 85 3e 3b 56 bf 3e
       0.5198738 0.2277867 0.26073962 0.37370476
000090 96 67 26 3f 52 94 b5 3e c7 61 a2 3e 93 12 4d 3e
       0.6500181 0.35464722 0.31715223 0.20026617
0000a0 b9 ef 08 3f f1 96 0f 3f b8 f5 11 3f b4 e1 1e 3f
       0.5349079 0.56089693 0.5701556 0.62063146
0000b0 35 2a e2 3e 45 0b 28 3e 15 c4 d2 3e d1 02 7c 3e
       0.44172826 0.16410549 0.41165224 0.2461045
0000c0 d4 12 e9 3e ec 21 a5 3e 54 31 3b 3f 36 be fa 3d
       0.45522177 0.32252443 0.73122144 0.12243311
0000d0 8c b5 cd 3e b7 0c 07 3e a2 e0 fb 3e c5 3d 23 3e
       0.40177572 0.13188444 0.4919482 0.15941532
0000e0 9a 29 a7 3e 89 4a 36 3e ce 3f e9 3e 4b c7 44 3f
       0.32648927 0.1780187 0.45556492 0.76866597
0000f0 e2 57 2f 3f 40 3c e0 3d 6b 91 04 3f dd 65 d7 3e
       0.68493474 0.10948992 0.5178439 0.42069903
000100 9a fb fe 3d 9b 62 05 3d b7 a9 41 3e e5 2b 0d 3e
       0.12450333 0.03256474 0.18912397 0.13786276
000110 94 40 09 3e 33 44 88 bd 2c 79 be 3d 6d 5a 6a 3d
       0.13403541 -0.06653633 0.093004555 0.057215143
000120 81 d4 37 3e c1 70 a6 3e ff b8 aa 3e 45 be 82 3e
       0.17952158 0.325079 0.33344266 0.2553579
000130 7d a8 94 be 0b 67 bf 3e 38 dc 9b 3d a0 5d 4e be
       -0.29034796 0.37383303 0.07610363 -0.20152903
000140 6b 23 66 3e 18 80 00 be df 23 d1 3e e8 b0 ba 3c
       0.22474448 -0.12548864 0.4084768 0.022789434
000150 84 2f 8e bd 40 ee ff 3b 36 98 f5 3c bb 97 91 3d
       -0.06942657 0.007810384 0.029979806 0.071090184
000160 21 61 82 3d 70 46 05 3e 58 51 d4 bc a8 c6 5f 3e
       0.06366182 0.13015151 -0.025917694 0.21853125
000170 0f a7 a0 3d 3e 78 fa 3d ac 10 d4 3e 0e 9b 8f 3d
       0.07844364 0.122299656 0.4141897 0.07011996
000180 f1 7f 0a 3f 51 ae 84 3d ea 25 05 3e cd 93 40 3d
       0.54101473 0.06478561 0.13002744 0.047015954
000190 2f a0 23 3e d2 29 8d 3e 6d ef f0 3c f2 c0 64 bc
       0.15979074 0.2757097 0.029411042 -0.013962017
0001a0 1c 62 a5 bc 06 ab c5 bc 38 50 05 3e e6 4e 14 3e
       -0.020188384 -0.024129402 0.13018882 0.14483222
0001b0 78 50 8e 3e f5 cd 1d 3d de 9b 79 3e 4c b5 8c bd
       0.27795768 0.038526494 0.24375865 -0.06870517
0001c0 de d7 13 3c 5f fa 86 3d 06 24 13 3e 60 65 4c 3c
       0.009023635 0.06590723 0.1436921 0.012475342
0001d0 ce 1d a8 3d eb 51 7c 3e 93 29 cc 3d 6a d0 dc 3e
       0.0820881 0.24640624 0.09968867 0.43127757
0001e0 d8 1d 36 3d 93 2c b4 3e 6a 27 94 bd e9 5a 6b 3d
       0.044462055 0.35190257 -0.0723408 0.057459746
0001f0 64 70 87 3e 81 d3 f0 3e f6 b3 16 3d ed 73 42 3e
       0.26452935 0.47036365 0.036792718 0.18989535
000200 db d5 ad bc 28 05 cc 3d 04 33 5d bd f1 85 1d 3e
       -0.021220138 0.09961921 -0.05400373 0.15383126
000210 cd 7d b4 3c f0 a5 97 bd 38 93 4a bd cd 8a bc 3b
       0.022032643 -0.07404697 -0.049456805 0.005753851
000220 16 90 02 be 0f b4 d8 3d 89 ef e8 3d cb 96 dd bd
       -0.12750277 0.105812185 0.11373813 -0.10819777
000230 e1 64 29 bd 53 1e 08 be 14 14 b8 3d ea 4f db bd
       -0.04135597 -0.13292818 0.089882046 -0.10708602
000240 44 dd bd bd 56 46 22 3d 51 fc f8 3a 7a 28 91 3d
       -0.09270719 0.03961786 0.0018996095 0.070877984
000250 bc a7 96 bc af c9 14 be 12 1b 6d bd 48 11 44 bd
       -0.018390529 -0.14530061 -0.057887144 -0.047868043
000260 4b f7 a7 bd 1a cc 2e bd bd 83 98 3d bd e2 15 be
       -0.08201464 -0.042675115 0.07447002 -0.14637275
000270 d3 dc 00 3e d0 04 23 3c 2a e9 4c be a5 3e 13 3e
       0.12584238 0.009949878 -0.2001082 0.14379366
000280 ec e3 8d bd 48 b4 12 bc 9d 73 fd bd 1e cc 12 3c
       -0.06928238 -0.008954115 -0.12375567 0.008959798
000290 fb 46 ab 3d 53 1d 4b bd e0 0e 43 3c 53 b0 66 bd
       0.08363148 -0.049588513 0.011905402 -0.0563205
0002a0 f9 56 9b bd be 75 4d bd ea 00 81 3d 47 94 e1 bd
       -0.07584948 -0.050161116 0.062990025 -0.1101461
0002b0 23 b3 88 be 3c 71 0b bd b7 2d 9b bd 88 36 cc bd
       -0.2669917 -0.034043536 -0.07577079 -0.099713385
0002c0 00 37 cc bd c6 cf 0c 3d 03 e2 e7 bd cb e6 eb 3d
       -0.09971428 0.034377836 -0.11322405 0.1151863
0002d0 ed fd b2 bb cf 96 d3 3d cf 2d dd bc 9a a2 5d bd
       -0.005462399 0.10331499 -0.026999382 -0.054110147
0002e0 53 b4 db 3d e5 b8 87 3d ff 9e 87 bc 63 8a 14 be
       0.107277535 0.06627063 -0.016555307 -0.14505915
0002f0 3a e1 77 3c da f1 d9 bc fe c8 3b be 90 a2 c5 3d
       0.015129382 -0.026604582 -0.18338391 0.09650147
000300 9d 86 f7 3e 03 be d5 3e d7 40 ee 3e ad b9 36 3f
       0.4834489 0.4174653 0.46533844 0.7137707
000310 f5 9f 97 3e 68 9c d9 3e e7 c7 07 3f f2 86 a7 3d
       0.29614225 0.4250214 0.530394 0.08180036
000320 ae cb a0 3d 3a e9 4c 3d cc 83 bd 3e 35 34 60 bd
       0.07851349 0.05002711 0.37014616 -0.05473729
000330 1b d4 1a 3e 66 a4 28 bd fa 4f 1c 3f c4 ac cb 3e
       0.15119974 -0.041172408 0.61059535 0.39780247
000340 44 0d 10 3a 0a 00 a5 3e 3a fe c1 3d d7 c9 34 3e
       0.0005495141 0.32226592 0.09472318 0.17655121
000350 bb fa 0b bd 67 a1 af 3d df 2f 07 3e c3 cc 97 3e
       -0.034174662 0.08575707 0.13201855 0.29648408
000360 27 a8 39 3d b9 63 bf 3d 66 65 8a be 73 c8 8d 3b
       0.04532638 0.093451925 -0.27030486 0.004326874
000370 a3 81 a2 3d d4 b6 66 3e 88 07 88 3e 32 40 ae 3e
       0.079348825 0.22530681 0.26568246 0.34033352
000380 ce 2c 99 3e aa 81 e1 3e b2 68 1a 3d 86 0f ec 3e
       0.29916996 0.44044238 0.0376975 0.46105593
000390 90 e3 8f 3e 85 e4 34 bd ae 8d a3 3e 13 00 2c 3e
       0.28103304 -0.044163246 0.3194403 0.16796903
0003a0 02 1d 6e 3e 3c 26 8e 3e 83 d0 fe 3d a4 62 34 3e
       0.23253253 0.27763546 0.12442114 0.17615753
0003b0 a7 c7 12 3f 77 0f d7 3e 9b 6d 37 3e b4 e6 40 3e
       0.57335895 0.42003986 0.17912905 0.18838006
0003c0 b2 98 0c 3f 50 c2 45 3f 0c 89 0e 3f d6 9e d3 3d
       0.54920495 0.7724962 0.55677867 0.1033303
0003d0 7c 37 de 3e b3 af b6 3c e3 11 24 3f 4c 54 a6 3e
       0.43401706 0.022300577 0.6408979 0.32486188
0003e0 b0 b7 a8 3e 0b 33 c2 bc 7a ec 98 3e 76 68 a4 3e
       0.32952642 -0.02370598 0.29867917 0.32110947
0003f0 b5 38 35 3f e4 a2 71 bd 59 ab b6 3e a0 43 b4 3e
       0.70789653 -0.058993235 0.35677603 0.35207844

lstm.bias_hh_l0 f4 [256]
000000 7f 75 8d 3c 81 25 df 3e d5 5d 28 3f c7 46 d2 3e
       0.01726794 0.435833 0.65768176 0.41069624
000010 5a 26 98 3e 4a 10 32 3f e0 4c 2f 3f a1 53 bd 3e
       0.2971676 0.69556105 0.68476677 0.36977866
000020 a9 a1 09 3f d6 f2 02 3f 21 4d f7 3e 41 4f a4 3e
       0.537623 0.5115179 0.48301032 0.32091716
000030 87 78 b6 3e b1 dd f7 3e 94 91 04 3f 9f 37 81 3e
       0.3563883 0.48411325 0.51784635 0.25237748
000040 5f ea fd 3e e9 65 01 3f ec 7c 24 3e 57 d1 64 3e
       0.49592873 0.5054613 0.16063279 0.22345482
000050 ff ec 7a 3e 69 35 df 3e 82 b2 b1 3e 1b 5d 49 3f
       0.2450447 0.43595436 0.34706503 0.7865769
000060 03 01 35 3f e3 33 51 3f 1d 5f 54 3e 30 60 6b bd
       0.7070467 0.817198 0.20739408 -0.05746478
000070 42 77 8d 3e e8 d9 2c 3f 04 ec 21 3f 9f 1f 89 3e
       0.2763005 0.6752 0.63250756 0.26781937
000080 78 ce 19 3f e3 2d 9b 3e 2a 8c a6 3e bb 6c e4 3e
       0.6008067 0.30308446 0.32528812 0.44614205
000090 9e 7f 0c 3f fb cd b2 3e 6e 80 81 3e 8b 8c 3f 3e
       0.5488223 0.34922776 0.25293297 0.18705957
0000a0 53 16 b7 3e a4 55 18 3f f2 0a e0 3e 0d df cf 3e
       0.3575922 0.5950568 0.4375835 0.40599862
0000b0 ed fd 0f 3f 81 ca ac 3e d5 37 3a 3e af da 95 3e
       0.56246835 0.33748248 0.1818536 0.29268405
0000c0 2f dc 81 3e 9a 26 d5 3e 66 35 28 3f 13 67 6a 3e
       0.253633 0.41631013 0.6570648 0.22890882
0000d0 f6 03 0d 3f 05 4b 4c 3d 04 93 b0 3e 6f 90 2b 3e
       0.5508417 0.04987623 0.34487164 0.16754316
0000e0 4a 75 b6 3e 17 a2 8c 3e be fd f4 3e 7a c6 33 3f
       0.3563636 0.27467415 0.4784984 0.70224726
0000f0 bb b6 46 3f 2c 2b 80 3e d0 dd 01 3f 73 8b 48 3e
       0.77622575 0.25032938 0.50729084 0.19584446
000100 8c 27 01 3e 08 ac b1 3d 7f 81 87 3e a0 88 05 3e
       0.12612742 0.086753905 0.26465985 0.130404
000110 13 af 8d 3e 3a be 17 bd ff f3 34 bc 80 6e 94 3d
       0.27672634 -0.03704665 -0.011044501 0.07247639
000120 40 7b 83 3e ca ef 62 3e 7d 9c bd 3e c8 a2 51 3e
       0.2567997 0.22161785 0.37033454 0.20472252
000130 3a 5b 02 be 4d ff b0 3e 77 b5 64 3d d0 f1 5c bb
       -0.12730113 0.3456978 0.05583712 -0.0033713467
000140 64 3b 3e 3e 41 2e d4 bc 14 5b ac 3e 35 57 b9 3d
       0.18577343 -0.025900962 0.33663237 0.090498365
000150 38 ab a4 39 aa ca ed 3d 91 8d 12 be 98 26 d6 3c
       0.00031408085 0.11610921 -0.14311816 0.02614145
000160 c3 77 3b 3e a2 51 05 3e 16 cb 36 bd f6 9f de 3d
       0.18307404 0.13019422 -0.04462727 0.10870354
000170 41 84 06 be d2 c7 9f 39 6c 89 a2 3e dc 71 4d 3e
       -0.13136388 0.0003047572 0.3174547 0.20062965
000180 30 40 13 3f 58 28 da 3d 28 84 66 3e 27 75 bf 3d
       0.5751982 0.10652226 0.22511351 0.09348517
000190 a5 34 46 3e 90 37 39 3e 4f f3 cc 3d 7b 36 a5 3c
       0.1935602 0.18087602 0.10007345 0.02016758
0001a0 51 4f e8 bc 36 02 5d 3c 8c 7a 9d 3d cc 0f 97 3c
       -0.028358134 0.013489297 0.076893896 0.01844015
0001b0 45 9e 41 3e 2c ac 45 3d 1f 00 a6 3e 0f d8 1d 3d
       0.18908031 0.0482599 0.32421967 0.038536128
0001c0 d5 7e a7 bc d6 15 ee bd c5 af c1 3b e8 70 54 3e
       -0.02044622 -0.116252586 0.005910846 0.20746195
0001d0 cc fe c5 3d db 65 c7 3d 52 80 d0 3d 3d c3 b0 3e
       0.09667739 0.09736224 0.10180725 0.34523955
0001e0 7a d4 25 bb 45 60 4b 3e 9d 56 4c bd b9 89 6b 3e
       -0.0025303648 0.19860943 -0.04988729 0.23001756
0001f0 3c c5 71 3e 14 18 03 3f 0c 3c aa 3d 5a eb bd 3e
       0.23610395 0.51208615 0.08312234 0.37093621
000200 03 59 b7 bd 67 21 99 3d 13 7b 37 be 00 48 2a 3e
       -0.089525245 0.07477074 -0.17918043 0.16629028
000210 a6 cb a6 3d c1 5f 45 be b2 9f 70 bd bf 17 62 3e
       0.081443116 -0.19274808 -0.058746047 0.22079371
000220 0f 26 7a bc c5 76 0f bd b2 17 1c 3d 34 b5 59 be
       -0.015267863 -0.035025377 0.038108535 -0.2126053
000230 f8 a6 de 3d bd e3 3f be da 43 01 3e 46 30 be bd
       0.108716905 -0.18739219 0.1262354 -0.09286551
000240 cb d5 dc bd ba ac 96 3d eb 2a 19 bd 4d e1 c6 3d
       -0.10782965 0.07357164 -0.037394445 0.097109415
000250 42 bf 9a 3d 6a 23 89 bc 02 76 1f bd 87 86 be 3c
       0.07556011 -0.01674052 -0.0389309 0.023257507
000260 45 8f 87 bc 2f 62 d0 3d 03 d1 75 bd 9a cc 97 bd
       -0.016547808 0.10174977 -0.060013782 -0.074120715
000270 b4 a7 8f bd c0 b0 06 bc 52 47 16 be 28 e0 84 3c
       -0.07014409 -0.008220851 -0.14675644 0.016220167
000280 37 fa 2b bd 11 e3 46 3d 32 c8 25 be de 2f c5 bc
       -0.04198667 0.04855639 -0.1618965 -0.024070676
000290 05 1b 9f 3d ef 63 fa 3d 02 03 2c 3d 29 d7 29 bb
       0.077688254 0.12226092 0.041995056 -0.00259156
0002a0 fb 68 a8 bd 85 e9 86 bc 6f 93 f7 3d 48 9f 87 3c
       -0.082231484 -0.016468773 0.120886676 0.016555443
0002b0 ec 7f 16 be f4 21 e7 bd 95 f7 5a bd 34 d1 81 3d
       -0.14697236 -0.11285773 -0.05345877 0.063387305
0002c0 be fd 41 3d cf 72 72 3d 58 73 fb bd 8c 1c 4f 3d
       0.047361128 0.05919152 -0.122778594 0.050564334
0002d0 ea 03 c8 bd d7 8d 7c 3d b6 1b 7d 3d 4b 22 db bd
       -0.097663715 0.061658707 0.061794005 -0.106999
0002e0 d9 9a 0e 3e 1a 79 8c 3d 93 36 f3 bd 05 77 09 bd
       0.13926257 0.06859036 -0.118756436 -0.03356077
0002f0 6f 3e 18 bd 14 64 2e 3d c6 5c 69 bd b0 2a e7 bd
       -0.037168916 0.04257591 -0.05697324 -0.11287439
000300 cf 7f 08 3f b3 76 b5 3e 22 65 b5 3e f2 f5 52 3f
       0.5332002 0.35442123 0.3542872 0.8240653
000310 7f 00 91 3e bc 0c 21 3f 10 70 12 3f 03 b2 68 3e
       0.2832069 0.62910056 0.57202244 0.22724156
000320 1f f9 5f 3d 7f f9 90 3d 0a ad ae 3e 40 fa 81 bc
       0.05468094 0.070788376 0.34116393 -0.015866399
000330 2d 8b f5 3d 27 50 6a 3d 43 e9 1e 3f 48 2d 11 3f
       0.11989436 0.057205345 0.6207468 0.5670972
000340 b9 01 0a 3e 84 36 76 3e 53 17 53 3d 0e cf 81 3e
       0.1347722 0.24044234 0.051535916 0.25353283
000350 60 36 70 bd 5c 5b 3e 3b 00 d1 96 3e c9 00 a9 3e
       -0.058645606 0.0029046154 0.2945633 0.33008412
000360 4f e4 55 3e bd 81 18 3e 21 15 9c bd b9 b4 13 bd
       0.20887874 0.14893241 -0.076212175 -0.036061022
000370 af 66 3a 3e c5 9d 2f 3e 63 f5 7c 3e 42 6f f5 3e
       0.18203233 0.17150028 0.24702983 0.47936445
000380 80 7d 74 3e 48 c5 ea 3e 9e 3f 39 3e 03 20 20 3f
       0.23876 0.4585364 0.18090674 0.62548846
000390 27 59 f0 3e 1f 6e f0 3d 6a 6e 44 3e ca 67 a4 3d
       0.46943018 0.11739754 0.19182745 0.08027609
0003a0 91 92 a5 3d eb 57 9e 3e d7 7d 37 3e 03 a5 9e 3e
       0.08084596 0.3092645 0.17919098 0.3098527
0003b0 a8 4c 14 3f fe 1c 50 3e ce 92 35 3e c6 5d 27 3e
       0.5792947 0.2032356 0.17731783 0.16344365
0003c0 a8 1f 05 3f bd 43 39 3f cc b2 ff 3e ff 04 95 3e
       0.5200143 0.72368985 0.499411 0.29105374
0003d0 b9 b5 b1 3e c8 ea 72 3e 29 75 08 3f 7d cb ae 3e
       0.34708956 0.23722374 0.5330377 0.34139624
0003e0 9a a6 e8 3e f3 1e 19 bd c4 f0 97 3e e4 f0 e0 3e
       0.45439607 -0.03738303 0.29675877 0.43933785
0003f0 33 8b 4a 3f 77 12 2b be d1 12 87 3e fd 54 ae 3e
       0.7911865 -0.16706263 0.26381543 0.34049216

lstm.weight_ih_l1 f4 [256, 64]
000000 10 0a cb be be df c1 be 76 59 b3 3e 21 54 14 be
       -0.39656115 -0.37866014 0.3502919 -0.14485218
000010 32 22 cd 3e e5 4a 30 bd 8c 0e c3 3e f3 3d f3 bd
       0.4006515 -0.043040175 0.38097036 -0.1187705
000020 20 ab a7 be 20 a7 17 3e d2 b6 58 be 4d bf 2e bd
       -0.32747746 0.14809847 -0.2116349 -0.042662907
000030 02 a0 e6 bd 0e 28 07 bf af d4 84 3e af 1b 12 3d
       -0.11260988 -0.52795494 0.25943515 0.035670932
000040 1a c2 99 be 1d b2 9e be 97 6a e9 bd 1a 57 ab 3c
       -0.300309 -0.30995265 -0.113972835 0.020915557
000050 97 c4 bc be 67 e6 0a 3f 75 29 b9 be 07 16 dc 3c
       -0.36868736 0.54257816 -0.36164442 0.026865972
000060 b2 55 53 be 10 f9 32 3f bb 5d dc 3d 81 2b 9e be
       -0.20638159 0.6991129 0.10760065 -0.30892566
000070 0d 83 e3 be 63 d3 ac 3e 98 51 a7 be 06 85 40 be
       -0.4443592 0.33755025 -0.3267944 -0.18800744
000080 4c 1f 9e 3e 8b 2c 8b bd 7a 56 3e 3d b4 d1 c4 3d
       0.30883253 -0.06795605 0.04646919 0.0961031
000090 86 9b 58 3f 1d 7a 8e be 47 ab a3 3e 3c 01 5a 3e
       0.8461231 -0.2782754 0.31966612 0.21289533
0000a0 05 8b 8e 3b e7 b2 8c be 51 03 57 3e 0b 44 8a be
       0.0043500685 -0.27480242 0.20997359 -0.27005038
0000b0 c0 21 89 3d ce a9 01 3d 40 82 e3 be 8a d6 b3 3e
       0.066958904 0.03165608 -0.4443531 0.35124618
0000c0 1b 5a c2 3e 07 14 4d be 69 e8 c0 bd de 31 7b bf
       0.3795937 -0.20027171 -0.09419329 -0.98122966
0000d0 6f 1c 04 3f 63 18 1d 3e fb 08 5a 3f 8f fb 72 3c
       0.51605886 0.15341334 0.85169953 0.014830484
0000e0 0f 91 a9 be 86 8a 56 3c 4a b9 50 be 4f 44 10 bf
       -0.33118483 0.01309455 -0.20383182 -0.5635423
0000f0 10 03 29 3c 9f 0f 69 3c e9 e8 90 bb 0e 58 63 3e
       0.010315672 0.014224916 -0.0044222963 0.22201559
000100 f7 13 80 bd 5d a3 16 3f 1a 71 29 3b d5 af af 3d
       -0.06253808 0.5884302 0.0025854767 0.08578459
000110 f0 9e c3 3e 23 91 10 bd b6 99 98 be 13 e4 f2 be
       0.38207197 -0.035294663 -0.29804772 -0.47439632
000120 88 14 2c be e9 69 6b be 4a b5 48 bf e9 79 fe 3e
       -0.16804707 -0.2298962 -0.78401625 0.49702385
000130 b3 b2 5e bd 27 61 a0 be e8 77 8a 3e ad 47 19 bf
       -0.05436964 -0.3132412 0.27044606 -0.59874994
000140 58 3a 21 be 9f e4 07 be 41 50 02 3e 40 4a 8e be
       -0.15744913 -0.13270806 0.12725927 -0.27791023
000150 44 cf a2 3e 42 e1 5e 3f 5e 36 8f bf 5d 1e ab 3e
       0.31798756 0.87062466 -1.1188467 0.33421603
000160 59 6a e9 be 3d 1b dd bd c2 c6 9f 3e 7a 26 a3 be
       -0.4558895 -0.10796211 0.31206328 -0.31865293
000170 93 f7 01 3f f1 16 2f be eb 82 53 be b8 89 0b bf
       0.50768393 -0.17098595 -0.2065541 -0.5450702
000180 8f ab 96 3e d2 46 47 3e b6 21 0a bf 2f fc fb 3e
       0.29427764 0.1946061 -0.5395769 0.49215838
000190 03 ee 79 be 89 54 09 be 78 4f cf bd d7 17 a8 3e
       -0.244072 -0.13411154 -0.10122579 0.32830688
0001a0 62 87 de 3e 29 df 2d 3f ca 5a 66 3f a0 30 ed bd
       0.43462664 0.6791864 0.89982283 -0.1158154
0001b0 92 6b 86 3d c0 c9 55 3f 9c bd 00 be 1c 94 4b bb
       0.06563486 0.8351097 -0.1257233 -0.0031063622
0001c0 af bb f5 3b 27 93 b6 3e c6 82 3a bf 40 ff ba be
       0.0074991803 0.35659143 -0.72855794 -0.36522865
0001d0 9f ed de 3e a0 c9 55 3e 22 95 dd be f4 fc 39 bf
       0.43540666 0.20877695 -0.43277842 -0.726516
0001e0 0d b2 f0 3d a2 3c 9c 3e 84 99 04 3f 1b df a6 3d
       0.117527105 0.3051501 0.51796746 0.08148023
0001f0 84 e9 20 3f 87 b9 2f 3a 17 e8 bf bd 42 8a 49 bd
       0.62856317 0.0006703366 -0.093704395 -0.04920412
000200 e9 1e 0d bf d6 ee 60 be 05 46 69 bf 1d 0e 15 3e
       -0.5512529 -0.21966109 -0.91122466 0.14556165
000210 bb d7 e9 be e5 9f 69 3e 4e 6f f4 3e d6 3f eb 3e
       -0.45672402 0.22814901 0.4774117 0.4594714
000220 f6 d0 a8 3e 23 60 93 3e 3c 5a 5f be ee cd 88 be
       0.32971925 0.28784284 -0.21811765 -0.26719612
000230 4a e0 13 3f e5 95 57 3e a8 d8 39 39 99 38 d3 be
       0.5776411 0.21053274 0.00017723686 -0.41254118
000240 51 a6 a8 be ea c1 fa 3d 19 7d 96 be 48 6d 0f be
       -0.3293939 0.122440174 -0.29392317 -0.14006531
000250 3e 5a f3 3e 32 33 df bd 3a 7b a5 3d 97 77 f1 3c
       0.47529787 -0.108984366 0.08080144 0.02947597
000260 e3 c3 7b 3e cc 12 be be 54 37 9b be 48 e2 f8 be
       0.24586444 -0.37123716 -0.3031565 -0.4861014
000270 13 90 e8 3e 37 13 bc be e5 68 47 3e 1c ac f2 3d
       0.4542242 -0.3673341 0.19473608 0.118492335
000280 0b b0 bb bd a8 04 2f 3e 0c c8 07 bf 3f ba 77 bf
       -0.09164437 0.1709162 -0.5303962 -0.96768564
000290 bf 07 7f bf b5 20 9c 3e 87 a6 61 be c9 92 12 bc
       -0.99621195 0.30493703 -0.22036181 -0.008946129
0002a0 b1 7c ba be 74 f7 03 be 81 e5 5c 3e 69 26 08 3f
       -0.36423257 -0.12887365 0.21571924 0.5318361
0002b0 02 3e 64 bd 61 98 a7 3e 6d 43 c1 3e 0f d2 b4 3e
       -0.055723198 0.32733443 0.37746754 0.35316512
0002c0 b5 26 9a 3d 55 45 8d bd 39 0e a9 3e ed 02 b5 be
       0.07526914 -0.0689799 0.33018664 -0.35353795
0002d0 4a a0 a5 3d 6e 92 b8 3e db 89 3e 3f f8 d0 80 bd
       0.08087213 0.36049217 0.744291 -0.062898576
0002e0 bf 49 e9 3d 81 85 63 3d 1d db 09 3e 32 0c f0 3e
       0.11391019 0.05554724 0.13462491 0.46884304
0002f0 be e3 c1 be cd 48 1b bf 94 a6 0a 3e 27 88 09 bd
       -0.37869066 -0.6065796 0.13540107 -0.03357711
000300 7b 0c b3 3e 62 2d 16 3f b8 75 ae be a4 0d 34 3f
       0.3497046 0.58663 -0.34074187 0.70333314
000310 57 e0 40 bf a4 37 6c 3e e7 35 71 3f 8d ac b7 3f
       -0.75342315 0.230681 0.94222873 1.4349533
000320 c3 9a d0 3e 8a f5 b0 3d fa 9d 34 bc e2 e5 ca be
       0.40743074 0.08640583 -0.011023993 -0.39628512
000330 62 59 b1 3c a6 6f 83 3e 5f 03 7b be 9b 81 27 3f
       0.021649066 0.25671118 -0.24513005 0.6543214
000340 98 1c 6d be b5 44 0e 3d 1e b7 79 3e 22 3c 08 3f
       -0.23155439 0.034733493 0.2438626 0.53216755
000350 95 7d 62 3f 0f 0e 28 bf e3 66 2f 3f 6e 42 75 be
       0.8847287 -0.6564645 0.6851637 -0.23951122
000360 16 e8 41 be 08 b2 81 bd 47 86 92 bf 6f ad 0b 3f
       -0.1893619 -0.06332785 -1.1447228 0.54561514
000370 53 7c 47 bf f5 76 09 3e ea 01 09 bf 91 de dc be
       -0.7792408 0.13424285 -0.53518546 -0.43138555
000380 13 28 23 be 11 0e 3b 3e 58 76 78 3e ae a8 42 bf
       -0.15933256 0.18267085 0.24263895 -0.76038635
000390 cc 6d 60 be 47 ab da 3d 7f 38 d6 bc 39 82 36 3f
       -0.21916884 0.106772 -0.026149986 0.71292454
0003a0 0e 18 0b bf ce c1 9b 3d bb b5 ca be d8 9b 12 bf
       -0.5433358 0.07605325 -0.39591774 -0.5726905
0003b0 4c c9 b3 be d1 9c 72 be 91 51 0a 3e ea b4 89 be
       -0.35114515 -0.23692633 0.13507678 -0.2689584
0003c0 b0 98 99 be 50 78 da be 25 f4 2c 3d d2 38 09 3f
       -0.29999304 -0.42669916 0.042225022 0.53602326
0003d0 d8 73 79 be 2d d9 e3 3e 4c 7e a1 3e 4b c0 ed be
       -0.24360597 0.4450163 0.3154167 -0.4643577
0003e0 66 2c f7 bd 33 cb ae 3f 4e dd 5a 3e 26 e1 2e bf
       -0.12069015 1.3655761 0.21373484 -0.683123
0003f0 fa 16 ae bf 4b fd 66 3e eb 3e e7 3e dc 13 1f be
       -1.3600762 0.22557561 0.4516519 -0.1553492

lstm.weight_hh_l1 f4 [256, 64]
000000 cf 01 2e 3f 21 92 a2 bd 3f 3d a8 be 02 44 d6 3b
       0.6797151 -0.07938028 -0.32859227 0.006538869
000010 ac e5 03 bf 65 72 f7 3e 47 00 eb 3e 48 34 f1 3e
       -0.51522326 0.48329464 0.4589865 0.471102
000020 1f ef 1c bf a1 a5 cd 3e 63 07 3e 3f 89 14 0d bf
       -0.6130237 0.40165427 0.7423002 -0.5510946
000030 3a d8 87 3e 03 8d 60 bd ae 7a 11 3f b3 91 6b bf
       0.26532155 -0.05482198 0.5682782 -0.92019194
000040 ca bf 01 3f 78 e6 fb be b0 61 5e bd 2a d0 32 bf
       0.5068327 -0.4919927 -0.05429238 -0.69848883
000050 4d fa b5 be 8b c5 04 3d b9 71 c2 3e ce 21 41 3f
       -0.35542527 0.032414954 0.37977389 0.75442207
000060 0e 72 c6 3c e6 f5 0c be 64 15 79 bd a3 fc 8d 3e
       0.024224307 -0.13765678 -0.060811415 0.2773181
000070 7a b5 22 3f a5 d2 b1 bd 47 ad e2 3d 50 0e 7a 3f
       0.6355816 -0.086827554 0.11068206 0.9767809
000080 44 5c 52 bc e1 75 b0 be eb 44 25 bf a7 ba fa 3d
       -0.012839381 -0.34464934 -0.64558285 0.12242632
000090 89 17 72 be 21 76 82 bf bd 5b 19 bd 7e e5 c8 3e
       -0.2364179 -1.01923 -0.037441004 0.3923759
0000a0 a8 ee 57 3e 54 b0 31 bf 7f 60 8a 3e ce 16 4e 3e
       0.21087134 -0.6940968 0.27026746 0.20125887
0000b0 65 60 05 3e eb 37 ac 3c 2f 3e b6 3d 57 d7 ba be
       0.13025053 0.021022758 0.08898579 -0.36492416
0000c0 75 b6 d8 3e 85 3b 5c 3f 55 e6 48 be 95 82 29 3d
       0.42326704 0.8602832 -0.19619115 0.0413843
0000d0 fe d2 72 bf 11 e9 27 3f 56 8b 85 3f 1f 6c e8 bd
       -0.948532 0.65590006 1.0433147 -0.113487475
0000e0 2e 02 24 3f 1f 24 54 3e 8c 8d 64 3e f1 d3 5f 3f
       0.64065826 0.20716904 0.22319621 0.8743277
0000f0 97 a6 25 3f 64 7c 44 3f 05 7f d5 3e 19 ba dc be
       0.6470732 0.76752305 0.4169847 -0.4311073
000100 ee 26 6f 3e f3 ca 75 bf 17 07 0b bf 18 ce c8 3e
       0.23354694 -0.960128 -0.54307693 0.39219737
000110 05 d0 e6 3d ac a3 0c bf fd f2 d9 bd 10 4f a0 3d
       0.11270145 -0.54937243 -0.106420495 0.0782758
000120 7c 9c 8d 3e be 2c 37 3e e3 c1 cf be 58 d3 84 bf
       0.2765845 0.17888162 -0.4057761 -1.0376997
000130 82 4e 1f 3e 1b b4 22 3f 57 3a bd 3e a4 6f 15 bf
       0.15557292 0.6355607 0.36958572 -0.58373475
000140 77 de 8a 3d 86 4e 95 3e cb 9f fd be 02 b1 8b bd
       0.06780713 0.2916147 -0.49535975 -0.06820871
000150 b5 92 ec be 39 72 c3 3e 15 c9 e3 3c 87 e7 0b 3f
       -0.4620568 0.38173082 0.027805844 0.5465016
000160 b0 90 ae bc 42 c7 c9 3e fd ed ad bd 74 11 0e 3e
       -0.021309227 0.39409834 -0.08492658 0.13873845
000170 44 13 1d be 1b 01 44 3d 01 fa 07 be de 8c 27 be
       -0.1533938 0.047852617 -0.13278963 -0.1636233
000180 04 d2 91 3e 48 ca 46 3f 27 33 b0 3e 82 f3 3c 3e
       0.28480542 0.77652407 0.34414026 0.18452266
000190 f1 ea f1 3e 37 be f2 3e f3 d0 89 3f 21 19 fc bb
       0.4724956 0.47410747 1.0766891 -0.0076934253
0001a0 b4 b2 ac 3f f2 6f 1d 3f d3 e4 f7 be b2 e1 38 bf
       1.3492036 0.6149894 -0.48416767 -0.72219384
0001b0 e2 a9 0a bf 55 ac 1f 3f 9b 7b d5 bf 36 4e 00 3f
       -0.5416547 0.6237233 -1.6678346 0.5011934
0001c0 5e 7f 8c 3f 4b 10 55 bd c2 91 68 bf 84 f5 0d be
       1.0976369 -0.05201749 -0.9084741 -0.13863188
0001d0 74 a2 c5 be f6 38 47 3f a9 f8 81 be bf 6d fd be
       -0.38600504 0.7782129 -0.25385025 -0.49497792
0001e0 c3 12 a0 bd b7 af 4a bf 18 ae 19 bf 92 5f 4f 3f
       -0.078160785 -0.7917437 -0.6003127 0.81005204
0001f0 9c 28 59 be cc e5 81 3e 5f a0 0b bf 59 82 67 bf
       -0.21206897 0.25370634 -0.5454158 -0.9043327
000200 15 40 12 3f 89 37 a3 3e d4 f9 35 be 68 7b 91 3d
       0.5712903 0.31878307 -0.17771083 0.07103616
000210 f8 6c 0a bf dc f6 0c be ae 48 9c 3e f2 a9 1a be
       -0.54072523 -0.13766044 0.305242 -0.15103891
000220 15 9e dd bd a7 53 84 3f dd 6e 4c 3f 66 66 34 3e
       -0.108211674 1.0338029 0.79856664 0.17617187
000230 62 50 c5 be 29 f5 b9 3e 11 9a c9 be 9b 73 2d be
       -0.3853789 0.36319855 -0.39375356 -0.16938631
000240 c5 04 c7 be b2 31 8d 3e c7 e8 5f 3c 21 8a 9c bd
       -0.38870826 0.27576977 0.013666338 -0.076435335
000250 c6 63 d0 3e 34 b1 3b be 80 c6 8c be 79 15 2e bf
       0.4070112 -0.18329316 -0.27495193 -0.68001515
000260 9e 7e ed bd 89 98 f7 3e ea c6 d3 bf a0 fb 88 be
       -0.11596416 0.48358563 -1.6545079 -0.26754475
000270 08 3c 84 bc 51 9b 33 bf 75 5c 72 be a4 84 78 be
       -0.016141906 -0.7015887 -0.23668082 -0.24269348
000280 09 7a 41 3f b1 17 6d bf 44 31 66 3f d0 79 85 be
       0.75576836 -0.92614275 0.89918923 -0.26069498
000290 b2 27 c0 3f bf 79 c5 3d d2 75 52 3e 51 4a 08 bf
       1.5012114 0.09642362 0.20552757 -0.532384
0002a0 71 e1 c9 be 9f 00 5c 3e 26 cb 9c bf 5a 11 26 c0
       -0.3942981 0.21484612 -1.2249496 -2.594809
0002b0 ba b8 af 3e a9 a4 12 be 2b 1b f8 3d 5d a2 e3 bd
       0.34320623 -0.14320625 0.12114557 -0.11114953
0002c0 8f 5a 93 be f6 b1 51 3e b3 ee a2 bd 82 5a 34 3d
       -0.28780028 0.20478043 -0.079556845 0.044031627
0002d0 f5 c9 33 bf 19 7c c0 bb 95 3c 6f 3f 52 d4 36 3f
       -0.70230037 -0.0058741686 0.93451816 0.71417725
0002e0 de 3d c8 be d4 e1 f4 bf ab c7 2b 3d f2 d9 1f 3f
       -0.391097 -1.9131417 0.041938465 0.62441933
0002f0 31 5b 99 3e ac a8 e9 b9 f6 32 2b bf 48 47 f4 be
       0.29952386 -0.00044566893 -0.66874635 -0.47710633
000300 5b 8f da be 8a c9 0e 3f 1f 8d 04 3d 83 3d 00 be
       -0.42687497 0.55776274 0.032361146 -0.12523465
000310 f9 73 0f bf 78 ba 35 bf 64 37 78 3e cf f1 a2 bd
       -0.56036335 -0.70987654 0.2423988 -0.079562776
000320 55 e8 a8 3e 69 1d bd be a8 c6 09 3e 5c 0b f9 bd
       0.32989755 -0.369365 0.13454688 -0.1216037
000330 0c f7 c5 be 76 6a 1a 3f 35 25 d6 3c fe 20 3c 3f
       -0.38665044 0.60318696 0.026140789 0.7348784
000340 c3 e0 19 be 93 2a 85 bf 3d 0e ab 3e ae 87 86 be
       -0.15027146 -1.0403618 0.334093 -0.2627539
000350 58 c8 6a 3b e1 3e 24 3e 46 19 71 3f dc e1 11 bf
       0.003582498 0.16039611 0.9417919 -0.5698526
000360 62 b7 0b be e2 a9 90 3d 48 51 9c 3d b2 25 5d bf
       -0.13644174 0.070636526 0.07632691 -0.86385643
000370 24 d2 7e 3f 61 dc 2d bf 5e 9d 83 be e9 75 3b bf
       0.995394 -0.67914397 -0.25706 -0.7322679
000380 f2 d6 c9 be 8a 39 80 3e 9f 0f 84 bd 6a 3f 43 bf
       -0.39421803 0.250439 -0.06448292 -0.7626864
000390 2f 69 05 3f b4 2c d1 3e 1c 94 18 3f 95 99 48 be
       0.5211362 0.40854418 0.59600997 -0.19589837
0003a0 47 76 ad 3e 6c 22 9f be b9 80 3f bf f1 27 34 3f
       0.338793 -0.3108095 -0.7480579 0.70373446
0003b0 34 4a 98 bf b5 54 8f 3f 7c 40 0a bf 7c 34 11 bf
       -1.1897645 1.1197726 -0.54004645 -0.5672071
0003c0 83 4f 1d bf c3 8d bb 3f a0 92 84 bd 01 5e 83 bf
       -0.6144945 1.4652637 -0.06473279 -1.0263063
0003d0 60 15 0c be 6d e8 8f bf cd d2 25 bf 0d 5d b2 3e
       -0.13680029 -1.1242806 -0.6477478 0.34836617
0003e0 f9 01 02 bf 05 d5 0e 3f 20 5e 6f be e0 03 11 3f
       -0.5078426 0.5579379 -0.2337575 0.5664654
0003f0 0b d4 ad 3d fe e6 7e 3f 44 73 4d bf b0 45 e7 3e
       0.084877096 0.99571216 -0.80254006 0.45170355

lstm.bias_ih_l1 f4 [256]
000000 9c a2 0e 3f 54 1a 38 3f 01 e2 c7 3d 5b 5f 8c 3e
       0.5571687 0.71915174 0.09759904 0.274165
000010 23 b5 0f 3d 08 82 c9 3e 4f f2 be 3e 40 72 5b 3d
       0.035084855 0.39357018 0.37294242 0.053575754
000020 85 9b 21 bd c6 c5 b2 3e b8 23 e2 3e 1a e2 85 bd
       -0.039454956 0.34916514 0.44167876 -0.06537266
000030 36 2f 4a 3e 33 88 0f 3f 51 6e a1 3e 3f 84 46 3f
       0.19744572 0.560672 0.31529477 0.7754554
000040 67 90 b6 3e 35 42 1e 3e 1f dd e3 3d 51 b6 08 3f
       0.35657045 0.15454943 0.1112616 0.5340319
000050 55 7b 52 bc 7e 3c 89 3e 86 01 b6 3e 48 8c 0e 3c
       -0.012846787 0.26803964 0.35548037 0.008700438
000060 2f 1e 65 bc 83 38 0b 3e bc 55 41 3e 40 b5 2b 3f
       -0.013984247 0.13595776 0.18880361 0.6707344
000070 cb f4 f2 3e 18 8d 00 3f 4f 48 00 3f 8f a0 a1 3e
       0.47452387 0.5021529 0.50110334 0.3156781
000080 f8 0f a4 3e 38 de 38 3f e7 60 52 3f cd 27 8f be
       0.32043433 0.7221408 0.8217911 -0.27960053
000090 d5 58 ad 3e 55 5b 60 bc 35 bb 19 be 85 3f 41 3f
       0.33856836 -0.01369365 -0.1501282 0.7548755
0000a0 a2 dc e6 3d 4f e3 f7 3e e3 ff f2 3d bb 07 2d 3f
       0.11272551 0.4841561 0.11865213 0.6758992
0000b0 63 7b 60 3f 98 3b 38 3f 8a c5 d0 be 2a ec 13 3e
       0.87688273 0.7196593 -0.4077571 0.14445558
0000c0 14 54 c9 be eb 8f f1 3d 02 33 95 3d f6 f9 c4 3d
       -0.3932196 0.11795028 0.072851196 0.09617989
0000d0 44 3b 1b 3f dc 90 df 3e f5 30 c7 3e 31 bd 15 3f
       0.6063731 0.43665206 0.3890454 0.5849181
0000e0 3b 24 96 3e 9b 36 1d 3f 87 9f 72 3f 67 2d e8 bd
       0.29324517 0.61411446 0.9477467 -0.11336785
0000f0 24 f6 66 3d 01 27 33 3f 44 ee 60 3e a6 8a 5c 3c
       0.05638708 0.6998139 0.21965891 0.013460791
000100 70 09 19 be 59 22 40 3e 8b 95 49 be ba ea 25 3d
       -0.14945006 0.18763103 -0.19685952 0.040507056
000110 12 4e c8 3d b3 78 d7 3e c1 4e 59 be 4e 37 fa bd
       0.09780516 0.42084274 -0.21221448 -0.1221758
000120 ca 5c 56 be fd d4 d9 bd b7 e6 4b 3e 43 c9 04 be
       -0.20933834 -0.106363274 0.1991223 -0.129674
000130 70 00 dd bd 70 c0 8a 3e cb aa db bc f3 c2 f3 bc
       -0.10791099 0.27099943 -0.026814839 -0.029756045
000140 18 23 03 3e 7f de 92 be 7e 44 6c 3e 93 32 9c 3d
       0.12806356 -0.28685376 0.23073003 0.07626834
000150 06 c3 4a 3e 2a d1 82 bd 62 ba b7 3d 8c 4f fb 3d
       0.19800958 -0.06387551 0.089710966 0.12271032
000160 91 a1 a4 3e 0d 8f cc be da f2 15 be 80 89 c5 be
       0.32154515 -0.3995289 -0.14643422 -0.38581467
000170 29 d0 49 be b5 95 e7 be f2 ef 65 bd a9 cf 00 3e
       -0.19708313 -0.45231405 -0.056137033 0.12579216
000180 4e e4 3e 3e 19 ba 4a be dc cb 05 3e fa 55 89 3e
       0.18641779 -0.19797553 0.13066047 0.26823407
000190 c2 be 2d be ec b7 3a 3e 37 08 77 be f5 e9 66 3e
       -0.169673 0.18234223 -0.24124227 0.22550185
0001a0 ee 74 b3 bd a7 9c d7 3d a3 a7 61 3e 70 13 bf 3c
       -0.08762537 0.10527926 0.22036605 0.023324698
0001b0 5f 71 68 3e 5b 07 8e bd 4c 96 26 3e 4b 4c 2c 3f
       0.22699498 -0.06934997 0.16268271 0.67303914
0001c0 b3 27 9d 3c 37 b8 a9 be 3e 60 91 3c e5 13 69 3e
       0.01918397 -0.33148357 0.017746087 0.22761495
0001d0 a4 2b bf be 06 ad eb 3a ff 62 a4 bd 38 0d 75 3d
       -0.37337983 0.0017980642 -0.080266945 0.05982706
0001e0 4f 51 29 bd bb 09 43 3e 2e b7 ed 3e ac a7 bd bd
       -0.041337308 0.1904668 0.46428818 -0.092604965
0001f0 59 e8 b7 3e fb 63 a8 3e c0 70 d4 3e ef f3 eb be
       0.35919455 0.3288878 0.4149227 -0.46084544
000200 a3 08 3a be 06 75 28 be 3a 7a 92 3d bd 36 d3 bd
       -0.18167357 -0.16450891 0.07152219 -0.10313175
000210 db a7 0f 3b 70 84 e1 be 88 8e 99 3c e4 84 d0 bd
       0.0021920118 -0.44046354 0.018744722 -0.10181597
000220 c5 bd a9 be 12 4a b7 3d 29 22 ec 3d b9 c2 85 3e
       -0.33152595 0.08949675 0.11529953 0.26125124
000230 f3 49 8c bd 61 ca e7 3d 6f 65 35 be 32 f6 1b be
       -0.06850042 0.113178976 -0.17714475 -0.15230635
000240 bc fa 8f 3e c4 fb 13 be 9b 7e e8 3c 78 25 8d be
       0.28120983 -0.1445151 0.028380683 -0.2756765
000250 d8 a9 9f 3d cf 52 58 bc 07 84 57 3e ee 37 9d 3c
       0.07796067 -0.013203337 0.21046458 0.019191708
000260 a9 e0 b1 bd ee ba 63 3d 8f a7 68 bd d1 ef f6 3e
       -0.08685429 0.055598192 -0.05680042 0.4822984
000270 4c 3e 68 3e 43 1a 80 3e 31 80 0f 3e 8c 7c 7c bd
       0.22680014 0.25020036 0.14013745 -0.061642215
000280 28 29 d6 3d ce ea 8f 3e 3d 4d 82 3e 5f 07 c5 3e
       0.10457069 0.2810883 0.25449553 0.38482186
000290 b7 56 fc bd c8 63 9c 3d bb 6d ce bd 41 3d 0a 3e
       -0.12321227 0.07636219 -0.10079523 0.13499929
0002a0 e8 94 aa 3e 7e 06 b2 bc 3d b1 2d 3d 17 08 77 be
       0.3331673 -0.021731611 0.042405356 -0.2412418
0002b0 90 9b 34 3e 80 0c 89 be f4 cd 95 be 66 08 10 3e
       0.17637467 -0.2676735 -0.29258692 0.14065704
0002c0 68 87 28 bd 43 f8 4f 3e 8d a0 fb 3d ac 0e c8 bd
       -0.04114476 0.20309548 0.12286482 -0.097684234
0002d0 da 1e b5 3d cb 8f b2 be b4 a8 c8 3e 83 46 19 3e
       0.08843775 -0.3487533 0.3919121 0.14968304
0002e0 6e 0b 7d 3e 07 52 ee bc d7 1c 25 bd e3 10 0e 3d
       0.24711391 -0.029091848 -0.040310707 0.034684073
0002f0 f4 fc ab 3e 1c 91 c1 3e a9 ba c6 bd df 44 83 3d
       0.33591425 0.37806022 -0.09703571 0.064096205
000300 5e f1 d0 3e f0 88 21 3e 7f 07 53 3e e8 20 d5 bd
       0.4080915 0.15774894 0.20608328 -0.10406667
000310 0e 38 c6 3d 60 1b 62 3f a2 1e ff 3d 58 d4 de 3d
       0.0967866 0.8832302 0.124570146 0.10880345
000320 53 b0 1b 3f 56 96 59 3e 92 c6 89 be f4 c4 96 3e
       0.60815924 0.21248755 -0.2690931 0.29447138
000330 75 77 04 3f c5 e3 09 be cc fb 10 3f 6e 85 c1 3e
       0.51744777 -0.13465793 0.5663421 0.3779711
000340 20 18 97 3e ba de 82 be 9a 80 b1 3d ab 4a 40 3d
       0.29510593 -0.25560552 0.08667107 0.04694621
000350 bd bf 9e 3d 66 2f 32 3f c6 1b 48 be 0b 2d 90 bc
       0.07751415 0.69603574 -0.19541845 -0.017599603
000360 93 c0 27 3d e0 dc a3 3e bf 7d dc 3d 4c ab 5a 3f
       0.040955137 0.32004452 0.10766172 0.8541763
000370 97 2c 4e 3f ec d4 09 3f 1c d1 e3 3e 57 69 b5 3e
       0.8053679 0.5384052 0.44495475 0.3543193
000380 20 21 5c 3d 59 df 47 3f 01 be de 3d 6b 88 13 3f
       0.053742528 0.78075176 0.10876084 0.5763003
000390 3e b0 66 3f f6 30 57 be 1b a8 fb 3e 19 ce 0c 3e
       0.90112674 -0.21014771 0.49151692 0.13750495
0003a0 c3 22 98 3c ce 8c 3b 3d ad 6c ee be 3a 3e 4b 3e
       0.018571263 0.04578858 -0.46567288 0.19847956
0003b0 36 76 f8 3e a9 9e 2b 3f a6 e2 45 3e f0 19 59 bc
       0.48527688 0.6703897 0.19324741 -0.013250813
0003c0 a1 0f 1f 3f c7 ff 55 3e 1b 1c 3d 3e b1 45 f2 3e
       0.6213322 0.20898353 0.18467753 0.47318795
0003d0 94 ba 4f 3f 36 50 5a be 41 e0 80 3e 1a 02 e8 3e
       0.8114407 -0.2131966 0.25171092 0.45314103
0003e0 33 b1 fa 3e 4e 2e 11 bd cc 1f 46 bd 80 6d 10 3f
       0.48963317 -0.03544455 -0.048370168 0.56417084
0003f0 76 ef 03 3f 78 f3 17 bd b3 5a 02 bb ac d9 1a 3f
       0.51537263 -0.037097424 -0.0019890487 0.6048839
