model/epoch_12106.pth (torch_old, 337005 bytes, 10 tensors)

lstm.weight_ih_l0 f4 [256, 20]
-0.52125555 4.167396 3.7969997 0.6912637 -0.32631108 0.71488404 5.889322 0.7640131
-0.26533216 1.3582689 0.42317113 -0.81142616 0.3335184 -2.9558804 0.5889507 -0.22114258
5.137455 0.529836 7.2109847 -2.5212147 -0.39810583 -1.3003244 0.5027466 0.3720681
1.6217935 -0.012554762 -0.9368001 -0.99456537 2.4807177 3.271121 0.010695255 0.5597261
1.6088246 -0.6096748 0.58550006 0.27773875 -1.0042651 -4.974277 2.8713408 -0.44975975
0.41486987 1.678882 -0.7544484 2.381998 -1.3723766 -0.20232847 0.520656 0.79249
9.095432 0.18606709 -1.6991551 -0.5348783 2.147331 1.0352639 -0.23888972 4.1915064
-2.400238 -0.20839064 -3.1290355 1.452651 1.8985982 4.1924787 -1.4717124 1.520475
0.040576078 0.06260033 1.4649688 -0.68956435 -2.4918053 7.6946154 -0.29357326 -0.3194948
0.120026626 -0.8656039 10.127338 -0.2322657 1.054474 1.4918468 -1.1026495 0.9610811
-0.48872018 -3.706342 2.365746 0.27856582 0.0043619447 1.9818647 -0.6178435 -0.9607875
-0.24903046 0.8278444 1.7622865 -0.84459364 3.7042508 4.746391 11.935818 -0.7694325
3.6239111 1.327403 7.0170965 -0.4005639 0.6972537 4.722185 -1.0150619 3.072987
-0.68012667 0.71178144 -1.8483196 8.679686 0.9726283 2.9418879 -1.4136615 -0.6060167
1.7573216 -0.5353536 -2.2299933 2.3687801 -0.43579295 -0.5553163 0.33038977 -0.5552978
-2.7589202 5.5123944 6.7037935 -0.41715556 -0.91791236 0.64436084 2.1739874 1.7314864
2.3099854 0.35000378 1.5671628 -0.88091195 0.4351201 -0.45759532 -0.34947944 0.8705321
5.17612 5.655514 1.8087888 -1.0014968 -2.5394886 -0.7127685 1.5538008 -2.1884022
5.3963346 -0.47775015 1.8830645 2.6939797 -3.8769374 1.437388 -1.0215216 -1.9157037
0.95810694 2.4440336 8.821872 2.2725182 1.056978 -0.5312283 -1.4398788 1.1884856
-2.9209788 4.9588976 0.6553369 0.50126565 -0.22874245 -2.2783804 3.2742052 1.4188559
-0.65623266 1.1071473 -2.7697039 0.3846794 0.31749958 3.0514922 0.04036887 -1.1801033
3.3769062 0.51550126 -1.7292746 -1.494851 2.7647018 -3.5157406 2.0540853 1.0440404
-1.7530311 1.6499151 0.22444762 0.095665984 -2.8525136 6.68851 0.8946596 0.66368514
4.617629 -2.3943243 -0.37651855 0.24310537 0.027113738 -3.2934515 3.223027 -0.5073378
3.2736962 0.97416234 0.16589335 -0.08963368 0.28509194 1.5101323 -0.48289827 0.5378782
0.325324 -1.4461311 0.047209416 -2.658088 0.91696197 -1.1436819 2.0857015 0.13275011
0.62592846 2.2377357 5.5025687 -1.169553 -2.362866 1.6562103 -2.0411522 -0.5016441
1.7660458 -0.3827679 0.45664203 2.547479 2.4658277 0.358917 1.1818725 -0.13976163
-1.2030343 -0.5019995 1.1148635 1.373587 0.9285385 1.067092 -0.6602644 -0.7968137
0.077172145 -0.7584348 -1.7655085 2.6240337 0.3309862 2.587217 1.0464555 1.4080784
-2.6837854 -2.3403296 -2.9807234 1.0015928 2.8471537 0.86006206 2.3896499 -1.3285462
00000000: 0171 05bf 4f5b 8540 0b02 7340 a8f6 303f
00000010: 3f12 a7be a402 373f 5375 bc40 5d96 433f
00000020: 9ed9 87be c1db ad3f e3a9 d83e a0b9 4fbf
00000030: ecc2 aa3e 252d 3dc0 79c5 163f 3373 62be
00000040: 0866 a440 55a3 073f 63c0 e640 955b 21c0
00000050: 87d4 cbbe 0871 a6bf 00b4 003f b67f be3e
00000060: ee96 cf3f 7db2 4dbc 22d2 6fbf d69b 7ebf
00000070: 14c4 1e40 0c5a 5140 273b 2f3c 364a 0f3f
00000080: f7ed cd3f a613 1cbf 55e3 153f c633 8e3e
00000090: c28b 80bf 472d 9fc0 0cc4 3740 e946 e6be
000000a0: d369 d43e 9be5 d63f 8823 41bf a872 1840
000000b0: 09aa afbf 322f 4fbe b649 053f a0e0 4a3f
000000c0: e486 1141 5f88 3e3e ea7d d9bf c9ed 08bf
000000d0: df6d 0940 8783 843f 829f 74be d220 8640
000000e0: 809d 19c0 5b64 55be 1e42 48c0 78f0 b93f
000000f0: 4405 f33f c928 8640 1261 bcbf ed9e c23f
00000100: 1a33 263d 9a34 803d 1984 bb3f 4a87 30bf
00000110: bd79 1fc0 4a3a f640 3c4f 96be d394 a3be
00000120: 85d0 f53d 3898 5dbf 9409 2241 0fd7 6dbe
00000130: 01f9 863f d6f4 be3f 9e23 8dbf 6909 763f
00000140: 8839 fabe b534 6dc0 6268 1740 2ea0 8e3e
00000150: a5ee 8e3b bead fd3f fe2a 1ebf 2bf6 75bf
00000160: d701 7fbe 9ced 533f 9b92 e13f 4a37 58bf
00000170: 7212 6d40 6fe2 9740 1cf9 3e41 87f9 44bf
00000180: 29ee 6740 57e8 a93f 0e8c e040 b616 cdbe
00000190: 387f 323f 241c 9740 8ced 81bf d2ab 4440
000001a0: c81c 2ebf 4f37 363f bd95 ecbf fedf 0a41
000001b0: 2bfe 783f e447 3c40 dcf2 b4bf e923 1bbf
000001c0: eaef e03f ef0c 09bf 36b8 0ec0 189a 1740
000001d0: 4120 dfbe 3629 0ebf d928 a93e ff27 0ebf
000001e0: 2692 30c0 8965 b040 7a85 d640 6a95 d5be
000001f0: 4efc 6abf d5f4 243f 9c22 0b40 59a1 dd3f
00000200: cdd6 1340 b233 b33e ca98 c83f 7283 61bf
00000210: 10c8 de3e ef49 eabe f8ee b2be 31db 5e3f
00000220: c6a2 a540 f8f9 b440 6486 e73f 0c31 80bf
00000230: fb86 22c0 ff77 36bf f2e2 c63f c80e 0cc0
00000240: c6ae ac40 ab9b f4be 4208 f13f 2a6a 2c40
00000250: be1f 78c0 54fc b73f 38c1 82bf c735 f5bf
00000260: 7f46 753f 0c6b 1c40 6326 0d41 f070 1140
00000270: 0e4b 873f 94fe 07bf f34d b8bf 4c20 983f
00000280: 51f1 3ac0 4aaf 9e40 29c4 273f f252 003f
00000290: 763b 6abe fcd0 11c0 948c 5140 129d b53f
000002a0: ddfe 27bf 01b7 8d3f d442 31c0 b3f4 c43e
000002b0: 4e8f a23e a64b 4340 d459 253d a00d 97bf
000002c0: 3b1f 5840 e4f7 033f df58 ddbf 4757 bfbf
000002d0: e0f0 3040 e501 61c0 2276 0340 1ea3 853f
000002e0: 5363 e0bf 6b30 d33f 99d5 653e 87ec c33d
000002f0: 958f 36c0 4608 d640 6908 653f 45e7 293f
00000300: 9ec3 9340 9c3c 19c0 0ac7 c0be 9df0 783e
00000310: a11d de3c e9c7 52c0 1346 4e40 e4e0 01bf
00000320: 3d84 5140 b462 793f f2df 293e dd91 b7bd
00000330: 92f7 913e 044c c13f 713e f7be 63b2 093f
00000340: de90 a63e d31a b9bf a95e 413d 1d1e 2ac0
00000350: 05be 6a3f 2b64 92bf 227c 0540 a5ef 073e
00000360: d93c 203f 1037 0f40 0b15 b040 eab3 95bf
00000370: 3239 17c0 b3fe d33f 3da2 02c0 bf6b 00bf
00000380: ca0d e23f 27fa c3be fccc e93e e509 2340
00000390: 1fd0 1d40 f8c3 b73e 9947 973f ac1d 0fbe
000003a0: 07fd 99bf 0a83 00bf d9b3 8e3f b3d1 af3f
000003b0: b3b4 6d3f 7896 883f 1607 29bf fcfb 4bbf
000003c0: 6e0c 9e3d c828 42bf 2ffc e1bf 2bf0 2740
000003d0: 0677 a93e f794 2540 41f2 853f ea3b b43f
000003e0: 24c3 2bc0 f6c7 15c0 2cc4 3ec0 3134 803f
000003f0: c437 3640 072d 5c3f 06f0 1840 cd0d aabf

lstm.weight_hh_l0 f4 [256, 64]
0.18572998 0.83798116 0.6202783 1.3293099 1.3678116 1.0534658 -0.29370207 0.12592635
-0.93942624 0.39643463 -0.20588693 -0.09275569 -0.33090493 -0.28859368 0.8655117 -0.84481037
-2.378471 0.46283224 -0.667626 0.92614543 -0.28132358 -0.6565711 -1.2611327 -0.55253446
-0.5421151 -0.5975028 -0.46942902 0.19083932 0.8780187 0.55123025 0.015963934 0.21383934
0.6536013 -0.18382007 -0.9416998 0.53932416 -0.13200808 -0.1712 -0.8514823 0.08221746
0.7221731 -0.42106184 -0.33084536 0.8415259 -1.019724 -0.5602808 -0.32173458 0.076616794
0.3373735 1.2961516 0.04898195 0.8539048 0.6522689 0.21532539 -1.4069386 1.7993318
-0.542732 0.30109397 -0.824231 0.5380442 0.5615171 -1.9747682 -1.3459384 0.51344204
-1.4614009 -0.30338725 -1.0534021 -0.9455427 -1.0910159 1.4252915 1.4046509 0.8941102
0.9742457 0.20161186 1.3474724 -0.5940144 -0.668361 0.22001694 -0.9302035 -1.2357194
-0.8891506 -0.7866617 0.9830994 -0.18581563 -0.26896495 -1.0111372 -0.30359796 0.26611054
0.018261872 0.16915362 -0.67909724 -1.5395212 -0.20632464 -0.53661555 -0.20617865 0.6293199
0.30430564 1.0724789 -1.6402165 -0.55340135 -0.52529764 0.5447951 1.0286638 0.3582309
0.4644138 0.34239817 -0.43417895 0.1832903 0.70471245 -0.12540096 0.75879323 1.1486278
0.7627699 -0.9801641 -0.5444901 0.41823766 1.9445134 1.0530713 0.049419504 0.7452329
-1.2858682 -0.25813186 0.34449917 -0.52384233 0.71821135 -0.3492602 -0.5707879 -0.7887966
-1.065211 0.7813402 -0.33465266 0.76973116 -0.68668497 0.05417078 1.07754 -1.1189404
-0.5871954 0.9841569 0.17404722 -1.026247 -0.060183294 -0.34609866 -0.2504034 0.008948131
-0.7342547 0.7265878 -0.17907235 -0.20461185 -0.8982476 -0.38366655 -1.150573 -1.2384449
-1.287652 0.66406226 -1.0461907 -1.4489422 1.1124665 0.5667316 -0.1083924 0.31941485
-0.073916495 -1.0607582 -0.6248177 0.050113015 1.324647 0.5809519 1.4197723 2.3508255
0.45476943 0.8870103 -0.011585803 -0.1435907 -0.8117987 0.2162036 -1.6681156 0.26089042
-0.25816444 0.81395406 0.50784683 1.5351808 0.69830483 -0.1760913 0.29633006 1.7578005
-0.68099815 -0.7831586 -0.12297218 -0.26188672 0.50911224 -1.1526318 -0.79746395 -0.95194125
0.8126038 0.5643581 -0.7299059 0.7443914 -0.0069576437 -0.8258621 -0.60968834 1.75036
-1.660315 0.8107812 -0.41291317 -0.16584155 -0.772622 -0.07642218 0.6841772 -0.5390599
-1.3720765 -0.5404143 -0.55610174 1.1693194 0.90837187 -0.8777372 0.15128332 -0.71381813
-2.6376727 0.2503902 0.07492609 1.1478475 0.82082653 0.55563545 -0.16466847 -0.83782244
0.7816654 -0.9208411 -0.83082664 -0.2945669 -1.0842614 1.3053715 -0.28639522 -1.0729812
-1.5965008 -0.44731432 1.4231558 0.6734581 0.3587543 0.7696434 -0.8842306 -0.469814
0.08392602 0.45828938 -0.66373473 0.5685469 -1.7687899 -0.598003 0.36079174 0.09323057
1.2204101 0.6309739 0.457639 -0.86201406 -0.07048556 -0.3044046 -0.12552302 -0.49292156
00000000: 0030 3e3e ef85 563f 8fca 1e3f d426 aa3f
00000010: 7314 af3f f8d7 863f 1e60 96be d6f2 003e
00000020: 3d7e 70bf 7bf9 ca3e 06d4 52be b2f6 bdbd
00000030: 5f6c a9be 8dc2 93be 2d92 5d3f 7e45 58bf
00000040: de38 18c0 59f8 ec3e 8ae9 2abf de17 6d3f
00000050: a509 90be 0b15 28bf cc6c a1bf e672 0dbf
00000060: 0ec8 0abf f2f5 18bf 0059 f0be 626b 433e
00000070: d5c5 603f 6d1d 0d3f ccc6 823c b3f8 5a3e
00000080: 6a52 273f 543b 3cbe 3d13 71bf 2611 0a3f
00000090: 202d 07be 0e4f 2fbe befa 59bf a161 a83d
000000a0: 56e0 383f 6b95 d7be 9064 a9be 3e6e 573f
000000b0: 5186 82bf 906e 0fbf 65ba a4be 44e9 9c3d
000000c0: 38bc ac3e 4ce8 a53f 4ca1 483d 8199 5a3f
000000d0: 18fb 263f 427e 5c3e 9016 b4bf 8150 e63f
000000e0: 7cf0 0abf fd28 9a3e ce00 53bf 44bd 093f
000000f0: 96bf 0f3f 34c5 fcbf b647 acbf f070 033f
00000100: 2f0f bbbf 9355 9bbe e1d5 86bf 160f 72bf
00000110: 69a6 8bbf f46f b63f 9acb b33f 68e4 643f
00000120: 2b68 793f 5773 4e3e fa79 ac3f 5411 18bf
00000130: b519 2bbf 1f4c 613e d121 6ebf 0e2c 9ebf
00000140: 609f 63bf a962 49bf 67ac 7b3f 7446 3ebe
00000150: c6b5 89be f26c 81bf 3171 9bbe a43f 883e
00000160: ec99 953c 9b36 2d3e 51d9 2dbf 080f c5bf
00000170: c446 53be a35f 09bf 7f20 53be 1c1b 213f
00000180: f3cd 9b3e fd46 893f 9df2 d1bf b6ab 0dbf
00000190: e879 06bf b177 0b3f 41ab 833f 0a6a b73e
000001a0: a5c7 ed3e d04e af3e b44c debe 74b0 3b3e
000001b0: 0968 343f 1c69 00be 4640 423f 3c06 933f
000001c0: e344 433f 09ec 7abf b463 0bbf 3f23 d63e
000001d0: d1e5 f83f 0acb 863f 1b6c 4a3d 95c7 3e3f
000001e0: 5497 a4bf dc29 84be 3262 b03e 881a 06bf
000001f0: b3dc 373f 3cd2 b2be 281f 12bf 93ee 49bf
00000200: d658 88bf e905 483f 9857 abbe 1a0d 453f
00000210: 96ca 2fbf 2ee2 5d3d d5ec 893f 7039 8fbf
00000220: 7052 16bf b5f1 7b3f 6f39 323e 105c 83bf
00000230: c282 76bd d833 b1be e034 80be 2f9b 123c
00000240: 1ef8 3bbf a801 3a3f be5e 37be c585 51be
00000250: 8ef3 65bf f16f c4be fa45 93bf 5d85 9ebf
00000260: c8d1 a4bf fcff 293f 94e9 85bf f076 b9bf
00000270: 4d65 8e3f 5215 113f d6fc ddbd 588a a33e
00000280: 8861 97bd edc6 87bf 0ef4 1fbf 4e43 4d3d
00000290: 088e a93f 44b9 143f 19bb b53f ed73 1640
000002a0: 8ad7 e83e 1b13 633f 61d2 3dbc 7109 13be
000002b0: 0ad2 4fbf 7a64 5d3e d084 d5bf 6e93 853e
000002c0: 212e 84be 4b5f 503f 4002 023f ce80 c43f
000002d0: 1bc4 323f 4751 34be 93b8 973e 9bff e03f
000002e0: e555 2ebf 157d 48bf d7d8 fbbd 0416 86be
000002f0: 2e55 023f 7089 93bf 9926 4cbf 6cb2 73bf
00000300: cd06 503f c679 103f 1ddb 3abf 6f90 3e3f
00000310: f2fc e3bb b36b 53bf 8914 1cbf cc0b e03f
00000320: 3485 d4bf 5b8f 4f3f 5b69 d3be 5ed2 29be
00000330: 8eca 45bf 3b83 9cbd 3d26 2f3f d4ff 09bf
00000340: 34a0 afbf 9758 0abf af5c 0ebf 42ac 953f
00000350: 0f8b 683f 63b3 60bf 04ea 1a3e c9bc 36bf
00000360: a1cf 28c0 2533 803e da72 993d abec 923f
00000370: b021 523f 203e 0e3f da9e 28be 887b 56bf
00000380: 391b 483f 3ebc 6bbf 0eb1 54bf 79d1 96be
00000390: 14c9 8abf 6a16 a73f 65a2 92be 7357 89bf
000003a0: 235a ccbf 6206 e5be f829 b63f c067 2c3f
000003b0: a5ae b73e 5a07 453f f05c 62bf 768b f0be
000003c0: 68e1 ab3d e8a4 ea3e 85ea 29bf 4a8c 113f
000003d0: b567 e2bf b916 19bf b2b9 b83e abef be3d
000003e0: 6636 9c3f 8187 213f a94f ea3e f4ac 5cbf
000003f0: bc5a 90bd ebda 9bbe 1b89 00be 3760 fcbe

lstm.bias_ih_l0 f4 [256]
0.42322275 0.805411 0.7976523 0.9956904 0.6608226 0.89321727 0.632675 1.1058354
-0.20728818 0.8550612 0.18904233 0.5302729 0.8327542 0.7399141 1.151535 0.5211186
0.2812598 1.5605004 0.5547831 0.8210905 0.53341407 1.0994916 0.8387346 0.9056248
0.82659996 0.8331908 0.22860011 -0.1788009 0.10216367 1.3649088 1.5557095 0.2874606
0.9387682 0.013447081 0.65922207 0.83954865 1.0318223 0.8134814 0.8213137 1.2318041
1.473278 1.2968273 0.5352216 0.8476008 0.36864808 0.5158464 1.3125637 0.3530535
0.880948 0.87012357 0.9233461 0.4320671 0.74227595 0.510478 0.6396602 -0.13125359
0.46462604 -0.19796956 0.24592514 1.421992 1.1015558 0.64075637 0.997319 0.81118256
-0.42079145 -0.07889908 0.22924897 0.15709451 0.21954675 -0.057190727 0.10763666 -0.024143241
0.3429627 0.20844403 0.5339703 0.43158564 -0.37298816 0.48455912 0.06734031 -0.16223642
0.07615694 -0.44514844 0.35202664 0.18746512 -0.1341076 -0.23024513 0.122510806 -0.09169133
0.12021823 0.074235015 -0.35665303 0.07430808 0.12010161 0.19552033 0.5569069 0.032174986
0.48826596 -0.028233808 -0.15757076 -0.051460903 -0.23524143 0.38614747 0.13760474 0.08176936
0.07976104 0.02781601 0.1581183 0.29671684 0.013983421 0.042632256 0.60657847 -0.20680216
-0.16541848 0.122153506 0.19129252 -0.37761495 -0.45007855 0.2765131 0.06277061 0.2852667
0.13468163 0.37506375 -0.22839814 0.153832 0.36044234 0.32991153 -0.045112345 0.35652557
0.021691574 0.22627498 -0.076779515 0.17430791 0.34214962 -0.08541592 -0.1439393 0.024133286
-0.08957705 0.11193177 0.1176966 -0.2560448 -0.19202068 -0.15704188 0.19965896 -0.17415182
-0.21984243 -0.02819542 -0.046844848 0.08674804 0.01837713 -0.10740739 -0.10562812 -0.0844882
-0.18404217 -0.20868988 0.022852775 -0.20024516 0.09938366 0.036193043 -0.4073281 0.28845432
-0.18176253 -0.04417093 -0.12151268 0.09551299 0.06566244 -0.11259524 0.026972124 0.013670291
-0.054933127 -0.07453984 0.09432766 -0.21987802 -0.29804292 -0.046672504 -0.094084576 -0.092905685
-0.18996045 0.057050623 -0.20828 -0.028272199 -0.058464136 0.08687303 -0.117633 0.23493691
0.046610694 -0.000999735 0.16529883 -0.058637958 0.13991037 -0.16656193 -0.1480735 0.069525145
0.49206564 0.4701889 0.8215792 0.5608923 0.08645916 0.29317975 1.1219128 0.07311083
-0.1252357 0.25713265 0.001541318 -0.21267492 0.16184685 -0.427657 0.63353556 0.6032575
-0.2688156 0.4197354 0.029933186 0.16003335 0.26670825 0.09108982 0.015930373 0.6283476
-0.025537366 0.027039517 -0.33147472 0.18861993 -0.17119226 0.73084843 0.17637166 0.4936751
0.376673 0.6436606 0.074615926 0.15042253 0.21503267 0.2652079 -0.026041951 0.049361344
0.5625387 0.25164333 -0.0028358025 0.033054236 0.76140887 0.5367736 -0.48150805 0.39168665
1.2027563 0.62610567 0.21617544 0.36237997 0.21752352 -0.06940187 1.2469498 0.18702774
0.94032246 -0.25776574 0.3264029 0.33153522 1.1461883 -0.016446928 0.28093427 0.3150734
00000000: a7b0 d83e 6a2f 4e3f f132 4c3f 91e5 7e3f
00000010: ab2b 293f e3a9 643f fdf6 213f 048c 8d3f
00000020: 5a43 54be 4ae5 5a3f 5094 413e f7bf 073f
00000030: 612f 553f 036b 3d3f 8065 933f 0768 053f
00000040: 4901 903e 7abe c73f 4406 0e3f fd32 523f
00000050: d38d 083f 24bc 8c3f 50b7 563f 07d7 673f
00000060: 0e9c 533f fe4b 553f 2616 6a3e 9517 37be
00000070: 303b d13d 55b5 ae3f 7d21 c73f 092e 933e
00000080: 1d53 703f 2551 5c3c c7c2 283f a9ec 563f
00000090: c112 843f 5140 503f 9d41 523f c2ab 9d3f
000000a0: 6094 bc3f 70fe a53f 4804 093f 5efc 583f
000000b0: 71bf bc3e 820e 043f 1602 a83f 6ec3 b43e
000000c0: cf85 613f 6bc0 5e3f 6960 6c3f e637 dd3e
000000d0: cc05 3e3f b0ae 023f c5c0 233f 5767 06be
000000e0: 77e3 ed3e 88b8 4abe cdd3 7b3e d503 b63f
000000f0: c8ff 8c3f 9c08 243f 4c50 7f3f a9a9 4f3f
00000100: fa71 d7be d795 a1bd 3ec0 6a3e 62dd 203e
00000110: ddd0 603e d340 6abd 9c70 dc3d 0cc8 c5bc
00000120: cf98 af3e 5a72 553e 47b2 083f cbf8 dc3e
00000130: 4ef8 bebe 2218 f83e b7e9 893d 4e21 26be
00000140: 2bf8 9b3d 7fea e3be d63c b43e dbf6 3f3e
00000150: 8153 09be 61c5 6bbe f2e6 fa3d aac8 bbbd
00000160: fa34 f63d 8708 983d 3a9b b6be d62e 983d
00000170: d5f7 f53d 7b36 483e 7391 0e3f ebc9 033d
00000180: fffd f93e 964a e7bc 3b5a 21be abc8 52bd
00000190: 21e3 70be 1fb5 c53e 42e8 0c3e b276 a73d
000001a0: c259 a33d 67de e33c c3e9 213e 45eb 973e
000001b0: b81a 653c 299f 2e3d ba48 1b3f f2c3 53be
000001c0: 7663 29be 9e2b fa3d 30e2 433e bf56 c1be
000001d0: b270 e6be 2093 8d3e e18d 803d 7a0e 923e
000001e0: fbe9 093e 5b08 c03e 34e1 69be 2386 1d3e
000001f0: e68b b83e 2aea a83e b9c7 38bd 858a b63e
00000200: 87b2 b13c a1b4 673e 943e 9dbd c67d 323e
00000210: 3c2e af3e 8bee aebd d364 13be 2bb3 c53c
00000220: 2c74 b7bd 7c3c e53d ea0a f13d 4e18 83be
00000230: 12a1 44be 96cf 20be 6673 4c3e db54 32be
00000240: 601e 61be 15fa e6bc 62e0 3fbd f5a8 b13d
00000250: a38b 963c 68f8 dbbd 8e53 d8bd 2608 adbd
00000260: 8d75 3cbe cdb2 55be be35 bb3c 110d 4dbe
00000270: a989 cb3d 283f 143d 4f8d d0be 49b0 933e
00000280: f51f 3abe 94ec 34bd a4db f8bd 519c c33d
00000290: 087a 863d 5598 e6bd a5f4 dc3c 5bf9 5f3c
000002a0: 8f01 61bd 58a8 98bd dc2e c13d b427 61be
000002b0: 1599 98be ab2b 3fbd 6aaf c0bd 5645 bebd
000002c0: fe84 42be eaad 693d 5a47 55be 199b e7bc
000002d0: 1778 6fbd 7dea b13d 92e9 f0bd 4d93 703e
000002e0: dbea 3e3d 8a09 83ba 1944 293e 5b2e 70bd
000002f0: aa44 0f3e 368f 2abe 94a0 17be 3363 8e3d
00000300: 07f0 fb3e 99bc f03e 0453 523f a396 0f3f
00000310: 8011 b13d a81b 963e d79a 8f3f 21bb 953d
00000320: ca3d 00be e4a6 833e 0d06 ca3a 74c7 59be
00000330: 2ebb 253e dcf5 dabe 632f 223f 156f 1a3f
00000340: 33a2 89be 8fe7 d63e 7136 f53c c8df 233e
00000350: fc8d 883e 4d8d ba3d 6a80 823c 63db 203f
00000360: bd33 d1bc fa81 dd3c 0eb7 a9be 9525 413e
00000370: 064d 2fbe e218 3b3f c69a 343e fcc2 fc3e
00000380: 49db c03e f1c6 243f 3cd0 983d 5d08 1a3e
00000390: 8631 5c3e 54c9 873e ee55 d5bc 1f2f 4a3d
000003a0: 8902 103f 65d7 803e dfd8 39bb e163 073d
000003b0: b1eb 423f ff69 093f 3988 f6be 278b c83e
000003c0: ebf3 993f 7648 203f 185d 5d3e de89 b93e
000003d0: 7cbe 5e3e 9122 8ebd 0d9c 9f3f 3384 3f3e
000003e0: f9b8 703f dff9 83be 481e a73e fcbe a93e
000003f0: 4cb6 923f b5bb 86bc 9ed6 8f3e 4d51 a13e

lstm.bias_hh_l0 f4 [256]
0.30950984 0.76252234 0.7808951 0.81693536 0.7329146 0.8487665 0.55551696 1.1421267
-0.039000195 0.8006735 0.3412026 0.4861363 0.8569374 0.9216493 1.1496077 0.3858186
0.46405804 1.6523144 0.34529757 0.6407832 0.5428246 1.0248892 1.0554341 0.8756515
0.93192846 0.9565497 0.35399467 -0.3707076 0.16582602 1.4389175 1.6311477 0.3353286
1.0196911 0.08874653 0.72377205 0.91199017 0.93062764 0.808062 0.7570964 1.2185968
1.2959504 1.3309892 0.4026504 0.6329688 0.4893957 0.68923277 1.0827776 0.39963442
0.67936593 0.96391237 0.8491892 0.538542 0.89134026 0.42847005 0.49258032 -0.12312617
0.4944995 -0.101317644 0.26885453 1.3555741 1.1928465 0.781591 0.98676795 0.58632666
-0.41916758 -0.02470909 0.30478862 0.14963566 0.36223763 -0.027701678 0.0035869381 -0.008880581
0.42023924 0.10498312 0.57085896 0.38095322 -0.20993134 0.45642373 0.047074385 0.035916254
0.037185412 -0.3455612 0.28018463 0.25517562 -0.0643652 -0.12194588 -0.050583966 -0.13663742
0.23963028 0.074277766 -0.3753628 -0.03551957 -0.08970813 0.07352512 0.46015728 0.16268529
0.52243984 0.0135015715 -0.062481776 -0.004992357 -0.20147188 0.29131573 0.20826475 0.11589838
0.07159096 0.06543442 0.10482349 0.17032662 -0.07489063 0.052365717 0.6870408 -0.09956163
-0.19488904 -0.06000639 0.053515762 -0.18262951 -0.43549007 0.12747236 0.06488867 0.19922134
0.08768906 0.22177102 -0.20594485 0.32638603 0.3320143 0.37163433 0.0012181952 0.5375627
-0.04661315 0.2014263 -0.20195813 0.18676671 0.40156117 -0.20411265 -0.15322812 0.23917532
0.022658179 -0.028905995 0.042062953 -0.3604495 -0.041949973 -0.21150523 0.23601115 -0.15993142
-0.23496626 0.0057598474 -0.086139 0.11298021 0.1123256 0.021153398 -0.086674266 -0.013362229
-0.11857316 -0.064264685 -0.11162973 -0.12799145 -0.096604675 0.018022748 -0.35397667 0.16087744
-0.15446678 0.013339681 -0.1596528 0.062482577 0.059719544 0.059254203 0.057062015 0.067399494
-0.061315168 -0.040846888 0.15222304 -0.093176685 -0.17803009 -0.12548852 -0.07177318 0.07019336
-0.042886768 0.08186483 -0.21783465 -0.09289349 -0.15066653 0.045217928 -0.028838988 0.18204764
0.0785966 0.0013200397 0.063099235 0.052860294 0.087611295 -0.097382195 -0.021666698 -0.13984971
0.5418083 0.40714377 0.7105244 0.67118615 0.073523894 0.49725613 1.1635398 0.21855392
-0.1490699 0.27789438 -0.027439928 -0.17379944 0.13053948 -0.3292797 0.643687 0.7725461
-0.13459012 0.33790812 -0.013252497 0.23702069 0.2422363 0.008236738 0.17846997 0.6619484
0.13801415 0.08252217 -0.13738629 0.14823167 -0.06850808 0.67703754 0.15771964 0.6327014
0.31626338 0.6617502 0.21782298 0.3148607 0.40343326 0.42676547 -0.1536582 -0.038330395
0.41085228 0.28327236 0.05193678 0.16674298 0.7673446 0.3199569 -0.48332104 0.36675054
1.1735666 0.5772994 0.1588058 0.550109 0.13058929 0.14552099 1.1390883 0.2035618
1.0651937 -0.27144396 0.3244829 0.44976437 1.229472 -0.12451499 0.18797782 0.3034876
00000000: 1378 9e3e aa34 433f bee8 473f ad22 513f
00000010: 4ba0 3b3f c348 593f 5c36 0e3f 3531 923f
00000020: abbe 1fbd f0f8 4c3f 1bb2 ae3e dbe6 f83e
00000030: 4060 5b3f 35f1 6b3f 5826 933f 048a c53e
00000040: 0499 ed3e 0a7f d33f d8ca b03e 5e0a 243f
00000050: 8ef6 0a3f 922f 833f 7718 873f b22a 603f
00000060: dd92 6e3f 71e0 743f ca3e b53e 63cd bdbe
00000070: 4cce 293e 732e b83f 73c9 d03f 31b0 ab3e
00000080: 3d85 823f bec0 b53d 2049 393f 3078 693f
00000090: 9d3d 6e3f 27dd 4e3f 12d1 413f fbfa 9b3f
000000a0: b4e1 a53f db5d aa3f 3128 ce3e 3e0a 223f
000000b0: 1392 fa3e 8f71 303f 7598 8a3f e29c cc3e
000000c0: edea 2d3f f6c2 763f 7764 593f e3dd 093f
000000d0: e02e 643f 6d60 db3e 7d33 fc3e 9329 fcbd
000000e0: 0a2f fd3e a07f cfbd 4da7 893e 7483 ad3f
000000f0: 32af 983f 5916 483f d39c 7c3f 8119 163f
00000100: 229d d6be b86a cabc 410d 9c3e 173a 193e
00000110: 3677 b93e a1ee e2bc d612 6b3b db7f 11bc
00000120: 9929 d73e 6401 d73d d023 123f 4d0c c33e
00000130: 3ef8 56be 5fb0 e93e 12d1 403d ec1c 133d
00000140: bb4f 183d 66ed b0be 5c74 8f3e 61a6 823e
00000150: e7d1 83bd c3be f9bd 2231 4fbd aeea 0bbe
00000160: a461 753e f11e 983d 8e2f c0be f87c 11bd
00000170: e5b8 b7bd 5794 963d bc99 eb3e f996 263e
00000180: 9ebe 053f b235 5d3c e4ec 7fbd ed96 a3bb
00000190: a54e 4ebe 5627 953e 5b43 553e 215c ed3d
000001a0: 489e 923d 7b02 863d b3ad d63d 1a6a 2e3e
000001b0: 4260 99bd 6f7d 563d e8e1 2f3f f8e6 cbbd
000001c0: fe90 47be 43c9 75bd 5833 5b3d 3b03 3bbe
000001d0: 8ef8 debe 1d88 023e 5ae4 843d ae00 4c3e
000001e0: 5296 b33d f117 633e 35e3 52be 121c a73e
000001f0: c7fd a93e db46 be3e d9ab 9f3a b69d 093f
00000200: 6eed 3ebd b242 4e3e 1dce 4ebe c63f 3f3e
00000210: 6d99 cd3e e802 51be d5e7 1cbe 60ea 743e
00000220: a59d b93c 44cc ecbc 344a 2c3d d68c b8be
00000230: bcd3 2bbd d494 58be e8ac 713e 10c5 23be
00000240: ff9a 70be 1abd bc3b a569 b0bd 2b62 e73d
00000250: f70a e63d e449 ad3c 4782 b1bd 40ed 5abc
00000260: 7cd6 f2bd 349d 83bd 219e e4bd 3110 03be
00000270: acd8 c5bd 71a4 933c 6e3c b5be 0ebd 243e
00000280: 8a2c 1ebe ad8e 5a3c 067c 23be bbed 7f3d
00000290: 7b9c 743d 89b4 723d dcb9 693d bf08 8a3d
000002a0: 9d25 7bbd 114f 27bd 5be0 1b3e 6bd3 bebd
000002b0: 854d 36be 1080 00be d1fd 92bd 89c1 8f3d
000002c0: 09aa 2fbd bfa8 a73d 0c10 5fbe f13e bebd
000002d0: 5448 1abe 6f36 393d be3f ecbc b26a 3a3e
000002e0: 41f7 a03d 2f05 ad3a 2c3a 813d 0984 583d
000002f0: 8d6d b33d 5170 c7bd 5c7e b1bc c334 0fbe
00000300: f3b3 0a3f 2675 d03e ede4 353f dbd2 2b3f
00000310: b293 963d 5b98 fe3e dfee 943f 99cc 5f3e
00000320: c8a5 18be 2c48 8e3e b3c9 e0bc 7bf8 31be
00000330: 24ac 053e 5997 a8be acc8 243f 95c5 453f
00000340: fed1 09be 4b02 ad3e 0021 59bc 8db5 723e
00000350: cb0c 783e 62f3 063c d5c0 363e 7375 293f
00000360: 9553 0d3e 6201 a93d feae 0cbe 0bca 173e
00000370: f74d 8cbd 5552 2d3f 4281 213e b8f8 213f
00000380: 46ed a13e 7668 293f fd0c 5f3e 6c35 a13e
00000390: ce8e ce3e 0181 da3e 9358 1dbe 5500 1dbd
000003a0: 3b5b d23e 1309 913e a9bb 543d acbe 2a3e
000003b0: b270 443f 64d1 a33e db75 f7be bac6 bb3e
000003c0: 6e37 963f e5c9 133f fd9d 223e f2d3 0c3f
000003d0: 33b9 053e 7403 153e a5cd 913f 8172 503e
000003e0: 4458 883f b4fa 8abe 9f22 a63e 8447 e63e
000003f0: 575f 9d3f b701 ffbd 427d 403e ba62 9b3e

lstm.weight_ih_l1 f4 [256, 64]
-0.24730769 0.17733295 0.26322106 0.16775861 -0.14480461 0.12670438 -0.036349997 -0.42308217
-0.19876316 0.21358082 -0.3264695 -0.09302625 0.40984577 -0.02291119 -0.08598016 -0.31695867
-0.05060483 -0.2964885 -0.2990843 0.3113399 0.022700442 0.26345012 0.032615427 -0.0038707713
0.25939935 -0.1833014 0.20904063 -0.08092075 -0.139057 -0.20568098 -0.15692937 -0.102068536
0.18422222 0.11987937 0.25760576 0.055964462 0.4438509 0.23462859 -0.03968533 0.17140597
-0.21454778 0.2147567 0.21740317 -0.10821393 0.34114242 0.38397577 -0.09612071 0.17207631
0.13247089 0.66184926 0.003491811 -0.094829604 -0.34944806 0.059937753 0.015520393 0.07078319
0.06208663 0.0669142 -0.019524455 -0.40177175 0.10254845 0.13491488 0.20441937 0.08687908
0.2075862 0.78419757 -0.67720675 0.77209306 0.066295356 0.114460155 -0.59855944 -0.28362486
-0.8545578 -0.014320384 -0.20683332 0.13844159 -0.11562611 0.14246236 0.039205182 -0.34706503
-0.16936016 -1.0189208 0.015234537 0.80892706 0.20269695 0.42458642 -0.21749152 -0.052634176
-0.23027915 0.19090948 0.67008054 -0.4450783 0.2981262 0.14812647 -0.111041 -0.0992437
0.2613538 0.37190014 0.25127977 0.3540155 -0.18263797 -0.50278515 -0.7033616 -0.29140595
-0.22488709 0.10411856 0.1786549 0.17952129 0.12409857 -0.0013847713 -0.015957769 0.3624549
-0.16341278 -0.023769129 -0.43642953 -0.2845988 -0.2904681 0.22336288 -0.2952136 -0.008901221
0.09362573 -0.018196456 -0.0052553993 -0.26817816 0.15547387 0.70804137 0.22568312 0.008205138
-0.16696163 -0.114206776 -0.27449763 -0.21963091 -0.1294395 0.14656846 -0.07749938 0.27576226
0.44124925 0.05012228 0.038375966 -0.09780392 -0.11256218 0.6153634 0.014083495 -0.00031235564
-0.02645296 0.10185397 -0.08450545 -0.25974393 0.29359815 -0.51937944 0.37976646 0.052720334
0.03069876 -0.1375767 -0.2042591 -0.12881714 0.37677687 0.20973954 -0.16308154 -0.027672425
-0.12029167 -0.077435665 -0.06634052 -0.048744217 -0.35923752 -0.11117631 -0.25459674 -0.1631891
-0.4087335 -0.0044505554 0.069509655 0.2157802 -0.11641192 -0.222162 0.057557683 0.029341495
0.23878837 -0.31828424 0.13837779 0.10081508 -0.27410853 0.10866231 0.10001469 0.31660056
0.2739445 0.2657096 0.16340667 0.17802681 -0.42799032 0.4222057 0.2559456 0.022153506
0.26110107 -0.059568714 0.37303504 0.23846006 0.006858292 -0.3621031 0.56155723 0.7236705
0.106967084 -0.16050512 0.022312483 -0.3017401 -0.12824342 -0.29680187 -0.20618209 0.09010412
0.19418794 0.14341426 0.20013925 -0.45876405 0.79975903 -0.6228106 0.2759393 0.25336468
-0.2621973 0.27756977 0.24687599 0.79850924 -0.08223084 0.59640014 -0.25858104 0.016151752
-0.51609445 -0.17672734 0.16035512 -0.32417917 0.5783733 0.6148896 -0.15801635 -0.27387866
-0.10199367 -0.21590613 -0.30349386 -0.116576746 -0.5312611 0.09336373 -0.12812215 0.3050651
0.16973771 -0.29415634 0.33625397 0.87371397 0.18778822 -0.361326 0.22927888 -0.1590032
-0.083771236 0.40256155 0.25657186 0.1534754 -0.63533115 -0.10339225 0.32225034 0.12811357
00000000: 3a3e 7dbe c596 353e e9c4 863e eac8 2b3e
00000010: a947 14be cbbe 013e bce3 14bd 3a9e d8be
00000020: 9288 4bbe eeb4 5a3e 0327 a7be 8c84 bebd
00000030: 4ed7 d13e 3fb0 bbbc 5e16 b0bd 6848 a2be
00000040: 0347 4fbd 57cd 97be 9421 99be f267 9f3e
00000050: 47f6 b93c efe2 863e c197 053d c4ac 7dbb
00000060: fecf 843e 5db3 3bbe bf0e 563e c7b9 a5bd
00000070: f564 0ebe 099e 52be 18b2 20be 4f09 d1bd
00000080: c0a4 3c3e 5183 f53d e7e4 833e fe3a 653d
00000090: 6d40 e33e 7a42 703e 168d 22bd 0c85 2f3e
000000a0: 6ab2 5bbe 2ee9 5b3e f09e 5e3e 449f ddbd
000000b0: 38aa ae3e 7998 c43e efda c4bd c634 303e
000000c0: 73a6 073e f46e 293f ded6 643b 0636 c2bd
000000d0: dbea b2be 4a81 753d 3f49 7e3c c7f6 903d
000000e0: 8d4e 7e3d 500a 893d c0f1 9fbc 07b5 cdbe
000000f0: ec04 d23d 2027 0a3e 5053 513e a9ed b13d
00000100: 7a91 543e 2cc1 483f 6c5d 2dbf e4a7 453f
00000110: dcc5 873d 166a ea3d 313b 19bf 4737 91be
00000120: 4dc4 5abf 0ba0 6abc 1dcc 53be a2c3 0d3e
00000130: 62cd ecbd a7e1 113e 9d95 203d 82b2 b1be
00000140: c06c 2dbe ff6b 82bf 489a 793c d815 4f3f
00000150: ca8f 4f3e 6463 d93e 19b6 5ebe ef96 57bd
00000160: 4cce 6bbe c67d 433e 668a 2b3f 4ee1 e3be
00000170: ffa3 983e 77ae 173e 7769 e3bd 4840 cbbd
00000180: 2ad0 853e b269 be3e bea7 803e 8541 b53e
00000190: 7305 3bbe 87b6 00bf 810f 34bf 2933 95be
000001a0: cd48 66be 1d3c d53d 4ff1 363e 6ed4 373e
000001b0: 6427 fe3d 3781 b5ba deb9 82bc b093 b93e
000001c0: ae55 27be 7ab7 c2bc b173 dfbe efb6 91be
000001d0: 3cb8 94be 3db9 643e 3d26 97be 6dd6 11bc
000001e0: d9be bf3d bc10 95bc 7c35 acbb a64e 89be
000001f0: 8b34 1f3e 3342 353f 7a19 673e d86e 063c
00000200: fdf7 2abe 3ee5 e9bd f48a 8cbe ede6 60be
00000210: ca8b 04be 0b16 163e ffb7 9ebd b630 8d3e
00000220: 6ceb e13e 054d 4d3d 1e30 1d3d 6c4d c8bd
00000230: 0087 e6bd 7588 1d3f 76be 663c aac3 a3b9
00000240: e1b3 d8bc d098 d03d 3211 adbd 28fd 84be
00000250: 7f52 963e 0df6 04bf c070 c23e 47f1 573d
00000260: f77b fb3c e8e0 0cbe 4c29 51be a4e8 03be
00000270: e6e8 c03e f6c5 563e d9fe 26be 48b1 e2bc
00000280: 7b5b f6bd 9796 9ebd 8add 87bd 04a8 47bd
00000290: fbed b7be 68b0 e3bd 815a 82be 0b1b 27be
000002a0: 8445 d1be f7d5 91bb 145b 8e3d 7cf5 5c3e
000002b0: 5f69 eebd 6f7e 63be 9bc1 6b3d 935d f03c
000002c0: f084 743e 27f6 a2be e8b2 0d3e 2378 ce3d
000002d0: f457 8cbe 588a de3d 80d4 cc3d 7819 a23e
000002e0: 7442 8c3e 170b 883e 1454 273e a94c 363e
000002f0: 8c21 dbbe 582b d83e 4d0b 833e 457b b53c
00000300: 0aaf 853e 53fe 73bd 73fe be3e e02e 743e
00000310: 86bb e03b 9465 b9be 37c2 0f3f 7842 393f
00000320: 8f11 db3d 745b 24be abc8 b63c ae7d 9abe
00000330: 3e52 03be 6af6 97be 6621 53be 8288 b83d
00000340: 34d9 463e 30db 123e 4ef1 4c3e 1fe3 eabe
00000350: 02bd 4c3f 8470 1fbf ea47 8d3e 04b9 813e
00000360: b93e 86be a01d 8e3e 0fcd 7c3e 1a6b 4c3f
00000370: a568 a8bd aead 183f bc64 84be ae50 843c
00000380: c41e 04bf 03f8 34be 2234 243e d0fa a5be
00000390: 4610 143f 6869 1d3f 0acf 21be d339 8cbe
000003a0: 0fe2 d0bd 7f16 5dbe 8c63 9bbe cabf eebd
000003b0: ba00 08bf 7c35 bf3d 7432 03be 7e31 9c3e
000003c0: b9cf 2d3e a99b 96be 7b29 ac3e b8ab 5f3f
000003d0: 8e4b 403e b9ff b8be 15c8 6a3e bcd1 22be
000003e0: 4190 abbd 8c1c ce3e 635d 833e a828 1d3e
000003f0: 10a5 22bf 51bf d3bd fffd a43e 3430 033e

lstm.weight_hh_l1 f4 [256, 64]
1.015343 0.41858652 0.2630134 0.24344058 0.013911904 0.86996204 0.3105767 -0.097308934
-0.16633739 -0.4348252 -0.76800287 -0.7488386 0.06497158 -0.57883704 0.329258 -1.2168326
-0.03751626 -0.17377624 -0.023787655 -0.7084741 0.39712378 -0.19980605 0.046933424 1.4202008
-1.0895872 0.37592936 0.055616286 -0.34922552 0.0944118 -0.5331433 -0.14184316 0.9936549
0.5973264 -0.22576262 -0.83269656 0.6503249 0.02741737 -0.5976787 -1.1528455 1.0200143
-0.0421151 -1.1124828 0.24860655 1.2879871 -0.55689645 0.3948009 1.171581 0.6916792
-0.41041836 1.2652075 -0.24801353 -0.8459975 -0.8918271 1.0474774 0.1666019 0.9878217
0.39405766 0.035629977 0.2442975 0.9913991 0.67900294 1.1428438 0.19426702 -1.3341779
-1.380936 -0.02982515 0.24972254 -0.15830861 -0.25763455 -1.1318653 -1.1183276 0.42438143
-0.61953086 -0.40414858 -1.3875468 0.47078225 -0.6335847 0.82221043 -0.23147643 -0.001859687
-0.38813224 1.1192143 -0.6313324 -0.46731302 -0.13198851 0.256495 0.13041764 0.7295886
1.2323887 0.8074945 -0.48159155 -0.7821233 0.3001537 1.6365733 -0.13631971 -0.97423244
0.6467039 -0.21345371 0.34576172 -2.1342628 0.37919423 0.7924023 0.54103124 1.1599475
1.1886529 1.292232 0.38164946 0.40123045 1.5859195 -0.22910371 -0.6875015 1.0384885
-0.20204298 0.6121746 -1.5420201 -0.5696939 -0.2076702 0.87913465 -0.11439372 -1.6900789
-0.39558104 0.20998037 0.18909098 -0.28472257 -0.20803423 -1.522561 -1.2584937 -2.1434216
0.7358425 0.06402184 0.44293028 0.039472166 -0.16373129 0.3571198 0.4769111 -0.77298415
0.17273232 0.48173302 0.9684989 0.19336088 0.0023681363 0.13696606 0.1915131 -0.55916923
0.17941041 0.11353419 -0.121614784 0.31557497 0.25224397 -0.07830927 -0.006258084 0.106418
-0.000806147 0.65673995 -1.2131876 -0.40527108 -0.66183645 -0.63275415 -0.20503707 0.012288939
0.22365043 -1.2748284 0.6091646 0.54006344 0.03137964 0.013514738 1.0042893 -0.825766
-0.16519383 0.5526664 -0.9171982 -2.4064977 -0.82604927 -0.7194848 0.48644242 -0.4823412
0.24709685 -0.34191048 -0.301555 0.7626208 -0.01373376 -0.13604826 0.33245167 -0.27259004
-0.27750853 -2.3328466 -0.229489 0.4102981 0.06864366 -0.17558746 -0.3714993 -0.17065002
-1.9767538 1.0112847 -0.68311566 0.3207253 -0.7797832 -0.66147727 -0.61052555 0.15309621
1.747888 1.6969597 2.219109 -0.04474812 -0.17962693 0.6183771 -0.105715066 0.29933435
-0.48463458 -0.6260404 0.93633455 -1.6631161 -0.500994 -0.24633053 -0.85236114 0.094543055
0.16975318 -1.6842971 1.009581 -1.9533914 0.5601505 -0.5106468 0.028902944 0.15421368
-0.029534912 0.21039438 0.3688613 -1.0695354 0.16968052 -1.1183059 0.81943333 -0.4117477
-0.34533414 -1.0198762 -2.796767 0.38598886 -3.26009 0.48166358 -0.94058514 -0.40761498
-1.3197341 1.1241654 -0.18706138 0.60742486 -0.38627094 -0.5497832 -0.1102922 0.27317283
-0.16311777 -0.10460681 0.22668114 0.5140766 0.06718124 2.2445521 -1.5849153 0.6090686
00000000: c2f6 813f f950 d63e b1a9 863e 7d48 793e
00000010: c1ee 633c d5b5 5e3f e903 9f3e e849 c7bd
00000020: 5954 2abe 69a1 debe d69b 44bf e3b3 3fbf
00000030: d20f 853d aa2e 14bf 8194 a83e 2cc1 9bbf
00000040: a6aa 19bd 66f2 31be 54de c2bc 8f5e 35bf
00000050: cf53 cb3e f599 4cbe 433d 403d 24c9 b53f
00000060: 9877 8bbf d079 c03e e7cd 633d b0cd b2be
00000070: f95a c13d 147c 08bf 553f 11be 2b60 7e3f
00000080: 62ea 183f 512e 67be 9a2b 55bf b17b 263f
00000090: 649a e03c 7901 19bf 7190 93bf d48f 823f
000000a0: e280 2cbd d665 8ebf b792 7e3e c3dc a43f
000000b0: c490 0ebf 5823 ca3e 5ef6 953f e311 313f
000000c0: 5b22 d2be 52f2 a13f 42f7 7dbe 4b93 58bf
000000d0: c84e 64bf bd13 863f b099 2a3e e2e1 7c3f
000000e0: edc1 c93e bdf0 113d 2029 7a3e 55cc 7d3f
000000f0: 23d3 2d3f b548 923f efed 463e 57c6 aabf
00000100: 83c2 b0bf df53 f4bc 44b7 7f3e a71b 22be
00000110: ade8 83be f6e0 90bf 5c25 8fbf 8648 d93e
00000120: 9399 1ebf 90ec cebe 229b b1bf 5f0a f13e
00000130: 9b32 22bf 627c 523f 2808 6dbe bec0 f3ba
00000140: 45b9 c6be 6a42 8f3f 009f 21bf a743 efbe
00000150: ff27 07be 5053 833e 348c 053e 52c6 3a3f
00000160: eabe 9d3f f6b7 4e3f 2b93 f6be 3c39 48bf
00000170: bfad 993e 3c7b d13f 6597 0bbe 4c67 79bf
00000180: 638e 253f 9c93 5abe ae07 b13e c397 08c0
00000190: bf25 c23e e1da 4a3f 0681 0a3f 2979 943f
000001a0: c725 983f dc67 a53f 8f67 c33e 146e cd3e
000001b0: 69ff ca3f 2a9a 6abe 1900 30bf 31ed 843f
000001c0: 5be4 4ebe 79b7 1c3f ea60 c5bf 76d7 11bf
000001d0: 7fa7 54be f80e 613f 4147 eabd 8154 d8bf
000001e0: 9989 cabe 1805 573e 11a1 413e 28c7 91be
000001f0: ed06 55be 47e3 c2bf 5216 a1bf d22d 09c0
00000200: 2d60 3c3f e21d 833d c2c7 e23e 91ad 213d
00000210: 2da9 27be 68d8 b63e b12d f43e 4ae2 45bf
00000220: bee0 303e b6a5 f63e 8bef 773f 6500 463e
00000230: bc32 1b3b d540 0c3e 031c 443e b725 0fbf
00000240: 5db7 373e 9d84 e83d 2c11 f9bd 0b93 a13e
00000250: 1f26 813e 9c60 a0bd 9d10 cdbb aef1 d93d
00000260: 9c53 53ba 1c20 283f bb49 9bbf b17f cfbe
00000270: 1d6e 29bf 2dfc 21bf 3df5 51be 8c57 493c
00000280: 9e04 653e 942d a3bf 36f2 1b3f 9941 0a3f
00000290: f087 003d eb6c 5d3c 8d8c 803f 6765 53bf
000002a0: 9228 29be 8c7b 0d3f 80cd 6abf 0f04 1ac0
000002b0: f777 53bf 2830 38bf fb0e f93e 6df5 f6be
000002c0: f506 7d3e e40e afbe 6b65 9abe 1e3b 433f
000002d0: 9103 61bc 3c50 0bbe 1b37 aa3e ec90 8bbe
000002e0: 9915 8ebe 5c4d 15c0 2aff 6abe 9812 d23e
000002f0: 0c95 8c3d 33cd 33be 2835 bebe e1be 2ebe
00000300: 4506 fdbf c771 813f abe0 2ebf 1b36 a43e
00000310: df9f 47bf 9356 29bf 674b 1cbf 41c5 1c3e
00000320: cbba df3f fa35 d93f e205 0e40 ce49 37bd
00000330: 1ff0 37be f64d 1e3f 2481 d8bd 5a42 993e
00000340: 0622 f8be 2f44 20bf 9fb3 6f3f fde0 d4bf
00000350: 2541 00bf 123e 7cbe 5734 5abf ca9f c13d
00000360: c7d3 2d3e 0c97 d7bf f339 813f bb08 fabf
00000370: 0666 0f3f c0b9 02bf dec5 ec3c 31ea 1d3e
00000380: 33f3 f1bc a071 573e 63db bc3e 89e6 88bf
00000390: bbc0 2d3e a624 8fbf 62c6 513f 98d0 d2be
000003a0: a3cf b0be 4e8b 82bf 3bfe 32c0 55a0 c53e
000003b0: 51a5 50c0 9c9c f63e 30ca 70bf e9b2 d0be
000003c0: 0ced a8bf a7e4 8f3f 058d 3fbe 3280 1b3f
000003d0: 4ec5 c5be 97be 0cbf e1e0 e1bd 4fdd 8b3e
000003e0: 5808 27be 183c d6bd 1a1f 683e 869a 033f
000003f0: 5196 893d bea6 0f40 81de cabf ebeb 1b3f

lstm.bias_ih_l1 f4 [256]
1.037375 0.8457198 0.19038811 -0.21587694 0.32384557 -0.34193864 0.21412528 -0.028043946
-0.6725493 -0.081733845 0.49605098 -0.14846215 0.87839264 0.56819606 0.6485081 0.7788004
0.3857384 0.17113993 0.47117108 0.5836487 -0.072930045 -0.29366806 0.2705414 0.1968024
0.3675262 -0.5496101 -0.2864884 0.91859955 0.7938314 0.2822936 1.0812837 -0.23521613
0.17039098 0.7078936 0.93628716 -0.99515826 0.25599524 -0.3586207 -0.34179795 1.6011732
-0.130134 0.7481254 0.29353562 0.64189565 1.667012 0.93269366 -0.7669797 0.35335183
-0.64727175 -0.011054849 0.2659106 0.3259149 0.10762433 -0.38986653 0.6985552 0.6346354
0.2724193 0.34198788 0.8267864 -0.36924055 0.05327165 1.1700178 0.30456823 -0.3392801
-0.90234077 -0.4467609 -1.0100391 -0.3683786 0.17909996 0.4177667 -0.51169354 -0.29933554
-0.42950866 -0.39547047 0.7392129 -0.4599154 -0.08046655 0.47382888 -0.9736356 -0.6057412
0.5924496 -0.5577225 0.5911617 -0.37360215 0.40289888 -0.57044685 -0.7130621 -0.33862802
0.26245645 -0.6953018 -1.0036017 -1.5924966 -0.9870546 -1.1639032 -0.7816038 -0.03002796
-0.05245207 -0.50617 -0.22045156 0.33377516 -0.7799974 0.16418363 -0.386693 0.19313368
-0.6853478 -0.1443333 0.38904116 -0.35531324 0.19332552 -0.058720507 0.27527356 0.64314955
-0.09138673 -1.0924597 0.12664717 0.15090425 -0.74292105 -0.3665959 0.02624122 -0.35008147
-0.43127722 -0.14412633 0.85745776 -0.6035602 0.4109724 0.270309 0.9600135 -0.90475845
-0.076217204 -0.19078952 0.19029795 -0.2871922 -0.09384042 -0.56586653 0.0991561 -0.121580705
-0.25559962 -0.011840857 -0.14036098 0.2382587 -0.15653515 0.12672184 -0.16748849 0.08536641
0.48399875 -0.0399556 -0.13225645 -0.09257016 0.48615682 -0.19013868 0.022439308 -0.0185301
-0.11942265 -0.012351317 0.18738313 0.7264237 0.40902126 0.1910931 0.13425674 -0.07325472
0.0077826637 0.340176 0.029792933 0.28783074 -0.025361195 0.011479882 -0.19265108 0.014806729
0.43720615 0.012872078 -0.1519171 -0.25682607 0.11079142 -0.3536724 -0.6199327 -0.03778387
-0.021755947 0.23345996 -0.04462085 -0.16730882 -0.022361577 -0.5158723 0.51967734 0.2268007
0.17318505 0.25940332 -0.19956778 0.104223445 0.24159954 0.60211855 -0.27963978 0.27687475
0.28756973 0.16282183 0.19578873 -0.5470075 0.3000294 0.75449127 0.22218841 0.35765985
0.4069404 -0.1412713 -0.25042886 0.603639 0.9132535 -0.49968922 1.7220216 0.374132
0.09213643 -0.70838994 0.3052142 -0.47912955 -0.52696764 0.25581732 -0.5263021 -0.573964
0.16891746 -0.19248095 0.24570578 0.7110419 0.69822925 0.6746365 1.1310301 0.4635453
-0.123727255 1.1964421 -0.8528142 0.1737078 1.5988166 0.22597434 -0.15482998 0.103429526
-0.5219226 -0.032150667 -1.6665214 0.18916439 0.27522317 0.29300886 -0.05347635 -0.191623
0.87137914 0.19342443 0.022780707 0.21348907 0.56749094 -0.7624101 -0.26072842 0.3993217
0.6460462 -1.0180407 -0.41315112 0.24305037 -0.07969298 -0.4873386 -0.42889214 0.6311112
00000000: b4c8 843f 1881 583f 1af5 423e d80e 5dbe
00000010: 16cf a53e 9512 afbe a843 5b3e 6bbc e5bc
00000020: 312c 2cbf 1364 a7bd 65fa fd3e 7606 18be
00000030: 57de 603f 4c75 113f a004 263f 775f 473f
00000040: 817f c53e 4e3f 2f3e 563d f13e 006a 153f
00000050: 595c 95bd a95b 96be 6784 8a3e 9186 493e
00000060: 652c bc3e 3fb3 0cbf 9cae 92be 5729 6b3f
00000070: 8938 4b3f c988 903e 8167 8a3f 7fdc 70be
00000080: f97a 2e3e 8438 353f 84b0 6f3f b1c2 7ebf
00000090: cf11 833e 229d b7be 2400 afbe 3ef3 cc3f
000000a0: d941 05be 2585 3f3f 4d4a 963e 4653 243f
000000b0: a660 d53f 03c5 6e3f c858 44bf 88ea b43e
000000c0: 9ab3 25bf 661f 35bc 6f25 883e 51de a63e
000000d0: 256a dc3d 969c c7be 83d4 323f 7777 223f
000000e0: 8b7a 8b3e 0919 af3e 46a8 533f 190d bdbe
000000f0: 6033 5a3d 25c3 953f 5ef0 9b3e 1fb6 adbe
00000100: ceff 66bf d8bd e4be f648 81bf 1f9c bcbe
00000110: fb65 373e 84e5 d53e 59fe 02bf 8242 99be
00000120: 8fe8 dbbe 1b7b cabe 0e3d 3d3f 087a ebbe
00000130: a6cb a4bd b399 f23e 2f40 79bf db11 1bbf
00000140: c7aa 173f e7c6 0ebf 6056 173f c848 bfbe
00000150: c348 ce3e ce08 12bf 3d8b 36bf a760 adbe
00000160: b160 863e 4cff 31bf 0576 80bf eed6 cbbf
00000170: 9caf 7cbf c8fa 94bf 3017 48bf 32fd f5bc
00000180: fbd7 56bd 5b94 01bf 0ebe 61be 94e4 aa3e
00000190: e9ad 47bf c11f 283e a0fc c5be d6c4 453e
000001a0: f472 2fbf 1ccc 13be 6730 c73e 9eeb b5be
000001b0: 20f7 453e ea84 70bd a8f0 8c3e 73a5 243f
000001c0: f728 bbbd b8d5 8bbf ccaf 013e a586 1a3e
000001d0: 1330 3ebf 75b2 bbbe d4f7 d63c e13d b3be
000001e0: 5ed0 dcbe da95 13be 5a82 5b3f ec82 1abf
000001f0: f96a d23e f165 8a3e 72c3 753f 409e 67bf
00000200: c417 9cbd 545e 43be 77dd 423e db0a 93be
00000210: 682f c0bd a1dc 10bf 5a12 cb3d 4eff f8bd
00000220: f4dd 82be 2700 42bc caba 0fbe 17fa 733e
00000230: c04a 20be 5fc3 013e 1a82 2bbe 96d4 ae3d
00000240: afce f73e 7ca8 23bd 3c6e 07be 6d95 bdbd
00000250: 8ce9 f83e b7b3 42be a4d2 b73c 70cc 97bc
00000260: dd93 f4bd 2e5d 4abc 5de1 3f3e e7f6 393f
00000270: 3c6b d13e e9ad 433e 997a 093e 9206 96bd
00000280: b705 ff3b 8c2b ae3e 4f10 f43c 8d5e 933e
00000290: 48c2 cfbc 1d16 3c3c 5346 45be ec97 723c
000002a0: 7cd9 df3e 69e5 523c 2890 1bbe b57e 83be
000002b0: 9de6 e23d 8c14 b5be e9b3 1ebf 42c3 1abd
000002c0: 8739 b2bc 2110 6f3e 5ac4 36bd 0153 2bbe
000002d0: a02f b7bc 3510 04bf 9309 053f 713e 683e
000002e0: 6c57 313e 83d0 843e 7f5b 4cbe 1a73 d53d
000002f0: df65 773e 7124 1a3f f22c 8fbe 87c2 8d3e
00000300: 573c 933e c4ba 263e d77c 483e af08 0cbf
00000310: 749d 993e 5726 413f 5c85 633e 311f b73e
00000320: 7e5a d03e 6ca9 10be 3638 80be 1688 1a3f
00000330: fbca 693f 44d7 ffbe 346b dc3f 3b8e bf3e
00000340: 06b2 bc3d 0b59 35bf 0945 9c3e 7850 f5be
00000350: 5ae7 06bf 7dfa 823e bcbb 06bf 4eef 12bf
00000360: b3f8 2c3e ba19 45be 4c9a 7b3e d806 363f
00000370: 27bf 323f fab4 2c3f 98c5 903f cf55 ed3e
00000380: b764 fdbd 0425 993f 0852 5abf 75e0 313e
00000390: 06a6 cc3f d165 673e c08b 1ebe dcd2 d33d
000003a0: b89c 05bf 6bb0 03bd 9350 d5bf 4fb4 413e
000003b0: 0dea 8c3e 4205 963e 040a 5bbd d238 44be
000003c0: b412 5f3f 0e11 463e 9b9e ba3c e19c 5a3e
000003d0: 1647 113f 4f2d 43bf 327e 85be e573 cc3e
000003e0: 4963 253f 284f 82bf 8b88 d3be 32e2 783e
000003f0: 1336 a3bd 7284 f9be c097 dbbe 8190 213f

lstm.bias_hh_l1 f4 [256]
1.2408025 0.9350364 0.40996984 -0.2773811 0.4713159 -0.19393475 0.17261249 -0.044206955
-0.5435749 -0.24753787 0.4975228 -0.20663449 0.8613207 0.41729164 0.7270891 0.8823986
0.25876823 0.2012664 0.43444952 0.5291406 -0.06346067 -0.35183692 0.097579174 0.11854688
0.4341835 -0.62848645 -0.17084627 0.9606094 0.584904 0.49308026 1.0927354 -0.40702775
0.19777785 0.8888494 0.7379298 -0.9012264 0.4052555 -0.46981826 -0.34530765 1.4464304
-0.16778582 0.7391731 0.37061718 0.5469881 1.7177812 1.0126173 -0.68972456 0.34054416
-0.50200254 -0.033716634 0.083378 0.41075304 0.067147784 -0.32041237 0.59667426 0.5841377
0.2910329 0.4327553 0.80156046 -0.24323119 0.13843791 1.1563768 0.2969749 -0.47250065
-0.9579986 -0.471422 -0.9439911 -0.3834735 0.3303608 0.39536077 -0.54923385 -0.38235706
-0.42881736 -0.2675723 0.9324935 -0.6485927 -0.08341387 0.2880951 -0.93657976 -0.7913677
0.52136254 -0.51045614 0.63603866 -0.21264917 0.40710312 -0.56627196 -0.7640563 -0.4194921
0.16055925 -0.62932444 -0.94578946 -1.6276351 -1.1324468 -1.0572568 -0.8611467 -0.13187467
-0.27638784 -0.67884654 -0.14045334 0.36426973 -0.6919152 0.17755315 -0.4621928 -0.030520076
-0.6214361 0.082696356 0.21755917 -0.28723434 0.32123056 -0.09852048 0.39707547 0.44593033
-0.28951353 -1.0334104 0.21189685 0.2184567 -0.7217377 -0.46765018 0.17379084 -0.33788833
-0.49880353 -0.20935377 0.7736716 -0.7115894 0.25346398 0.22097307 0.8266912 -0.7874981
-0.053269718 -0.2929402 0.17318869 -0.39726263 -0.28415382 -0.5787058 0.24811436 0.10852829
-0.04066631 0.06445884 -0.21773939 0.15611376 0.03469297 -0.009485076 -0.122773156 0.10229582
0.45499223 -0.027009705 -0.2235746 -0.13806982 0.50513303 -0.02869906 0.021094956 0.015980702
-0.04745368 -0.034713767 0.080591984 0.6815037 0.3829127 0.1264139 0.15139937 0.14175966
-0.1872961 0.1553134 0.10939402 0.28032297 -0.06391082 0.019144423 -0.29103628 0.084541075
0.5197133 0.010454525 -0.24691303 -0.2755423 0.20725341 -0.41070083 -0.6220116 -0.14039023
-0.13993648 0.06430689 -0.07113208 -0.17810258 -0.036194414 -0.5324561 0.44646206 0.24516863
-0.004879935 0.2236872 -0.043297656 0.050470605 0.15920125 0.6320037 -0.4056362 0.39235568
0.3461312 0.19815353 0.08405383 -0.49627024 0.3380835 0.6656246 0.2518302 0.45797318
0.54175943 -0.033495054 -0.360378 0.6844708 0.8128516 -0.4743632 1.9071203 0.52514833
-0.02695181 -0.73445135 0.34054378 -0.34581196 -0.51158255 0.06194818 -0.56398565 -0.657055
0.14949124 -0.27546802 0.29901505 0.84530497 0.68397266 0.7822099 1.0489218 0.3155258
-0.20518234 1.109164 -0.8383806 -0.021594109 1.4466783 0.36031568 -0.043062735 0.21576366
-0.33080873 0.08457231 -1.6299694 0.28723425 0.1724779 0.23493561 -0.2105628 -0.32069767
0.99791837 0.23597701 0.018884748 0.10163247 0.42079964 -0.8401881 -0.20815068 0.58824575
0.6467397 -0.9721066 -0.2756703 0.32742283 -0.052995723 -0.35288334 -0.3041471 0.6710992
00000000: 9ed2 9e3f 8c5e 6f3f 91e7 d13e e504 8ebe
00000010: 5150 f13e d596 46be 54c1 303e 5a12 35bd
00000020: ba27 0bbf 917a 7dbe 4fbb fe3e fe97 53be
00000030: 837f 5c3f 40a7 d53e 8322 3a3f e0e4 613f
00000040: 457d 843e c718 4e3e 2b70 de3e c275 073f
00000050: abf7 81bd f823 b4be 97d7 c73d b5c8 f23d
00000060: 4d4d de3e 7de4 20bf 53f2 2ebe 7fea 753f
00000070: 45bc 153f 0475 fc3e c1de 8b3f f165 d0be
00000080: 4786 4a3e a28b 633f f8e8 3c3f c6b6 66bf
00000090: a67d cf3e 058c f0be 2acc b0be a224 b93f
000000a0: 0cd0 2bbe 733a 3d3f 89c1 bd3e 6a07 0c3f
000000b0: 41e0 db3f 729d 813f ca91 30bf ce5b ae3e
000000c0: 3d83 00bf 741a 0abd 16c2 aa3d 394e d23e
000000d0: c784 893d 170d a4be a5bf 183f 0c8a 153f
000000e0: 4402 953e 1a92 dd3e 1133 4d3f 9911 79be
000000f0: abc2 0d3e 2804 943f 180d 983e 9beb f1be
00000100: 653f 75bf 395e f1be 67a9 71bf a356 c4be
00000110: 0d25 a93e ba6c ca3e 979a 0cbf 4ec4 c3be
00000120: f38d dbbe 3dff 88be e5b7 6e3f 2c0a 26bf
00000130: e4d4 aabd 3381 933e b1c3 6fbf 1397 4abf
00000140: 0478 053f 41ad 02bf 6ed3 223f b4c0 59be
00000150: d26f d03e 33f7 10bf 3299 43bf abc7 d6be
00000160: a569 243e 681b 21bf 421f 72bf 5956 d0bf
00000170: 04f4 90bf 3154 87bf 1c74 5cbf 270a 07be
00000180: b582 8dbe e3c8 2dbf 00d3 0fbe 9081 ba3e
00000190: 5b21 31bf 7ed0 353e 89a4 ecbe 3d05 fabc
000001a0: 7016 1fbf b55c a93d d5c7 5e3e 6110 93be
000001b0: 5578 a43e 1bc5 c9bd 7a4d cb3e fb50 e43e
000001c0: 1e3b 94be cb46 84bf 7dfb 583e 1db3 5f3e
000001d0: cdc3 38bf d86f efbe 3af6 313e b3ff acbe
000001e0: 2d63 ffbe d660 56be 580f 463f b92a 36bf
000001f0: 08c6 813e c446 623e 09a2 533f 7a99 49bf
00000200: 5931 5abd 42fc 95be 6058 313e 0266 cbbe
00000210: 9c7c 91be 1026 14bf b111 7e3e 1544 de3d
00000220: b791 26bd ff02 843d 13f7 5ebe 49dc 1f3e
00000230: 371a 0e3d 4b67 1bbc 7e70 fbbd 7980 d13d
00000240: bef4 e83e 7543 ddbc bdf0 64be 2d62 0dbe
00000250: 6650 013f 4b1a ebbc 54cf ac3c f6e9 823c
00000260: ca5e 42bd 0630 0ebd 690d a53d 0777 2e3f
00000270: 220d c43e a572 013e 7008 1b3e 7229 113e
00000280: 8dca 3fbe 7a0a 1f3e f909 e03d 7e86 8f3e
00000290: ade3 82bd c4d4 9c3c b502 95be df23 ad3d
000002a0: ee0b 053f 7549 2b3c c5d6 7cbe e113 8dbe
000002b0: 3d3a 543e 6147 d2be 273c 1fbf 75c2 0fbe
000002c0: 824b 0fbe 55b3 833d b2ad 91bd 8660 36be
000002d0: 9840 14bd 0b4f 08bf ad96 e43e 7c0d 7b3e
000002e0: dde7 9fbb 420e 653e e258 31bd 44ba 4e3d
000002f0: a705 233e ffca 213f 8caf cfbe d8e2 c83e
00000300: 1c38 b13e c2e8 4a3e 6a24 ac3d 2217 febe
00000310: 4819 ad3e 6066 2a3f e3ef 803e 767b ea3e
00000320: bfb0 0a3f 1c32 09bd 7783 b8be 7a39 2f3f
00000330: 0b17 503f bcdf f2be 851c f43f 1f70 063f
00000340: 0bca dcbc 0105 3cbf c15b ae3e 440e b1be
00000350: 13f7 02bf 60bd 7d3d 5d61 10bf c234 28bf
00000360: 3b14 193e 250a 8dbe 8018 993e e865 583f
00000370: d518 2f3f e83e 483f 1243 863f 998c a13e
00000380: 521b 52be 16f9 8d3f 1ca0 56bf 21e6 b0bc
00000390: c12c b93f 4c7b b83e 8d62 30bd 26f1 5c3e
000003a0: c35f a9be 3f34 ad3d d6a2 d0bf 5e10 933e
000003b0: 0c9e 303e f692 703e c69d 57be 7c32 a4be
000003c0: 9477 7f3f f5a3 713e 30b4 9a3c af24 d03d
000003d0: 0d73 d73e 9116 57bf 7425 55be 4697 163f
000003e0: bc90 253f fadb 78bf a824 8dbe f7a3 a73e
000003f0: 0b12 59bd 20ad b4be 2bb9 9bbe 28cd 2b3f
