model/epoch_527.pth (torch_old, 232770 bytes, 10 tensors)

lstm.weight_ih_l0 f4 [256, 20]
0	0x3f617728	0.88072443
1	0x3f562ef7	0.8366541
2	0x3fe31fe7	1.7744111
3	0xbf143cff	-0.5790557
4	0xbdde7f7f	-0.10864162
5	0x3f3f260e	0.7466744
6	0xbe2070dc	-0.15668052
7	0xbe3352a1	-0.17511989
8	0x3f50fd99	0.8163696
9	0xbebac8e7	-0.364814
10	0x3e3b3077	0.18280207
11	0xbddec2d9	-0.10877008
12	0x3f06bd20	0.5263233
13	0xbf3da1fd	-0.740753
14	0x3f92d877	1.147231
15	0xbea3f6c4	-0.32024205
16	0x3f8b9b98	1.0906858
17	0x3ed18a19	0.40925673
18	0x3da5203c	0.08062789
19	0xbe7785a3	-0.24172072
20	0xbfad5cee	-1.3543985
21	0x3f443f31	0.7665892
22	0x3f839e96	1.0282772
23	0xbf02fa6c	-0.51163363
24	0x3ead5d42	0.33860213
25	0x3f76bcfe	0.9638213
26	0x3f1f9546	0.6233715
27	0xbf47d741	-0.78062826
28	0x3fa5b548	1.2945948
29	0x3f5cd462	0.8626157
30	0x3ec9b77a	0.39397794
31	0x3dac64b4	0.08417645
32	0x3f5cdb4b	0.86272115
33	0x3dff9158	0.12478894
34	0x3dc6b379	0.097022004
35	0xbdfb5c30	-0.12273443
36	0xbea7ed61	-0.32798293
37	0x3cf9230a	0.030412216
38	0x3fa0689f	1.2531928
39	0x3eb337c8	0.35003495
40	0x3e86cd22	0.2632838
41	0xbf1ad0a8	-0.60474634
42	0x3f8cab13	1.0989708
43	0x3f981c0c	1.1883559
44	0xbf07b3f4	-0.5300896
45	0x3df9c854	0.12196413
46	0xbeadab33	-0.33919677
47	0xbd853ac5	-0.0650535
48	0x3fc086ea	1.5041173
49	0x3e06f800	0.13180542
50	0xbe81cc4e	-0.25351185
51	0xbf058f39	-0.52171665
52	0x3f857879	1.042739
53	0x3f0110aa	0.5041605
54	0x3f9ab556	1.2086589
55	0x3f5138bc	0.81727195
56	0x3f53bfa2	0.82714283
57	0xbea386e9	-0.31938866
58	0xbef0467c	-0.46928775
59	0x3f82d4f3	1.0221237
60	0x3faa2da9	1.3295184
61	0x3f6e346d	0.93048745
62	0xbf8b422c	-1.0879569
63	0x3f11b5e4	0.5691817
64	0x3d9d72c4	0.076879054
65	0xbed8ced0	-0.42345285
66	0x3efce12d	0.49390545
67	0x3ebe74bc	0.37198436
68	0xbed30d2f	-0.41220996
69	0x3fc849f0	1.5647564
70	0xbe5224d4	-0.20521861
71	0x3d8e71cb	0.06955298
72	0x3f80781b	1.0036653
73	0xbf604a3f	-0.8761329
74	0x3fe775f0	1.8082867
75	0x3ddfbfe3	0.10925271
76	0x3e3dcedd	0.18535943
77	0x3f3458ad	0.7044781
78	0x3f526d0c	0.8219764
79	0x3f0d70ca	0.5525023
80	0x3e5243f3	0.20533733
81	0xbe6eebc3	-0.23332123
82	0xbe1f10a6	-0.15533695
83	0x3d9f714f	0.07785284
84	0x3db6d034	0.0892643
85	0x3e5f7067	0.21820222
86	0x3e61c719	0.22048606
87	0xbeaf8c38	-0.34286666
88	0x3f6fb89b	0.9364106
89	0x3de12798	0.1099388
90	0x3d1e0ef2	0.03858847
91	0xbe137712	-0.1440089
92	0x3ed6fea8	0.41991162
93	0xbf09e5d9	-0.53866345
94	0x3efa1a90	0.4884839
95	0xbe333beb	-0.17503326
96	0x3e5cde85	0.2156926
97	0x3eb32c6d	0.34994832
98	0x3ea86360	0.32888317
99	0x3f967254	1.175364
100	0x3e39807d	0.1811542
101	0x3fced77d	1.6159512
102	0xbf1fdfa2	-0.6245061
103	0x3f35975e	0.70934093
104	0xbeee78c8	-0.46576524
105	0x3ed54850	0.41656733
106	0xbee17a95	-0.44038835
107	0xbf126b36	-0.5719484
108	0xbf0751d1	-0.52859217
109	0xbdd4c155	-0.10388438
110	0x3e891d0b	0.2677997
111	0x3ea70608	0.3262179
112	0x3f090a52	0.5353137
113	0xbe5d618d	-0.21619244
114	0xbcccf125	-0.02501733
115	0x3f169631	0.58822924
116	0x3e865c56	0.26242322
117	0xbc473365	-0.0121582495
118	0xbf9ae08f	-1.209978
119	0x3ee9bd20	0.45652103
120	0xbeba5b75	-0.363979
121	0xbe51015f	-0.2041068
122	0x3fc63678	1.5485373
123	0xbf184ae5	-0.5948928
124	0x3e97023f	0.294939
125	0xbcadf7ff	-0.021236418
126	0xbd306909	-0.04306892
127	0x3f68144b	0.90655965
128	0x3f5eccc7	0.87031215
129	0x3f66cc5a	0.90155566
130	0x3e810a93	0.2520338
131	0xbed6adfa	-0.4192961
132	0x3e3ed3a3	0.1863542
133	0xbe9aec29	-0.302583
134	0xbe93a488	-0.28836465
135	0x3eb88244	0.36036885
136	0xbf4433af	-0.7664136
137	0x3e171f69	0.14758076
138	0x3f9649a6	1.1741226
139	0xbf197f3b	-0.59959763
140	0x3e751732	0.2393463
141	0x3efdf0a1	0.49597648
142	0x3f5b8eea	0.85764945
143	0xbd5dcf0a	-0.054152526
144	0x3f9bea32	1.2180846
145	0x3eb4a7a3	0.35284147
146	0xbd105bd9	-0.035243843
147	0x3f1cdbdd	0.61272985
148	0xbf6d9dc5	-0.9281886
149	0x3db0df8d	0.08636389
150	0xbe10407e	-0.14087102
151	0xbc5c024c	-0.013428282
152	0x3e48a45b	0.19593947
153	0xbe03018d	-0.1279356
154	0x3f2941f4	0.6611626
155	0xba58a547	-0.00082643743
156	0xbdf11ce8	-0.117730916
157	0xbda3ab18	-0.07991618
158	0xbf06b908	-0.52626085
159	0x3f0389ab	0.5138194
160	0xbf22a407	-0.63531536
161	0x3fd1fcde	1.6405294
162	0x3d5d00dc	0.053955898
163	0x3dde1b52	0.10845055
164	0xbe299991	-0.16562487
165	0xbf8920bf	-1.0713118
166	0x3f543927	0.8289971
167	0x3f1fa522	0.6236135
168	0xbdc1584e	-0.09440671
169	0x3ecc462f	0.39897296
170	0xbe422da6	-0.18962726
171	0x3eab01ce	0.33399814
172	0x3e9f7f99	0.31152037
173	0x3e85d0c7	0.26135847
174	0xbed5f01f	-0.4178476
175	0xbd9558d4	-0.07292333
176	0x3fbc1af3	1.4695724
177	0x3f9f4973	1.244429
178	0xbf808a9c	-1.00423
179	0xbe9d5a4b	-0.3073295
180	0x3edc65a3	0.43046293
181	0xbd65328d	-0.055956412
182	0xbe8cffd2	-0.27538925
183	0x3ed92a54	0.42415106
184	0xbf03b721	-0.5145131
185	0xbf6c0d01	-0.9220734
186	0x3f0b6433	0.54449767
187	0xbf90193b	-1.12577
188	0xbee68959	-0.45026663
189	0x3e9c2d86	0.30503482
190	0x3de1844f	0.11011564
191	0x3e165fa2	0.14684919
192	0x3f50aff4	0.81518483
193	0xbee91d23	-0.45530042
194	0x3d34cac2	0.044138677
195	0x3eedaab1	0.4641929
196	0x3dc08817	0.09400957
197	0xbebbaaa0	-0.36653614
198	0x3eeaf630	0.4589095
199	0x3eae9095	0.34094682
200	0xbf7f6214	-0.9975903
201	0xbe8ab88e	-0.2709393
202	0x3ee38306	0.444359
203	0x3e621250	0.22077298
204	0x3d9b43e3	0.07581308
205	0xbd8c70bb	-0.06857439
206	0xbd55a2a2	-0.05215705
207	0x3f91ce64	1.139111
208	0x3f22420f	0.6338205
209	0x3f364e90	0.71213627
210	0x3e0662b4	0.1312359
211	0x3eb996f8	0.36247993
212	0x3dffa613	0.12482848
213	0x3e89de2a	0.2692731
214	0x3f5f8d33	0.8732483
215	0xbdbefc33	-0.09325447
216	0x3e9c1728	0.30486417
217	0x3f88fab4	1.0701509
218	0x3f27fe26	0.65622175
219	0xbf55a222	-0.8345052
220	0xbe894341	-0.26809123
221	0x3f1ef61c	0.62094283
222	0x3e3e25b5	0.18569072
223	0xbea68599	-0.32523802
224	0xbdbccfa1	-0.092192896
225	0x3f097cbc	0.53705955
226	0xbd9b13a3	-0.07572105
227	0x3f929231	1.1450864
228	0x3f9237f6	1.1423328
229	0x3f455e72	0.7709724
230	0xbea0e6db	-0.3142613
231	0x3dddf9e4	0.108386785
232	0x3dccf948	0.10008484
233	0xbe0562c9	-0.13025965
234	0x400e8fab	2.2275188
235	0x3e29ed7c	0.165945
236	0x3f20f065	0.6286681
237	0xbe99eda3	-0.30064115
238	0xbf80a250	-1.0049534
239	0x3f890fd4	1.0707955
240	0xbfd0c0c1	-1.6308824
241	0xbee435d9	-0.44572333
242	0xbed76c14	-0.42074645
243	0x3ed63964	0.4184066
244	0xbf561e95	-0.83640414
245	0x3f12550c	0.5716102
246	0x3e9051e1	0.2818747
247	0xbf8b3ca7	-1.0877885
248	0x3d32b6e5	0.043631453
249	0xbf03128c	-0.51200175
250	0x3d65bf79	0.056090806
251	0x3f69ad65	0.91280204
252	0x3f92733f	1.144142
253	0x3f5f8041	0.87305075
254	0x3f168763	0.58800334
255	0xbecb302c	-0.3968519

lstm.weight_hh_l0 f4 [256, 64]
0	0xbc2874e5	-0.010281776
1	0x3dacecb3	0.08443584
2	0x3e86310a	0.2620929
3	0xbbb18983	-0.005418004
4	0x3f1f9f4e	0.62352455
5	0x3f129c50	0.57269764
6	0x3e9fd0ba	0.31213933
7	0x3f2f8e01	0.68576056
8	0xbeeb0738	-0.45903945
9	0x3f31bc82	0.69428265
10	0xbe71c15c	-0.23608917
11	0xbe22db5d	-0.15903993
12	0x3da9d240	0.08292055
13	0xbef27070	-0.47351408
14	0x3e9682b8	0.29396605
15	0xbf37faca	-0.7186705
16	0xbf8ed355	-1.1158243
17	0x3db099fd	0.08623121
18	0xbe102424	-0.14076287
19	0x3e1e224e	0.15442774
20	0x3e9f0871	0.31061128
21	0x3d24f31d	0.040270913
22	0xbe92423b	-0.28566155
23	0x3bfd91ec	0.0077383425
24	0xbebfad0b	-0.3743671
25	0xbf441c18	-0.7660537
26	0xbeb8fa2f	-0.36128375
27	0xbe55b02e	-0.20867988
28	0xbe9c428d	-0.30519524
29	0x3e1aaddc	0.15105385
30	0xbe0f2809	-0.13980116
31	0x3f08d2cd	0.53446656
32	0xbe64396a	-0.22287527
33	0x3f1f103e	0.6213416
34	0xbe844dbe	-0.25840563
35	0x3e465876	0.19369683
36	0xbe9a180a	-0.30096465
37	0x3e6243f8	0.2209624
38	0x3d814449	0.063118525
39	0xbd43ba8c	-0.047785327
40	0xbe8e12b8	-0.27748656
41	0xbf51281c	-0.8170183
42	0x3eabcbcb	0.3355392
43	0xbceceb82	-0.028920893
44	0xbed186e8	-0.40923238
45	0xbe4a172e	-0.19735405
46	0xbe8ad4b3	-0.27115402
47	0x3ca65c5d	0.020307714
48	0x3cdc7906	0.026913177
49	0x3ec25f7b	0.3796347
50	0xbec55637	-0.3854234
51	0x3ef014c8	0.46890855
52	0x3f18ebdc	0.5973489
53	0xbf22c2c0	-0.63578415
54	0xbe953061	-0.29138473
55	0x3f3d6358	0.7397971
56	0x3e3d5a53	0.18491487
57	0x3f088d8a	0.5334097
58	0x3ee2f5c1	0.4432812
59	0x3e96cf20	0.294549
60	0xbd86de82	-0.06585409
61	0xbf218d55	-0.6310628
62	0xbe3a342b	-0.18183963
63	0x3e9cbcc0	0.30612755
64	0xbeaafe68	-0.33397222
65	0x3ed93dd5	0.42429987
66	0x3de1e8b1	0.110307105
67	0x3dd8980c	0.10575876
68	0xbf188930	-0.5958433
69	0x3ec79155	0.38978067
70	0x3e904fef	0.28185984
71	0x3ebfc24e	0.3745293
72	0x3ea78f74	0.32726634
73	0x3f01340d	0.5047005
74	0x3e80d4d2	0.2516237
75	0xbe456e37	-0.19280325
76	0xbee3e05e	-0.44507116
77	0x3e57c87b	0.21072571
78	0x3e66a48b	0.22523706
79	0xbf06cfc1	-0.5266076
80	0xbf0c6172	-0.5483619
81	0xbe7d392a	-0.24728838
82	0xbf12eccc	-0.57392573
83	0x3f81bad9	1.0135146
84	0x3f3773c9	0.7166105
85	0x3e3b2adf	0.18278073
86	0x3e40816c	0.1879937
87	0x3dab9105	0.0837727
88	0xbd911cc1	-0.070855625
89	0xbce9e672	-0.028552268
90	0x3d38f663	0.045156848
91	0xbecb4fd0	-0.3970933
92	0xbe2d745e	-0.16938922
93	0x3e39d4c3	0.18147568
94	0xbef2d187	-0.47425482
95	0x3ef69ecd	0.4816803
96	0xbe81ddce	-0.25364536
97	0x3f546efe	0.8298186
98	0xbf12639b	-0.57183236
99	0xbdd2a56e	-0.102854595
100	0xbf2b29a9	-0.66860443
101	0x3d1d0870	0.038338125
102	0x3cc4a426	0.024004053
103	0x3e33a5f9	0.17543782
104	0xbe19636c	-0.14979333
105	0xbd8c3da4	-0.068476945
106	0xbed78612	-0.42094475
107	0xbf0987b3	-0.53722686
108	0xbda416d6	-0.08012168
109	0x3d98410e	0.07434283
110	0x3e0ccfe5	0.1375118
111	0xbd8f86bf	-0.07008123
112	0xbef3efb1	-0.47643808
113	0xbe23e626	-0.16005763
114	0xbf6983b2	-0.91216576
115	0x3e8c2da4	0.2737857
116	0xbc588501	-0.013215304
117	0x3c11ae82	0.008891704
118	0x3daa81cf	0.0832554
119	0x3f1a37f3	0.6024162
120	0xbe3876d2	-0.18014076
121	0x3dab2695	0.08356968
122	0x3ed6afb2	0.4193092
123	0x3f15fed9	0.5859199
124	0x3dee5f3f	0.116392605
125	0xbf122392	-0.57085526
126	0xbe1af21a	-0.15131417
127	0x3e0d95bf	0.13826655
128	0xbe6a3d7d	-0.22875018
129	0x3f44a392	0.7681209
130	0x3e9157e0	0.28387356
131	0x3f1d78ba	0.6151234
132	0x3e672b17	0.22575031
133	0xbf111006	-0.56665075
134	0x3e87dcca	0.26535636
135	0xbef8db34	-0.4860474
136	0xbe04d097	-0.12970196
137	0x3d8d00ff	0.068849556
138	0x3d7a6fa8	0.06114164
139	0xbee37ae5	-0.444297
140	0xbebf558a	-0.3736995
141	0xbe614423	-0.21998648
142	0xbdc1ab3d	-0.09456489
143	0x3df7a51b	0.12092038
144	0xbec1ff36	-0.37890023
145	0x3e35e641	0.17763616
146	0xbe51ce35	-0.20488818
147	0xbe153d53	-0.14574175
148	0x3e868333	0.26271972
149	0xbf026ce6	-0.50947416
150	0xbf797373	-0.97441787
151	0xbe46b94e	-0.19406626
152	0xbdde8d98	-0.108668506
153	0xbe07f36d	-0.13276453
154	0xbc0dedef	-0.008662685
155	0xbedb7024	-0.42858994
156	0x3edaec94	0.4275862
157	0xbdc34579	-0.09534735
158	0xbf25d626	-0.6477989
159	0xbc845e9b	-0.016158393
160	0xbf1fcb0a	-0.6241919
161	0xbe3da631	-0.18520428
162	0xbeb5576c	-0.3541826
163	0xbf2f583c	-0.6849401
164	0xbe8125ce	-0.25224155
165	0x3f2943ad	0.6611889
166	0x3dd8e97f	0.10591411
167	0x3f2a86cc	0.66611934
168	0xbe48f62c	-0.19625157
169	0xbd2011f0	-0.039079607
170	0xbe07962e	-0.13240883
171	0x3ed794e0	0.4210577
172	0xbe8b5398	-0.27212214
173	0xbc6d75a7	-0.014493383
174	0xbf199fc1	-0.6000939
175	0xbe905835	-0.28192297
176	0xbea05274	-0.31312907
177	0xbe194a20	-0.14969683
178	0xbeb5e891	-0.35528997
179	0x3ec375ae	0.3817572
180	0x3e08a9b3	0.13345985
181	0xbd3a8ee1	-0.045546416
182	0xbe1fc4f5	-0.15602477
183	0x3f1701ce	0.5898713
184	0x3e946d46	0.2898962
185	0xbecb55f2	-0.3971401
186	0xbf240f1d	-0.6408556
187	0xbda0a33d	-0.07843635
188	0xbca42df4	-0.020041443
189	0xbe798afc	-0.24369425
190	0xbf4008c4	-0.75013375
191	0x3cbed9c4	0.023297198
192	0xbf24ae97	-0.643289
193	0x3f0c5bc3	0.5482752
194	0xbec45049	-0.38342503
195	0xbd8cb019	-0.068695255
196	0x3e8479a0	0.25874043
197	0xbe5c727d	-0.21528049
198	0x3e0fc641	0.14040472
199	0x3e9067da	0.28204232
200	0xbf1b53f8	-0.60675
201	0x3dc96d8e	0.09835349
202	0x3e737d81	0.23778345
203	0x3d137f32	0.036009975
204	0xbed9d3fc	-0.42544544
205	0x3d88be0d	0.06676874
206	0x3d33dc1b	0.04391108
207	0xbf4561c5	-0.7710231
208	0xbed44d74	-0.41465342
209	0xbcddc69c	-0.027072243
210	0xbf437eeb	-0.76365536
211	0x3f8740eb	1.0566686
212	0x3e7de193	0.24793081
213	0xbe841952	-0.25800568
214	0x3f14da1c	0.5814531
215	0xbddcb766	-0.10777168
216	0xbf2b2e66	-0.66867673
217	0x3de09aa6	0.10966997
218	0xbee80328	-0.45314908
219	0xbe24cd6a	-0.16093984
220	0x3ef67f9e	0.4814424
221	0xbe7bb4d1	-0.24580695
222	0xbebb00c6	-0.36524028
223	0xbebdee64	-0.3709594
224	0xbe3a2e6f	-0.18181776
225	0xbcf16adc	-0.0294699
226	0xbf496325	-0.7866691
227	0xbdba8244	-0.091068774
228	0xbeab5541	-0.3346348
229	0x3ef0c2b0	0.47023535
230	0xbd8f5f90	-0.07000649
231	0xbe566aac	-0.2093913
232	0xbf26371c	-0.6492784
233	0xbe75ba23	-0.23996787
234	0x3ece0c99	0.40243986
235	0x3f0323e8	0.51226664
236	0xbf276208	-0.6538396
237	0xbf094d48	-0.53633547
238	0xbf060aef	-0.52360433
239	0xbd5affb2	-0.053466506
240	0xbe847126	-0.25867575
241	0xbe4dead9	-0.20109119
242	0xbf270a29	-0.6524988
243	0x3f4b7b57	0.79485077
244	0xbe95730e	-0.29189342
245	0xbed829f6	-0.42219514
246	0x3ec47539	0.38370684
247	0x3f5c0b75	0.8595498
248	0x3e28128f	0.1641333
249	0x3dae1a49	0.08501107
250	0x3ec3d27b	0.3824652
251	0xbf0f95cc	-0.56087947
252	0xbe9dd3fa	-0.30825788
253	0xbf21a00a	-0.63134825
254	0x3c8cc492	0.017183576
255	0xbcd3e54a	-0.02586617

lstm.bias_ih_l0 f4 [256]
0	0x3e494bb8	0.1965779
1	0x3ea7f697	0.3280532
2	0x3f074f09	0.52854973
3	0x3f2c0733	0.67198485
4	0x3e5bcb56	0.21464285
5	0x3f1b7377	0.6072306
6	0x3f0dd4e8	0.55402994
7	0x3e9b39c3	0.30317506
8	0x3e82f331	0.25576165
9	0x3e972804	0.29522717
10	0x3e4c1220	0.19928789
11	0x3e970446	0.29495448
12	0x3e1007c9	0.1406547
13	0x3d155627	0.036459114
14	0x3ee509e2	0.44734102
15	0x3ec34962	0.38141924
16	0x3ec7f6d6	0.39055508
17	0x3e64682e	0.22305366
18	0x3e52b94c	0.20578498
19	0x3ecd5ccb	0.40109858
20	0x3e6602a0	0.22461939
21	0x3eb80c5b	0.35946926
22	0x3d272133	0.040803146
23	0x3efab021	0.489625
24	0x3eb6b6a0	0.35686207
25	0x3eab4f83	0.334591
26	0x3d07c94d	0.03315096
27	0x3e444311	0.19166209
28	0x3e0a6fad	0.13519163
29	0x3eb8221c	0.35963523
30	0x3ea8a704	0.32939923
31	0x3e8ba876	0.27276963
32	0x3ec65a33	0.38740692
33	0x3ea31222	0.31849772
34	0x3e754b02	0.23954394
35	0x3e999b30	0.3000121
36	0x3ec81287	0.39076635
37	0x3e9d8006	0.30761737
38	0x3ecc8b6d	0.39950123
39	0x3e3bf4fb	0.18355171
40	0x3eee7b00	0.46578217
41	0x3ec4ca2e	0.384355
42	0x3de0b9da	0.10972948
43	0x3ee2527f	0.44203565
44	0x3f161dea	0.58639395
45	0x3ded7521	0.11594606
46	0x3ef62b3b	0.48079857
47	0x3e90c196	0.28272694
48	0x3ecdd3a6	0.40200537
49	0x3e7087d3	0.23489313
50	0x3ec9d077	0.3941686
51	0x3e5a0adc	0.21293205
52	0x3ea51494	0.32242262
53	0x3e69acbf	0.22819804
54	0x3f0b6eab	0.5446574
55	0x3ea1c3cf	0.31594703
56	0x3e79343e	0.24336335
57	0x3ea6c0a8	0.3256886
58	0x3e9314b2	0.28726727
59	0x3f2ecd4d	0.68282014
60	0x3f263609	0.649262
61	0x3e3068b9	0.17227449
62	0x3eec9c11	0.4621282
63	0x3ebe597c	0.37177646
64	0x3dca1ff6	0.09869377
65	0x3d1a501e	0.037674062
66	0x3e05c9f8	0.13065326
67	0x3d9d5dd5	0.07683913
68	0x3dfcd920	0.12346101
69	0x3cf059c2	0.029339675
70	0x3d398f40	0.04530263
71	0x3c7ccf72	0.015430318
72	0x3d878daf	0.06618821
73	0x3e5f4c4b	0.21806447
74	0x3e66d54f	0.22542308
75	0x3e492aa1	0.19645168
76	0xbd829c16	-0.06377427
77	0x3eb3a6f2	0.35088307
78	0x3e185268	0.14875185
79	0xbe0ef798	-0.13961637
80	0x3e463a5f	0.19358204
81	0xbde79f92	-0.113097325
82	0x3e97e1c3	0.2966443
83	0xbbba0c44	-0.0056777317
84	0xbd93fbe6	-0.0722578
85	0xbbde7dd5	-0.0067899027
86	0x3d19368e	0.037405543
87	0x3e5b4f71	0.21417023
88	0xbc31d0c2	-0.010852994
89	0x3e187db8	0.14891708
90	0x3d8a6df1	0.06759251
91	0x3e598e96	0.21245798
92	0x3e3534a2	0.17695859
93	0x3e0ac3fd	0.13551326
94	0x3e960819	0.29303053
95	0x3db31315	0.08743874
96	0x3edccfc0	0.4312725
97	0x3d585ebe	0.05282473
98	0x3d380ab8	0.044932097
99	0x3d96ff08	0.07372862
100	0x3ac39391	0.0014921298
101	0x3e838bdb	0.2569264
102	0x3d102116	0.035187803
103	0xbd448545	-0.04797866
104	0x3c1d28d4	0.009592254
105	0x3ce1c15d	0.027558023
106	0x3e37dda1	0.17955638
107	0x3e1c964e	0.15291712
108	0x3e75f6ff	0.24020003
109	0x3d8d1d45	0.06890348
110	0x3e432289	0.19056143
111	0xbb657751	-0.0035013745
112	0x3e02701f	0.12738083
113	0x3e07ba91	0.13254763
114	0x3d3eacf5	0.046551663
115	0x3d08e1bb	0.0334184
116	0x3c8c9f57	0.017165823
117	0x3e65f59b	0.22456972
118	0xbd5279c7	-0.051385667
119	0x3eadc6f8	0.33940864
120	0x3d5eafa6	0.05436673
121	0x3ea622e9	0.3244851
122	0xbdc60e72	-0.09670724
123	0x3d4384aa	0.04773394
124	0x3e1d9da9	0.15392174
125	0x3ea66dbc	0.32505596
126	0x3d14a99a	0.036294557
127	0x3ddebc97	0.108758144
128	0xbd4a355e	-0.0493673
129	0x3d2a18a1	0.041527394
130	0xbbc3deba	-0.005977479
131	0x3dd840d1	0.10559238
132	0xbcf2f09b	-0.029655745
133	0xbc9629c9	-0.018330472
134	0xbc8670a2	-0.01641113
135	0xbd198b3c	-0.0374863
136	0xbdf10692	-0.11768831
137	0x3e0721bc	0.13196462
138	0x3dedfde8	0.116206944
139	0xbd523f2b	-0.051329773
140	0xbd3ecb93	-0.046580862
141	0xbdd5eb9b	-0.10445329
142	0x3d157c00	0.03649521
143	0xbd9952ae	-0.07486473
144	0xbdcfeaa7	-0.10152178
145	0x3ce2db12	0.027692351
146	0x3d4fc1cd	0.050721932
147	0x3d8d80cc	0.06909332
148	0xbcc43962	-0.023953144
149	0xbdf36271	-0.118840106
150	0xbd8831f9	-0.066501565
151	0xbd83b936	-0.064318106
152	0xbdc577cc	-0.0964199
153	0xbde3f734	-0.11131135
154	0x3d90439f	0.07044148
155	0xbe0c9a36	-0.13730702
156	0x3e296e82	0.16546062
157	0xbb90052e	-0.0043951487
158	0xbe17aaf0	-0.14811301
159	0x3dd7ccbc	0.10537097
160	0xbd9030f3	-0.07040586
161	0xbda54da2	-0.08071448
162	0xbe35205f	-0.1768813
163	0xbc366991	-0.011133567
164	0x3dba27a2	0.090895906
165	0xbc78eb5f	-0.015192836
166	0x3c64a5ca	0.013955543
167	0xbd8b1723	-0.06791522
168	0xbdd68146	-0.10473876
169	0xbd7ad9dd	-0.061242927
170	0xba61398a	-0.0008591643
171	0xbd7bf4ea	-0.061512865
172	0xbe49a530	-0.1969192
173	0xbc8de4d9	-0.017321037
174	0xbd12ed46	-0.035870813
175	0xbda5dbe5	-0.08098582
176	0xbdd041ea	-0.10168822
177	0xbba0dc02	-0.0049090395
178	0xbdee55d8	-0.11637467
179	0x3da57be3	0.0808027
180	0x3d8b3507	0.067972235
181	0x3d73f3da	0.059558727
182	0x3c69f91c	0.014280584
183	0x3bd9e83d	0.0066499994
184	0x3df3d946	0.11906676
185	0x3d858b11	0.065206654
186	0xbafc0580	-0.0019227713
187	0xbe1d9bb8	-0.15391433
188	0xbc87273d	-0.016498202
189	0x3bdd3bc1	0.006751508
190	0xbe12e14c	-0.14343756
191	0x3dea2fef	0.11434924
192	0x3df9ab34	0.121908575
193	0x3e806777	0.25078937
194	0x3eb492ab	0.3526815
195	0x3f0a1433	0.5393707
196	0x3e856208	0.26051354
197	0x3ead15c9	0.33805683
198	0x3ea2dcd2	0.31809098
199	0x3c88a972	0.01668236
200	0x3e314f3e	0.17315385
201	0x3e56ada7	0.2096468
202	0x3e3376de	0.17525813
203	0x3dda4bae	0.10658966
204	0x3e3f3b7f	0.1867504
205	0xbc9b4e11	-0.018958123
206	0x3eedb64d	0.46428147
207	0x3e636b45	0.22208889
208	0xbce609a3	-0.028080767
209	0x3e71db87	0.236189
210	0x3dfa224f	0.12213575
211	0x3d788626	0.06067481
212	0x3e4d96f8	0.20077121
213	0x3e06ed31	0.13176419
214	0x3d862cc3	0.06551506
215	0x3ea1d91c	0.31610954
216	0x3de96f9c	0.11398241
217	0x3b0b31bd	0.0021239363
218	0xbe129e41	-0.14318182
219	0x3e2da307	0.16956721
220	0x3c948e48	0.018134251
221	0x3ea558b2	0.32294232
222	0x3e274577	0.16335092
223	0x3eacbbeb	0.3373712
224	0x3e631f97	0.2218002
225	0x3eab3647	0.33439848
226	0x3e110fd4	0.14166194
227	0x3e833b62	0.25631243
228	0x3e92795a	0.2860821
229	0x3e213f95	0.15746911
230	0x3ebc0512	0.36722618
231	0x3e315f32	0.1732147
232	0x3e87d67c	0.26530826
233	0x3e27e54d	0.16396065
234	0x3dda22b4	0.1065115
235	0x3e670f90	0.2256453
236	0x3ec01f3a	0.37523824
237	0x3ecf01db	0.40431103
238	0x3e31868a	0.17336479
239	0x3e321ae9	0.17393078
240	0x3eac2396	0.336209
241	0x3f245e92	0.642068
242	0x3eee11e8	0.46498036
243	0x3e0d498f	0.13797592
244	0x3ec993af	0.39370486
245	0x3dc92029	0.09820587
246	0x3f26459e	0.6494998
247	0x3e99e4b6	0.30057305
248	0x3e53873c	0.20657057
249	0x3d65c246	0.056093477
250	0x3e93cf81	0.2886925
251	0x3f0996f8	0.53745985
252	0x3f1dd61d	0.61654836
253	0x3da72174	0.081606776
254	0x3e82e095	0.25561967
255	0x3e124fe0	0.14288282

lstm.bias_hh_l0 f4 [256]
0	0x3da9b60e	0.08286677
1	0x3e920028	0.28515744
2	0x3f0304d6	0.51179254
3	0x3efc87b5	0.49322286
4	0x3e92cf1a	0.2867363
5	0x3f101235	0.5627778
6	0x3ef428a1	0.47687247
7	0x3eadcf50	0.3394723
8	0x3ed91c58	0.42404437
9	0x3e769dba	0.24083605
10	0x3eb3f186	0.35145205
11	0x3e806b22	0.25081736
12	0x3e28cab7	0.1648358
13	0x3e5f6dbb	0.21819203
14	0x3ee40d3e	0.44541353
15	0x3e7c077e	0.24612233
16	0x3f12c6c5	0.5733455
17	0x3ea13607	0.31486532
18	0xbb7193c2	-0.0036861752
19	0x3e621825	0.22079523
20	0x3e6fa581	0.23402978
21	0x3e91da9e	0.28487104
22	0x3e83d4fb	0.2574843
23	0x3eeb575e	0.45965093
24	0x3eeca440	0.46219063
25	0x3eea7ae0	0.4579687
26	0x3e225957	0.15854393
27	0xb97beed6	-0.00024026199
28	0x3e4b9e96	0.19884714
29	0x3ede064f	0.43364188
30	0x3ecf464c	0.4048332
31	0x3ea42a8d	0.32063714
32	0x3eefca42	0.46833998
33	0x3ec99f83	0.3937951
34	0x3e9bb22d	0.30409375
35	0x3ebeb1b0	0.3724494
36	0x3e9442b2	0.28957134
37	0x3e9ab9a3	0.30219755
38	0x3eabaa15	0.335282
39	0x3e2e6ef3	0.17034511
40	0x3e93b1ab	0.28846487
41	0x3ed64791	0.41851476
42	0xbcbb1be6	-0.022840451
43	0x3e68dd29	0.22740616
44	0x3f3506e2	0.7071363
45	0x3e94225f	0.28932473
46	0x3e80829f	0.25099656
47	0x3ea89ac6	0.32930583
48	0x3e4d3a61	0.20041801
49	0x3ea848a0	0.32867908
50	0x3ea3d8d8	0.32001376
51	0x3ea389a4	0.3194095
52	0x3ef166a6	0.47148627
53	0x3e15b29e	0.14618918
54	0x3ecb8f55	0.3975779
55	0x3ea5ed1b	0.3240746
56	0x3e8be5ce	0.27323765
57	0x3ed83d81	0.42234424
58	0x3e9ed2a2	0.31020075
59	0x3f1dcc7c	0.61640143
60	0x3f3d94e2	0.740553
61	0x3ea05088	0.3131144
62	0x3ee734ff	0.4515762
63	0x3e16735a	0.1469244
64	0x3dcd736a	0.10031779
65	0x3dbc22d9	0.09186334
66	0x3e532364	0.20618969
67	0x3d8e1738	0.069380224
68	0x3e88453c	0.26615322
69	0x3d70f6af	0.058829006
70	0xbd70a00d	-0.058746386
71	0x3cfb6cc9	0.030691521
72	0x3e12e89d	0.14346547
73	0x3deab5e1	0.11460472
74	0x3e864e25	0.26231495
75	0x3e1550dc	0.14581627
76	0x3dcb4f3e	0.099272236
77	0x3ea53f33	0.3227478
78	0x3e0391b0	0.12848544
79	0x3d6fc9f7	0.058542218
80	0x3e1e525a	0.15461102
81	0xbc5d56bb	-0.013509448
82	0x3e6631c8	0.22479928
83	0x3d7e1475	0.062031228
84	0xbb24f6ab	-0.002517144
85	0x3dcfe447	0.10150962
86	0xbe0af2f9	-0.13569249
87	0x3e2d487b	0.1692218
88	0x3dde54e3	0.108560346
89	0x3e1888eb	0.1489598
90	0x3d483985	0.04888298
91	0x3dd22fe2	0.10263039
92	0xbd068cd4	-0.032849148
93	0x3c5d7a92	0.013517993
94	0x3e490184	0.19629484
95	0x3e5f2e14	0.21794921
96	0x3eee5012	0.46545464
97	0x3dc1a9af	0.09456193
98	0x3e0f60d5	0.14001782
99	0x3df62a23	0.12019756
100	0x3d106e95	0.03526171
101	0x3e25fb74	0.16209203
102	0x3dd8c85e	0.10585092
103	0xbc62e73a	-0.013849074
104	0x3aba7651	0.0014225935
105	0x3d857b4b	0.06517657
106	0x3e014a5f	0.12626027
107	0x3cd94b60	0.0265252
108	0x3e1af4ea	0.1513249
109	0x3da10c5c	0.078636855
110	0x3e8ac364	0.27102196
111	0x3dd475ed	0.10374055
112	0x3dc88594	0.09791103
113	0xbd4b363f	-0.04961228
114	0xbdbad648	-0.09122902
115	0x3e69e31a	0.22840539
116	0x3d02118d	0.03175502
117	0x3d9aae13	0.07552733
118	0xbd49cc43	-0.049267065
119	0x3e81b9b8	0.25337005
120	0x3bf19fca	0.0073737847
121	0x3e2f4d49	0.17119326
122	0xbd981286	-0.07425408
123	0x3e6193fe	0.22029111
124	0x3e0081ef	0.12549566
125	0x3ebbcaa3	0.36678037
126	0x3da936d8	0.08262414
127	0x3e946064	0.2897979
128	0xbdf0fe35	-0.11767236
129	0x3c88a2f0	0.016679257
130	0xbe064d63	-0.13115458
131	0x3df1c4ec	0.11805138
132	0x3cf3c058	0.029754803
133	0xbe0c51ce	-0.13703081
134	0xbcd289bf	-0.025700448
135	0x3e35d094	0.17755347
136	0xbbb2b492	-0.0054536546
137	0xbc115f88	-0.008872874
138	0x3d26345b	0.040577274
139	0xbe1f79b2	-0.15573767
140	0x3dd3f375	0.1034917
141	0xbe22bb16	-0.1589168
142	0x3d95318a	0.072848395
143	0xbd78661a	-0.060644247
144	0xbdeee31c	-0.116644114
145	0x3d7c8033	0.061645698
146	0x3c3b3acf	0.011427595
147	0x3dc3399f	0.09532475
148	0x3d8f5ae9	0.069997616
149	0x3c1f4369	0.009720662
150	0xbd42bf32	-0.04754562
151	0x3bdf12e1	0.0068076705
152	0xbcfd90d4	-0.030952848
153	0x3d07a1c4	0.033113256
154	0xbd8328d2	-0.0640427
155	0xbd853b92	-0.06505503
156	0xbcfa1081	-0.030525448
157	0xbcb8dc35	-0.02256594
158	0xbdc212e1	-0.09476257
159	0xbcb5e1c7	-0.022202386
160	0xbd309431	-0.043110076
161	0xbcbe166b	-0.02320405
162	0xbe5c2ec2	-0.21502212
163	0xbd34e57c	-0.044164166
164	0x3dadfbb4	0.08495274
165	0x3e206a6e	0.156656
166	0x3d3468f5	0.044045407
167	0xbc686e58	-0.014186464
168	0xbde3934a	-0.111120775
169	0xbce1b157	-0.027550383
170	0x3d69a0d3	0.05703814
171	0x3d85818e	0.06518851
172	0xbd9d7d00	-0.076898575
173	0xbdc4e2dd	-0.09613583
174	0xbc5e273c	-0.013559159
175	0x3da82bd2	0.08211483
176	0x3d39e7ed	0.045387197
177	0x3ca30f15	0.019904653
178	0xbe00f33a	-0.12592784
179	0x3c848cb6	0.016180377
180	0xbcc67cb1	-0.02422938
181	0x3c92a820	0.017902434
182	0x3dd3189c	0.10307428
183	0xbd3d655c	-0.046239242
184	0x3e1aad5a	0.15105191
185	0x3d8a4b45	0.06752638
186	0xbdd53e9f	-0.10412335
187	0xbd2dbc7d	-0.042416085
188	0xbd8ce549	-0.0687967
189	0x3d9b8234	0.07593194
190	0xbc8b7bc2	-0.017026786
191	0xbdc29d51	-0.09502662
192	0x3e2fc787	0.17165957
193	0x3e404064	0.18774563
194	0x3e776d7c	0.24162859
195	0x3f265078	0.64966536
196	0x3e7d851c	0.24757808
197	0x3f0ac98d	0.5421379
198	0x3eb82ca9	0.35971573
199	0x3e2603e5	0.16212423
200	0x3e18e7af	0.1493213
201	0x3e6bf009	0.23040785
202	0x3e15c9a0	0.14627695
203	0x3e14f3bd	0.14546104
204	0x3e1f2cf6	0.15544495
205	0x3da2a6b0	0.07941949
206	0x3ef2e902	0.47443396
207	0x3ec86391	0.39138463
208	0x3dd96102	0.10614206
209	0x3e1e11e5	0.15436514
210	0x3da1afde	0.07894872
211	0x3e0cf5ff	0.13765715
212	0x3e34881e	0.1763005
213	0x3d4858bd	0.048912752
214	0x3e698869	0.22805943
215	0x3eb30d22	0.34970957
216	0x3e8e1902	0.27753454
217	0x3d6bf22b	0.057603996
218	0x3d5087fe	0.050910942
219	0x3e044799	0.12917937
220	0x3df76f57	0.12081783
221	0x3e89cc17	0.2691352
222	0x3e142bbb	0.14469807
223	0x3ef3eafb	0.47640213
224	0x3e2543d9	0.16139163
225	0x3eb479e5	0.35249248
226	0x3e91da8e	0.28487056
227	0x3ed76c61	0.42074874
228	0x3ef2eef4	0.47447932
229	0x3ea3580a	0.31903106
230	0x3e755cde	0.23961207
231	0x3daf2654	0.085522324
232	0x3de8b272	0.11362161
233	0x3e4848bb	0.19558994
234	0x3e2526c5	0.1612807
235	0x3eb7fb4d	0.35933915
236	0x3ec32941	0.38117412
237	0x3e4000fa	0.18750373
238	0x3e2fabba	0.17155352
239	0x3e189217	0.14899479
240	0x3e9d3177	0.307018
241	0x3f17dfff	0.59326166
242	0x3ed0b2bb	0.4076136
243	0x3ea6c238	0.32570052
244	0x3e9d11ec	0.30677736
245	0x3ea052ad	0.31313077
246	0x3f0aa8e4	0.54163957
247	0x3ea25be7	0.3171074
248	0x3ea9b273	0.33143958
249	0x3d2dbced	0.0424165
250	0x3e92d3cb	0.2867721
251	0x3f27db06	0.6556858
252	0x3f33289b	0.69983834
253	0xbcd8c88c	-0.026462816
254	0x3e26905b	0.16266005
255	0x3e0672a5	0.13129671

lstm.weight_ih_l1 f4 [256, 64]
0	0xbee5a403	-0.44851694
1	0xbd48a465	-0.048984904
2	0x3e503b5f	0.20335148
3	0x3dbbfdcf	0.091792695
4	0x3e9e3331	0.3089843
5	0xb9ca7a34	-0.0003861949
6	0x3e50769c	0.20357746
7	0x3d92f545	0.07175688
8	0xbf2798b7	-0.654674
9	0xbde3ceb7	-0.11123412
10	0xbd8b947d	-0.06815431
11	0xbc19e73f	-0.009393512
12	0xbdceb36d	-0.100928165
13	0xbe5590e5	-0.20856054
14	0x3e36bb3d	0.17844863
15	0xbe972df7	-0.29527256
16	0xbe68eaab	-0.22745769
17	0xbcf0c8a8	-0.029392555
18	0xbe80dd41	-0.25168803
19	0x3da381c2	0.07983734
20	0x3dfd0966	0.12355308
21	0xbdfc1a1b	-0.12309667
22	0xbf271fe8	-0.6528306
23	0x3ee058ac	0.4381765
24	0x3ca6bcc9	0.020353692
25	0xbd7a5d4e	-0.06112414
26	0xbdc409f2	-0.095722094
27	0xbd91df67	-0.07122689
28	0xbea38e4f	-0.3194451
29	0x3d94402e	0.07238804
30	0x3d418dc9	0.047254357
31	0xbe89a82d	-0.2688612
32	0xbdb8e725	-0.09028462
33	0xbd1ea4b3	-0.03873129
34	0x3ced4cca	0.02896728
35	0x3e792f12	0.24334362
36	0x3f0bf109	0.54664665
37	0xbed4ac64	-0.41537774
38	0x3e997aec	0.29976594
39	0x3ce5c06c	0.028045855
40	0x3b8c919c	0.004289819
41	0xbe8087e1	-0.25103667
42	0x3e8954a5	0.2682239
43	0xbdaa42c7	-0.08313518
44	0x3e0d481d	0.1379704
45	0x3e3f720f	0.18695854
46	0xbec740a0	-0.38916492
47	0x3dbd5b39	0.09245915
48	0xbe9c8326	-0.30568808
49	0xbe9ac08d	-0.3022503
50	0xbef3089c	-0.47467506
51	0xbee059df	-0.43818566
52	0xb914654f	-0.0001415212
53	0x3e59ab51	0.21256758
54	0x3f452b47	0.7701916
55	0xbd508c91	-0.050915305
56	0xbe31481c	-0.17312664
57	0xbd9049ef	-0.07045352
58	0x3c86b428	0.016443327
59	0xbe892a3d	-0.26790038
60	0x3e961b28	0.29317594
61	0xbdeb34cb	-0.11484679
62	0xbd7cbec3	-0.061705362
63	0xbd302f5b	-0.04301391
64	0x3cf2441b	0.02957349
65	0x3f2bee1b	0.67160195
66	0xbe693d39	-0.22777261
67	0xbdeaa448	-0.114571154
68	0x3e88916f	0.26673457
69	0xbd07450c	-0.033024833
70	0xbf07d357	-0.53056854
71	0xba366472	-0.00069577165
72	0xbe859533	-0.26090392
73	0xbd4e277b	-0.05033062
74	0xbe770d78	-0.24126232
75	0x3b603e98	0.0034216996
76	0x3d31f7b2	0.04344911
77	0x3deb86f3	0.11500349
78	0x3e8c09c3	0.27351198
79	0xbf3e9392	-0.74443924
80	0xbe868d1d	-0.26279536
81	0xbd957081	-0.07296849
82	0x3d13cb84	0.03608276
83	0xbe866823	-0.26251325
84	0xbdc8d5ae	-0.09806381
85	0x3f236998	0.63833
86	0xbf04e5fe	-0.5191344
87	0x3d98dbd7	0.07463806
88	0xbe16e93b	-0.14737408
89	0x3cd8fb26	0.026486944
90	0xbd244814	-0.0401078
91	0xbd4d5acf	-0.05013543
92	0x3e5746a0	0.21023035
93	0xbd406328	-0.046969563
94	0xbe9d5225	-0.30726734
95	0xbeb7c241	-0.3589039
96	0x3e006fb8	0.12542617
97	0x3ee15f0f	0.44017836
98	0xbecab15d	-0.39588442
99	0xba94d84c	-0.0011355965
100	0x3dc5a088	0.096497595
101	0x3ca53af3	0.02016971
102	0xbeb7493f	-0.3579807
103	0x3e9b6cfe	0.30356592
104	0x3f2f5294	0.6848538
105	0x3d62fb74	0.055415586
106	0x3efdab84	0.4954492
107	0xbd917222	-0.07101847
108	0xbe3adf0b	-0.18249147
109	0x3f8de6bb	1.1086038
110	0x3dabe373	0.08392992
111	0xbe01b5db	-0.12667029
112	0xbe5ba3ad	-0.21449156
113	0x3ecbf909	0.39838436
114	0xbf37a26e	-0.71732223
115	0xbedc3326	-0.43007773
116	0x3e5640a3	0.20923094
117	0x3ec18d62	0.3780318
118	0xbf33e512	-0.7027141
119	0xbf05a421	-0.52203566
120	0x3e8f5685	0.27995697
121	0x3f02d587	0.51107067
122	0x3e826583	0.25468072
123	0xbe6ee72f	-0.23330377
124	0x3e9729b1	0.29523996
125	0x3abf9463	0.0014616366
126	0xbecfc13c	-0.40577114
127	0xbed7445a	-0.42044336
128	0xbf7cbf91	-0.9872981
129	0x3ee5b5bf	0.44865224
130	0xbf4057a1	-0.7513371
131	0x3e887ea5	0.26659122
132	0xbe700889	-0.23440756
133	0xbe0aa0e5	-0.13537939
134	0x3eede16d	0.4646105
135	0x3f3c61d1	0.73586756
136	0xbc311be6	-0.010809874
137	0x3ec43db8	0.38328338
138	0x3dfcd864	0.12345961
139	0xbec20aa4	-0.37898743
140	0x3d95b42b	0.07309755
141	0xbceb2db6	-0.02870832
142	0xbe081e87	-0.13292895
143	0xbe9c7627	-0.30558893
144	0xbf4b40c6	-0.7939571
145	0x3e3cebd6	0.1844934
146	0xbef01530	-0.46891165
147	0x3c634b76	0.013872972
148	0x3ecc28b0	0.39874792
149	0xbcfc46d6	-0.030795496
150	0x3e82a010	0.25512743
151	0xbda31366	-0.07962684
152	0x3eb05545	0.34440055
153	0xbea08b1c	-0.31356132
154	0xbec4eff4	-0.3846432
155	0xbf18afaa	-0.5964304
156	0x3f02f146	0.51149404
157	0xbe9e994c	-0.3097633
158	0xbcbc96da	-0.02302115
159	0xbb881947	-0.004153404
160	0xbc10387f	-0.008802532
161	0xbdaa7e2f	-0.08324849
162	0xbf24e31d	-0.6440905
163	0xbf0b5240	-0.5442238
164	0xbf40875c	-0.7520654
165	0x3e049c73	0.12950306
166	0xbe547996	-0.20749506
167	0x3e7cbfb8	0.2468251
168	0xbe926a3f	-0.28596684
169	0xbe651416	-0.22370943
170	0x3e779c4c	0.24180716
171	0x3e83e3cd	0.25759736
172	0x3e060fe2	0.13091996
173	0x3dd7f93a	0.10545583
174	0x3ee28e4b	0.44249186
175	0xbe08da4d	-0.13364525
176	0xbe71ad68	-0.23601305
177	0xbdf4868b	-0.119397245
178	0x3ea2ca45	0.31794944
179	0xbe196572	-0.14980105
180	0x3dc3e706	0.095655486
181	0x3eb5cdf8	0.35508704
182	0x3efd7050	0.4949975
183	0xbd56ec79	-0.05247161
184	0xbd9e19a9	-0.07719738
185	0x3edd7838	0.43255782
186	0x3efa7b5d	0.48922244
187	0x3ed3af03	0.4134446
188	0xbec38d17	-0.3819358
189	0xbeeb6c48	-0.4598105
190	0xbe897662	-0.2684813
191	0x3dff6dbc	0.12472102
192	0x3db0c896	0.08632009
193	0x3e12193d	0.1426744
194	0x3e09c54b	0.13454168
195	0x3f49e3cc	0.78863215
196	0xbe81c60c	-0.2534641
197	0x3e455a66	0.19272766
198	0x3f11da08	0.56973314
199	0x3f3b2f76	0.73119295
200	0xbeef63df	-0.46755883
201	0x3f5d4cd5	0.8644536
202	0xbe60db54	-0.21958667
203	0xbeae7cd6	-0.34079617
204	0xbf056d0b	-0.5211951
205	0x3ea6d480	0.32584
206	0xbd38d7ae	-0.045127563
207	0x3e7c39f4	0.24631482
208	0xbe6618c0	-0.22470379
209	0xbe45e989	-0.19327368
210	0x3ee4f5d9	0.44718817
211	0x3f11c0c5	0.5693477
212	0x3eec8bfd	0.46200553
213	0x3f3dca9f	0.741373
214	0x3da5a687	0.08088403
215	0x3f1cceba	0.6125294
216	0xbe0826ab	-0.13296
217	0xbe2760b2	-0.1634548
218	0xbf320dfb	-0.6955258
219	0xbe18a110	-0.1490519
220	0xbef614cf	-0.4806275
221	0x3e9b5e7b	0.3034552
222	0xbf122f06	-0.57103
223	0xbe1e3c23	-0.15452628
224	0xbe26c350	-0.16285443
225	0x3e9ebb68	0.31002355
226	0x3d9c3bc2	0.076285854
227	0x3dec0d79	0.11526007
228	0x3ee66151	0.44996122
229	0x3d1c9053	0.038223576
230	0x3dc69dd8	0.09698075
231	0x3e971698	0.29509425
232	0xbf5f125d	-0.87137395
233	0x3d22da3b	0.039758902
234	0xbe5a7fcb	-0.21337812
235	0xbf1757e3	-0.5911848
236	0x3e13d9ed	0.14438601
237	0x3c06c31c	0.008225229
238	0xbe867529	-0.2626126
239	0xbef91d82	-0.48655325
240	0xbe9a135e	-0.300929
241	0xbed27045	-0.4110128
242	0xbf3e86d9	-0.7442451
243	0x3f28fb88	0.66008806
244	0x3b8985c5	0.004196855
245	0x3e198d50	0.14995313
246	0x3f6589e7	0.8966355
247	0xbe8ac470	-0.27102995
248	0x3e735ad8	0.23765123
249	0x3f6c867b	0.923927
250	0x3e6b9d9b	0.2300934
251	0xbf658d9c	-0.89669204
252	0xbfb08e7b	-1.3793482
253	0xbe98c345	-0.2983648
254	0x3e742e11	0.23845698
255	0xbe17f2f9	-0.1483878

lstm.weight_hh_l1 f4 [256, 64]
0	0x3dd42c4b	0.10360011
1	0xbda39dad	-0.07989059
2	0xbef8b400	-0.4857483
3	0xbee96f89	-0.45592907
4	0xbebf9bf0	-0.37423658
5	0x3e750c2d	0.23930426
6	0x3f1c399a	0.61025393
7	0x3e05026f	0.1298921
8	0xbebe2505	-0.3713762
9	0xbd1fd2de	-0.039019458
10	0x3f219822	0.6312276
11	0xbe4ae235	-0.19812854
12	0x3e1ab0d1	0.15106513
13	0x3db38c26	0.087669656
14	0x3e6e4445	0.2326823
15	0xbf17c68e	-0.59287345
16	0x3f2d0d7d	0.67598706
17	0xbf0c7cd5	-0.5487798
18	0xbda6fb6e	-0.08153425
19	0xbf5eebe5	-0.87078696
20	0xbef314e4	-0.47476876
21	0xbd8eebf1	-0.06978596
22	0x3ec0fbf6	0.3769223
23	0x3f09a5ae	0.5376843
24	0x3f0cb50d	0.5496376
25	0xbe962cbe	-0.2933101
26	0xbecd77de	-0.40130514
27	0x3a8ccbee	0.0010741928
28	0x3e894d85	0.26816955
29	0x3d1d2a95	0.038370688
30	0xbe42ed4a	-0.19035831
31	0x3f4986c0	0.7872124
32	0xbdf174ff	-0.11789893
33	0xbed9d4b9	-0.42545107
34	0xbe4200a5	-0.18945558
35	0x3e8c3a7c	0.2738837
36	0xbd6b7c98	-0.05749187
37	0xbe9eb7bf	-0.30999562
38	0xbc4ee82c	-0.012628596
39	0x3ef0465e	0.46928686
40	0x3dbffcd2	0.093743935
41	0xbe0ecaa0	-0.13944483
42	0x3d3adb80	0.045619488
43	0xbe6824b4	-0.22670251
44	0xbee34575	-0.4438893
45	0x384c44f3	4.8701604e-05
46	0xbeba7412	-0.3641668
47	0xbe2f5b98	-0.17124784
48	0x3e9156b3	0.2838646
49	0x3eb0cb8f	0.34530303
50	0x3e205847	0.15658675
51	0x3d353372	0.044238515
52	0xbeebe2ad	-0.46071377
53	0x3f04b7c2	0.5184289
54	0x3f8b82ba	1.089927
55	0xbdd7d744	-0.105391055
56	0x3f16882c	0.5880153
57	0xbe0fd8b9	-0.14047517
58	0x3e1a8037	0.15087973
59	0x3f125cae	0.5717267
60	0x3e94e391	0.2907987
61	0x3f50f028	0.8161645
62	0x3d88d084	0.06680396
63	0xbebc6fbc	-0.36803997
64	0xbdee0cc2	-0.11623527
65	0xbf679080	-0.90454865
66	0xbe558680	-0.20852089
67	0x3debdb56	0.115164444
68	0x3d6c07ce	0.05762463
69	0xbe68013d	-0.22656722
70	0xbec6858e	-0.3877377
71	0xbe05e45e	-0.13075396
72	0xb9bc12a1	-0.00035872034
73	0x3e0af390	0.13569474
74	0xbe775285	-0.24152572
75	0xbf57356a	-0.8406588
76	0xbe1f4435	-0.15553363
77	0x3ea09061	0.31360152
78	0x3de05458	0.10953587
79	0xbf022b20	-0.50847054
80	0xbe8537a7	-0.26019022
81	0x3e024b03	0.12723927
82	0xbe99a7a0	-0.300107
83	0xbe63f480	-0.22261238
84	0xbd872d53	-0.06600442
85	0x3d1aa625	0.037756104
86	0x3d53bb3a	0.051692225
87	0x3e1cb25a	0.1530241
88	0x3dc66085	0.096863784
89	0x3de109c9	0.109881945
90	0x3d94e467	0.07270127
91	0x3cd7d27a	0.02634548
92	0xbc6345e5	-0.013871645
93	0x3ea9b4c4	0.33145726
94	0xbca6dd6a	-0.02036925
95	0xbbb846b7	-0.0056236642
96	0x3ebf3636	0.37346047
97	0x3ef056a7	0.4694111
98	0x3d81dd71	0.06341065
99	0xbe9bd5ec	-0.30436647
100	0x3e98baa2	0.2982989
101	0xbd9c88b7	-0.07643264
102	0x3f4760ca	0.77882063
103	0x3e392276	0.18079552
104	0x3f16f992	0.58974564
105	0x3f2715be	0.6526755
106	0xbf00128a	-0.5002829
107	0xbe9e4a55	-0.30916086
108	0xbe7a3384	-0.24433714
109	0x3e58b2aa	0.21161905
110	0xbf1332c2	-0.57499325
111	0x3ec24c34	0.37948763
112	0x3f40579e	0.75133693
113	0xbcba2034	-0.022720434
114	0xbef78e3a	-0.48350698
115	0xbca0f734	-0.019649126
116	0xbea159cc	-0.31513822
117	0x3e87a0ca	0.2648986
118	0xbe493977	-0.19650827
119	0xbdcb3d43	-0.09923794
120	0xbe89310e	-0.26795238
121	0xbf1e9119	-0.6194015
122	0xbedde951	-0.4334207
123	0x3ee6601a	0.44995195
124	0xbd718c1c	-0.05897151
125	0x3de289e2	0.11061455
126	0xbe822428	-0.2541821
127	0xbee00f73	-0.43761787
128	0x3eb32f56	0.34997052
129	0x3e30fbea	0.17283598
130	0xbe885f12	-0.26635033
131	0xbe08e6d9	-0.13369311
132	0xbe6e31b3	-0.23261146
133	0x3eb1106e	0.34582847
134	0x3ec4bceb	0.38425383
135	0xbec5f961	-0.38666824
136	0xba9f320f	-0.0012145656
137	0x3f75165c	0.9573724
138	0x3f2c06f5	0.67198116
139	0x3eab4419	0.33450392
140	0x3e277674	0.1635378
141	0x3e2982f2	0.16553858
142	0x3c837c85	0.016050586
143	0x3e48a456	0.19593939
144	0xbf0b59aa	-0.5443369
145	0x3efe1278	0.49623466
146	0x3d141164	0.036149397
147	0xbe9b691b	-0.30353627
148	0x3f89b2ee	1.075773
149	0xbe2fc564	-0.17165142
150	0x3cabe498	0.020983025
151	0xbec8e42a	-0.39236575
152	0xbb8637a3	-0.004095988
153	0x3f035af0	0.51310635
154	0xbf89a79b	-1.0754274
155	0xbe83e3b8	-0.25759673
156	0xbd6a975e	-0.05727326
157	0xbec5e697	-0.3865249
158	0x3de1897a	0.1101255
159	0xbf5b6b7a	-0.8571087
160	0x3dc20371	0.09473313
161	0xbf6cbff8	-0.9248042
162	0x3eb0373b	0.34417138
163	0xbc9c4a0f	-0.019078283
164	0x3f56ac06	0.83856237
165	0xbd0d9dea	-0.034574427
166	0x3e97e4b1	0.29666665
167	0xbe8c5c96	-0.27414387
168	0xbe913989	-0.28364208
169	0x3e76f47c	0.24116701
170	0xbf87d835	-1.0612856
171	0xbff4ddc3	-1.9130176
172	0x3ea40440	0.32034492
173	0xbe90e0d2	-0.28296524
174	0xbe7d8693	-0.24758367
175	0xbe5aff9a	-0.21386567
176	0xbe0f82c5	-0.14014728
177	0xbe18480d	-0.14871235
178	0x3d34f5ea	0.044179834
179	0xbeadff96	-0.3398406
180	0xbe571ef9	-0.21007909
181	0x3e28c266	0.16480407
182	0x3f8c449c	1.0958438
183	0x3e67ec18	0.22648656
184	0x3dd1f345	0.10251478
185	0xbf7bc0d3	-0.983411
186	0xbe93772f	-0.28801867
187	0x3f5c5f1b	0.8608262
188	0x3ae4d178	0.0017457446
189	0x3e9c1b6f	0.3048968
190	0xbf5fc18a	-0.8740469
191	0xbefba0de	-0.4914617
192	0xbef4f289	-0.4784129
193	0xbd93bca3	-0.07213714
194	0x3daeafca	0.08529623
195	0x3f29a96d	0.6627415
196	0xbea1fcdd	-0.31638232
197	0x3f2e7087	0.68140453
198	0x3ded82be	0.11597203
199	0x3f4b763e	0.794773
200	0x3db378a9	0.087632485
201	0x3e3d663f	0.18496035
202	0xbe8c2b72	-0.27376896
203	0xbe8880f1	-0.26660874
204	0xbe91aa54	-0.28450263
205	0x3f365532	0.7122375
206	0x3d206b79	0.039164994
207	0x3e57a453	0.21058778
208	0x3e0ec0f9	0.139408
209	0xbe8cf2a0	-0.27528858
210	0xbd9c947d	-0.076455094
211	0xbf003fee	-0.5009755
212	0x3e517615	0.20455201
213	0x3e63a857	0.22232185
214	0x3f52f93c	0.8241155
215	0x3e022f86	0.12713441
216	0x3e093d77	0.13402353
217	0xbe49ed03	-0.19719319
218	0xbebaf0d9	-0.36511877
219	0xbf361ec8	-0.7114072
220	0x3f3f3989	0.74697167
221	0x3e1afd3b	0.15135662
222	0xbd87b7e8	-0.06626874
223	0xbec18044	-0.3779317
224	0xbf83bd74	-1.0292192
225	0x3dca142b	0.09867128
226	0xbe1490e5	-0.14508398
227	0xbeb21c6e	-0.34787315
228	0xbe006c12	-0.12541226
229	0x3e69b0a8	0.22821295
230	0x3ebffe93	0.37498912
231	0xbc276946	-0.01021797
232	0x3df63daa	0.1202348
233	0xbe442c4f	-0.19157527
234	0xbf408741	-0.7520638
235	0x3f07c7da	0.53039324
236	0xbe980b41	-0.29696086
237	0x3f86295e	1.0481374
238	0xbed9951a	-0.42496568
239	0xbf18a2ae	-0.5962323
240	0x3d970de8	0.07375699
241	0x3e96fd53	0.29490146
242	0x3e82288c	0.2542156
243	0xbeec56f1	-0.4616008
244	0x3e669b6a	0.22520223
245	0xbee4f3db	-0.44717297
246	0xbf349101	-0.7053376
247	0x3ebf03a9	0.3730748
248	0xbdfaa888	-0.12239176
249	0x3e58652d	0.21132345
250	0xbee86670	-0.45390654
251	0x3f226057	0.6342825
252	0xbe1547f3	-0.14578228
253	0x3f59b021	0.85034376
254	0xbee5b368	-0.4486344
255	0xbe3d5832	-0.18490675

lstm.bias_ih_l1 f4 [256]
0	0x3e901312	0.2813955
1	0x3ef86354	0.4851328
2	0x3e545335	0.20734866
3	0x3eb5d1f3	0.3551174
4	0x3d6d88bf	0.05799174
5	0x3eb94a9a	0.3618973
6	0x3ea81b77	0.32833454
7	0x3e77bd74	0.24193364
8	0x3d73e870	0.05954784
9	0x3ec8cb0a	0.39217407
10	0x3eb7f760	0.3593092
11	0x3dd21478	0.1025781
12	0x3ebe1d5d	0.37131777
13	0x3eef91c7	0.46790907
14	0x3e8d2510	0.2756734
15	0x3f24a9a9	0.6432138
16	0x3ead9018	0.33898997
17	0x3e625d1e	0.22105834
18	0x3e0bb9d1	0.13645102
19	0x3ea4d3b7	0.32192776
20	0x3e0176b1	0.12642933
21	0x3f02a044	0.51025796
22	0x3e47fc96	0.19529948
23	0x3db655f2	0.089031115
24	0x3deae114	0.114687115
25	0x3e68c409	0.22731031
26	0x3da2ce21	0.07949472
27	0x3f118821	0.5684834
28	0x3ee3ddca	0.4450515
29	0x3e57233f	0.21009539
30	0x3eafa605	0.3430635
31	0x3ef81740	0.48455238
32	0x3e94462a	0.2895978
33	0x3ed61ea0	0.4182024
34	0x3f2632bf	0.6492118
35	0xbd677dca	-0.056516446
36	0x3e520abb	0.20511906
37	0x3c63cba9	0.013903537
38	0xbd4eeda5	-0.050519604
39	0x3ee68072	0.4501987
40	0x3e729178	0.23688304
41	0x3e828a3e	0.25496095
42	0x3e6376c9	0.22213282
43	0x3ec80d47	0.3907263
44	0x3f337ba8	0.7011056
45	0x3f2038e8	0.6258683
46	0xbe05b1f9	-0.13056172
47	0x3e12ce36	0.14336476
48	0xbdf411f7	-0.11917489
49	0x3e995d55	0.2995402
50	0x3df7e3e7	0.12104016
51	0x3e5db1ef	0.21649908
52	0x3f28f1b6	0.6599382
53	0x3e8b230b	0.27175173
54	0x3ebcc795	0.3687102
55	0x3ed02b04	0.40657818
56	0x3e8835b2	0.26603466
57	0x3f0ed55c	0.5579431
58	0x3f449176	0.76784456
59	0xbcf3df20	-0.02976948
60	0x3e04ccc5	0.12968738
61	0x3f0f0381	0.5586472
62	0x3e5f6f3b	0.21819775
63	0x3cd9064e	0.026492264
64	0x3b9a932e	0.004717252
65	0x3e21c0c9	0.15796198
66	0xbdbc7519	-0.09202022
67	0x3dc039db	0.09386035
68	0x3db7b3ba	0.08969827
69	0x3e483ba8	0.19554007
70	0xbd8cbded	-0.06872163
71	0x3d150f7b	0.036391716
72	0xbe1c16f4	-0.15243131
73	0xbda7197c	-0.08159158
74	0x3d6814d1	0.056660477
75	0x3d8ab317	0.0677244
76	0xbcbd54dc	-0.023111753
77	0x3dd85aa6	0.10564165
78	0xbdcabe21	-0.098995455
79	0x3cdc94a0	0.026926339
80	0x3da2a7bc	0.07942149
81	0xbdb4c7bf	-0.08827161
82	0x3e247488	0.16060078
83	0x3d10ee1d	0.035383333
84	0x3dab759c	0.083720416
85	0xbdd3f735	-0.103498854
86	0x3e1d8e8c	0.15386409
87	0x3dbe8e49	0.093044825
88	0x3e982308	0.29714227
89	0xbe233ad0	-0.15940404
90	0xbde901a7	-0.11377268
91	0xbe1b34d2	-0.15156868
92	0xbdd11606	-0.10209279
93	0xbe82b69b	-0.25529942
94	0xbcee0b19	-0.029058026
95	0x3e1dd8f3	0.15414791
96	0x3e575001	0.21026613
97	0xbdaa0f69	-0.083037205
98	0x3ca5561a	0.020182658
99	0x3de75f60	0.11297488
100	0xbe1f9af9	-0.15586461
101	0x3e072d67	0.13200913
102	0xbd969518	-0.07352656
103	0x3e4a6412	0.19764736
104	0xbd765b14	-0.060145453
105	0x3d165843	0.036705267
106	0x3e63a2e9	0.22230114
107	0x3c3467e1	0.011011095
108	0x3e63ba76	0.22239098
109	0xbd8f0ca6	-0.069848344
110	0x3e24a6fb	0.16079323
111	0x3ed038aa	0.4066823
112	0x3dc583d8	0.09644288
113	0xbe694ec2	-0.2278395
114	0x3d8cfa7a	0.06883712
115	0x3e37573a	0.17904368
116	0xbe6d59da	-0.23178807
117	0x3dc74e3d	0.0973172
118	0x3d28af48	0.041182786
119	0x3d8799c7	0.066211276
120	0x3d5742b2	0.05255384
121	0x3e54aa6a	0.20768133
122	0x3e856aa6	0.2605793
123	0x3d40754e	0.04698687
124	0x3e8e759b	0.278241
125	0x3e9fe1f4	0.31227076
126	0x3e8c2eea	0.27379543
127	0xbe8cf569	-0.27530983
128	0xbe5e2be9	-0.21696438
129	0xbe1a9eb5	-0.15099604
130	0x3b67d356	0.0035373769
131	0xbe2b47e5	-0.16726644
132	0xbd331f40	-0.043730974
133	0xbdf20367	-0.11817055
134	0x3d3b5ad2	0.04574091
135	0xbd8d0370	-0.06885421
136	0xbe8a6b61	-0.2703505
137	0xbc868cf1	-0.016424628
138	0x3e1625f3	0.14662914
139	0x3e871713	0.26384792
140	0xbc8535c4	-0.016260989
141	0x3dbb982a	0.09159882
142	0xbe1ac5dc	-0.1511454
143	0xbe325483	-0.17415051
144	0x3e4ce6d9	0.20009936
145	0xbcc9f737	-0.024654014
146	0x3e070f82	0.1318951
147	0xbea2785a	-0.31732446
148	0x3dbff841	0.093735225
149	0xbc362f9e	-0.011119751
150	0x3e2eaa82	0.17057231
151	0xbd83648f	-0.064156644
152	0xbd6ee8dc	-0.05832754
153	0x3d890c94	0.06691852
154	0xbdc6e053	-0.09710755
155	0x3eb142f8	0.34621406
156	0x3dd4d7c8	0.103927195
157	0x3e0c7473	0.13716297
158	0x3e375518	0.17903554
159	0xbe14f8cc	-0.14548033
160	0x3d5ebf42	0.054381616
161	0x3e60db9e	0.21958777
162	0x3e610ccb	0.21977536
163	0x3e86d721	0.26336005
164	0xbe311c9e	-0.17296073
165	0x3e32f2b0	0.1747539
166	0xbdb624b6	-0.08893721
167	0x3c8f471a	0.017489959
168	0x3d5c0771	0.053718034
169	0x3b978040	0.004623443
170	0xbc250bc0	-0.010073602
171	0xbe34cd57	-0.17656456
172	0x3d82740e	0.06369792
173	0xbdcb3f1b	-0.09924146
174	0xbe493a8a	-0.19651237
175	0x3db531dd	0.08847401
176	0x3c3fe4ff	0.011712312
177	0x3e3cc03f	0.18432711
178	0x3e1b0540	0.15138721
179	0xbe00b9c7	-0.12570868
180	0x3e07b2e7	0.1325184
181	0xbe8b98be	-0.2726497
182	0x3e8f9692	0.28044564
183	0x3d9749cb	0.07387122
184	0x3e523ef6	0.2053183
185	0xbb252702	-0.0025200252
186	0xbe0cd96a	-0.13754812
187	0x3d854529	0.06507332
188	0x3e889b46	0.26680964
189	0x3e5afc47	0.21385299
190	0xbd0ca123	-0.03433336
191	0x3c9f3c45	0.019437918
192	0x3e8ccbe3	0.27499303
193	0x3e380f40	0.17974567
194	0x3eb55514	0.35416472
195	0x3e2c3128	0.16815627
196	0x3db5351a	0.08848019
197	0x3f28b295	0.65897495
198	0x3e12b00e	0.14324972
199	0x3df63fdd	0.120239
200	0x3ef1fd5c	0.4726361
201	0x3e8ee750	0.27910852
202	0xba437ec6	-0.00074575504
203	0x3e5a275f	0.21304081
204	0x3ef683af	0.48147342
205	0x3d7f4e12	0.062330313
206	0x3eb01191	0.34388402
207	0x3e95893f	0.29206273
208	0x3e7c60db	0.24646322
209	0x3e14764b	0.1449825
210	0x3e6c0033	0.23046951
211	0xbe215b73	-0.15757541
212	0x3e4dab96	0.20084986
213	0x3efdc426	0.49563712
214	0x3c630732	0.013856696
215	0x3d48ab25	0.04899134
216	0x3df281e6	0.118411824
217	0x3e783aab	0.2424113
218	0x3d15d03a	0.036575533
219	0x3f0186a0	0.50596046
220	0x3eccafc1	0.3997784
221	0x3ee28200	0.44239807
222	0x3ef47414	0.4774481
223	0x3efa5db5	0.48899618
224	0x3e5f4aec	0.21805924
225	0x3f17ec38	0.59344816
226	0x3e6630ee	0.22479603
227	0x3e951b77	0.29122517
228	0x3e93197e	0.28730386
229	0xbd5b4d72	-0.053540654
230	0x3e78ecfb	0.24309151
231	0x3e853b02	0.26021582
232	0x3d651ba3	0.05593456
233	0x3d1e19ec	0.03859894
234	0xbe1cd9ce	-0.15317461
235	0x3c58bda1	0.013228805
236	0x3e8cbd62	0.27488238
237	0x3ef67b14	0.48140776
238	0x3dc1875f	0.09449648
239	0x3d576d68	0.052594572
240	0x3e6ecff0	0.2332151
241	0x3e1d7fc3	0.15380768
242	0x3e0cc91e	0.13748595
243	0x3e842250	0.25807428
244	0x3f1ab64f	0.6043443
245	0x3e03d456	0.12873968
246	0x3ebd3fb8	0.36962676
247	0x3ec5ceaf	0.3863425
248	0x3ebe5f6d	0.3718218
249	0x3e0bd1e7	0.1365429
250	0xbda8544b	-0.082192026
251	0x3eb19459	0.34683493
252	0x3e82a163	0.25513753
253	0x3e13ddb9	0.14440049
254	0x3dcb6183	0.09930708
255	0x3eab1dd9	0.3342121
