model/epoch_8948.pth (torch_old, 308575 bytes, 10 tensors)

lstm.weight_ih_l0 f4 [256, 20]
000000 62 4f 79 3f ea 46 62 40 7c 53 94 40 84 a0 01 bf
       0.97386754 3.5355783 4.635191 -0.5063555
000010 c7 45 c6 be 19 c3 44 3f 0d 90 48 40 b6 80 5f 3f
       -0.3872511 0.76860195 3.1337922 0.8730577
000020 8f f5 2a 3e 28 83 2f 3f 7d e1 8d be 6b fc 72 bf
       0.16695236 0.68559504 -0.27711096 -0.9491641
000030 72 9f 94 3f 94 58 13 c0 44 c6 9b 3e 9b 0c 46 be
       1.1611159 -2.3022814 0.30424702 -0.19340746
000040 32 4f 66 40 b9 3d db be 5f b7 d8 40 fc 1e 0e c0
       3.5985837 -0.42820528 6.772384 -2.2206411
000050 2d b2 36 bf 34 5a e0 3b 97 dd 15 3e 0c 17 4c bf
       -0.71365625 0.0068466906 0.14635311 -0.79722667
000060 9f 25 da 3f 5c 18 10 3f f8 86 6f bf 15 db 33 bf
       1.7042731 0.5628717 -0.9356532 -0.7025617
000070 0d 0c 84 40 82 0a 38 40 26 3b 85 3f 38 ef 9b bd
       4.126471 2.8756413 1.0408676 -0.07613987
000080 2e f5 fd 3f 73 ce 95 bf 1a 6d 25 be ee f2 77 3e
       1.9840448 -1.1703628 -0.161549 0.24213764
000090 5c e9 c5 be 25 45 93 c0 c3 74 0c 40 82 45 1b bf
       -0.38654602 -4.6021905 2.1946266 -0.60652936
0000a0 7a 66 20 3f 62 06 f6 3f c3 31 28 3f 3f eb 1e 40
       0.62656367 1.9220698 0.6570093 2.4831083
0000b0 76 37 e4 bf af 77 94 3c e7 73 50 be e4 45 11 3e
       -1.7829425 0.018123476 -0.20356713 0.14186817
0000c0 35 03 fb 40 f1 e6 ed 3f 47 66 92 bf 7f 87 26 bf
       7.8441415 1.8586103 -1.1437463 -0.650505
0000d0 9d 1a 11 40 9b ba 30 40 20 ca ac bf 1c 1e 84 40
       2.2672493 2.7613895 -1.3499184 4.1286755
0000e0 e1 76 b8 bf be af e6 3d 01 ea 30 c0 f3 24 0d 40
       -1.4411279 0.11263989 -2.7642825 2.2053802
0000f0 8c 2f 10 40 4f 1a 87 40 90 49 a6 bf 4e 4f 9d 3f
       2.252902 4.2219615 -1.29912 1.2289827
000100 aa cc 4e 3f 31 df 2c bc ea 5f 43 3f f7 c5 45 bf
       0.8078104 -0.01055126 0.7631823 -0.77255195
000110 7f 71 5d c0 36 95 c3 40 12 49 0b bf 5a 3f 46 bd
       -3.4600523 6.111964 -0.5440837 -0.04840026
000120 ab b4 be 3e e4 7c 52 bf f7 3d 12 41 16 29 cf be
       0.37247214 -0.8222182 9.140128 -0.40461034
000130 d0 0e 87 3f 09 7a b6 3f 6f 59 b0 be 5e d6 bb 3f
       1.0551395 1.4255992 -0.34443232 1.4674795
000140 eb d7 37 bf dc d2 d8 bf b0 58 1c 40 bd d5 9e 3e
       -0.7181384 -1.6939349 2.442913 0.31022444
000150 c5 dc 54 3e 94 6e c5 3f f8 d1 f3 be ba ef a0 bf
       0.20787342 1.5424371 -0.4762113 -1.2573159
000160 2f a5 9c be 16 34 13 3e e0 ea a9 3f cf 46 20 bf
       -0.30594775 0.14375338 1.3274803 -0.62608045
000170 d0 08 56 40 21 2d 5b 40 1e c4 2e 41 df be 15 bf
       3.3442879 3.4246294 10.92288 -0.5849437
000180 70 3f b3 3f 39 d5 45 3f c1 14 cd 40 62 97 2a bf
       1.4003735 0.77278477 6.4087834 -0.6663724
000190 53 4a 13 3f 7d ba a6 40 c9 44 8a bf 57 05 47 40
       0.57535285 5.2102647 -1.0802242 3.109701
0001a0 c1 1f f1 be a4 6c 48 3f c2 0f 1e c0 51 3c c6 40
       -0.4709454 0.7829077 -2.4697118 6.194863
0001b0 b4 2c 03 40 66 af 86 3f f1 a5 16 bf 62 a5 d1 be
       2.0496035 1.0522277 -0.58846956 -0.4094649
0001c0 eb 04 c5 3f 5d 41 2e bf 6a 83 15 c0 48 a8 2e 40
       1.5392126 -0.68068486 -2.3361459 2.729021
0001d0 b3 9a 8b bf d7 bb 16 bf b2 0b 90 3e 6c c6 dd bd
       -1.0906585 -0.5888037 0.28133923 -0.108288616
0001e0 f1 29 02 c0 f4 05 6e 40 3d e4 9c 40 f6 b5 26 bf
       -2.03381 3.7191133 4.902861 -0.651214
0001f0 2c 69 00 bf 63 a7 0c 3e 1a fa 8c 3f 0a 38 82 40
       -0.5016048 0.13735728 1.1013825 4.0693407
000200 c2 00 a8 3f a7 08 d5 3f 92 cb d3 3f 57 71 25 bf
       1.3125231 1.6643265 1.65465 -0.6462607
000210 51 cc b2 3e 3d 5b 62 bf ef 17 c3 3e ac d7 80 3e
       0.34921506 -0.8842047 0.38104197 0.25164545
000220 71 2e 63 40 ba 1f e0 3f d9 94 18 40 5f c2 bb be
       3.5497096 1.7509682 2.384085 -0.3667173
000230 3c a5 73 bf 88 08 c7 be cd bb 76 3f f8 60 d7 be
       -0.95174 -0.38873696 0.9638031 -0.4206617
000240 b4 02 9f 40 61 6a 90 be b9 93 8f 3f 6b 91 00 40
       4.96908 -0.2820616 1.1216956 2.0088756
000250 8d 3f 8a c0 dd 47 12 40 08 66 bb bf 59 2e ec bf
       -4.3202577 2.2856362 -1.4640512 -1.8451644
000260 c1 e2 18 3f 93 b3 6f 40 66 e4 dd 40 27 ed 10 40
       0.59721 3.7453353 6.9341307 2.2644746
000270 b0 d8 2c 3f 3a 93 85 bf f3 e5 e3 bf 10 73 fe 3e
       0.6751814 -1.0435555 -1.780455 0.4969716
000280 05 cd 89 bf 51 82 cc 40 33 66 0f bf 2d 17 73 3f
       -1.0765692 6.390908 -0.5601532 0.9495724
000290 1e 35 d7 be 6f 8f fc bf 0c ca 6e 40 74 fc 12 40
       -0.42032713 -1.9731272 3.731082 2.2966585
0002a0 94 a6 4c bf db 77 c2 3f 94 0d 29 c0 aa c9 9a 3e
       -0.7994168 1.5192827 -2.6414537 0.30231982
0002b0 f8 21 10 bf fd 07 00 40 da e5 0d be cd 09 8a bf
       -0.5630183 2.0004876 -0.13857213 -1.0784241
0002c0 31 9d 43 40 78 9c 8d be f5 12 8d bf c9 1b aa bf
       3.0564692 -0.2765844 -1.102141 -1.3289729
0002d0 d3 34 0d 40 ff df 9f bf 6f 3d 15 40 ee 62 8c 3f
       2.2063491 -1.2490233 2.3318746 1.0967691
0002e0 4e fc 0f c0 8c e7 4b 3f 0d 8e 80 3f 8d 1d 7c bd
       -2.2497745 0.7965019 1.004335 -0.06155162
0002f0 a1 d2 1a c0 e3 51 b2 40 9e fa 40 3f 7d 4e b0 3e
       -2.4191058 5.572496 0.7538241 0.34434882
000300 b2 dd 8d 40 6c b4 1a c0 b8 1d 9d 3f 76 f1 7b 3e
       4.4333124 -2.417262 1.2274694 0.24603829
000310 50 01 63 be c1 a6 2b c0 9b bd e6 3f 3b 7f dd 3d
       -0.2216847 -2.6820529 1.8026613 0.10815283
000320 78 74 02 40 68 ca 10 40 5c a2 6a be 3a 2f 86 bf
       2.0383587 2.262354 -0.22913498 -1.0483162
000330 a7 de 02 3f a2 62 da 3f e1 e5 23 bf d7 b7 b8 3f
       0.5112099 1.706135 -0.6402264 1.4431103
000340 d6 06 92 bd ee 1b 80 3d 16 aa f2 3e 41 31 0d c0
       -0.0713021 0.06255327 0.4739539 -2.2061312
000350 a8 ec 96 3f 24 d3 a0 bf a9 4f 0d 40 38 df 01 be
       1.1790972 -1.2564435 2.207987 -0.12682807
000360 e0 31 e7 3f be 07 22 40 6c cf 37 40 6b a6 7d bf
       1.8062096 2.5317225 2.872035 -0.9908206
000370 2e 31 cd bf d7 12 13 3f c1 3d ab bf aa 4c 52 bf
       -1.6030633 0.5745062 -1.3378221 -0.8214823
000380 d2 f0 a1 3f d7 33 33 bf 7c 06 a7 3e 77 85 04 40
       1.2651618 -0.70000976 0.32622135 2.070646
000390 e3 c7 4a 40 b7 f4 04 3f 1a dd 86 3f 94 42 1a bf
       3.16845 0.51935905 1.0536225 -0.6025784
0003a0 2f 13 7d bf 93 1a 1e 3f fa 90 ca 3f e0 4d e8 3f
       -0.98857397 0.617593 1.5825493 1.8148766
0003b0 c0 d1 50 3f 3a c8 e3 3e 4b a2 c6 bf 16 51 09 bf
       0.81570053 0.44488698 -1.5518278 -0.5363935
0003c0 14 02 b6 be 81 18 f8 be bb 43 62 bf cb c2 fa 3f
       -0.3554846 -0.48456195 -0.883846 1.9590696
0003d0 d3 03 1a bd 30 cd ff 3f a9 70 94 3f 61 34 d9 3e
       -0.037601303 1.9984493 1.1596881 0.42422774
0003e0 61 a4 ca bf 56 91 3e c0 ad 4a 21 c0 47 ce be 3f
       -1.5831414 -2.9776206 -2.5201828 1.4906701
0003f0 23 ed 26 40 1b fd be 3f 6f cd 19 3e 51 49 dc bf
       2.6082237 1.4920992 0.15019773 -1.7209874

lstm.weight_hh_l0 f4 [256, 64]
000000 33 5e 0f bf de 3b ac 3f ce f9 75 3f 18 fd 87 3f
       -0.5600311 1.345577 0.96084297 1.0624113
000010 7c 96 b9 3f b8 36 7d 3f f4 81 02 be 4f c9 19 3f
       1.4499049 0.9891162 -0.12744886 0.600728
000020 06 3b 2c bf d8 d9 36 3f a8 bb 27 be ff 60 25 3e
       -0.6727756 0.71426153 -0.16380179 0.16150282
000030 41 60 99 be 1c bb b7 be e7 f2 34 3f 8f 51 53 bf
       -0.29956248 -0.3588494 0.7068314 -0.82546324
000040 b7 b1 0b c0 f0 1e cb 3e 16 bb 74 bf 58 50 97 3f
       -2.1827219 0.3967204 -0.9559797 1.1821394
000050 15 55 99 3d 68 81 fa 3d 84 a6 92 bf bf 01 c2 be
       0.07486931 0.122317135 -1.1457067 -0.37891957
000060 f9 86 8c bf fb 7c 03 bf 04 56 33 bf 31 b3 c1 be
       -1.097869 -0.5136258 -0.70053124 -0.37832025
000070 9d 46 47 3f f9 44 c0 3e 03 8d a6 bd 7e 5e 97 3e
       0.7784212 0.37552622 -0.081323646 0.2956428
000080 62 5f 92 3e 54 7f 5a 3c 60 dc d3 be d4 c8 34 3f
       0.28588396 0.013336021 -0.4137907 0.7061894
000090 56 32 7f be e2 3e f5 3d d8 16 9c bf 8d 4e a9 be
       -0.24921545 0.119748846 -1.2194471 -0.33067742
0000a0 61 7e 56 3f 20 2c 0a bf 83 16 d1 bd 19 3d dc 3e
       0.8378659 -0.5397358 -0.10209372 0.43015364
0000b0 b5 ab 4d bf 03 aa 84 bd 82 2c a6 be 05 47 54 be
       -0.8034013 -0.0647774 -0.32455832 -0.20730217
0000c0 9d 76 d5 3e 43 e3 8e 3f 19 c5 c7 bd 60 a8 94 3f
       0.41692057 1.1163105 -0.0975439 1.1613884
0000d0 68 a3 b8 3e 9c b1 48 3f 66 b9 b5 bf 17 6e ed 3f
       0.3606217 0.7839601 -1.4197204 1.8549222
0000e0 01 f7 04 be 5b 6b ea 3e a0 43 5b bf 66 4e 9f 3e
       -0.1298485 0.4578503 -0.8565006 0.311145
0000f0 6a f6 08 3f 62 af f4 bf 35 bb 8f bf 6e f9 02 3f
       0.53501 -1.9116023 -1.1229006 0.5116185
000100 6f ca aa bf 17 1a b1 be 39 e6 8e bf 31 1f 75 bf
       -1.3343028 -0.34590217 -1.1164008 -0.9575072
000110 c3 f0 22 bf 0a 36 08 40 94 06 ac 3f 56 1d 34 3f
       -0.63648623 2.1282983 1.3439507 0.70357263
000120 47 d4 bb 3f 3d 1a 12 3f 7b 4c 5d 3f 39 65 2e bf
       1.4674157 0.57071286 0.86444825 -0.68123204
000130 c9 51 36 bf 49 b1 06 3f e7 c8 0b be ff 84 48 bf
       -0.71218544 0.52614266 -0.13650857 -0.78327936
000140 ce 24 92 bf 39 47 44 bf 0b 7e 57 3f fb 10 3a 3f
       -1.1417482 -0.7667118 0.841767 0.7268216
000150 cf cc 0b bf 92 95 a8 bf 97 83 59 be 53 10 90 3e
       -0.5460939 -1.3170645 -0.21241604 0.28137454
000160 a0 e5 42 bf 94 e4 b4 3e a6 4e dd be 9c 90 eb bf
       -0.7613163 0.3533064 -0.43224066 -1.8403506
000170 91 08 8f 3d f8 75 be be 26 77 22 bd f6 55 3f 3f
       0.06984056 -0.37199378 -0.03966441 0.7474054
000180 38 03 26 3e 60 35 30 3f e5 c5 c5 bf 9e 25 14 be
       0.16212165 0.68831444 -1.5451018 -0.14467475
000190 d9 60 56 bf c9 bf 2d be f1 e1 94 3f 2d 54 c9 bd
       -0.8374153 -0.16967691 1.1631452 -0.098305084
0001a0 88 87 3a 3f be 4e 10 be 5b d3 b6 be 9f 40 46 bd
       0.72863054 -0.14092538 -0.35708126 -0.04840147
0001b0 b0 5b 21 3f f3 73 36 3d 68 37 22 3f ea e4 a7 3f
       0.6303053 0.04454417 0.63365793 1.3116734
0001c0 c2 b6 8f 3f f0 cc 54 bf 38 69 53 be 32 b0 6c 3e
       1.1227648 -0.8312521 -0.20645607 0.23114088
0001d0 9e 42 f7 3f 34 09 36 3f a1 31 12 3f 7e 35 4f 3f
       1.9317205 0.7110779 0.5710698 0.80941
0001e0 36 22 00 bf 8d 60 c3 be 81 4b 18 3f ea f8 66 bf
       -0.500522 -0.381596 0.5949021 -0.9022356
0001f0 7f 23 1e 3f 3d 8d 8d bd aa 1f 30 bf 18 74 04 bf
       0.6177291 -0.06911705 -0.68798316 -0.51739645
000200 52 32 3f bf 81 9d 86 3f dd ac 29 3e 80 47 8b 3f
       -0.7468616 1.0516816 0.16569848 1.0881195
000210 9c 9d 4c bf 83 08 43 3e d9 7f 69 3f 8e 66 64 bf
       -0.7992799 0.19046216 0.91210705 -0.89218986
000220 67 7f 51 bf 5a 79 82 3f 1a 9c 63 3f 67 f5 b8 bf
       -0.81835026 1.0193284 0.8891007 -1.4449891
000230 4d 40 0d bf 3e fb 91 bf 17 57 ff be 4a cc 2e be
       -0.5517624 -1.1404798 -0.49871132 -0.17070118
000240 60 83 96 be c3 79 35 3f 1f ce 06 3e a4 7d 24 bf
       -0.29397106 0.7088892 0.13164566 -0.6425421
000250 9f d8 ff be 84 57 0a bf 12 b9 83 bf 83 40 8e bf
       -0.49969956 -0.5403979 -1.0290854 -1.1113437
000260 e5 97 8f bf 64 6b 0e 3f 3d de 52 bf 84 72 a9 bf
       -1.121823 0.55632615 -0.8237036 -1.3238072
000270 45 10 83 3f 52 5f b3 3e 40 36 ff 3a a3 61 d8 bd
       1.023934 0.3503366 0.0019471124 -0.10565498
000280 d5 c2 9a bd b4 95 a8 bf 33 7d b8 bf f9 67 5f bc
       -0.075566925 -1.3170686 -1.4413208 -0.013635629
000290 a6 ca be 3d b8 1b 0a 3f 80 13 97 3f 2c af 0f 40
       0.09315996 0.53948545 1.1802826 2.2450666
0002a0 03 34 19 3f 0f 2b 27 3f 67 bf 69 3c 84 c4 d4 3e
       0.5984499 0.6530008 0.014266825 0.4155618
0002b0 4f 84 97 be b7 b0 a7 3e d5 12 9b bf 02 3f cf bd
       -0.2959313 0.3275201 -1.2115122 -0.1011944
0002c0 81 dd 88 be 5e a2 36 3f e5 56 ea 3e 1a bd a0 3f
       -0.26731494 0.713415 0.4576942 1.2557709
0002d0 a8 43 18 3f f2 f0 79 3e fb 48 30 3e 31 b0 c2 3f
       0.59478235 0.2440832 0.1721534 1.5210019
0002e0 34 4f 5e bf 63 4b 30 bf b2 2e c0 be 63 99 1a bf
       -0.86839604 -0.6886503 -0.37535626 -0.603903
0002f0 b4 31 f6 3e d1 58 94 bf c8 10 dd be 42 44 5b bf
       0.48084795 -1.1589605 -0.43176866 -0.8565103
000300 b5 84 4d 3f b2 b4 77 3f 5a 11 6b be 61 01 f1 3d
       0.8028062 0.96760094 -0.22955838 0.11767841
000310 0d 18 50 3c 15 3f 46 bf fb 68 c5 be fb 6f ae 3f
       0.012701047 -0.77440006 -0.38556656 1.3627924
000320 97 f8 a1 bf 1a 94 0e 3f fc 2d 53 be f6 00 d6 bc
       -1.2653989 0.55694735 -0.2062301 -0.026123505
000330 85 df 92 bf e0 69 e6 be 88 dc 18 3f e6 71 f6 bd
       -1.1474463 -0.4500265 0.59711504 -0.12033443
000340 b7 bd 93 bf 74 17 82 be 5c 74 93 bf 5f 92 b0 3f
       -1.1542271 -0.25408518 -1.1519885 1.3794669
000350 64 2b 18 3f 8b 9d 25 bf a6 37 68 3e c9 26 7b bf
       0.5944121 -0.64693516 0.22677478 -0.98106056
000360 56 9f 24 c0 64 59 69 3d db 70 92 3d 55 80 55 3f
       -2.572225 0.056970015 0.07150432 0.83398944
000370 17 f7 27 3f 90 e2 af 3e a6 9f eb be ac 08 1c bf
       0.65611404 0.3435254 -0.4602024 -0.6095073
000380 91 99 97 3f 91 da 5d be ae fa d4 be 57 ce ce be
       1.184374 -0.21665408 -0.41597503 -0.403918
000390 f5 e0 86 bf 60 e2 c4 3f ea 0c bf bd 62 03 a4 bf
       -1.0537401 1.5381584 -0.09328635 -1.2813532
0003a0 49 32 b0 bf 26 e3 17 bf ae 55 ba 3f f8 de 7b 3f
       -1.3765346 -0.59330976 1.4557397 0.983871
0003b0 76 a6 6f 3e 9a 99 59 3e 1e d4 69 bf 10 53 94 be
       0.23403344 0.2125 -0.9133929 -0.28969622
0003c0 68 73 13 be 04 d9 f0 3b 5c 0a 38 bf 18 e6 be 3f
       -0.14399493 0.007350089 -0.7189081 1.4913969
0003d0 ca 19 c4 bf f4 9f 09 bf 44 74 1d 3f d5 68 37 3f
       -1.532037 -0.53759694 0.6150553 0.71644336
0003e0 70 25 1b 3f 47 ca 3a 3f 62 5d 99 3e 32 4f 3f bf
       0.60604 0.729649 0.29954058 -0.7473022
0003f0 9e 4c 84 be 08 2b 5c 3e c6 9f 46 bd 40 67 bc be
       -0.25839704 0.2150079 -0.048492216 -0.36797523

lstm.bias_ih_l0 f4 [256]
000000 6a 2a 94 3e 1b 1a 12 3f ab 68 5e 3f 9f 21 76 3f
       0.2893861 0.57071084 0.8687846 0.9614505
000010 91 a0 01 3f 27 80 61 3f 5c 93 29 3f 7b 44 6c 3f
       0.5063563 0.8808617 0.6624048 0.9229199
000020 79 b2 69 be ac a3 58 3f e2 8b be 3e 27 ec c7 3e
       -0.22821988 0.84624743 0.37216097 0.39047357
000030 09 09 0c 3f 26 43 2e 3f 3f 7f 5e 3f 4d b5 bd 3e
       0.54701287 0.6807121 0.8691291 0.37052384
000040 c2 82 38 3e 9c 06 96 3f 2c 1a 27 3f 13 10 5b 3f
       0.1801863 1.1720767 0.6527431 0.855714
000050 ee e7 05 3f 48 71 4d 3f 6f 4b 4a 3f 07 79 55 3f
       0.5230702 0.8025098 0.7902135 0.833878
000060 bd 3d 25 3f f1 55 46 3f ec e6 b5 3e 92 84 b6 bd
       0.6454733 0.77474886 0.35527742 -0.089120045
000070 d7 52 89 3d 9f b4 9d 3f 91 1c a9 3f 9f ef 58 3e
       0.067052536 1.2320746 1.3211843 0.21185158
000080 0b 7f 81 3f 06 70 b4 bd 26 98 14 3f 52 38 57 3f
       1.0116895 -0.08810429 0.5804466 0.8407031
000090 8f 10 47 3f ff f6 48 3f 06 24 15 3f 3e 7f 35 3f
       0.7775964 0.78501886 0.5825809 0.7089728
0000a0 e0 6d a9 3f cb 37 96 3f 14 6a 07 3f 5f 71 12 3f
       1.3236656 1.1735777 0.5289624 0.5720424
0000b0 75 11 da 3e b4 05 0f 3f 0b 2d 98 3f 44 32 a0 3e
       0.42591444 0.5586808 1.1888746 0.3128835
0000c0 0d 4e 64 3f e9 ea 37 3f 76 fe 89 3f 10 fa 9f 3e
       0.89181596 0.7184282 1.078078 0.3124547
0000d0 d5 fe 07 3f 59 4c 9f 3e c6 f7 1b 3f 3f 02 52 be
       0.5312322 0.31112936 0.6092495 -0.2050867
0000e0 b9 ad e7 3e e3 97 f7 bb a8 20 e5 3e 79 1d b6 3f
       0.45249727 -0.007555948 0.44751477 1.4227744
0000f0 7a 22 4e 3f 6d 15 cb 3e dd 00 6c 3f dd 9f 1c 3f
       0.8052136 0.39664784 0.9218882 0.6118143
000100 ff a5 87 be d7 2b b2 3d 7c 4a 5a 3e 65 1f 47 3e
       -0.26493832 0.08699768 0.21317476 0.1944557
000110 ad ee 22 3e 44 10 c4 bd 2f a4 1b 3b a2 55 d6 3d
       0.1591136 -0.09573415 0.0023748984 0.10465552
000120 19 c0 ee 3e ba 3b bb 3e 39 67 f5 3e 33 9a 8f 3e
       0.46630934 0.36569005 0.47930315 0.28047332
000130 5a f6 0f bf ce f5 af 3e d5 c1 02 3c 14 24 09 be
       -0.5623528 0.34367222 0.0079807835 -0.13392669
000140 62 62 39 3e 01 00 d9 be 4c 8e b7 3e a7 2e ac bc
       0.18103936 -0.42382815 0.3585075 -0.02101834
000150 ce 40 22 be 43 f0 5d bd de 84 a3 3c d0 2b d7 bd
       -0.15845034 -0.05418421 0.019960817 -0.105064034
000160 af bb a4 3d dc ac 91 3d c7 16 8e be 78 82 08 3e
       0.0804361 0.071130484 -0.27751753 0.1333102
000170 cc 35 cc 3c 7c 94 bb 3c 76 16 17 3f a6 a9 91 bc
       0.024927996 0.022897951 0.5901865 -0.01778109
000180 2f 48 cf 3e db ea ef bd ab cd ce bd d7 dc 26 bc
       0.4048476 -0.11714717 -0.10097822 -0.010184488
000190 e1 c7 a4 bc 77 2a a5 3e 0f 9c 27 3e ac 2e 92 3d
       -0.020114841 0.3225896 0.16368125 0.07137808
0001a0 d3 5b 99 bc 18 6c 51 bc ec 57 ac 3d fe ab 8b 3e
       -0.018720543 -0.012782119 0.08415207 0.27279657
0001b0 e6 43 d4 3d be ec 03 bd c8 a9 18 3f e3 cf 20 be
       0.10364513 -0.032208197 0.59634066 -0.15704302
0001c0 4d 20 4b be ab a8 07 3d c4 0e ec 3d 7a b6 ed be
       -0.1983654 0.03311984 0.11526254 -0.4642828
0001d0 da f0 9f be eb e1 7f 3e 7b 96 08 3e 7d 91 cf 3e
       -0.31238443 0.24988525 0.13338654 0.40540686
0001e0 ad 88 37 bd ef ce ac 3e 89 6f 39 be c9 ba dc 3d
       -0.04480808 0.33751628 -0.18108954 0.10777814
0001f0 fd 1f 9a 3e 97 77 ca 3e 6b 47 e1 bc 96 c7 b0 3e
       0.3010253 0.39544365 -0.027499875 0.34527272
000200 1e 81 cc 3c 11 a1 3a 3e 99 8a f6 bd 2f 4f 1d 3e
       0.024963912 0.18225504 -0.12038154 0.15362237
000210 e0 9c 9e 3e 7f 63 bd bd b4 be d8 bd af 6a 29 3d
       0.3097906 -0.09247493 -0.10583249 0.041361507
000220 ea 72 e0 bd c9 45 d5 3d 82 ff 18 3e fd 02 80 be
       -0.10959418 0.10413701 0.14941218 -0.2500228
000230 fb 38 3b be d9 71 1d be 0e be 24 3e e8 5f c2 bd
       -0.18283455 -0.1537546 0.16088125 -0.09490949
000240 87 28 34 be d5 b0 cb bc 27 78 7d 3d 22 1c 83 3d
       -0.17593585 -0.024864594 0.061882164 0.0640185
000250 0f e3 06 bd 14 44 c1 bd c4 f3 21 be 9b 0e ab bd
       -0.032931384 -0.09436813 -0.15815645 -0.08352395
000260 36 f6 81 be 04 f3 05 be 8d 8f 0a 3c 30 4f 1c be
       -0.25383157 -0.13080984 0.008457077 -0.15264583
000270 ee 49 d2 3d bd 6f 55 3c b5 ca 9f be 0c a0 88 3e
       0.10268007 0.013027129 -0.3120934 0.26684606
000280 07 0a 0f be ae 80 89 bd 34 b2 3a be c8 3c 4a 3d
       -0.13968669 -0.06713997 -0.18232042 0.04937437
000290 62 92 e8 3c 18 91 e4 bd f5 fd 1f bd aa bd f9 3c
       0.028390113 -0.11160487 -0.03906055 0.030485947
0002a0 ad c2 88 bd 79 80 90 bc 05 dd 45 3d 34 e8 5c be
       -0.066777565 -0.017639386 0.048306484 -0.21572953
0002b0 9e 39 8f be 36 b3 1c bd fc 7e 1f be 19 16 c7 bd
       -0.27973646 -0.038256846 -0.15575784 -0.09721012
0002c0 f8 c1 20 be 35 70 e5 3d f1 7d 6e be b2 a8 05 3d
       -0.15698993 0.112030424 -0.2329023 0.032631584
0002d0 9d ee a1 bd b7 de 00 3e 4b 2b 98 bd 20 6b 1c 3e
       -0.0790684 0.12584959 -0.074301325 0.1527524
0002e0 83 37 85 3d 78 96 9b bc 3c 5c cb 3d ab cf cc bd
       0.06504729 -0.018992648 0.09929702 -0.10000547
0002f0 3d 26 a4 3d 80 a6 f2 bd 5a de 1e be 5f c0 b0 3d
       0.08015106 -0.118481636 -0.15514508 0.08630442
000300 b4 09 cf 3e 82 26 f6 3e dd 02 1a 3f 14 77 10 3f
       0.4043709 0.48076254 0.6016062 0.564317
000310 db 95 b7 3d 97 81 b5 3e 3b 72 4f 3f 22 80 17 bc
       0.089641295 0.35450432 0.81033677 -0.009246858
000320 73 bb 30 be d9 46 1b 3e 74 54 38 3e 52 15 83 be
       -0.17259006 0.15163745 0.18000966 -0.25602204
000330 72 cc 98 3e 6c 93 89 be 63 c5 0c 3f e7 3a 00 3f
       0.2984348 -0.26870286 0.5498869 0.5008988
000340 22 29 3f be 09 25 a7 3e 8b e8 37 bd c3 f8 1d 3e
       -0.18668035 0.32645443 -0.044899505 0.15426926
000350 65 d9 54 3e 97 8b 05 3c 28 8d 4a be 36 41 20 3f
       0.20786054 0.008150957 -0.1978041 0.62599504
000360 5b a7 ee bd ad e4 14 3c 03 01 c3 be 21 7f cc 3d
       -0.11653014 0.009087724 -0.3808671 0.099851854
000370 74 c2 ae bd c3 b5 2d 3f 05 c5 eb 3e c5 47 0c 3f
       -0.08533183 0.6785547 0.4604875 0.5479701
000380 99 a6 dd 3e a9 6d e2 3e 55 ae f9 bc 6e c8 b0 3e
       0.43291166 0.4422429 -0.030478636 0.34527916
000390 47 e0 71 3d 1c 60 48 3e f0 fe 08 bd 1b 04 36 3e
       0.05905178 0.19567913 -0.033446252 0.17775004
0003a0 a5 df ab 3e 49 db 84 3e 13 ee f0 3d f8 71 b8 3d
       0.33569065 0.2594855 0.11764159 0.09006113
0003b0 95 28 35 3f dd f4 e1 3e 1b 7b de be 61 9c d6 3e
       0.7076505 0.44132128 -0.43453297 0.41916183
0003c0 1b 13 7a 3f e6 c1 0e 3f dc f5 65 3e e2 5e c1 3d
       0.976854 0.55764616 0.22457069 0.094419256
0003d0 24 d3 85 3e 1d a6 11 bd 79 12 96 3f f3 7e 20 3e
       0.2613765 -0.03555881 1.1724387 0.15673427
0003e0 41 99 43 3f 7a d2 85 be f4 e3 c3 3e 8e 27 cf 3e
       0.7640572 -0.26137143 0.38259852 0.40459865
0003f0 6f e7 8c 3f e8 8b e8 bb 1f b0 a4 3e 09 f8 a6 3e
       1.1008128 -0.0070967562 0.3216562 0.3261111

lstm.bias_hh_l0 f4 [256]
000000 71 e4 33 3e 5b 1f 07 3f 78 1e 5a 3f 7e 5e 48 3f
       0.17567612 0.5278222 0.8520274 0.78269184
000010 32 15 14 3f 07 1f 56 3f bb d2 15 3f 0a 8f 75 3f
       0.5784484 0.83641094 0.58524674 0.95921385
000020 ad 7d 75 bd 52 b7 4a 3f 20 3a 06 3f ff 52 b1 3e
       -0.059934307 0.79185975 0.5243244 0.34633633
000030 e8 39 12 3f 58 c9 5c 3f ef 00 5e 3f b6 de 70 3e
       0.5711961 0.86244726 0.86720175 0.23522457
000040 1e d8 b9 3e 2c c7 a1 3f b4 f3 e2 3e 74 e7 2c 3f
       0.36297697 1.2638907 0.44326556 0.6754067
000050 a2 50 08 3f 51 58 3a 3f 56 e2 80 3f b2 cc 4d 3f
       0.53248036 0.7279101 1.0069072 0.80390465
000060 8c 34 40 3f ae ea 65 3f 96 1a f6 3e 46 e2 8f be
       0.7508018 0.8981122 0.48067158 -0.2810232
000070 eb d9 05 3e bd 2d a7 3f 87 c4 b2 3f ed f9 84 3e
       0.1307141 1.3060833 1.3966225 0.25971928
000080 fc da 8b 3f 7f cf 51 bc 7f 1e 25 3f db c3 69 3f
       1.0926204 -0.012805819 0.6449966 0.91314477
000090 97 28 2d 3f d5 93 47 3f 7b b3 04 3f be 1d 32 3f
       0.6764006 0.7795995 0.51836365 0.6957663
0000a0 34 bb 92 3f 36 97 9a 3f 22 f4 ca 3e f5 fd b6 3e
       1.146338 1.2077396 0.39639384 0.3574063
0000b0 e8 f1 0b 3f cb 68 3b 3f 92 86 75 3f b8 0b b8 3e
       0.54665995 0.73206776 0.95908463 0.3594644
0000c0 2b b3 30 3f 64 ed 4f 3f 6b 80 80 3f f9 7d d6 3e
       0.6902339 0.81221604 1.003919 0.41892985
0000d0 e9 27 2e 3f 9a 9e 6a 3e 40 a1 ec 3e a3 af 49 be
       0.6802965 0.22912064 0.46216774 -0.19695906
0000e0 44 f9 f6 3e 1f 78 b6 3d 11 de f0 3e 18 9d ad 3f
       0.4823705 0.0890963 0.47044423 1.3563566
0000f0 53 81 65 3f a3 98 09 3f 47 4d 69 3f 70 1f c6 3e
       0.8965046 0.5374853 0.9113354 0.3869586
000100 23 d1 86 be 37 93 10 3e ef d1 93 3e 1a 7c 3f 3e
       -0.26331434 0.14118658 0.28871104 0.18699685
000110 28 86 9a 3e 38 ab 87 bd b7 3a d0 bd bf 97 f5 3d
       0.30180478 -0.06624454 -0.10167449 0.11991834
000120 21 28 0b 3f f5 42 86 3e 45 25 04 3f 14 5b 6b 3e
       0.54358107 0.2622296 0.5161937 0.22983962
000130 04 71 cc be 0e 8e a1 3e e3 47 49 bc ba 89 83 3d
       -0.39929974 0.31553692 -0.012285206 0.06422754
000140 f6 79 11 3e e8 02 a6 be d2 c5 92 3e 8b 3f 3f 3d
       0.1420668 -0.32424092 0.2866655 0.04669146
000150 b0 ad b5 bd b3 a5 5d 3d 45 cf 1c be 55 9c 19 be
       -0.08871019 0.0541131 -0.15313442 -0.15001042
000160 84 a4 4c 3e 43 c3 91 3d 1b ab 97 be 91 5c c0 3c
       0.19984633 0.07117321 -0.2962273 0.02348164
000170 21 51 3d be 84 f2 ca bd 8e a4 fc 3e 7d de e6 3d
       -0.1848798 -0.099095374 0.49344295 0.11272905
000180 4a c8 e0 3e 36 71 9a bd 39 f6 c0 bb da 9e 14 3d
       0.43902808 -0.075411245 -0.005888727 0.036284305
000190 d7 b6 5f 3c 57 39 69 3e 4a f7 6f 3e 69 14 d8 3d
       0.013654432 0.2277578 0.23434177 0.10550768
0001a0 85 49 dc bc 5e 76 cb 3c 2a c9 fc 3c b7 eb 15 3e
       -0.026890526 0.024836715 0.030857641 0.146407
0001b0 a0 02 72 3c 06 1d b8 bc f6 42 2d 3f 4a fd 4b bd
       0.014771134 -0.022474777 0.676803 -0.049802102
0001c0 4f 4d 69 be ed 9d 18 be 53 76 b8 bc 83 e1 89 be
       -0.22783397 -0.14903994 -0.022517359 -0.26929864
0001d0 b6 78 98 be 7a 88 ce 3d c7 c1 0a 3e 6c 83 a3 3e
       -0.29779595 0.100846246 0.13550483 0.31936204
0001e0 cc 01 bc bd 5c a4 3c 3e 86 71 22 be 25 88 8f 3e
       -0.0918003 0.18422073 -0.15863618 0.28033558
0001f0 de 91 8b 3e 4e d4 df 3e 62 42 9a 3c 44 bc 06 3f
       0.27259725 0.43716663 0.018830482 0.5263102
000200 8c 86 31 bd 22 2f 21 3e cc 73 7b be 2f 11 2a 3e
       -0.043341205 0.15740636 -0.24555892 0.16608118
000210 11 08 bd 3e f9 3c 58 be e2 c4 eb bd 72 47 83 3e
       0.36920217 -0.21117009 -0.11512162 0.25640446
000220 a2 00 2d 3b 46 54 16 bd f8 19 97 3d 78 77 b5 be
       0.0026398082 -0.036701463 0.07378 -0.3544271
000230 94 31 06 bd 0f 37 55 be 91 f7 49 3e 8e 40 a5 bd
       -0.032762125 -0.20821784 0.19723345 -0.080689535
000240 31 a5 43 be 84 ef 14 3c 18 0a b9 3c 45 d5 b8 3d
       -0.19105984 0.009090308 0.02258782 0.09025053
000250 54 ee 79 3d 0a 0e 0c 3d 0b 8b 0e be 56 23 4b bc
       0.061018303 0.034193076 -0.13920228 -0.012398561
000260 7e e2 40 be 4f 12 5f 3c 15 0d 01 be 65 a5 a4 bd
       -0.188364 0.013615205 -0.12602647 -0.08039359
000270 5f 18 bf bd e6 87 a8 bb d0 79 84 be 46 9c 0e 3e
       -0.0933082 -0.0051431535 -0.25874186 0.13926801
000280 79 2d e6 bd c4 c5 1d bc 56 c0 61 be 82 e3 85 3c
       -0.11239142 -0.0096296705 -0.22046027 0.016343836
000290 dd e2 b7 3c ff c2 76 3d 20 f9 12 bc f3 78 ac 3d
       0.022447044 0.060244557 -0.008970529 0.08421507
0002a0 a4 d4 95 bd 8f 81 83 3c 28 80 d9 3d ea 54 b6 bd
       -0.073159486 0.01605299 0.10620147 -0.08902915
0002b0 41 8e 23 be a6 c3 ef bd 1c a6 08 be c6 f0 86 3d
       -0.15972234 -0.11707239 -0.13344616 0.06588893
0002c0 81 6f 22 bc 11 21 0c 3e 9e 46 78 be 6d 07 03 bd
       -0.00991428 0.13684489 -0.24245688 -0.031989504
0002d0 6b 61 2f be 2a 6e ac 3d 58 76 6d 3c f3 84 cc 3d
       -0.17127006 0.084194496 0.014493547 0.099862956
0002e0 88 b9 c6 3d b3 95 88 bc c5 4b 3e bb 64 4c 3c 3c
       0.09703356 -0.016672945 -0.0029036861 0.011492822
0002f0 a4 2a e4 3c 6c f0 49 bd c4 68 eb bc ee 0c fc bd
       0.027852364 -0.04930155 -0.02873648 -0.12307154
000300 f1 81 e8 3e 55 df d5 3e ce 29 fb 3e 4c b3 2c 3f
       0.45411637 0.4177195 0.49055332 0.67461085
000310 29 18 9d 3d 0e ff 0e 3f 64 1a 5a 3f 86 76 0b 3e
       0.07670624 0.5585793 0.8519652 0.13619432
000320 73 23 49 be f8 88 30 3e 16 a7 1a 3e f1 5b 5e be
       -0.19642429 0.1723975 0.151028 -0.2171476
000330 55 c5 88 3e 82 69 2e be ac 5e 0f 3f 66 91 2b 3f
       0.26713052 -0.17032436 0.5600383 0.67018735
000340 77 dc 56 bd 6a 7f 7a 3e 5b 66 b4 bd 5a ce 6c 3e
       -0.052456345 0.24462667 -0.08808585 0.23125592
000350 42 ca 3b 3e e4 fc 98 bd 6f 6f 10 bd 46 db 28 3f
       0.18338874 -0.0747011 -0.03526252 0.65959585
000360 f2 98 40 3d 8e 3c 84 3d 58 42 3f be 02 90 73 3d
       0.04702086 0.064568624 -0.18677652 0.05946351
000370 ba 26 8e 3c 36 ef 1f 3f 2c 38 e2 3e 29 df 2f 3f
       0.01735245 0.6247438 0.4418348 0.6869989
000380 96 b8 be 3e 9b b0 eb 3e b2 de e6 3d a6 7c 02 3f
       0.37250203 0.46033177 0.112729445 0.5097145
000390 dd 63 7d 3e de e7 b6 3e 6f ed 24 be 3c 70 b8 3d
       0.24745126 0.35723776 -0.16106199 0.09005782
0003a0 91 69 3c 3e 2d 0d 95 3e 3c 8d 30 3e 67 1f 65 3e
       0.18399645 0.29111615 0.17241377 0.2237526
0003b0 96 ad 36 3f ef e5 65 3e 8e 68 df be f4 d7 c9 3e
       0.7135862 0.22450994 -0.43634456 0.39422572
0003c0 05 9a 72 3f 55 43 02 3f c3 36 2b 3e b9 75 90 3e
       0.94766265 0.5088399 0.16720109 0.28214815
0003d0 6e a1 32 3e 1e ab 37 3e 11 44 88 3f 3f 6d 31 3e
       0.17444393 0.1793637 1.0645772 0.1732683
0003e0 87 90 63 3f 41 d3 8c be 4b e8 c2 3e 04 d8 05 3f
       0.88892406 -0.27504924 0.3806785 0.5228274
0003f0 7a 90 97 3f e2 db eb bd fb 2f 6a 3e 66 09 a1 3e
       1.1840966 -0.11516549 0.22869866 0.31452483

lstm.weight_ih_l1 f4 [256, 64]
000000 d1 c7 2b bf 8a 37 2b be 61 fa 48 3e 4c 28 b4 3e
       -0.6710177 -0.16720405 0.19626762 0.35186994
000010 cc bc 07 bd 65 57 3a 3e e5 80 5b 3e 0e 53 24 3d
       -0.033139035 0.18197401 0.21435888 0.04011827
000020 3d 68 ce bd b3 76 57 3e 1f b1 0f be c6 aa a8 be
       -0.100784756 0.21041374 -0.1403241 -0.3294279
000030 0c d1 be 3e 23 3b d2 bd 21 ce 2c be c5 7e c6 be
       0.37268865 -0.10265186 -0.16875507 -0.38768592
000040 a5 af 3a bd 72 fc 93 3c df 50 0e be dd 7b 5d 3e
       -0.045577664 0.018064711 -0.13898037 0.21629281
000050 5e c7 37 bd 39 c9 17 3e 02 44 11 be 90 1c 9a be
       -0.044867866 0.14822854 -0.14186099 -0.30099916
000060 04 93 82 3e cf 5f 9e 3c 2f cc 50 3e 78 48 ff 3b
       0.2550279 0.019332794 0.2039039 0.0077906214
000070 bb bd b4 be 78 70 53 bd 9c 50 93 bd 57 cf 57 bd
       -0.35301003 -0.05162093 -0.071931094 -0.05268797
000080 3e 02 47 3e 3b 9d c1 3d 00 ae 0f 3d 33 e2 1e be
       0.19434449 0.094538175 0.03507805 -0.15515976
000090 6c 22 06 3f 39 96 80 3d b4 ae a0 be 06 4f 06 3e
       0.52396274 0.06278653 -0.31383288 0.13116083
0000a0 4b 09 77 be 00 f4 a2 3e a0 cc dc 3e 01 0a 8d be
       -0.24124639 0.31826782 0.43124866 -0.27546695
0000b0 33 de 9e 3e 64 57 c6 3e f4 53 b9 bc 6c 5d 65 bd
       0.310289 0.3873855 -0.02262304 -0.055997297
0000c0 11 11 10 3e e7 ea 64 3e ed 0c e7 bd fd a7 f9 bc
       0.1406901 0.22355233 -0.11281762 -0.03047561
0000d0 d7 7a ae be f9 72 c8 3d 4c 34 27 3e 74 d0 4f 3e
       -0.34078094 0.09787554 0.16328543 0.20294362
0000e0 2b 7d 93 bd 50 af 33 be 15 bc 41 bd 94 fc 5f be
       -0.07201608 -0.17547345 -0.04729851 -0.21873695
0000f0 79 b6 d4 3d 7d ab 27 3e 43 5d 6c 3e e4 eb 26 3e
       0.103863664 0.16374011 0.23082452 0.16300923
000100 ec 7b 40 3e 2e a8 ff 3c db 38 ad be b6 44 48 3f
       0.18797272 0.031208124 -0.3383244 0.78229845
000110 39 5b 1b bd 0e a1 30 be dc 0e cf be 1e 23 a3 be
       -0.037928794 -0.17248937 -0.40441024 -0.3186273
000120 0c 85 be 3e 85 10 ea be a5 2a e0 be 8c 58 1a 3e
       0.37210882 -0.45715728 -0.43782535 0.1507284
000130 f8 c9 5d be b4 b2 ee 3e 4b b2 43 3e 45 eb 5b be
       -0.21659076 0.46620715 0.19110982 -0.21476467
000140 01 f2 95 3c bf 9e ba be 70 29 88 3e 83 07 80 3e
       0.018303873 -0.3644924 0.26594114 0.2500573
000150 e0 98 95 3e cf 1f 0f 3f 5c 82 56 be 89 d8 82 3d
       0.29218197 0.5590791 -0.20948166 0.06388957
000160 9f 4a 90 be f4 4c 0c bd d3 d1 68 3f 17 e2 8e be
       -0.2818193 -0.034253076 0.90945166 -0.27906868
000170 b3 0e d3 3d f7 eb d6 3e 49 f9 d2 3d 3b 78 21 be
       0.10305538 0.41976902 0.103014536 -0.1576852
000180 1c e7 95 3d 28 06 5f 3d e4 18 00 3e 3f 11 ba 3e
       0.07319471 0.05444923 0.12509495 0.36341283
000190 19 5f be be 59 32 21 bf 70 1e 28 bf c3 ec 07 be
       -0.3718193 -0.6296745 -0.65671444 -0.13273911
0001a0 19 69 9e bc 02 b4 89 3c 96 4f 05 3f c2 27 13 3e
       -0.019337224 0.016809467 0.52074564 0.14370635
0001b0 a0 01 91 3e 80 8e 56 be c8 07 cd 3e 86 2e b2 3e
       0.28321552 -0.20952797 0.40045 0.3480112
0001c0 92 8e 96 be 28 65 9d 3d 98 c5 43 be 61 85 dc be
       -0.29405648 0.0768531 -0.19118345 -0.4307051
0001d0 6a 50 e0 be d4 e0 82 3e 77 1b c9 be 02 10 07 be
       -0.4381135 0.25562155 -0.39278767 -0.131897
0001e0 80 a9 89 3e eb df c8 bd 51 b1 e4 bc 05 21 68 be
       0.2688713 -0.09808334 -0.027916582 -0.22668846
0001f0 1a 3d a7 3e c9 e8 86 3e e0 4c 2d 3e c3 3e 9b bc
       0.32663804 0.26349476 0.16923857 -0.018950826
000200 fa 06 ec be 55 e4 63 bc ff 8b a1 be 59 ea 76 be
       -0.46099073 -0.013909419 -0.3155212 -0.24112834
000210 45 e6 17 bb a8 af 7c 3d b3 04 3c 3e 7c aa 9c 3e
       -0.0023178023 0.061690956 0.18361168 0.3059882
000220 35 50 f6 3e 8d 5a f4 b9 ca 68 8b bd 00 25 5d be
       0.48108068 -0.00046606772 -0.06807096 -0.21596146
000230 0c 85 38 3e a1 a4 2e 3f b0 e5 fa bc 23 5a 1a be
       0.18019503 0.68219954 -0.030627102 -0.15073447
000240 75 80 ac bd 62 a9 66 3e 6d 53 89 bd d8 12 2d be
       -0.08422939 0.22525552 -0.06705365 -0.1690172
000250 98 d4 81 3e 2b a9 d1 be 33 c2 a7 3e dd d0 15 bc
       0.2535751 -0.40949377 0.3276535 -0.009144035
000260 ac 6c 42 bd fc df 16 be 30 86 4b be df ba a2 bd
       -0.04746692 -0.14733881 -0.19875407 -0.07945799
000270 dc 56 4a 3f ba 4d 32 3e dd 6a de bd 75 7a 0a be
       0.79038787 0.17412463 -0.10860226 -0.13523276
000280 91 4f 51 be cb b0 f9 3d bc 95 a2 3d 40 07 4c be
       -0.20440508 0.12191924 0.07938716 -0.1992464
000290 bc f5 1a bf b7 fe 8f 3e af df 80 be 2a cf b9 3d
       -0.6053121 0.2812402 -0.25170657 0.090727165
0002a0 cd 3c da be 2d 21 89 be 6d 40 ff 3d 53 6d 55 3d
       -0.42624512 -0.26783124 0.1246346 0.052106213
0002b0 d1 1f 9f 3d 60 02 6b be 60 b5 93 3d b3 2d e6 3b
       0.077697404 -0.22950125 0.07212329 0.0070244907
0002c0 16 f7 33 3e 41 dd 9d be 36 a4 42 3e 3d bf 16 3e
       0.17574725 -0.30832866 0.19007954 0.14721389
0002d0 19 17 c1 3d 39 2b 50 3e ec b9 7b 3d 22 d2 8d 3e
       0.09428234 0.20328988 0.061456606 0.2769938
0002e0 eb e8 a6 3e ac c6 1f 3e 54 a8 48 3e c0 59 6e 3e
       0.32599577 0.15603131 0.19595462 0.23276424
0002f0 1b 16 9e be 32 5b 1f 3e 70 24 bb 3e bb 97 1d be
       -0.3087624 0.15562132 0.36551237 -0.15389912
000300 31 33 60 3e 10 76 76 bd de 4e 8e 3e 97 81 bb 3d
       0.21894528 -0.060171187 0.27794546 0.09155577
000310 07 45 94 be 88 90 e0 bd 30 c7 37 3f 32 e5 9d 3e
       -0.28958914 -0.10965067 0.7178831 0.30838925
000320 e6 e5 84 3e 30 6e bf ba 58 d3 89 3e 2b f8 6e be
       0.2595665 -0.0014604982 0.26919055 -0.23336856
000330 0d 5a ec bc fa 14 c5 3d 05 c3 02 bd 1e 0e a2 3c
       -0.028851533 0.096231416 -0.031924266 0.019782122
000340 f9 66 4a bc dc ff 5d 3e 40 5c db 3e 8a 06 98 be
       -0.012353652 0.21679634 0.4284382 -0.2969249
000350 f2 3b 91 3f 1b bc 55 3d 00 86 de 3e df 7e b2 3d
       1.1346419 0.052181344 0.4346161 0.08715605
000360 52 32 eb 3c 92 e1 d2 bd 7b 0f df 3e fc 4a a1 3f
       0.028710518 -0.102969304 0.43566498 1.2601008
000370 9d b8 ee 3c 29 5b d3 3d 1f e8 12 bd 09 c0 73 be
       0.029140765 0.10320122 -0.0358659 -0.23803724
000380 6d 9e 16 bf 3f b9 a0 bd f5 7d a9 3e 7a f6 7c 3e
       -0.5883549 -0.07847833 0.3310391 0.24703398
000390 3e 64 14 3f e3 1d 86 3f 16 8b 59 be 32 09 12 bf
       0.5796546 1.0477871 -0.21244463 -0.5704528
0003a0 cb 63 bd bd 4f 6d e5 be a9 1c 28 be 6a 48 72 3e
       -0.092475496 -0.44809958 -0.16417183 0.23660436
0003b0 ad d9 eb be 4f fe 97 bd 58 2c c6 be 0e f4 b9 3d
       -0.4606451 -0.074215524 -0.38705707 0.09079753
0003c0 2a 34 c4 3e a2 ef 0c bd 01 d7 54 3e e3 ee 99 3f
       0.38321048 -0.03440822 0.20785142 1.2026027
0003d0 17 4f a8 3e 87 91 e9 3d a9 ac 78 3d 74 7e a5 bd
       0.3287284 0.1140471 0.060711537 -0.0808076
0003e0 bc 20 30 be 13 b0 24 3f 40 5a 2e 3d c6 f4 e1 3d
       -0.17199987 0.6433117 0.042566538 0.11033015
0003f0 79 81 65 bf e3 05 90 bd b4 0b 85 3e ad 07 d5 bd
       -0.89650685 -0.07032373 0.2598549 -0.10401855

lstm.weight_hh_l1 f4 [256, 64]
000000 12 d5 48 3f 6e a8 1b 3e 7b e7 93 3d 45 c0 f8 3e
       0.7845012 0.1520097 0.07221886 0.4858419
000010 c6 2b 6d be a3 d3 6a 3f 4d b1 8f 3d a2 dc cf be
       -0.2316123 0.9172918 0.07016239 -0.40598017
000020 a8 33 80 be 20 75 4c bf 38 fb 13 bf c5 04 2b bf
       -0.2503941 -0.7986622 -0.57805204 -0.6680415
000030 43 b3 5f 3f d4 8e 03 bf d9 b3 2a 3f d7 ef 9b bf
       0.87382907 -0.51389813 0.66680676 -1.2182568
000040 cc 50 ac bd 6d 4f 65 bd 55 19 02 be f4 10 76 bf
       -0.08413848 -0.05598395 -0.12704976 -0.9611962
000050 b6 f9 8e 3e 56 3a 8f be d4 34 01 be 76 7c df 3f
       0.2792489 -0.27974194 -0.12617809 1.7459857
000060 d7 64 76 bf 83 60 81 3d eb ec d2 be 2d 0e bf bd
       -0.9624762 0.06317236 -0.4119638 -0.09328876
000070 ee f5 c6 3c 94 6c 10 bf f2 21 d4 be 4d 4e 6e 3f
       0.02428719 -0.5641568 -0.41432148 0.9308823
000080 e3 06 d7 3d e7 0e b4 be 2f 08 60 bf c1 7b c5 bd
       0.104993604 -0.3516762 -0.8751249 -0.09642745
000090 bd 66 89 3e e9 e9 84 bf f5 30 b9 be c0 d3 99 3f
       0.26836196 -1.0383884 -0.36170164 1.2017746
0000a0 d8 85 12 3e 30 7e 53 bf cb 8e 32 3d fb 38 66 3f
       0.1430887 -0.8261442 0.04359321 0.89930695
0000b0 f2 90 21 3e e1 f9 6d 3d be a9 5c 3f ab f7 b1 3e
       0.15777948 0.05809963 0.86196506 0.34759268
0000c0 4a a8 f1 be 06 e5 be 3f d7 7c ec be 4e 83 00 bf
       -0.47198707 1.4913642 -0.46188995 -0.50200355
0000d0 09 7d 7a bf 2f 53 72 3f 2d bc 1e 3f 98 6a 5d 3f
       -0.9784704 0.9465818 0.62005883 0.86490774
0000e0 4b aa 4f 3f dc 1c f1 3e 4e 46 65 3f 1c 21 f5 3e
       0.8111922 0.4709233 0.895604 0.47876823
0000f0 6f b0 7c 3f c8 ef 47 3f 54 9e ff 3e bd d8 b9 bf
       0.98706716 0.7810025 0.49925482 -1.4519268
000100 b5 0b 8a bf 87 e4 41 be 04 bd 39 3e b3 2d e2 3e
       -1.0784823 -0.18934833 0.1813851 0.4417549
000110 78 62 6a be a9 9f ad bf ec 38 77 bf ec 1c 35 3d
       -0.22889125 -1.356435 -0.9657123 0.044217035
000120 1c 88 ef be b8 0d 82 3e a7 f0 8c bf 5a 13 1c 3e
       -0.4678353 0.25401092 -1.1010941 0.15241757
000130 87 c3 2e bf 3a 39 9c 3f 63 c6 d8 bd 15 07 55 be
       -0.682671 1.2204964 -0.10584714 -0.20803483
000140 ee 0e c7 be 54 67 98 3f 1d fa 17 bf df 79 b9 3d
       -0.38878578 1.1906533 -0.5936602 0.09056448
000150 09 7c dc be f7 15 00 3f d4 41 30 3d ef be 82 3e
       -0.4306338 0.50033516 0.04303153 0.25536296
000160 74 49 87 3f b3 4f 92 3f b1 de c6 be d4 a6 2b be
       1.0569291 1.1430572 -0.38841775 -0.16762859
000170 1f 4c 2b 3e 50 7d 9d 3f dd a4 0f 3e 63 7e 7d bf
       0.16728257 1.2303867 0.14027734 -0.99020976
000180 79 23 2c 3f c5 10 1a 3f 3b ed d2 3e b8 6e f8 bf
       0.67241627 0.6018184 0.41196617 -1.9408789
000190 97 aa 04 3e 2c 4b 09 3f ef 62 e0 3e c7 ad 57 3f
       0.129557 0.5363033 0.4382548 0.8424954
0001a0 ca 4a 58 3f 52 53 aa 3f ef df 18 be 5b 88 1a 3d
       0.8448912 1.3306677 -0.14929174 0.037727695
0001b0 2c cb a0 3f 19 17 0d bf a1 22 06 be 4b 5f 8d 3f
       1.2562003 -0.5511337 -0.13099147 1.1044706
0001c0 16 62 21 3e 29 35 aa 3e 35 5d 9a bf d1 26 58 bf
       0.15760073 0.33243683 -1.2059695 -0.8443423
0001d0 5e 33 7d be 8b 22 38 3f 76 2c c4 bd e1 fa d3 bf
       -0.24726626 0.7192771 -0.09578793 -1.6560937
0001e0 3d 77 83 bf 7b 9b a4 be d5 b9 31 3e 6a 37 a9 3e
       -1.0270764 -0.32149872 0.17356046 0.3305009
0001f0 e9 29 8a be ec c0 96 bf 40 bc d2 bf 61 c9 0e c0
       -0.269851 -1.1777625 -1.6463699 -2.2310412
000200 08 f1 1e 3f 81 fb c7 3d a4 bc 0e 3e 87 cd ad 3e
       0.62086535 0.097647674 0.13939148 0.33945867
000210 f6 4b df be df df ef 3e 78 4f f0 3e c0 72 d4 be
       -0.4361264 0.46850488 0.4693563 -0.41493797
000220 dd 5e f3 bb 05 88 71 3f d7 0b 6f 3f bb 2a 85 3e
       -0.00742708 0.94348174 0.9337744 0.26009163
000230 97 69 9a be 62 93 b0 3e 50 5e fc 3d 1f 38 79 be
       -0.30158684 0.34487444 0.12322676 -0.24337815
000240 ce 58 ec 3e 47 57 00 3e c9 c4 2c be fd 19 6c 3e
       0.46161503 0.12533294 -0.16871943 0.23056789
000250 96 73 33 be 89 f5 87 be 6f 92 5a 3e b5 23 fb bc
       -0.17524561 -0.26554516 0.21344922 -0.030656675
000260 36 75 80 bd 3a 63 27 3f 2b 0f 87 bf fe e0 23 bf
       -0.06272356 0.6538578 -1.0551504 -0.64015186
000270 20 3e 13 bf a6 3b 47 bf 6a 21 1a bf b1 e3 21 3e
       -0.5751667 -0.7782539 -0.60207236 0.15809514
000280 c3 09 08 3f 28 0c 89 bf 35 88 6c 3f 29 2f 0b 3f
       0.53139895 -1.0706835 0.92395335 0.54368836
000290 a7 0c 20 3f d4 cb cc 3e fc 7b 3d 3f ce 4d 5c bf
       0.62519306 0.3999926 0.7401731 -0.8605622
0002a0 2a 55 39 bf 74 2d 88 3e b5 17 96 bf a9 7b 23 c0
       -0.72395575 0.26597178 -1.1725985 -2.5544226
0002b0 ef 24 25 bf 0a 3f d3 be 27 54 1d 3f 9c 27 19 bf
       -0.6450948 -0.41259032 0.6145653 -0.59826064
0002c0 c5 ff 99 be bd 1e 85 be 8a 35 91 be 52 93 33 3f
       -0.3007795 -0.26000014 -0.2836116 0.7014667
0002d0 55 8e a6 be 7d 11 0f be 8e 35 c1 bc eb 3d 53 bd
       -0.32530466 -0.13971515 -0.023585107 -0.05157272
0002e0 2a 94 c8 be 9c 95 fe bf ff 77 15 3e 69 47 f5 3e
       -0.3917554 -1.9889407 0.14596556 0.47906044
0002f0 2e 6d 96 3c af 65 46 be 05 91 cd be 95 86 90 be
       0.018362608 -0.19374727 -0.40149704 -0.28227678
000300 36 cc cb bf 70 f9 71 3f b6 6a 4b bf 9c f2 0d 3f
       -1.5921695 0.94521236 -0.794597 0.5544832
000310 73 42 68 bf 77 42 4a bf cd 4c 8f be 28 06 be bc
       -0.90726393 -0.7900767 -0.27988282 -0.023196295
000320 dc d8 89 3f d6 54 d7 3f 02 d8 0c 40 77 d4 1e 3d
       1.0769305 1.6822765 2.200684 0.03877684
000330 97 f0 a8 be 39 46 8e 3f 33 13 b6 3e 3e 9c c1 3e
       -0.32996055 1.111518 0.35561523 0.37814516
000340 8a 45 73 bf 9c 2b 8b bf d0 d1 89 3f c1 d1 a1 bf
       -0.95027983 -1.0872684 1.0767155 -1.2642137
000350 e6 db 07 bf a8 c9 67 bf ca 05 10 bf 71 ee 35 bd
       -0.53069913 -0.9054208 -0.56258833 -0.04441685
000360 83 22 54 bf fc 64 70 bf cc 33 51 3f 94 26 da bf
       -0.8286516 -0.9390409 0.8171966 -1.7043023
000370 5e 6d 1e 3f 6d 16 c5 bd 35 79 2d bf 11 ec 8b 3d
       0.6188563 -0.09623418 -0.6776307 0.068321355
000380 77 40 00 bf 9d c9 87 3f f7 89 8d 3e 19 3e 9e bf
       -0.50098366 1.0608402 0.2764432 -1.2362701
000390 70 43 a9 bd cc 24 9b bf 5e 93 78 3e 46 24 6f be
       -0.08264816 -1.2120605 0.24274966 -0.23353681
0003a0 36 13 47 be c4 8b 24 bf 01 24 18 c0 b6 be bf 3e
       -0.19440922 -0.64275765 -2.3771975 0.37450188
0003b0 48 50 58 c0 00 c8 1e 3f c4 6e 3a bf d4 5b a9 be
       -3.3799 0.62023926 -0.72825265 -0.33077872
0003c0 ca 6e b2 bf fc e7 a1 3f bc 4f 1e 3f cf c7 8e 3f
       -1.394006 1.2648921 0.61840415 1.1154727
0003d0 94 12 9d be d2 4a c7 be 39 14 7f bf c3 ab 53 3f
       -0.30678236 -0.3892427 -0.9964023 0.8268396
0003e0 8e 74 27 bf 77 50 f0 be d0 0f d9 3d 71 58 a2 3e
       -0.65412223 -0.4693639 0.10598719 0.317081
0003f0 5f 00 1e 3e 4c 11 ce 3f 00 13 f7 bf 1b c7 28 3f
       0.15429829 1.6099029 -1.9302673 0.6592881

lstm.bias_ih_l1 f4 [256]
000000 d5 7b 98 3f 8f 32 80 3f cd d3 a0 3e 00 9f 28 bd
       1.191279 1.0015429 0.3141159 -0.04116726
000010 20 c6 a2 3e 59 60 f3 be b0 3c 31 3e 35 e9 6f bd
       0.31791782 -0.47534445 0.17308307 -0.058572013
000020 db e4 0d bf f8 5e b0 bd ac e9 05 3f 2a fc c0 be
       -0.5542733 -0.08611864 0.5230968 -0.37692386
000030 48 38 ae 3e 8b 84 13 3f fa 15 2a 3f a2 86 5b 3f
       0.34027314 0.5762412 0.66439784 0.8575231
000040 c4 75 00 3f dd 5c 91 3e 17 0a 01 3f 3d 04 ea 3e
       0.50179696 0.28391162 0.5040602 0.4570636
000050 92 4d 69 3d 99 fe 37 3e b8 3f 34 3e 7a 24 7b 3e
       0.056958742 0.17968215 0.17602432 0.24525633
000060 fa a1 79 3e 0f 63 da be 40 cc 9f bd 2b 08 58 3f
       0.24378195 -0.426537 -0.078026295 0.84387463
000070 84 02 74 3f 75 d5 3c 3e 22 09 8a 3f 48 cb e4 bd
       0.9531634 0.18440802 1.0784037 -0.11171585
000080 fa 9b da 3e 14 4c 4e 3f 90 d1 60 3f 70 f5 3b bf
       0.42697126 0.80584836 0.87819767 -0.7342138
000090 ae cc 24 3e f4 00 95 bd 47 83 d8 be c2 59 c2 3f
       0.16093704 -0.072755724 -0.42287657 1.5183642
0000a0 94 3a 28 be 51 cc 21 3f b8 ad bf 3e a6 d6 0d 3f
       -0.16428596 0.6320239 0.37437224 0.5540565
0000b0 c0 ee e1 3f f2 86 69 3f e3 88 0a bf 8f 55 95 3e
       1.7650986 0.91221535 -0.5411512 0.2916684
0000c0 6b c1 2a bf 16 8a fc 3d 7f ad e7 3e e0 b4 5a 3e
       -0.6670138 0.12331025 0.45249555 0.21358061
0000d0 d6 af d3 bc 79 6f c1 be 3f d0 2c 3f db 89 26 3f
       -0.025840681 -0.3778036 0.6750526 0.650541
0000e0 8f 58 a8 3e 64 b2 21 3f 52 77 7f 3f 55 02 21 bf
       0.32880065 0.6316283 0.99791443 -0.62894183
0000f0 85 0e 24 be f1 d7 9c 3f ce 8a ae 3e 91 15 30 be
       -0.16021164 1.22534 0.34090275 -0.17195727
000100 ae b6 37 bf 53 29 53 be 94 18 6d bf 5a 16 da bd
       -0.7176312 -0.20621233 -0.9261563 -0.106487945
000110 36 43 68 bc 0c fa aa 3e f7 5f 15 bf 7e a5 e5 be
       -0.014176181 0.33393896 -0.58349556 -0.44852823
000120 92 fc 95 be c1 b9 a4 be 15 61 ec 3e 98 9e ac be
       -0.29294258 -0.3217297 0.46167818 -0.33714747
000130 bf df 86 be e6 40 b7 3e 00 57 19 bf 29 12 02 bf
       -0.2634258 0.357917 -0.59898376 -0.5080896
000140 c3 87 0d 3f d3 7b 08 bf ff 41 de 3e 6e 40 57 be
       0.5528528 -0.5331394 0.43409726 -0.21020672
000150 26 e3 b9 3e a4 9d 00 bf 26 a5 cf be b8 88 76 be
       0.36306113 -0.5024054 -0.40555686 -0.24075592
000160 8a 0e 9e 3e 81 2c 34 bf 31 10 5b bf ff 71 9c bf
       0.30870467 -0.7038041 -0.8557158 -1.2222289
000170 47 54 2d bf 4a fc 8d bf 76 99 19 bf d1 f4 46 3e
       -0.6770672 -1.1092618 -0.5999979 0.19429328
000180 e3 17 b5 3d 30 24 e3 be 2e 54 10 bd 33 a3 da 3e
       0.08842447 -0.44363546 -0.03523653 0.42702636
000190 99 68 1d bf 7e dc ab 3d fe 96 37 bf 0c e4 2b 3e
       -0.6148773 0.08391665 -0.7171477 0.16786212
0001a0 16 2f 20 bf ed ac 4c bb 86 14 8c 3e 24 23 de bd
       -0.6257185 -0.0031231001 0.27359408 -0.10846546
0001b0 24 d9 cd 3e 94 7e 09 be 6c 57 be 3e 26 a3 1f 3f
       0.40204728 -0.13427192 0.37176073 0.6235832
0001c0 c9 cb 0e bd 46 5e 4c bf 98 b7 87 3d e0 35 bf 3d
       -0.034862313 -0.7983135 0.066268146 0.09336448
0001d0 0e cf 35 bf c7 3a 38 be f5 e1 ec 3b 4c 10 76 be
       -0.71019065 -0.17991172 0.0072290846 -0.24029654
0001e0 d1 f1 03 bf 3c 1c 6d bd 8c b6 6a 3f d0 60 f1 be
       -0.5154086 -0.057888255 0.91684794 -0.47144175
0001f0 92 79 d8 3e 81 9e ac 3e 74 92 51 3f e1 55 71 bf
       0.4228025 0.3371468 0.81864095 -0.94271666
000200 73 dd d6 bd b2 92 11 be fc 28 12 3e 69 85 4a be
       -0.10491457 -0.14216116 0.14273447 -0.19777454
000210 ab 78 68 3d 7a c6 00 bf 01 18 fb 3d 58 18 35 be
       0.056755703 -0.5030285 0.12260438 -0.17685068
000220 9c e4 97 be 08 b2 08 3d f0 3a 2c bd a2 93 96 3e
       -0.29666603 0.03337291 -0.042048395 0.2940951
000230 09 5b 60 be 59 92 13 3e a1 dc 41 be 21 e8 0d bc
       -0.21909727 0.14411296 -0.1893182 -0.008661301
000240 ee 80 0c 3f 3c 79 8b bd 5d aa a1 bd fe 03 e5 bd
       0.5488423 -0.06810233 -0.07893822 -0.11182402
000250 ce fd 7d 3e 19 48 fb bd 8b ca 6d 3d bd 77 db 3b
       0.2480385 -0.12269611 0.05805449 0.0066976235
000260 ee 73 50 be 99 a1 36 3d e9 7d 20 3e a9 26 31 3f
       -0.20356724 0.044587705 0.15673031 0.69199616
000270 48 38 b9 3e 4d cc a6 3e 9c ff 09 3e da a2 09 be
       0.36175752 0.32577744 0.13476413 -0.13441029
000280 88 53 01 bd be a1 b4 3e 66 03 68 3d 52 39 8f 3e
       -0.031573802 0.3527965 0.056643866 0.2797342
000290 4d 08 8d bd 0a 22 10 bc af 2d 43 be 59 d1 c1 3d
       -0.06886349 -0.008797178 -0.19060396 0.09463758
0002a0 00 96 b4 3e be 51 b8 bd 88 f7 34 be e5 96 9b be
       0.3527069 -0.08999966 -0.1767255 -0.3038856
0002b0 52 f6 fb 3d 6b 8a b5 be f3 39 05 bf 1e 7c b9 3c
       0.12302841 -0.35457167 -0.5204155 0.022642191
0002c0 d5 18 fc bc 62 e5 99 3e 12 d2 16 bd d7 f1 36 be
       -0.03077356 0.30057818 -0.036821432 -0.17865692
0002d0 a6 92 39 bd 9e 18 02 bf 31 89 e6 3e fc dd 84 3e
       -0.04530587 -0.5081881 0.45026544 0.2595061
0002e0 65 53 84 3e 94 56 0c 3e a0 ef 08 be d4 2c 45 3e
       0.25844875 0.13704902 -0.1337266 0.19255382
0002f0 8f e0 9d 3e 59 16 1a 3f f8 83 96 be 65 ec 77 3e
       0.30835387 0.6019035 -0.2939756 0.24211271
000300 d6 97 72 3e c0 12 99 3d 60 bf c4 bd f6 5b 26 bf
       0.23690733 0.074742794 -0.096068144 -0.6498407
000310 47 d6 f6 3d f4 0e 7c 3f 09 7b 52 3e ef c0 e0 3e
       0.12052589 0.98460317 0.20554747 0.43897197
000320 1f 74 9e 3e 9a f4 ac bd d4 78 aa be 0a b8 3f 3f
       0.30947968 -0.084450915 -0.3329531 0.74890196
000330 c5 2c 35 3f 40 eb cf be aa da c1 3f c2 51 e7 3e
       0.7077144 -0.4060917 1.5144856 0.45179564
000340 ac 05 af 3e 1e 60 38 bf 2e 7f 27 3e 85 6f 59 be
       0.34184015 -0.72021663 0.16357109 -0.21233948
000350 de e0 44 be fe a9 33 3f 62 4e 06 bf db 08 b1 be
       -0.19226405 0.7018126 -0.5246335 -0.3457707
000360 e8 ad f7 3c 7b fe ce bd fc 62 96 3e b8 de 54 3f
       0.030234292 -0.10107132 0.29372394 0.8315234
000370 70 b7 28 3f 76 b5 24 3f d6 f4 60 3f 08 1a b0 3d
       0.65904903 0.6433939 0.8787359 0.08598715
000380 9c 7f ca be e7 c7 97 3f 79 ef 44 bf 73 3f 03 3f
       -0.39550483 1.185788 -0.76927906 0.5126869
000390 a8 9b bd 3f 5b e7 a6 bd b6 f5 19 bb b9 02 25 3d
       1.4813128 -0.08149596 -0.0023492402 0.0402858
0003a0 51 0a 46 be 41 ac 84 3d 5f 24 c4 bf ab 60 13 3e
       -0.19339873 0.06478167 -1.53236 0.14392345
0003b0 37 85 93 3e fc 9e b3 3e eb 41 a0 3e 17 3a 64 be
       0.28812572 0.35082233 0.3130029 -0.22287785
0003c0 c9 55 2d 3f d9 a9 32 3e 31 6a 8a 3e 48 86 f5 3e
       0.6770902 0.17447604 0.27034143 0.4795401
0003d0 d5 df 2e 3f d4 58 57 bf 84 68 d6 bd 54 b0 68 3e
       0.6831029 -0.84119916 -0.104691535 0.22723514
0003e0 f3 01 ca 3e 7c 64 61 bf f8 7a 76 be 18 4b c3 3e
       0.39454612 -0.8804395 -0.24070346 0.3814323
0003f0 3c 74 89 3c 2d 7c ae be 51 ea 11 be 89 10 2b 3f
       0.016779058 -0.34079114 -0.14249541 0.66822106
