model/epoch_6843.pth (torch_old, 289626 bytes, 10 tensors)

lstm.weight_ih_l0 f4 [256, 20]
000000 b3 91 e6 3f 08 cd 4c 40 7d 1c 85 40 a9 a7 37 bf
       1.8013214 3.200014 4.1597276 -0.71740204
000010 a8 fc 75 bd 06 d3 1b 3f e0 6c 11 40 f8 16 83 3e
       -0.060055405 0.6086887 2.2722702 0.2560346
000020 c7 22 3d 3c f3 d5 02 bf e8 ea c0 be 49 d2 55 bf
       0.011543936 -0.5110771 -0.3767922 -0.83523995
000030 d3 1b 3a 3f e8 69 0c c0 93 35 8d 3e 19 16 aa be
       0.72698706 -2.193964 0.27579936 -0.33219984
000040 45 f8 78 40 f4 fb 9b be 67 d5 a5 40 30 dc 68 bf
       3.8901532 -0.30465662 5.1823 -0.9096098
000050 35 98 81 bf b7 a5 c4 3f 90 de 40 3f be 79 66 bf
       -1.0124575 1.5363072 0.75339603 -0.90029514
000060 41 94 1d 40 38 b0 0d 3f 7e 37 a2 bf de 0b e6 bd
       2.4621737 0.55347013 -1.2673185 -0.11232732
000070 e8 4e 64 40 3d 29 53 40 e3 a9 90 3f 54 eb 44 be
       3.567316 3.299392 1.1301845 -0.19230396
000080 fd 7d 18 40 2a 5d 9b bf c0 31 14 bf 87 07 1e bf
       2.3826897 -1.2137806 -0.5788841 -0.61730236
000090 17 c5 b0 bd d2 b5 82 c0 aa f1 2e 40 65 27 84 3e
       -0.08631342 -4.084695 2.7335 0.25811306
0000a0 57 66 9f 3f ee 56 5c 3f 7b 8e 09 3e 45 ec 07 40
       1.2453107 0.86070144 0.13433258 2.1237957
0000b0 e2 26 ae bf 21 a3 c2 3e 61 fc b4 be 6e 90 f6 3e
       -1.3605616 0.38015082 -0.353488 0.48157066
0000c0 20 cd cf 40 71 55 13 40 20 58 91 bf ef 5b e1 be
       6.4937897 2.30209 -1.1355019 -0.44015452
0000d0 11 93 14 40 42 8c e7 3f 9b bf ed bf cf 5b 81 40
       2.3214762 1.8089678 -1.8574098 4.042457
0000e0 bb a6 df bf 24 57 22 3e 43 3d 12 c0 18 51 c5 3f
       -1.7472757 0.15853554 -2.284989 1.5415373
0000f0 cb af 31 40 9a a2 56 40 c7 9f a7 bf a8 ce 9d 3d
       2.7763546 3.3536744 -1.3095635 0.07705432
000100 04 32 a0 3f 2d 24 6c 3b c2 93 6e 3e 67 c3 b0 bf
       1.2515264 0.0036032305 0.23298553 -1.3809632
000110 8b 8b 46 c0 65 56 c6 40 1a 8b 12 bf 8f 2c b9 3e
       -3.102267 6.198046 -0.572435 0.36166808
000120 b0 c3 14 3e d1 48 30 bf 7c a1 06 41 e8 90 9e be
       0.14527774 -0.6886111 8.414425 -0.3096993
000130 78 31 66 bd 87 76 d6 3f e7 88 98 be 75 af d8 3f
       -0.05619952 1.6754922 -0.29791948 1.6928545
000140 c3 fa bf bf ea 23 ab be a1 81 e4 3f 8a 87 84 3e
       -1.4998401 -0.33425838 1.785206 0.25884658
000150 fe df 2a bd 36 ca 79 3f 10 85 43 bf fd 7d 08 bf
       -0.04171752 0.97574174 -0.7637491 -0.5331724
000160 95 3f 95 bd b3 d9 d9 be a5 a6 aa 3f bf 7f 26 bf
       -0.07287518 -0.42548904 1.3332106 -0.65038675
000170 20 45 5a 40 3a bf 5a 40 c1 35 12 41 b8 3d 19 bf
       3.410469 3.4179215 9.1381235 -0.598598
000180 8c 02 6e 3f fa 61 86 3f 0c 0a a1 40 65 73 1a 3d
       0.92972636 1.049865 5.0324764 0.037707705
000190 65 12 c0 3f d2 43 94 40 f2 82 64 bf 34 e2 1f 40
       1.5005614 4.633279 -0.89262307 2.4981813
0001a0 bf 36 7e be a8 b5 57 3f 26 0d 13 c0 b7 26 62 40
       -0.24825571 0.8426156 -2.2976775 3.533613
0001b0 ee 93 c8 3e 69 06 c6 3d cd 25 16 bf 4e ed 89 be
       0.3917536 0.096691914 -0.5865143 -0.26938862
0001c0 fd 8c 64 3f 58 0e 35 bd 13 da f1 bf bb b0 20 40
       0.8927763 -0.044203132 -1.8894676 2.5107868
0001d0 5c 8f 4b bf 3e 99 21 bf 3e 05 46 be 45 82 07 3e
       -0.79515624 -0.63124454 -0.19337937 0.13233288
0001e0 95 d5 f5 bf d5 a1 3f 40 b2 89 7c 40 13 b1 21 bf
       -1.9205805 2.9942524 3.9459043 -0.6316082
0001f0 08 d8 c1 be 79 f8 0f be e6 d6 f1 3f 31 ea 85 40
       -0.3786013 -0.14059629 1.8893707 4.184838
000200 fe c8 17 40 fd 49 15 3f a0 17 ad 3f bd 66 4d bf
       2.3716426 0.5831602 1.3522835 -0.8023489
000210 da 2b 08 3e 32 26 d7 be 61 25 1b be 5c b7 29 3f
       0.13297978 -0.42021328 -0.15150978 0.6629541
000220 50 44 06 40 d5 42 a2 be 85 1c 26 40 c8 09 af bf
       2.0979195 -0.31691614 2.5954907 -1.367486
000230 8f 5e d5 be 5b 3f 89 3f f3 85 9e 3f 6f 86 e7 bd
       -0.41673705 1.072246 1.2384628 -0.11304938
000240 f5 3c 89 40 c2 4c c5 3e af 05 4c 3f aa ea 69 3f
       4.288691 0.38535124 0.7969617 0.91373694
000250 70 57 93 c0 c3 41 f0 3e 6f bf e6 be 11 7e d0 bf
       -4.6044235 0.46925172 -0.45067927 -1.6288472
000260 c8 38 da 3d a8 49 e5 3f df 14 d1 40 2f 80 e6 3f
       0.106553614 1.7913103 6.5337977 1.8007869
000270 91 bd 42 3f 28 68 2c bf 18 5d ce bf 41 21 4b 3e
       0.76070505 -0.6734643 -1.612216 0.19836904
000280 34 ba 80 bf 84 01 c4 40 e5 55 65 bf 38 99 17 be
       -1.0056825 6.125185 -0.8958419 -0.14804542
000290 7e 80 db 3e cb 41 ff bf c5 a7 71 40 a4 a1 d6 3f
       0.4287147 -1.9941953 3.7758648 1.6768079
0002a0 c5 de 15 bf a9 4a e1 3f a9 13 f5 bf 69 ea d0 3e
       -0.58543044 1.760091 -1.9146625 0.4080384
0002b0 46 08 53 bf ec 64 e7 3f 2e 81 b7 bd 30 b1 83 bf
       -0.824345 1.8077674 -0.08960186 -1.0288448
0002c0 a6 7e 39 40 ac 68 80 3e 75 8e 24 bf ab fd 98 bf
       2.898355 0.25079858 -0.6427987 -1.1952413
0002d0 94 dd 4e 3f 3c 17 82 bf 09 05 02 40 21 66 a6 3f
       0.8080685 -1.016334 2.0315573 1.2999917
0002e0 65 ad f7 bf 43 a1 04 bd f0 79 fb 3e f5 e0 03 bf
       -1.9349791 -0.032380354 0.49116468 -0.5151513
0002f0 9e c0 c7 bf 50 eb a2 40 67 4b 18 3f 86 a6 6b 3e
       -1.5605657 5.0912247 0.59490055 0.23012742
000300 5c ee 71 40 15 70 a6 bf 04 ad 24 40 e1 44 14 3f
       3.7801733 -1.3002955 2.57306 0.579176
000310 d4 24 9b bf db 74 19 c0 18 cc 88 3f 28 01 9b 3e
       -1.2120614 -2.3977573 1.0687284 0.3027432
000320 05 44 7d 3f 9e 25 0c 40 de 30 c8 be d5 1b de be
       0.98931915 2.189796 -0.39099783 -0.4338061
000330 0c 09 02 3f bf 86 fe 3f 4d 47 fa be ab 4c d7 3e
       0.50795054 1.9884871 -0.48882523 0.4205068
000340 57 0b 7c bf b4 d6 53 3f c7 d1 8e 3e 00 0c de bf
       -0.98454803 0.82749486 0.27894422 -1.7347412
000350 b9 57 49 3f 43 af 19 bf 28 3f 4f 3f ea cb 73 3e
       0.7864948 -0.60033053 0.80955744 0.23808256
000360 f8 1b 07 40 2d 9f b6 3f 79 10 e0 3f 2a 1c 8d be
       2.111082 1.4267327 1.7505027 -0.2756055
000370 fc c1 02 c0 94 bd 8e bf 93 bb 88 bf 52 be 0c bf
       -2.0430899 -1.1151605 -1.0682243 -0.54977906
000380 df 28 ec 3f 22 09 af be 30 d7 80 3e ca 5b de 3f
       1.8449973 -0.34186655 0.25164175 1.7371762
000390 1c 51 2a 40 48 62 6b 3d 42 e5 51 3f d4 39 2c bf
       2.6612005 0.057466775 0.81990445 -0.6727574
0003a0 3d c1 44 bf cf bc 91 3f 5f bf 0a 40 9c d1 84 3f
       -0.7685736 1.1385745 2.1679304 1.0376468
0003b0 eb 7f 81 3f ae 85 4a 3e f8 6b ff be 35 f7 3a be
       1.0117162 0.19777557 -0.4988706 -0.18258364
0003c0 33 4f 37 bd 94 47 4e 3f b5 87 7b 3b 3c 31 8f 3f
       -0.044753265 0.8057797 0.0038380448 1.11869
0003d0 83 30 f5 be f7 49 90 3f 85 da 8a 3f 71 92 b7 3f
       -0.47888574 1.1272572 1.0847937 1.4341565
0003e0 09 4f 8f bf 0a 0d 14 c0 27 bd 0f c0 02 49 82 3f
       -1.1195995 -2.3132958 -2.24592 1.017853
0003f0 3b 5a 09 40 0b eb d8 3f 47 27 e3 3d e4 15 b8 bf
       2.1461322 1.694673 0.11091476 -1.438168

lstm.weight_hh_l0 f4 [256, 64]
000000 48 a6 82 ba d4 c7 68 3f 84 08 8c 3f db b9 86 3f
       -0.0009967769 0.90929914 1.0940099 1.0525469
000010 73 6b cd 3f ec f4 45 3f 7f d0 c6 be be ef 6a 3f
       1.6048416 0.77326846 -0.38830945 0.9177207
000020 53 b5 49 bf 35 68 95 3f 37 5c 84 bb 71 00 d7 bd
       -0.78792304 1.1672426 -0.004039313 -0.10498131
000030 35 89 a0 be 7c b1 d2 be 85 eb 9e 3e e7 5c ad bf
       -0.3135468 -0.41151035 0.31039062 -1.3543977
000040 7f e4 de bf 9c c2 6c 3f a6 70 70 bf 71 de 61 3f
       -1.7413481 0.9248445 -0.9392189 0.88230044
000050 75 c3 48 3d 35 5b f0 3c 1a ab 6f bf 1b 31 ea be
       0.049014527 0.029340366 -0.93620455 -0.4574059
000060 56 31 68 bf 31 f0 3c bf de e4 76 bf 9c c7 a5 be
       -0.9070028 -0.73804003 -0.96442974 -0.32378852
000070 7f d6 d1 3e 32 01 3f 3e e1 80 7c bd 78 fc d5 3e
       0.4098396 0.186528 -0.061646346 0.4179418
000080 44 c4 02 3c 02 8e 6a 3e 62 ef 0f bf ae ec 50 3f
       0.007981364 0.22905734 -0.56224644 0.81611145
000090 ea 3e 0c bf 06 bb 26 be 90 2c 91 bf 96 dd d5 be
       -0.547835 -0.16282281 -1.1341724 -0.4177062
0000a0 22 94 29 3f d0 85 d1 be 3c de 40 3f 6e 59 8c 3e
       0.6624166 -0.40922403 0.753391 0.2741198
0000b0 b7 d0 4e bf b1 d6 83 bd 66 74 cd 3d 8f d9 8b be
       -0.80787224 -0.064374335 0.10031967 -0.27314422
0000c0 23 0f bb 3e 76 98 b2 3f 33 76 7b 3d 23 56 84 3f
       0.36534986 1.3952777 0.06139202 1.0338787
0000d0 aa 11 be 3e bd 66 a4 3e c4 18 ac bf 94 08 03 40
       0.37122852 0.32109633 -1.3445058 2.0473986
0000e0 bb 03 f8 3d 53 94 5b 3d f9 bc 67 bf d3 6a 34 3d
       0.121100865 0.05360825 -0.90522724 0.044047188
0000f0 82 7b 24 3f 5a e8 25 c0 b7 b2 79 bf b3 34 04 3f
       0.6425096 -2.5923066 -0.9753832 0.5164291
000100 b0 5b dc bf c5 76 3b bd d0 49 32 bf 12 be 99 bf
       -1.7215481 -0.045767564 -0.6964388 -1.201113
000110 2f 15 46 bf 48 9d f6 3f a3 0a 82 3f 5e b4 2a 3f
       -0.77376074 1.9266748 1.0159496 0.6668147
000120 58 bb bb 3f 71 70 46 3f b5 78 8b 3e 51 81 8d bf
       1.4666548 0.7751532 0.2724053 -1.1055089
000130 57 9a 64 bf 7b 79 71 3e 8b 1c ca bd 90 d9 8e be
       -0.89298004 0.23581497 -0.098687254 -0.27900362
000140 57 f1 99 bf 49 d1 94 bf 48 39 56 3f 7d 08 32 3f
       -1.2026776 -1.1626369 0.83681154 0.695442
000150 5a 61 92 3d 5d f5 b3 bf cb 61 48 bd 1c 3c f5 3e
       0.071474746 -1.4059254 -0.048921388 0.47897422
000160 7b 03 b0 be ec dd d5 3e 46 5b e7 be e6 38 ce bf
       -0.34377655 0.41770875 -0.45186824 -1.6111114
000170 d1 66 c1 3e 69 3d fb bd d7 38 a5 3e b5 18 59 3f
       0.37773755 -0.122675724 0.32269928 0.84803325
000180 70 7f 92 3e 95 10 3b 3f b4 72 d6 bf 6b da 07 3f
       0.28612852 0.7307218 -1.6753755 0.53067654
000190 d7 96 a3 bf d9 62 d7 3e 6f af 72 3f b8 38 ff be
       -1.2780408 0.42067602 0.9479894 -0.4984796
0001a0 d0 1c 17 3f a9 b4 ca bd 79 4f fe be 30 18 bf bd
       0.5902834 -0.098977394 -0.49670008 -0.09330785
0001b0 f4 6c 17 3f 99 cf 98 3c dc 29 ba 3d 5b f0 b7 3f
       0.59150624 0.018653678 0.09090015 1.4370226
0001c0 63 b7 0b 3f ad 4d 86 bf 45 af 8f be db 72 93 3d
       0.545767 -1.0492455 -0.28063408 0.07199641
0001d0 e6 98 e1 3f 14 c3 42 3f 3c f6 0f 3f 8c 3a b2 3f
       1.7624786 0.76078916 0.562351 1.3924117
0001e0 0d 37 22 bf 95 0e e6 be e6 80 4e 3f ad 85 45 bf
       -0.6336525 -0.44933 0.80665433 -0.771571
0001f0 24 66 18 3f ce 29 7a 3c d1 ba 31 bf 6d bb 58 be
       0.59530854 0.015268756 -0.69425684 -0.21165247
000200 2f 7a 57 bf 3d 3b 7e 3f 1b e5 48 3e bd bd 78 3f
       -0.8417081 0.9930914 0.19618647 0.9716452
000210 ca 42 2a bf c3 5c 84 3e 6a 0b 41 3f 57 1b 74 bf
       -0.6650816 0.25852022 0.7540804 -0.9535422
000220 36 f0 9b bf ff e7 b0 3e 4c 66 77 3f 6d 2f fd bf
       -1.2182682 0.34552 0.9664047 -1.9780098
000230 d6 d5 31 bf e8 60 04 bf 42 48 11 bf bf 23 fa 3d
       -0.6946691 -0.5171037 -0.5675088 0.12213849
000240 73 b0 b1 be 3c b7 16 3f b5 60 e3 3e 8c fc 82 bf
       -0.34704933 0.58873343 0.4440972 -1.0233321
000250 34 c0 84 be db 83 01 bf c6 52 81 bf 8e 74 3c bf
       -0.2592789 -0.5059182 -1.0103385 -0.7361535
000260 be b2 a3 bf 89 de c1 3e 4e 81 fc bd 84 56 e8 bf
       -1.2788923 0.37865093 -0.123293504 -1.8151402
000270 68 1a 8f 3f 1a 71 e2 3e 33 f2 44 be 07 3a e4 be
       1.1179934 0.44226915 -0.19233017 -0.4457552
000280 52 7c 0e be b0 92 5b bf 7e 2f 9d bf a1 72 20 3f
       -0.13914612 -0.857707 -1.2280118 0.6267491
000290 b2 c7 f5 be 8c c9 dc 3e f1 ab 3f 3f 94 4e c2 3f
       -0.48003918 0.43122518 0.74871737 1.518023
0002a0 8a 5a c8 3e ab e7 07 3f 42 ee 56 3d 4f df 9c 3e
       0.39131576 0.5308787 0.052473314 0.3063912
0002b0 f9 10 b8 be 9f c7 a3 3d 18 2d 9c bf 5a d7 1e be
       -0.3595045 0.07997059 -1.2201262 -0.15511838
0002c0 35 7c d9 be f9 91 c1 3e 46 f9 44 3e 09 14 27 3f
       -0.42477575 0.3780668 0.19235715 0.65264946
0002d0 25 af 02 3f 9f db 8a 3f 07 31 7a 3c 31 13 e4 3f
       0.510485 1.0848273 0.015270478 1.7818357
0002e0 4e 4f d3 bc c7 4a fd be 5b 25 0a bf cf c3 09 bf
       -0.025794651 -0.49471113 -0.5396325 -0.53814405
0002f0 90 8a 60 3f 7d 3e 84 bf 50 0b 94 be 51 b4 5a bf
       0.8771143 -1.033157 -0.2891488 -0.8543139
000300 26 89 24 3f 68 c9 7e 3f 20 5c b1 be d8 93 0e 3f
       0.6427177 0.9952607 -0.34640598 0.5569434
000310 f7 6d 04 3f 0b b1 cd be e0 40 a9 be da b2 93 3f
       0.51730293 -0.40174136 -0.33057308 1.1538956
000320 96 a0 ab bf 22 a1 82 3c da 83 af bd 5d 69 2f be
       -1.3408382 0.015945975 -0.085700706 -0.17130037
000330 4c 00 a6 bf a3 ef 13 bd e1 a2 e8 3e b8 c7 79 bf
       -1.2968841 -0.036117207 0.45436767 -0.9757037
000340 27 9a 7d bf d6 3d 71 be 60 eb ab bf 8a ab a3 3f
       -0.9906334 -0.23558745 -1.3431206 1.2786725
000350 92 19 75 3e e7 36 fe be 94 e2 22 be f2 a1 5d bf
       0.23935536 -0.49651262 -0.15906745 -0.86575234
000360 bf ae f6 bf 79 4c 1b be 8f cc f6 3e 6b 3f 36 3f
       -1.9272078 -0.15165891 0.4820294 0.7119052
000370 75 90 1f 3f 7a bd 38 3f 75 9d f4 be e3 e9 dd be
       0.623298 0.7216412 -0.4777638 -0.43342504
000380 ea e3 6c 3f bb 4d 8d 3d 94 08 68 be a4 ac e8 be
       0.9253527 0.068995915 -0.22659522 -0.45444214
000390 ff 6e 86 bf fb 9d 99 3f 1f 41 4e bd d0 25 94 bf
       -1.0502623 1.2001337 -0.050355073 -1.157404
0003a0 76 55 b0 bf 2e c6 cb be 22 2e 87 3f 39 4f 2c 3f
       -1.3776081 -0.39799637 1.0560954 0.67308384
0003b0 36 16 99 3e 70 db 88 3d 1b b8 7b bf 07 7e 25 bf
       0.29899758 0.066824794 -0.983278 -0.6464543
0003c0 e2 f9 4c 3e aa e1 95 bd e6 c0 58 bf c9 be ce 3f
       0.20017198 -0.07318433 -0.8466934 1.6151973
0003d0 35 69 cc bf 59 8f 7e be 6c 31 37 3f 65 d9 61 3f
       -1.5969607 -0.2485937 0.71559787 0.8822234
0003e0 44 82 ed 3e 9d 15 05 3f f7 12 19 3f 59 01 9c bf
       0.46388447 0.51986104 0.59794563 -1.2187911
0003f0 59 97 c3 be ae a6 8e bc 86 98 8f bc 5f ad 38 be
       -0.38201407 -0.017413463 -0.017528784 -0.18034886

lstm.bias_ih_l0 f4 [256]
000000 30 6a 22 3e 96 24 f8 3e 3e ec 5c 3f 9a 4e 4b 3f
       0.1586082 0.48465413 0.86297977 0.7941681
000010 c1 29 bb 3e c9 e0 4c 3f 9e 20 29 3f 1f 49 3e 3f
       0.36555293 0.80030495 0.66065395 0.74330324
000020 87 8c f4 bd 8b a4 5a 3f 44 11 dd 3e 09 a8 bf 3e
       -0.11940866 0.8540732 0.43177235 0.37432888
000030 64 68 43 3f e9 57 1c 3f ce cf 52 3f 1e 30 b0 3e
       0.7633116 0.6107164 0.82348335 0.3441171
000040 57 70 20 3e 39 13 5e 3f 40 74 0a 3f 58 54 5a 3f
       0.15667854 0.8674808 0.54083633 0.8528495
000050 c8 48 12 3f 68 6f 42 3f a9 99 13 3f 6f 83 5d 3f
       0.57142305 0.7595124 0.5765634 0.86528677
000060 7c d9 21 3f 5d 7b 58 3f 3b 00 89 3e d1 f1 44 bc
       0.6322248 0.8456324 0.26757988 -0.012020544
000070 32 45 5f 3e 94 99 88 3f 47 19 82 3f 89 c2 af 3e
       0.2180374 1.0671868 1.0163964 0.34328106
000080 43 80 77 3f 3d 80 06 be 67 8e 00 3f 1c f8 46 3f
       0.96680087 -0.13134857 0.5021729 0.77722335
000090 64 e9 2a 3f c6 06 46 3f 36 2b 21 3f d1 df 08 3f
       0.66762376 0.77354085 0.6295656 0.53466517
0000a0 17 77 9b 3f 47 fd 7c 3f d0 d0 2c 3f b7 1f 40 3f
       1.2145718 0.9882397 0.6750612 0.75048393
0000b0 1b a0 be 3e 37 5b d9 3e 44 4d 79 3f 1e 95 fc 3d
       0.37231526 0.42452404 0.97383523 0.12333129
0000c0 f8 c6 67 3f ab fc 09 3f 76 29 8a 3f e1 68 93 3e
       0.9053798 0.53901166 1.0793903 0.28790954
0000d0 e4 25 1e 3f 45 8b 01 3e 6b 4e 02 3f 4b db 97 be
       0.61776567 0.12650783 0.50900906 -0.29659495
0000e0 60 ed 83 3e 96 5f c0 bb 74 ee f7 3e c8 fa ae 3f
       0.2576704 -0.0058707697 0.48424113 1.3670282
0000f0 8b 00 3c 3f 6e 25 69 3e 60 82 5f 3f 1c 2a 19 3f
       0.7343833 0.22768185 0.8730831 0.5982988
000100 5f 65 5d be ac 1a b7 3d 68 c5 8a 3e 9d 82 ca 3d
       -0.21620701 0.08940634 0.27103734 0.09888194
000110 ec 4b 94 3e 87 4c 57 be e6 81 08 3d ff 9b c3 3d
       0.28964174 -0.21025287 0.033327006 0.09551238
000120 6f bc d9 3e c2 e3 96 3e 00 fa e0 3e 99 b5 2e 3e
       0.42526576 0.2947064 0.43940735 0.17061462
000130 6b 71 fb be ce 6c d4 3e 88 cd 76 bc 0d 48 2c be
       -0.4910997 0.4148926 -0.015063651 -0.1682436
000140 29 ea 58 3e 82 fa be be 69 b3 aa 3e f5 b4 3c 3d
       0.21183075 -0.37300497 0.33340004 0.04607101
000150 4e 10 9d bd bb 10 f2 bd 95 4d c3 3d 1e 39 1a be
       -0.076691255 -0.11819597 0.09536282 -0.15060851
000160 d0 6e c8 3d 2a 1e 1f 3d f3 e3 b6 be 1c c6 f0 3d
       0.09786761 0.038847126 -0.35720786 0.11756536
000170 65 06 91 ba d4 29 04 3e b3 1f fa 3e 7d 79 91 3d
       -0.0011064528 0.12906581 0.4885231 0.0710325
000180 bc 93 c5 3e 81 1b df bd c0 79 18 bd 2c cc 88 3d
       0.38589275 -0.10893918 -0.037225485 0.06679568
000190 bf ab 1a bd a8 90 5d 3e cc f9 d4 3d fc b0 52 3c
       -0.037761446 0.21637213 0.103992075 0.012859579
0001a0 ff 7f 1b be eb 0a cb 3d d8 a9 7d 3d c7 69 8d 3e
       -0.15185545 0.09914192 0.061929554 0.27619764
0001b0 34 77 af 3d 38 26 5b 3c 09 f8 09 3f 66 58 4f be
       0.08567658 0.013375811 0.53894097 -0.20248565
0001c0 60 9d fe bd fc 69 11 bd 4a 85 8d 3d 0b 78 90 be
       -0.12432361 -0.035501465 0.069101885 -0.28216586
0001d0 5c c1 1a be 25 77 95 3e 12 ad 2a 3e 68 76 fe 3e
       -0.15112823 0.29192463 0.16667584 0.49699712
0001e0 e2 97 30 bd 5a 52 c9 3e 34 5a 10 be f1 bd 8e 3c
       -0.043113597 0.39320642 -0.1409691 0.017424555
0001f0 7b 8a 88 3e 8e d1 e4 3e 81 2a 61 bd b5 02 d4 3e
       0.26668152 0.44691128 -0.054972176 0.41408315
000200 3d 27 62 3d f5 1c 39 3e 9a b6 0a be 26 d7 2d 3e
       0.0552132 0.18077452 -0.1354622 0.16976604
000210 68 5a 91 3e f8 bb 14 be 57 c2 e2 bd 18 49 94 3d
       0.28389287 -0.1452483 -0.11072224 0.07240504
000220 69 f1 12 be b1 3a c3 3d c4 94 36 3e 5d 31 8d be
       -0.14349903 0.09532679 0.17830187 -0.27576724
000230 a7 cd 01 be f0 06 f4 bd 22 64 31 3e 1a 63 35 be
       -0.12676106 -0.11915386 0.17323354 -0.17713585
000240 12 ce 49 be 26 7a 82 bc 89 0a c4 3c 0e 23 9f 3d
       -0.19707516 -0.015927386 0.023930805 0.07770358
000250 6d b4 cd bb 7f b4 ba bd 83 09 06 be ad f3 c2 bd
       -0.006277612 -0.09116458 -0.13089566 -0.09519134
000260 c9 bd 5d be ad a2 a0 bd 9a 48 e0 3c 71 4a e2 bd
       -0.21654429 -0.07843528 0.02737837 -0.11049355
000270 4b 67 16 3d 68 fa ca 3c 73 a5 8e be 15 4d 90 3e
       0.0367196 0.024777606 -0.27860603 0.2818381
000280 2d 40 15 be 62 f7 84 bd 18 cd 26 be dd 59 1b 3a
       -0.14575262 -0.06492497 -0.16289175 0.00059261714
000290 18 6c 7c 3c d0 a7 b9 bd f9 0f 62 bd 90 aa ab bc
       0.015406631 -0.09065211 -0.055191014 -0.020955354
0002a0 c1 68 b0 bd 39 c2 90 bc b8 a4 c5 3d a0 c9 32 be
       -0.0861373 -0.017670738 0.09650558 -0.17459726
0002b0 31 ba 8c be 18 ea f2 bc d0 a2 0c be f8 a8 05 be
       -0.27485803 -0.02965264 -0.13733983 -0.13052738
0002c0 63 d9 c4 bd 0e 9d d0 3d ce df 64 be 25 e4 72 3d
       -0.09611776 0.10186206 -0.22351 0.059299607
0002d0 ce 88 bb bd e2 27 85 3d 57 a2 d0 bd 87 7a bf 3d
       -0.09156953 0.06501748 -0.10187214 0.09349542
0002e0 64 d0 b8 3d 94 68 a3 b9 44 0f b3 3d e7 7e 19 be
       0.09024122 -0.000311677 0.08743146 -0.14989816
0002f0 e4 f9 ec 3c c3 ab fa bd e1 ec 29 be 7d c3 91 3d
       0.02892775 -0.12239792 -0.16594268 0.071173646
000300 43 01 bd 3e e2 4e 0f 3f 42 2e 37 3f 84 aa 0d 3f
       0.36915025 0.5597974 0.7155496 0.5533831
000310 c7 5e 53 3e 90 8f bc 3e 17 31 3e 3f a5 d2 b9 bb
       0.20641623 0.3682828 0.74293655 -0.0056708627
000320 9e 98 9b 3c 74 82 89 3d 8d 65 9f 3e f5 18 7d be
       0.018993672 0.06714335 0.31132165 -0.24716552
000330 c9 75 6d 3e fa a8 cb be a3 d9 2d 3f 8f a4 04 3f
       0.23189463 -0.39777356 0.6791021 0.51813596
000340 eb 30 31 be 22 2d 92 3e 9f d4 88 3d 77 5e 0e 3e
       -0.17303817 0.2855006 0.06681179 0.13903223
000350 37 cc 2f 3e 7b 5b e3 bc 9c e5 90 be 24 4b 0a 3f
       0.17167746 -0.027753582 -0.28300178 0.54020905
000360 82 35 52 be c4 e2 86 3d 89 a8 ac be d5 b3 e2 3d
       -0.20528224 0.06586221 -0.33722332 0.110694565
000370 1e 21 c3 bd aa b4 0c 3f 89 9f da 3e 03 a0 03 3f
       -0.09527801 0.5496317 0.4269984 0.51416034
000380 e3 8b fb 3e ed 49 f4 3e 75 2b f9 bd 1f 82 8d 3e
       0.49130163 0.4771265 -0.12166492 0.27638337
000390 f7 ce 0e 3e a6 2e c3 3c e3 82 ff bc 49 53 6f 3e
       0.13946138 0.023825955 -0.031190341 0.23371615
0003a0 59 b3 44 3e 4b 66 7e 3e 41 30 12 3e c5 cf 88 3d
       0.1920904 0.24843709 0.1427622 0.06680254
0003b0 4f a0 2d 3f 3c ce da 3e bf 8f c6 be 0b 89 ec 3e
       0.67822737 0.4273547 -0.38781545 0.46198305
0003c0 18 de 6f 3f b0 7f 3b 3f 72 05 3c 3e 0a c8 a7 3d
       0.93698263 0.7324171 0.18361452 0.08192451
0003d0 9d 67 ae 3e e3 07 45 bc 93 11 6b 3f 51 16 2b 3e
       0.34063426 -0.012025806 0.9182369 0.16707732
0003e0 4c b5 5a 3f 93 09 79 be eb 44 94 3e e4 ef b8 3e
       0.8543289 -0.24320059 0.2895883 0.36120522
0003f0 c7 54 94 3f 0c 69 17 3e 28 b0 b9 3e bd 6c a0 3e
       1.1588372 0.14786166 0.3626721 0.3133296

lstm.bias_hh_l0 f4 [256]
000000 46 e6 37 3d ab 2e e2 3e 0b a2 58 3f 79 8b 1d 3f
       0.04489734 0.4417623 0.8462226 0.61540943
000010 48 13 e0 3e a9 7f 41 3f fd 5f 15 3f ae 93 47 3f
       0.4376471 0.7558542 0.5834959 0.77959716
000020 ba 33 48 3d 31 b8 4c 3f e3 7c 15 3f da 0e a9 3e
       0.048877455 0.79968554 0.58393687 0.33019143
000030 43 99 49 3f 1b de 4a 3f 7e 51 52 3f 80 d4 55 3e
       0.78749484 0.79245156 0.821556 0.20881844
000040 1f cf ad 3e 14 94 75 3f d4 a7 a9 3e b9 2b 2c 3f
       0.33947083 0.95929074 0.33135855 0.67254215
000050 8a b1 14 3f 71 56 2f 3f bb 12 4b 3f 1a d7 55 3f
       0.58083403 0.68491274 0.79325455 0.83531344
000060 4b d0 3c 3f 19 10 78 3f e5 33 c9 3e 83 d1 50 be
       0.7375533 0.96899563 0.39297405 -0.20392422
000070 82 3a 90 3e b2 12 92 3f 3d c1 8b 3f 9b 44 c8 3e
       0.28169638 1.1411955 1.0918347 0.39114842
000080 06 1c 86 3f d7 94 65 bd a3 14 11 3f a5 83 59 3f
       1.0477302 -0.056050148 0.56672114 0.849665
000090 6c 01 11 3f 9c a3 44 3f 98 ba 10 3f 51 7e 05 3f
       0.56642795 0.7681215 0.5653472 0.5214587
0000a0 6b c4 84 3f f7 dd 82 3f d3 e0 0a 3f 47 2d 09 3f
       1.0372442 1.0223988 0.54249305 0.5358471
0000b0 39 72 fc 3e ad 10 19 3f 33 79 3e 3f 43 fd 2d 3e
       0.49305895 0.5979107 0.74403685 0.16991143
0000c0 16 2c 34 3f 26 ff 21 3f 5b ab 80 3f ca ec c9 3e
       0.7037977 0.6327995 1.0052294 0.39438468
0000d0 f8 4e 44 3f 3a 45 36 3d 7b 4e b9 3e 03 b2 93 be
       0.76682997 0.044499613 0.36192688 -0.2884675
0000e0 fa 38 93 3e c2 eb b9 3d 1c d6 01 3f 67 7a a6 3f
       0.28754407 0.0907817 0.5071733 1.3006104
0000f0 64 5f 53 3f 5f ae bc 3e ca ce 5c 3f 87 34 bf 3e
       0.8256743 0.36851785 0.86253035 0.37344763
000100 a3 bb 5b be 9b 0a 13 3e 20 72 b1 3e 11 3c bb 3d
       -0.21458296 0.14359514 0.34657383 0.09142316
000110 c8 5a dd 3e 0c 1a 39 be af d6 90 bd dd dd e2 3d
       0.43233323 -0.18076342 -0.07072198 0.11077473
000120 76 a6 00 3f 95 d5 43 3e 3c dd f3 3e 3d b8 f5 3d
       0.50254 0.19124444 0.47629726 0.11998031
000130 34 f6 a7 be 0e 05 c6 3e a6 b5 10 bd a9 09 f5 3c
       -0.32805026 0.3867573 -0.035329483 0.029911833
000140 bd 01 31 3e 69 fd 8b be e8 ea 85 3e e7 05 e9 3d
       0.1728582 -0.27341774 0.26155782 0.11378079
000150 25 c3 e3 bb e7 2e 22 bc 6a 32 9f bd aa 3f 48 be
       -0.0069507533 -0.009898878 -0.077732876 -0.19555536
000160 52 7e 5e 3e f5 4a 1f 3d 47 78 c0 be d9 86 fd 3b
       0.21727875 0.038889844 -0.37591764 0.0077370224
000170 9f f9 57 be 7b bc e7 3b 6e 98 c8 3e e9 60 4e 3e
       -0.21091317 0.007072029 0.39178795 0.20154156
000180 d7 13 d7 3e a6 a1 89 bd 63 02 6d 3d 3d f7 e7 3d
       0.42007324 -0.06720285 0.057863604 0.11326454
000190 c1 ce 82 bb 82 e9 f8 3d 88 d8 32 3e 38 77 40 3d
       -0.003991932 0.12153913 0.17465413 0.046988696
0001a0 ad dd 23 be e3 0a 0c 3e 2c 7b 0d 3c af 66 19 3e
       -0.16002531 0.13676028 0.0086353235 0.14980577
0001b0 82 88 51 bb 98 4f bd 3c 37 91 1e 3f 24 0f c3 bd
       -0.0031972234 0.023109242 0.6194033 -0.09524372
0001c0 eb 7b 1d be a5 e2 5e be 6e a7 8c bd 31 8b b2 bd
       -0.15379302 -0.21766146 -0.06867872 -0.08717955
0001d0 f0 d0 0b be fc 4f 12 3e 71 d8 2c 3e 5b 68 d2 3e
       -0.13653922 0.14288324 0.16879441 0.41095242
0001e0 51 89 b8 bd 08 ab 75 3e 7d b8 f2 bd 8d 8a 42 3e
       -0.09010566 0.23991024 -0.118515946 0.18998165
0001f0 ea f8 73 3e 49 2e fa 3e 4a 96 0d bc cc 59 18 3f
       0.23825422 0.48863438 -0.008641789 0.5951202
000200 02 7f 56 bc 06 ab 1f 3e 7a 72 85 be 26 99 3a 3e
       -0.013091804 0.15592584 -0.260639 0.18222484
000210 99 c5 af 3e c9 23 87 be 8a c8 f5 bd 65 2c 93 3e
       0.34330443 -0.2639449 -0.120011404 0.28744808
000220 cd 10 00 bd dc 69 3a bd 47 45 d2 3d 16 a6 c2 be
       -0.031266022 -0.04551111 0.1026712 -0.3801734
000230 f4 f6 be 3c a2 c8 31 be a5 9d 56 3e 55 d3 26 be
       0.023311116 -0.17361692 0.20958574 -0.16291554
000240 bc 4a 59 be 41 ae 93 3c 27 b9 7b bc 10 dc d4 3d
       -0.21219915 0.018027427 -0.015363968 0.10393536
000250 65 8d b3 3d d8 2b 19 3d b3 40 e5 bd 54 25 c5 bc
       0.08767203 0.03739533 -0.11193981 -0.024065651
000260 00 b4 1a be b5 25 87 3d f2 59 db bd 80 a2 1c bd
       -0.15107727 0.06598989 -0.10710515 -0.03824091
000270 2a 17 23 be 13 81 d8 3b 80 a9 66 be e9 f6 1d 3e
       -0.15926805 0.0066071837 -0.22525597 0.1542622
000280 24 9a f2 bd 3f f6 f2 bb 3a db 4d be 7a dd 04 bd
       -0.11845806 -0.0074146087 -0.2010316 -0.03243778
000290 86 0d 1b 3c d2 4a a6 3d 94 a0 cd bc 1a 3d 06 3d
       0.009463673 0.081197396 -0.025100984 0.032773115
0002a0 c5 7a bd bd f1 3f 83 3c 3f 1b 1e 3e c0 2d 44 bd
       -0.09251932 0.0160217 0.15440081 -0.047895193
0002b0 29 8f 1e be da 23 de bd af 93 eb bd 94 69 05 3d
       -0.15484299 -0.10846682 -0.11502778 0.03257139
0002c0 a9 b8 50 3d 58 b7 01 3e 71 a8 6e be f5 5f ae bb
       0.050957356 0.12667596 -0.23306443 -0.0053214976
0002d0 38 2e 3c be 9b 62 bf 3c 64 45 56 bc bf 52 26 3d
       -0.18377006 0.023362448 -0.013078067 0.040606257
0002e0 57 52 fa 3d b5 98 03 3b 4a f8 71 bc 8d 49 1d bd
       0.12222736 0.0020080034 -0.014768669 -0.03840022
0002f0 01 74 bf bc cf fa 59 bd 46 ed 21 bd a8 84 0d be
       -0.023370745 -0.053217705 -0.039532922 -0.13820136
000300 80 79 d6 3e f6 56 fe 3e 2d c0 1a 3f cf e6 29 3f
       0.41889572 0.4967572 0.60449487 0.6636781
000310 df 1f 46 3e 53 86 12 3f 40 d9 48 3f 5b 20 0f 3e
       0.19348095 0.5723621 0.784565 0.13977186
000320 73 9b 9e bb b4 06 b4 3d c0 8e 90 3e d8 4a 55 be
       -0.0048403083 0.08790341 0.2823391 -0.20829332
000330 90 67 4d 3e 47 4a 99 be ec 72 30 3f b9 fb 2f 3f
       0.20059037 -0.29939482 0.68925357 0.68743473
000340 ce fc 1e bd dd 90 50 3e 57 89 c1 3c cc 33 5d 3e
       -0.038815312 0.20367761 0.023625059 0.2160179
000350 14 bd 16 3e 4a 85 e2 bd 20 b3 f6 bd 34 e5 12 3f
       0.14720565 -0.11060579 -0.12045884 0.57380986
000360 79 ed 2a bd d5 82 f8 3d ca 90 12 be 95 fc 8f 3d
       -0.041730378 0.12134329 -0.14313045 0.07030598
000370 5e af f2 3b 46 dc fd 3e b0 12 d1 3e 67 37 27 3f
       0.0074061593 0.49582118 0.4083457 0.6531891
000380 e5 9d dc 3e 00 8d fd 3e 5c 7d b0 3c 35 b3 e1 3e
       0.43089214 0.49521637 0.021544151 0.44082037
000390 69 dd a7 3e ca d5 3d 3e 9e 9d 22 be 70 87 15 3e
       0.3278611 0.18538585 -0.15880439 0.14602447
0003a0 7b 79 25 3d c9 64 8f 3e 25 46 4a 3e b4 4e 4d 3e
       0.040399056 0.2800658 0.1975332 0.20049554
0003b0 50 25 2f 3f f6 99 57 3e 32 7d c7 be 9e c4 df 3e
       0.6841631 0.21054825 -0.38962704 0.43704695
0003c0 02 65 68 3f 1d 01 2f 3f 52 46 01 3e a0 0f 8a 3e
       0.90779126 0.68361074 0.12624481 0.26965046
0003d0 42 e5 81 3e 2d c4 4f 3e d2 74 4f 3f 9d 04 3c 3e
       0.25370222 0.20289679 0.8103763 0.18361135
0003e0 8a ac 7a 3f 76 85 83 be 35 49 93 3e 67 78 f5 3e
       0.97919524 -0.2568776 0.2876679 0.47943422
0003f0 d2 fd 9e 3f f3 fc 22 3d 01 18 8a 3e 1a 7e 9a 3e
       1.242121 0.039792012 0.2697144 0.30174333

lstm.weight_ih_l1 f4 [256, 64]
000000 f3 03 de be 2e e4 96 bd 61 bd 13 3e 87 f9 5d 3e
       -0.43362388 -0.073677406 0.14427711 0.21677218
000010 68 06 0d be 3c 4d 1e 3e 50 37 f9 3d 2c e3 b0 bd
       -0.13771975 0.1545915 0.12168753 -0.086370796
000020 55 47 a4 be ce 76 53 3e 9a ba ab bd 6c 7e 92 be
       -0.32085672 0.20650789 -0.08385201 -0.28612077
000030 6c 25 b2 3e 88 63 9d bc d5 65 a0 bd 65 3b 04 bf
       0.34794176 -0.0192125 -0.07831923 -0.5165313
000040 37 91 1c be b6 97 f3 3d 14 18 a9 3d 1d ce 29 3e
       -0.1528977 0.11894171 0.08256546 0.16582532
000050 d2 8d 60 be f9 b0 85 3e 35 11 88 bd f2 81 45 be
       -0.219291 0.26111582 -0.06643907 -0.19287851
000060 0d 1e 88 3e 4d 1a b1 bd 24 66 52 3e d1 04 b0 3b
       0.26585427 -0.086475946 0.20546776 0.005371668
000070 0a 64 05 be 0a e6 4c 3e 82 b7 ba 3c ae 0b 78 bd
       -0.13026443 0.20009628 0.022792581 -0.060558014
000080 8c 09 a2 3d 0a ce c2 bd 07 2d 26 3d af 91 5f bd
       0.07911977 -0.09511955 0.040570285 -0.054582294
000090 48 d8 c8 3e 03 04 fd 3d 93 4f 8f be 71 00 aa 3e
       0.3922751 0.12354281 -0.27990398 0.33203462
0000a0 ad 5a 4c be 39 5d b1 3e 74 0e b2 3e a1 ee 91 3d
       -0.19956465 0.34641436 0.34776652 0.07125593
0000b0 37 8d 19 3e 55 43 c6 3e ca f8 0e be 7c 55 de 3d
       0.14995275 0.38723245 -0.13962093 0.108561486
0000c0 62 5a 0d 3e 6c b8 57 3e 1c 8b f2 bd 4e 95 43 be
       0.1380401 0.21066445 -0.11842939 -0.19099924
0000d0 4b da 1b be 3e 9b f3 3e 3b db 83 3e c4 4b d3 3d
       -0.15219991 0.47579378 0.25753197 0.103171855
0000e0 1e 59 04 be 10 80 51 be bc 96 6c 3d 93 ab 96 be
       -0.1292462 -0.20459008 0.05776094 -0.29427776
0000f0 8a 34 b3 3c 6b e2 63 3e 19 db 59 3e 49 76 83 3e
       0.021875639 0.2225434 0.21274985 0.25676182
000100 ef e1 4c 3e cb 38 b4 3e 73 c0 10 bf 78 0d 66 3f
       0.20008062 0.3519958 -0.56543654 0.898643
000110 f1 16 ce 3d cd 18 0c be c7 19 0f bf 88 7d d1 be
       0.100629695 -0.13681336 -0.5589871 -0.40916085
000120 3e 6c db 3e 7e e7 a7 be bd a8 f9 be 3c 1d 06 3e
       0.4285602 -0.32793802 -0.4876155 0.1309709
000130 ef 2a fb bd 43 1c 66 3e e6 eb f4 3e e5 60 dc be
       -0.12264048 0.22471718 0.47836226 -0.43042675
000140 cd a3 ab 3d f8 8f d1 be 0e 41 8d 3d 40 6c c6 3e
       0.08380852 -0.40930152 0.06897174 0.38754463
000150 69 b5 fe 3b ba 07 3a 3f 35 a0 dc 3d ce f7 a1 3d
       0.0077730906 0.7266804 0.107727446 0.07908593
000160 fa 65 33 be c9 7c a1 3d 85 bc 3c 3f da 95 4d be
       -0.1751937 0.07885129 0.7372516 -0.20076695
000170 62 9b c2 3e 3b 84 0b 3e e9 6d 91 bd 33 27 f9 bd
       0.38009173 0.1362466 -0.07101042 -0.1216568
000180 8f 49 13 3e 86 9f 10 3e d1 2a 05 3e 90 8a 24 3f
       0.14383529 0.14123353 0.13004614 0.6427393
000190 c6 74 a6 bd f5 aa 1a bf dc c7 4e bf 74 a4 ae be
       -0.081277415 -0.6041711 -0.8077371 -0.34109843
0001a0 b4 1e a2 be f1 6d c8 3d 32 3c 49 3f cb 63 c0 3d
       -0.3166405 0.09786595 0.78607476 0.09394034
0001b0 74 ad c5 3e db 8a 07 3e af 63 82 3c bb 02 b6 3e
       0.38608897 0.13236563 0.015916673 0.35548958
0001c0 3f 56 cb 3d 4c 9b 2b 3e 57 b1 f8 be 41 51 fd 3c
       0.099285595 0.1675846 -0.485728 0.030922534
0001d0 cc 2d 8e be 10 43 d8 3e 65 b1 95 be 8c 39 2a be
       -0.27769315 0.42238665 -0.29236904 -0.16623515
0001e0 2d 2b bf 3d e5 09 9f 3c 79 af b3 be 24 5c 14 be
       0.09334407 0.019413898 -0.35094813 -0.14488274
0001f0 1e 6e e1 3e 06 3e ea 3e 6b e2 cb 3d 2a 0b c4 bd
       0.44029325 0.45750445 0.09955295 -0.09572442
000200 44 de f4 be 9a 88 01 be a6 4b 42 be 53 4a fd bd
       -0.47825825 -0.12649766 -0.1897417 -0.12367692
000210 79 fa 6d be 73 bc a0 3d f2 d9 c4 3d 50 f0 d5 3e
       -0.23240079 0.07848444 0.09611882 0.41784906
000220 b4 09 c5 3e a9 d2 a4 3d c7 ad 3f be 87 47 25 be
       0.38483965 0.08047993 -0.18718635 -0.16140567
000230 cb 66 9e 3e 44 f6 31 3f 6a 42 96 bd 64 2e 74 be
       0.309378 0.69516397 -0.07336886 -0.23845822
000240 ed 88 80 bd 52 ce 92 3e 4a 98 9e bd aa d3 83 be
       -0.062761165 0.28673035 -0.077438906 -0.25747424
000250 00 9e bd 3d 91 b8 92 be 6d 60 c7 3e 40 78 f6 bd
       0.09258652 -0.28656438 0.38940755 -0.120346546
000260 76 4e 85 bc 88 6a 49 bd 6a 2b 86 be 23 3a 50 be
       -0.016272765 -0.04917386 -0.26204997 -0.20334677
000270 ab 5d 2a 3f 6f 70 78 3d 58 87 06 bd 60 e6 b7 3c
       0.66549176 0.0606541 -0.032843918 0.022448719
000280 cd 20 cf bd 20 ed 11 3e 28 88 10 bd 3a e9 1d bf
       -0.10113678 0.14250612 -0.0352861 -0.61684
000290 83 15 0f bf 15 26 9b 3e 57 10 89 bd 8b f7 18 be
       -0.558922 0.30302492 -0.0669257 -0.1493818
0002a0 14 80 f7 bd be c9 ac be 5c 52 a2 3e 00 e7 e9 3c
       -0.12084976 -0.33747667 0.3170346 0.028552532
0002b0 93 9c 05 3e d9 b5 ae bd 78 22 37 bc 73 a0 bc 3e
       0.1304801 -0.085307784 -0.011177652 0.36841163
0002c0 e2 92 67 3a 1c 8c 96 be de d7 9f 3e 2a e8 cb 3c
       0.0008833838 -0.2940377 0.3121938 0.024890978
0002d0 93 86 aa be 3a 3c 19 3e d2 a8 6c 3e 73 c5 75 3e
       -0.33305797 0.14964381 0.23111275 0.24001102
0002e0 53 30 02 3f 27 2d 15 3e 51 e3 0a 3e ce 4c 87 3d
       0.50854987 0.14568006 0.13563277 0.06606446
0002f0 78 6f 60 be c1 74 5f bd 31 84 8c 3e ca 60 5d bc
       -0.21917522 -0.054554705 0.27444604 -0.013511846
000300 d5 75 9d 3e 45 02 e8 3c 2b ac 02 bb c1 5d 2c 3b
       0.3075396 0.028321395 -0.0019939046 0.0026301
000310 78 7e 6e be 1a bc 7e be 61 9a a2 3f c6 ac 58 3f
       -0.23290431 -0.24876443 1.2703363 0.8463863
000320 0c 0b 22 be ea 57 7f 3d 06 8d 92 be 1d 6b c4 be
       -0.15824527 0.0623397 -0.28623217 -0.3836297
000330 70 19 8f be eb b2 38 3e a3 92 5d 3d f2 45 47 be
       -0.27949095 0.18037002 0.05409492 -0.19460276
000340 23 20 90 be e0 59 da 3e 4b c0 16 3e 22 6c 47 be
       -0.28149518 0.42646694 0.14721791 -0.19474843
000350 b8 58 b2 3f 77 e8 fd bd 73 bb 5a 3d 8c 5d e7 3e
       1.3933325 -0.12397855 0.05340142 0.45188558
000360 b6 92 68 3e b8 60 34 3d 5e ec 19 be 0e 95 43 3f
       0.22712216 0.04403755 -0.15031573 0.76399314
000370 d6 3d ea bd 13 ad 1d bd 66 d6 89 bd e8 6f ea bd
       -0.114375755 -0.038495135 -0.067303464 -0.11447126
000380 b0 7d c7 be aa 94 a7 3d 28 9d be 3e b0 3b 12 3d
       -0.3896308 0.08182652 0.37229276 0.035701454
000390 c7 35 6d 3e bd d0 6c 3f 0a 7a 39 be 2b e5 a6 be
       0.23165046 0.9250601 -0.1811296 -0.32596716
0003a0 c0 48 95 be 5e ae 5d be 3b bb 11 3e 97 68 db bd
       -0.29157066 -0.21648547 0.14231579 -0.10713308
0003b0 00 10 dc be e1 fb e4 3c 6d fe c5 be 46 32 bd bd
       -0.42980957 0.027952136 -0.38670674 -0.092381045
0003c0 bb 4d 40 3e b5 bc 09 be 5c 02 81 be 2b 62 32 3f
       0.18779652 -0.13450892 -0.25197113 0.6968104
0003d0 f1 a5 6d 3e c2 cb 4c be 02 d7 8c 3e f7 18 8b 3d
       0.23207833 -0.19999602 0.27507788 0.06791871
0003e0 57 40 2a be dc ef cf 3e 02 0b e5 3e 26 26 10 be
       -0.16626106 0.40612686 0.4473496 -0.14077052
0003f0 39 a7 85 bf d2 d4 8f 3d 47 9e 6e 3e e4 e1 45 3e
       -1.0441657 0.07023014 0.23302566 0.19324452

lstm.weight_hh_l1 f4 [256, 64]
000000 23 39 41 3f ba 86 d8 bd 01 3b 01 3b 1c 43 95 3e
       0.7547781 -0.10572572 0.0019719007 0.29152763
000010 50 20 01 bf d7 8f 7a 3f a7 2a 1a 3d 4a cb 0d bd
       -0.5043993 0.9787573 0.037638333 -0.0346177
000020 b5 df 56 bf c2 96 47 bf 47 e1 3c be c2 3c 38 bf
       -0.839351 -0.77964413 -0.18445311 -0.7196771
000030 4d a4 2f 3f 34 9c 2c bf 00 22 37 3f 44 10 a9 bf
       0.6861008 -0.6742585 0.71536255 -1.3208089
000040 ea af b4 3d 51 a2 dd 3c 49 7a d4 bd 74 a5 77 bf
       0.088226154 0.027054938 -0.103748865 -0.96736836
000050 53 01 3f 3e 5e a7 20 be e6 b8 f5 3d 27 f0 ba 3f
       0.18652849 -0.15688846 0.11998157 1.4604539
000060 00 b8 9b be 2f c7 07 bd 89 b8 a3 be c5 2d 8b bc
       -0.30413818 -0.03314894 -0.31976727 -0.016989598
000070 59 34 d1 3e db 22 6f be c6 21 5d be 1b 4d 24 3f
       0.4086025 -0.2335314 -0.21594915 0.64180154
000080 91 2c 89 bc 04 0a d3 be cf 46 26 bf 6e ce 71 3e
       -0.016744884 -0.4121858 -0.64951795 0.23613903
000090 c8 1d 94 3e b5 c6 9d bf 58 4c f3 bd c4 33 63 3f
       0.2892897 -1.2326266 -0.11879796 0.88750863
0000a0 c6 54 69 be f9 db 65 be c7 ab 99 3e 0a 33 70 3f
       -0.22786245 -0.22447194 0.30013868 0.9382788
0000b0 ce 05 bf 3e d5 e2 cc bd 7d ac 81 3f 8f 36 2e 3d
       0.37309116 -0.10004202 1.0130764 0.0425325
0000c0 0b 39 3a be 21 d8 b7 3f 51 f7 c4 bd ac 07 00 bf
       -0.18185823 1.4362832 -0.09617484 -0.50011706
0000d0 31 95 91 bf 89 33 95 3f 89 08 43 3f 7d 82 20 3f
       -1.1373655 1.1656352 0.761849 0.6269911
0000e0 4b 94 2e 3f 7f 1c 0e 3f b1 23 83 3f be 53 5e 3f
       0.6819503 0.5551223 1.0245267 0.8684653
0000f0 58 20 5c 3f 29 34 05 3f cc a9 39 3f cc bc ca bf
       0.8598685 0.52032715 0.72524714 -1.5838866
000100 b1 de 83 bf 7d 00 d8 be 29 fc 91 3e d1 0d 64 3e
       -1.0302335 -0.42187873 0.28512695 0.22270896
000110 47 f8 0d 3e d3 5f 9d bf b3 94 6d be 31 66 b3 3d
       0.13864242 -1.2294868 -0.23201256 0.08759726
000120 64 1a e4 bd 68 d2 f9 3e 80 ca 88 bf ea 66 63 be
       -0.11137846 0.4879334 -1.0686798 -0.22207227
000130 c5 bd 33 bf 61 dd 68 3f 8c 1b 33 3e 1c 08 03 bf
       -0.7021144 0.909628 0.17490977 -0.5118425
000140 c9 d3 2d be ec ab aa 3f f1 d0 4e bf 13 fd 73 3e
       -0.16975321 1.3333716 -0.8078757 0.23827009
000150 b7 c8 71 be 42 4f 10 3f b1 79 53 3e c4 ed cb be
       -0.23611723 0.5637094 0.2065189 -0.39829838
000160 dd 32 01 3f db 6b b5 3f 53 32 e6 be 70 02 e9 3d
       0.50468236 1.417354 -0.4496027 0.11377418
000170 ee 34 d1 be ac fe 7e 3f 2e 1e 3d 3d 0a 3d 66 bf
       -0.40860695 0.9960735 0.04617136 -0.8993689
000180 1c 6f 45 3f 8b 7f 38 3f 46 bd 15 3e 52 7b da bf
       0.77122664 0.72069615 0.14622983 -1.7068884
000190 df b5 6c bd ea a6 36 3f ac 58 f1 3e 4f bb 10 3f
       -0.057790633 0.7134844 0.47137964 0.5653581
0001a0 dc a5 28 3f 34 8d 62 3f c3 ba 8c be f3 4a e1 3e
       0.6587808 0.8849671 -0.27486238 0.44002494
0001b0 64 fb 8e 3f 5a b6 b3 be 31 28 44 be 9d a2 49 3f
       1.1170468 -0.3510006 -0.19155957 0.78763753
0001c0 c7 8e 1c 3f f8 73 5b 3e 4e a3 af bf 28 44 03 bf
       0.6115536 0.21430957 -1.3721712 -0.51275873
0001d0 50 61 0b bf 6d 85 6a 3f 8f c7 5d 3d 2c 1d c7 bf
       -0.5444536 0.9160984 0.054145392 -1.5555778
0001e0 86 ce 89 bf be 43 41 bf 4c 73 fa 3c 19 4a 71 3f
       -1.0766151 -0.7549399 0.030572556 0.9425369
0001f0 09 14 06 bf 7f bd 71 bf 29 51 bb bf 7b c3 fc bf
       -0.5237432 -0.94429773 -1.4634143 -1.9747156
000200 18 2f 12 3f c6 61 4e 3e fc 71 26 3e 76 a4 5a 3e
       0.5710311 0.20154485 0.16254419 0.213518
000210 fb 76 3e bf ea 16 70 3e 06 a8 0a 3f ea 0e 97 be
       -0.744003 0.23446241 0.54162633 -0.29503566
000220 3b 7a b4 bb 63 cb 87 3f 3b ad 39 3f 49 1b cb bc
       -0.005507735 1.0608944 0.72529954 -0.024793284
000230 eb 22 f8 bd 51 0e ca 3e a9 f6 9b bd ff ff a1 3d
       -0.12116035 0.39464048 -0.07615406 0.079101555
000240 b9 8a 01 3e b6 31 56 bd e1 44 b0 bd be 35 89 3d
       0.12650575 -0.0522935 -0.086068876 0.06699704
000250 61 c5 b8 be 4d 81 01 bd 56 0e 2e 3f 1a 40 13 3e
       -0.36088088 -0.03161745 0.67990625 0.14379922
000260 ff 9b 9f be 57 c2 b2 3e 5c 76 a6 bf b5 94 e7 be
       -0.31173703 0.34913895 -1.300487 -0.45230642
000270 6a 9a 24 bf a9 c0 84 bf 0d 5a 13 bf 64 f1 86 3e
       -0.6429812 -1.0371295 -0.5755928 0.2635604
000280 91 96 2f 3f 91 c5 57 bf 90 c8 83 3f 13 f9 ce 3e
       0.6858912 -0.8428584 1.0295582 0.40424404
000290 e1 59 26 3f c1 4c c5 3e 90 1e 54 3f fe d2 81 bf
       0.64980894 0.3853512 0.82859135 -1.0142515
0002a0 4c 79 09 bf 1b c6 a0 3e e7 51 8e bf e4 85 23 c0
       -0.5370071 0.31401142 -1.1118745 -2.555047
0002b0 58 1e f2 be a8 16 bd be 8c 03 39 3f 0f 47 5b bf
       -0.47288775 -0.36931348 0.7227104 -0.856553
0002c0 5f 20 59 bd 3b 5e d1 bd 46 b6 c3 be f4 6e 6c 3f
       -0.053009387 -0.10223051 -0.38225 0.923568
0002d0 bb 10 d4 be 73 4a 9a be 42 3c 4d 3d 9c 7e 03 be
       -0.41419014 -0.30134925 0.050106294 -0.12841266
0002e0 91 4d 31 bf 25 1b 04 c0 05 1d b0 3e 96 fc 3e 3f
       -0.6925898 -2.0641568 0.3439714 0.74604166
0002f0 5b 99 c5 bd 22 7c 67 3b d5 cf 39 bf 53 65 a4 be
       -0.09648391 0.0035321792 -0.7258275 -0.32108554
000300 2e 53 9f bf af dd 87 3f 1a e9 57 bf 67 1d 16 3f
       -1.244726 1.0614527 -0.8434006 0.58638614
000310 54 b7 83 bf 66 b9 63 bf 16 06 1c bf e2 c0 91 3e
       -1.0290322 -0.8895477 -0.60946786 0.2846747
000320 d9 ff 3a 3f 11 c9 be 3f f1 ae 1b 40 5f e1 ad 3e
       0.7304664 1.4905111 2.4325526 0.33961007
000330 1c fa df be 9c 0e a7 3f 2d 41 7e 3f 3f 16 1f 3f
       -0.43745506 1.3051333 0.993182 0.6214332
000340 15 69 76 bf 15 a8 a9 bf 17 68 9f 3f 51 da 91 bf
       -0.9625409 -1.325442 1.2453641 -1.139475
000350 7f 7e c3 bc 99 32 3f bf c9 2f 81 be bd 61 28 bf
       -0.023864029 -0.7468658 -0.2523177 -0.65774137
000360 3b 9d 05 bf 9f 85 7c bf b7 06 58 3f da f3 9a bf
       -0.5219304 -0.9864139 0.84385246 -1.2105668
000370 b6 b9 d8 3e 23 1b 7d be c7 d2 9e bf db fd 85 3e
       0.42329186 -0.24717383 -1.2408074 0.2617024
000380 4e 50 1f bf 17 46 a3 3f 7f ce 5a 3e 63 07 a7 bf
       -0.6223191 1.2755765 0.21367835 -1.3049129
000390 84 81 13 3f f7 c0 8b bf 7c 31 e3 3e d9 37 06 bf
       0.576195 -1.0918263 0.4437369 -0.52428967
0003a0 77 ed 94 bd 9a 4c c8 be 3e f6 e8 bf 09 0b 5a bd
       -0.07271855 -0.39120942 -1.8200147 -0.05323318
0003b0 f7 51 34 c0 e1 f9 0e 3f a4 95 6d bf 1b c0 a0 be
       -2.8175027 0.55850035 -0.9280646 -0.31396565
0003c0 37 23 77 bf a9 4c 65 3f 0d a7 1c 3f b7 fe c7 3f
       -0.9653811 0.895701 0.611924 1.5624608
0003d0 db 11 07 bf ef d9 ce be 83 af 8e bf 9f 35 82 3f
       -0.5276162 -0.40400645 -1.1147312 1.0172614
0003e0 7b d5 74 bf 68 d3 ea 3c 1d 6a f5 be b0 7f d9 3e
       -0.95638245 0.02866526 -0.4793252 0.4248023
0003f0 af 82 09 3e b3 bf 92 3f e5 53 d7 bf ff 9e ef 3e
       0.13428758 1.1464752 -1.6822478 0.46800992

lstm.bias_ih_l1 f4 [256]
000000 1f 5c 8e 3f cc 35 87 3f 02 a8 6c 3e 3f fa 3e be
       1.1121863 1.0563293 0.23110965 -0.18650149
000010 a8 42 d8 3e b1 2f f9 be 75 34 1e 3e 6e 2f 09 be
       0.42238355 -0.48669198 0.15449698 -0.13396999
000020 65 9d 8e be 15 03 17 3d 81 90 ff 3e ac e5 b1 be
       -0.27854457 0.036868174 0.49914935 -0.34745538
000030 a1 20 2b 3e 21 71 0e 3f 54 30 20 3f 93 81 57 3f
       0.16711666 0.5564137 0.6257374 0.8418209
000040 3b 93 00 3f 38 5a cf 3e 08 b3 d6 3e 0a 73 e3 3e
       0.50224656 0.4049852 0.41933465 0.44423705
000050 44 41 60 3e cc 13 31 3e ce c2 7d 3e 62 cc 44 3e
       0.21899897 0.17292708 0.24781343 0.19218591
000060 25 ed 75 3e 4f f2 ac be 01 56 51 3d 56 71 5c 3f
       0.24016245 -0.33778617 0.05110741 0.86110437
000070 d2 3f 67 3f 19 4f 91 3d 33 ec 70 3f 82 0f 66 3e
       0.9033176 0.07095165 0.9411041 0.22466853
000080 b6 43 c1 3e cc 45 59 3f a8 b7 42 3f b6 10 22 bf
       0.37746972 0.84872127 0.7606149 -0.6330675
000090 0f 3e 36 3d 81 89 1f 3e 2e b6 c4 be 29 58 ac 3f
       0.044492777 0.15579797 -0.38420242 1.3464404
0000a0 19 6b 78 bd b2 18 06 3f 45 c3 ba 3e f1 ef 10 3f
       -0.06064901 0.5238143 0.36477104 0.5661612
0000b0 03 1f d3 3f c2 92 67 3f d9 ab 11 bf 00 1b 0d 3e
       1.6493839 0.9045831 -0.56902844 0.13779831
0000c0 83 7f 40 bf e7 a2 cd 3d f0 26 8e 3e a6 97 cb 3d
       -0.7519457 0.10040837 0.27764082 0.09941034
0000d0 6c 79 01 3d 37 e5 e8 bd eb a7 fe 3e 46 08 25 3f
       0.031609938 -0.11371844 0.49737486 0.6446575
0000e0 f5 19 98 3e c4 e4 58 3f 19 1d 7d 3f f4 1f 2c bf
       0.29707304 0.8472407 0.98872524 -0.67236257
0000f0 9a cf 89 be 24 d0 98 3f 8d 05 b7 3e 3c 02 bf bd
       -0.269162 1.193852 0.35746422 -0.09326598
000100 9b 48 0b bf 96 4a cb bd e8 66 61 bf c9 58 b6 3d
       -0.5440766 -0.099263355 -0.8804765 0.08903653
000110 4f 52 ab bb dd 25 8f 3e 0f 11 1b bf 1a be c3 be
       -0.005228318 0.27958575 -0.60572904 -0.38230973
000120 7c b1 4b be b8 c8 5a be a8 e5 bb 3e f1 d6 a6 be
       -0.19891924 -0.2136563 0.3669865 -0.32585862
000130 cd 38 27 be 93 ce 95 3e c9 77 9c be 68 56 01 bf
       -0.16330262 0.29259166 -0.3056014 -0.5052247
000140 84 9c a5 3e 2b ed 1d bf 5d 57 b6 3e f0 5b cd bd
       0.32345974 -0.61690015 0.35613528 -0.10027301
000150 88 43 aa 3e 95 99 e8 be f1 48 80 be 48 ca 41 be
       0.33254647 -0.45429674 -0.2505565 -0.1892482
000160 8b 9a a9 3e 69 83 1a bf 3e f1 27 bf e8 a3 6d bf
       0.3312572 -0.60356766 -0.6560248 -0.92828226
000170 0c 5a 33 bf 3b ea 8a bf 7e e1 c5 be 3a 7d c1 3e
       -0.70059276 -1.0852731 -0.386486 0.37790853
000180 bc ec 1c bd fe 24 f7 be 35 d6 8c bd 42 53 c5 3e
       -0.038311705 -0.4827041 -0.06876794 0.38540083
000190 df 80 07 bf ef a1 d9 3c b7 83 10 bf 4e 2d 21 3e
       -0.52931017 0.026566474 -0.5645098 0.15739939
0001a0 0f 01 f8 be 6a 6a 02 3e b9 60 59 3e 5e 89 ca 3d
       -0.48438308 0.12735906 0.21228303 0.09889482
0001b0 ae ef d4 3e d6 40 d8 bd 5e 5b ae 3e 7a 7a 1a 3f
       0.4158911 -0.105592415 0.34054083 0.60343134
0001c0 4a 8c 45 3c e1 41 3f bf 3d e9 a0 bc 1c e3 ce bb
       0.012057373 -0.747099 -0.019642467 -0.0063136946
0001d0 82 41 24 bf bc d2 42 be 33 25 24 be 36 b3 23 be
       -0.64162457 -0.19025701 -0.16029815 -0.15986332
0001e0 3a 64 e5 be 77 0e 14 bd eb d4 73 3f 9b 40 f7 be
       -0.4480303 -0.036146607 0.9524676 -0.48291478
0001f0 ea 93 0a 3f 15 46 ce 3e 96 64 3c 3f ec 7c 59 bf
       0.5413195 0.40287843 0.7359098 -0.8495624
000200 02 3b f2 bd 8f 8a 3a be 08 45 0e 3e b6 92 e6 bd
       -0.11827661 -0.18216918 0.13893521 -0.11258452
000210 f7 e8 d0 3d 3b 72 01 bf 06 a4 e0 3d 90 2c 28 be
       0.102006845 -0.50564927 0.10968785 -0.16423249
000220 fc 53 b1 be 27 25 8a 3d 6a cd d0 3d 46 0b 9f 3e
       -0.34634387 0.067453675 0.101954296 0.31063288
000230 2a 8a 6e be a0 3d 24 3e 12 94 4a be b9 4b ff 3c
       -0.23294893 0.16039133 -0.19783047 0.031164037
000240 96 ed 00 3f 06 93 0d be 37 71 74 3c 4b 36 dc bd
       0.5036253 -0.13825616 0.014919571 -0.10752543
000250 cf b4 40 3e b3 c9 11 be 12 84 15 3e 7c 9f 54 bc
       0.18818973 -0.14237098 0.14601162 -0.012977477
000260 e1 da 5e be dc 85 2c 3d 2e 19 9f 3d 77 82 1a 3f
       -0.21763183 0.042119846 0.077684745 0.60355324
000270 07 a4 a2 3e a0 94 c6 3e 20 1d 27 3e 66 01 1d be
       0.31765768 0.38785267 0.16319704 -0.15332565
000280 51 4e 51 bd 0a ff b1 3e 6a 90 cc 3d b5 3e a2 3e
       -0.05110008 0.34764892 0.09988482 0.31688467
000290 dc 4e 82 bd f4 e2 73 bd d6 78 2d be a4 a5 09 3e
       -0.063626975 -0.05954261 -0.16940627 0.13442093
0002a0 a7 dd 06 3f 9a 25 17 be d9 af b5 bd 63 0b bc be
       0.52681965 -0.14760438 -0.08871431 -0.36727437
0002b0 2b 92 ed 3d e4 15 bd be 28 f5 04 bf 36 29 08 3e
       0.11600145 -0.36930764 -0.5193658 0.1329697
0002c0 8d e2 6e bc b3 c8 89 3e 62 1b 97 3d aa f9 63 be
       -0.014580381 0.26910934 0.0737827 -0.22263208
0002d0 0a ec 09 bd b6 69 dd be 38 4a af 3e 50 7b 7e 3e
       -0.03367237 -0.43244714 0.34236312 0.24851727
0002e0 82 e2 6d 3e e2 d2 29 3d e0 4b f2 bd ce 84 0b 3e
       0.23230937 0.04146088 -0.11830878 0.1362488
0002f0 9e 02 c7 3e 25 81 18 3f b1 70 80 be 32 ff 78 3e
       0.38869184 0.5957206 -0.25085977 0.243161
000300 2c 59 83 3d 6e 6f 87 3d 10 07 d6 bd 3a e1 18 bf
       0.064134926 0.066130504 -0.10450566 -0.5971867
000310 bc 47 a5 3d de d9 87 3f 0c 86 ba 3e c9 b0 d4 3e
       0.08070323 1.0613363 0.36430395 0.41541126
000320 cb 76 00 3f a4 0b 4e bd cf 29 d2 be b1 b4 fe 3e
       0.50181264 -0.05030407 -0.41047522 0.49747232
000330 49 a9 0f 3f 5d ec 9c be 07 55 95 3f b2 fa c7 3e
       0.56117684 -0.3064908 1.1666573 0.39058453
000340 34 0f 07 3f 48 32 09 bf 3f cf 92 3e 5a d1 81 bd
       0.52757573 -0.5359235 0.2867374 -0.06338759
000350 18 54 7d be 55 5b 64 3f d9 2a b1 be 40 ee 4a be
       -0.2473911 0.8920186 -0.34603003 -0.19817448
000360 16 b6 a3 bd be 4d 6d bd 52 c6 a4 3e b8 6a 7b 3f
       -0.079937145 -0.05793547 0.32182556 0.98209715
000370 ec e0 4a 3f 22 dd 28 3f f4 f4 3d 3f a4 12 bd 3c
       0.79249454 0.6596242 0.74201894 0.023080178
000380 29 4e 9f be 75 f5 82 3f 55 1a 0c bf c8 7c 17 3f
       -0.3111432 1.0231158 -0.5472768 0.59174776
000390 32 22 ba 3f fa 02 47 be 89 d9 33 3e e8 90 86 3d
       1.4541686 -0.19434729 0.17563452 0.065706074
0003a0 33 76 ca bd 61 bb 98 3d 76 c0 ab bf 05 57 3f 3e
       -0.09885826 0.07457615 -1.341811 0.18685539
0003b0 5a 80 8e 3e 4f 3e 03 3f 04 21 a2 3e 9c 83 85 be
       0.278323 0.5126695 0.31665814 -0.26076972
0003c0 9b af f8 3e c7 8b c8 3d 89 26 55 3e 5a f6 20 3f
       0.48571476 0.097922854 0.20815481 0.628759
0003d0 cb 27 2b 3f 47 ee 50 bf 2a ac 90 3c 75 1c 56 3e
       0.66857594 -0.8161358 0.01766022 0.20909293
0003e0 69 8a e8 3e b2 c2 33 bf 5f 24 eb bd 2c 6c 1c 3f
       0.454181 -0.70218956 -0.114815466 0.6110256
0003f0 2d 06 7f 3d 92 13 a3 be 23 9a c4 bd b1 30 34 3f
       0.06226175 -0.31850868 -0.09599712 0.703868
