model/epoch_10000.pth (torch_old, 318045 bytes, 10 tensors)

lstm.weight_ih_l0 f4 [256, 20]
000000 0b 1f e2 3e 29 5d 59 40 fa 1d 82 40 55 ef 8b 3c
       0.4416431 3.396311 4.0661592 0.017081896
000010 87 bc 91 be a1 8e 2d 3f 04 ab 71 40 38 ec 5a 3f
       -0.28464147 0.6779576 3.776063 0.8551669
000020 62 5a f2 bd 64 8b b6 3e ed d9 08 be 2b db 6e bf
       -0.118336454 0.35653222 -0.13364382 -0.93303174
000030 c8 93 3e 3f 8b 09 0a c0 b3 2c 60 3f ce 98 5b be
       0.74444246 -2.1568325 0.87568206 -0.21445009
000040 11 43 92 40 2b a8 04 be 4a cc e8 40 b3 7b 1e c0
       4.570687 -0.12954776 7.2749376 -2.4763
000050 f5 81 09 bf 96 50 2b bf ab 7f 46 3d 63 73 8e be
       -0.53713924 -0.6691984 0.048461597 -0.27822408
000060 11 41 a4 3f cc 81 24 3d 34 d6 2a bf 92 67 8b bf
       1.2832357 0.040162846 -0.667331 -1.0890982
000070 08 14 6d 40 e8 dc 5e 40 b4 5a 5e 3f e3 86 81 be
       3.7043476 3.482233 0.8685715 -0.25298223
000080 3e c6 fc 3f 77 60 7d bf 2e 61 b4 bd fa f6 fb 3e
       1.9747999 -0.9897532 -0.08807598 0.49211866
000090 c6 ac f3 be 1c bf 8c c0 5f ef 18 40 5e cd 3e bf
       -0.47592753 -4.398329 2.38961 -0.74532115
0000a0 60 89 d2 3e 7a 8d f0 3f 08 57 8a 3e 7b f1 14 40
       0.41120434 1.8793175 0.27019525 2.3272388
0000b0 2d c4 a0 bf 58 36 f8 3e 14 da c6 3c 51 de e5 3e
       -1.2559868 0.4847896 0.02427391 0.44896176
0000c0 40 c2 fd 40 7a 1f 5b 3f b0 7c 9b bf 8e a8 6e bf
       7.929962 0.85594904 -1.2147427 -0.93225944
0000d0 08 09 fa 3f 36 d1 25 40 20 b6 81 bf 83 eb 89 40
       1.9534006 2.5908942 -1.0133705 4.309999
0000e0 96 6c bc bf 84 cc e8 bd a3 29 51 c0 07 6d 25 40
       -1.4720638 -0.11367133 -3.2681663 2.5847795
0000f0 8f 96 05 40 6a fe 8c 40 3c f9 56 bf c6 ae eb 3f
       2.0873144 4.4060564 -0.8397405 1.8412712
000100 2d 7d 07 3f fb 62 b1 3c ec 71 84 3f 3d 2c 85 bf
       0.5292538 0.021653643 1.0347266 -1.0404125
000110 19 6b 52 c0 a4 16 b2 40 de 1e c6 be d2 5c a8 bd
       -3.2877867 5.5652637 -0.38695425 -0.08220829
000120 58 4a 19 3f 72 ae 3b bf 13 94 09 41 cc a3 f3 be
       0.59879065 -0.7331306 8.598651 -0.47585905
000130 b7 9c 6d 3f 8d a8 ad 3f 19 54 a2 bf a3 54 8e 3f
       0.9281725 1.3567063 -1.2681915 1.1119579
000140 0a b6 31 bf 7a b3 14 c0 2b 0d 0c 40 39 88 a6 3e
       -0.69418395 -2.3234544 2.1883037 0.32525805
000150 80 73 3f 3e 26 5a c9 3f f7 3d 70 be 88 cc bf bf
       0.18696404 1.5730636 -0.23461138 -1.4984293
000160 fb ad 5a be 7a 04 a8 3e d7 24 f4 3f ea 99 65 bf
       -0.21355431 0.32815915 1.9073743 -0.8968798
000170 8d e0 63 40 31 ff 77 40 f7 66 3a 41 0c 03 ed be
       3.5605805 3.8749506 11.650138 -0.46291387
000180 06 a6 1d 40 3e 8c 3b 3f 69 bb c7 40 be 23 26 bf
       2.4632583 0.7326087 6.241627 -0.6489829
000190 9e b9 29 3f a0 34 9d 40 6d fe b5 bf 89 40 57 40
       0.66298854 4.912674 -1.421827 3.363314
0001a0 7e a6 24 bf a6 ff 7b 3f 65 02 19 c0 dc 70 d2 40
       -0.64316547 0.98436964 -2.3907712 6.576277
0001b0 62 70 c8 3f 4f 24 ed 3f c5 83 18 bf 6f d3 01 bf
       1.5659297 1.8526706 -0.59576064 -0.5071325
0001c0 44 b7 d3 3f 72 84 2c bf 99 97 0d c0 d6 01 20 40
       1.6540303 -0.67389596 -2.2123778 2.500112
0001d0 92 39 87 bf cd d2 d5 be f1 55 0d 3f 65 45 d3 3d
       -1.0564444 -0.4176239 0.5520926 0.1031597
0001e0 52 7f 10 c0 37 70 ad 40 27 29 b1 40 b7 e3 ed be
       -2.257771 5.419948 5.5362735 -0.46462795
0001f0 98 20 19 bf d7 1a 30 3f 02 93 8a 3f 80 7c 3c 40
       -0.5981536 0.68790954 1.0826113 2.9450989
000200 9d 15 cd 3f fc 6b 06 40 6d c5 b2 3f 5e 52 1d bf
       1.6022221 2.1003408 1.39665 -0.6145381
000210 eb f8 a6 3e 54 71 7d bf 74 cb 9d 3e 34 2b c0 3e
       0.32611784 -0.9900105 0.30819285 0.3753296
000220 98 b7 81 40 75 2b 45 40 6d 05 0a 40 f5 d2 41 bf
       4.0536613 3.0807774 2.1565812 -0.7571252
000230 10 6d b0 bf 8f ad 71 bf c9 7e 86 3f 8d 4f b8 bf
       -1.3783283 -0.94405454 1.0507442 -1.4399277
000240 00 f7 a0 40 a1 ae a1 3d d0 ad ca 3f 8c a9 17 40
       5.0301514 0.07894636 1.5834293 2.3697233
000250 5e 5b 70 c0 10 f1 b4 3f 30 ae 9a bf 85 72 f2 bf
       -3.7555766 1.4136066 -1.2084408 -1.8941199
000260 98 e5 42 3f 9d fb 66 40 81 2a fd 40 f8 c8 04 40
       0.7613158 3.6091073 7.9114385 2.0747662
000270 a9 af 37 3f 24 76 90 bf 5f 9a e5 bf 9e 96 34 3f
       0.7175241 -1.1286054 -1.7937735 0.70542324
000280 1e fc ce bf 2a 04 b0 40 e1 16 6c be 93 dd 44 3f
       -1.617069 5.5005083 -0.23055603 0.76900595
000290 8f 71 25 bf cd 6e 06 c0 fb 40 57 40 03 ac 03 40
       -0.646264 -2.1005127 3.363341 2.0573738
0002a0 f5 9d 4c bf a9 f7 d0 3f 7b 8b 21 c0 f0 ee ce 3e
       -0.79928523 1.632558 -2.5241382 0.4041667
0002b0 96 fb 3e be 8d a9 2a 40 1b f9 ff be 79 12 8b bf
       -0.1865066 2.6665986 -0.4999474 -1.0865012
0002c0 c2 00 50 40 31 86 cf 3e 09 c8 c5 bf 32 c0 c6 bf
       3.2500463 0.40532067 -1.5451671 -1.5527403
0002d0 c9 0f 08 40 1a bb 2d c0 05 4b fd 3f 5d 08 a5 3f
       2.1259634 -2.7145448 1.9788519 1.2893177
0002e0 66 ca 0f c0 f0 6d 90 3f 4b 1b 1b 3f ca ab 1a be
       -2.2467284 1.128355 0.6058852 -0.15104595
0002f0 c7 cb 15 c0 8f ae bf 40 46 43 58 3f 3b b3 0c 3f
       -2.3405626 5.9900584 0.8447765 0.54960984
000300 5f b8 94 40 99 5b 0a c0 7f 1a 9c 3e 70 3a e0 3e
       4.647506 -2.1618407 0.30488965 0.43794584
000310 9d 31 c2 bd 32 31 2a c0 0f cd 13 40 ef 9b 1b be
       -0.09482119 -2.6592526 2.3093908 -0.15196203
000320 93 bb 0d 40 ae 88 02 40 0b 08 6a 3e 0e d4 a9 bf
       2.2145736 2.0395923 0.2285463 -1.3267839
000330 a5 6f f6 3e 9b bb c1 3f 92 d7 11 bf 02 89 bf 3f
       0.48132053 1.5135378 -0.5696956 1.4963686
000340 ca 21 b7 3d a9 78 2c be 04 16 af 3d be ff 15 c0
       0.089419916 -0.16842903 0.08549121 -2.3437343
000350 87 45 ae 3f d8 46 a5 bf d9 c8 23 40 58 94 bc bc
       1.3614968 -1.2912245 2.5591338 -0.023019955
000360 c6 e5 70 3f 41 c6 3d 40 31 87 67 40 1c 3b 5f bf
       0.94100606 2.9652255 3.6176264 -0.8719957
000370 ae 07 d9 bf 5d 8e 88 3f b1 82 c0 bf 95 4d fa be
       -1.6955469 1.0668446 -1.5039884 -0.48887315
000380 8f da 9f 3f aa 93 c4 be a1 0b a9 3e fd dc 05 40
       1.2488574 -0.3839391 0.33016685 2.091613
000390 94 8f 55 40 89 99 2a 3e f0 d0 91 3f 5b 66 c9 be
       3.3368883 0.16660132 1.1391888 -0.39335904
0003a0 25 ac a7 bf d6 0c 90 3e 64 a9 d3 3f 10 2e ea 3f
       -1.3099409 0.28134793 1.6536069 1.8295307
0003b0 81 96 53 3f e8 e7 a8 be 76 9d b4 bf bb d0 ab bf
       0.82651526 -0.3298943 -1.4110553 -1.3423074
0003c0 31 4f aa bc eb 83 76 bf 74 a4 94 bf 6c 3a 2e 40
       -0.020789715 -0.9629504 -1.1612687 2.7223158
0003d0 fe da 3e 3e 23 bc 19 40 55 63 87 3f 61 72 f8 3e
       0.18638226 2.402108 1.0577189 0.48524764
0003e0 0d 70 bb bf 95 f5 3c c0 e3 c1 33 c0 fa 92 88 3f
       -1.464357 -2.9524891 -2.808709 1.0669854
0003f0 06 c1 32 40 83 b4 a8 3f 5e 3b 1b 3f 2f d3 c2 bf
       2.7930312 1.3180088 0.6063746 -1.5220698

lstm.weight_hh_l0 f4 [256, 64]
000000 0f c4 b5 be 92 92 99 3f c2 93 78 3f cd 1b 89 3f
       -0.35501143 1.1997855 0.9710046 1.0711609
000010 67 a1 d5 3f 30 cd 9c 3f d4 e8 44 be ff 10 0d 3f
       1.6689881 1.2250118 -0.19229442 0.5510406
000020 a7 80 3f bf a5 62 06 3f 84 b3 84 be 99 b7 c5 bd
       -0.7480568 0.5249427 -0.2591821 -0.09654159
000030 c8 46 04 be e4 12 9b be 8e 0f 55 3f 39 4f 77 bf
       -0.12917626 -0.3028785 0.8322686 -0.9660526
000040 8f 8a 1d c0 8d 3d 17 3f 91 42 60 bf d3 2e 9a 3f
       -2.461582 0.59078294 -0.8760157 1.204554
000050 7e e8 0b be 76 77 b5 be da 76 9d bf 9c aa a8 be
       -0.13662907 -0.35442704 -1.2301896 -0.32942665
000060 69 23 86 bf ef 1b 02 bf cf 6d 05 bf f4 86 88 be
       -1.0479556 -0.50823873 -0.5212068 -0.2666546
000070 fb d5 64 3f 70 b8 01 3f 48 b7 33 be 2e b1 12 3e
       0.8938901 0.50672054 -0.17550385 0.14325401
000080 75 02 97 3e e9 ab 34 be 2a ad d0 be e7 7f 5a 3f
       0.29494062 -0.17643704 -0.40757114 0.85351413
000090 8e 22 54 be 97 6f a6 bd ed 29 88 bf 5b 65 d5 3d
       -0.20716307 -0.08126753 -1.0637795 0.10419723
0000a0 2b d1 49 3f ea ff fc be 80 0c 5b bd e2 1e 21 3f
       0.7883479 -0.49413997 -0.053478718 0.6293775
0000b0 c7 3b 6c bf 1e ca 85 bd 6b da fc be 5a 84 e2 bd
       -0.92278713 -0.065326914 -0.4938539 -0.110604
0000c0 f6 6c 0c 3f 26 fa a8 3f 53 2e 45 3e fe b1 7a 3f
       0.5485376 1.3201339 0.19255953 0.97927845
0000d0 82 bb c7 3e 7f 69 f3 3e e2 20 ca bf 5a 86 f2 3f
       0.39010245 0.47541425 -1.5791285 1.8947251
0000e0 71 7b 7f be d6 d7 12 3f 61 4b 61 bf 49 9d b4 3e
       -0.24949433 0.5736059 -0.88005644 0.3527625
0000f0 fa 27 19 3f 44 34 f9 bf 7b d2 92 bf ab 88 2d 3f
       0.59826624 -1.9469075 -1.1470484 0.67786664
000100 3e 96 98 bf 47 5f da be 9e e7 96 bf 3d 9f 83 bf
       -1.192085 -0.42650816 -1.1789434 -1.0282971
000110 9a 1c 84 bf 93 f8 ea 3f 91 c4 b8 3f 97 ee 46 3f
       -1.0321229 1.8357109 1.4434987 0.7770781
000120 e3 8f c2 3f f0 b1 24 3f 3b 34 77 3f 15 7c 13 bf
       1.5200161 0.6433401 0.9656407 -0.5761121
000130 cc 6c 53 bf e7 9d 25 3f 06 4b ac be c1 14 7a bf
       -0.82587886 0.64694065 -0.33650988 -0.9768792
000140 6f b7 a1 bf d7 3e 5a bf e5 02 86 3f d4 e4 ec 3e
       -1.2634104 -0.85252136 1.0469633 0.46268332
000150 07 84 e9 be 31 ca 9c bf d8 b9 0e bf a7 d9 4e bc
       -0.4560854 -1.2249204 -0.55752325 -0.012625135
000160 13 5d 44 bf 8f 54 06 3e 07 c7 c4 be d3 a5 d1 bf
       -0.7670452 0.13118194 -0.38433096 -1.637873
000170 d1 3d 49 bc cd 0f d9 be 9b b9 c2 3d 51 f8 47 3f
       -0.012282805 -0.42394868 0.09508058 0.78113276
000180 0f 46 85 3d 66 e9 79 3f fd 63 cf bf 11 a4 68 be
       0.06507503 0.9762176 -1.6202389 -0.22718836
000190 56 38 5a bf 74 6a 17 3e 5b c5 62 3f e7 1f c8 3e
       -0.8524221 0.14786702 0.8858239 0.3908684
0001a0 d1 1d 36 3f da c9 62 3d ef 4a a9 be 78 d1 0e bb
       0.71139246 0.055368282 -0.33064982 -0.0021792334
0001b0 2a be 0f 3f 04 9c de be bf b7 37 3f 5c f7 8b 3f
       0.5614954 -0.43478405 0.7176475 1.0934863
0001c0 1a 40 93 3f 12 64 21 bf 72 b7 0e be 2d 20 7f 3e
       1.1503937 -0.6304332 -0.13937166 0.24914618
0001d0 7c 99 01 40 6e 68 60 3f 1f ab c4 3e 72 65 f4 3e
       2.024993 0.8765935 0.38411805 0.47733647
0001e0 75 17 44 bf 50 6a a8 be c9 be ad 3e 60 82 16 bf
       -0.7659829 -0.3289361 0.3393462 -0.58792686
0001f0 b2 64 17 3f 86 ec 65 be a6 d8 fe be 1d 74 28 bf
       0.59138024 -0.22453508 -0.49774665 -0.65802175
000200 4a f3 60 bf 62 8a 71 3f db 62 2d 3e 3e 3e 75 3f
       -0.8787123 0.9435178 0.16932242 0.957981
000210 c7 f4 67 bf 54 c7 25 bc a6 96 5c 3f 26 b8 36 bf
       -0.90607876 -0.010118324 0.8616737 -0.7137474
000220 31 2c 6a bf 5a 8e 3a 3f 60 e8 29 3f 59 85 a5 bf
       -0.9147368 0.7287346 0.663702 -1.293132
000230 d6 58 ca be 51 a8 09 bf 27 68 5c be ca 96 50 3d
       -0.395209 -0.53772455 -0.21524106 0.050925054
000240 fc d2 cf be e9 d5 3f 3f cd ab da 3d f8 67 13 bf
       -0.40590656 0.74935776 0.106773 -0.5758052
000250 6e 25 3c bf 5a 66 35 bf 31 34 76 bf d4 d2 8d bf
       -0.73494613 -0.708593 -0.9617339 -1.1079965
000260 4a ff 89 bf aa 4c 07 3f e4 e0 39 bf 51 6b af bf
       -1.0781033 0.52851355 -0.7260878 -1.3704625
000270 e8 6d 5b 3f 96 00 10 3f ab 0d 99 be b6 4f 30 bd
       0.8571458 0.56250894 -0.2989324 -0.04304477
000280 02 0c 65 be 7c 0c b0 bf 4c 0a 8c bf 3a 7e 43 bd
       -0.22367862 -1.375381 -1.0940642 -0.0477278
000290 a4 cf f1 3e da 82 2a 3f 55 16 bf 3f 3d 15 1d 40
       0.4722873 0.66605914 1.492869 2.4544213
0002a0 ae 1e 32 3f c8 b2 70 3f 20 48 64 3c 29 22 62 3e
       0.69578063 0.940228 0.013933212 0.22083344
0002b0 b3 08 21 bf 01 d9 a4 3e e1 a7 af bf 5b 06 6b 3e
       -0.629039 0.3219681 -1.3723108 0.22951643
0002c0 be b5 af be 47 a8 43 3f c2 75 17 3f 21 cc 9d 3f
       -0.34318346 0.76428646 0.5916406 1.232792
0002d0 85 aa 15 3f fc 19 7d 3d 9c 2c a0 3e a0 21 d6 3f
       0.5846332 0.06179236 0.31284034 1.6729012
0002e0 3f 60 33 bf 03 3a 30 bf 96 c0 35 3c 1a f9 c9 be
       -0.70068735 -0.6883852 0.011093279 -0.39447862
0002f0 0b 38 18 3f 39 a4 a3 bf f7 bb 24 bf 04 e7 5d bf
       0.59460515 -1.2784492 -0.6434931 -0.86680627
000300 6c b9 37 3f ce 6b 47 3f e6 a5 b2 be f5 9b 04 3f
       0.71767306 0.7789887 -0.34892195 0.5180047
000310 a4 0f a2 bd e3 7f 64 bf 6d 78 e5 be 80 73 c9 3f
       -0.079131395 -0.8925764 -0.4481844 1.5738373
000320 92 dd be bf ac 46 09 3f e1 be 8e be 4a a6 cf 3d
       -1.4911368 0.5362346 -0.27880004 0.10139139
000330 01 8a 6a bf 10 c8 0f be 23 3c 64 3f 6c 7f b4 3d
       -0.9161683 -0.14041162 0.8915426 0.08813366
000340 08 b9 ba bf d4 46 b6 3c e6 33 81 bf 94 b6 97 3f
       -1.4587717 0.02225057 -1.0093963 1.1852593
000350 58 38 59 3e 73 9c 08 bf f1 fc c6 3d 80 4d 1b bf
       0.212129 -0.5336372 0.097162135 -0.6066513
000360 dd a2 33 c0 e2 04 35 3e e8 b1 fe bd e3 c1 98 3f
       -2.8068154 0.17677644 -0.12436277 1.193417
000370 46 ea 22 3f 91 00 26 3f d1 a0 42 bf 07 a8 59 bf
       0.6363872 0.64844614 -0.76026636 -0.85022014
000380 eb ac 97 3f a5 ca c7 be 02 b8 a7 be 5a c3 60 be
       1.1849645 -0.39021793 -0.32757574 -0.2194952
000390 35 b4 63 bf 01 f6 b3 3f 8a 89 7e bc 1b 2b 4d bf
       -0.8894685 1.405945 -0.015535722 -0.801439
0003a0 4c 35 aa bf 27 73 24 bf 85 7f c1 3f f6 bf 67 3f
       -1.3297515 -0.6423821 1.5117041 0.90527284
0003b0 fb e3 44 3e 00 06 12 3f 18 9f 80 bf df 52 51 bd
       0.19227593 0.57040405 -1.0048552 -0.051104423
0003c0 d7 6f 8b 3c a5 91 1a 3e 12 50 35 bf 56 3f a1 3f
       0.017021103 0.15094621 -0.708253 1.2597454
0003d0 4a 65 da bf b9 87 b2 be 20 71 04 3f 95 2c cc 3e
       -1.7062161 -0.34869173 0.51735115 0.39877763
0003e0 e7 ca 1d 3f fa 2d 3f 3f 4b 7e 8a 3e 82 e0 7a bf
       0.6163773 0.7467953 0.2704948 -0.9799882
0003f0 60 f6 c2 be 14 d9 4a be 55 18 b3 3d 0b 8b 18 bf
       -0.38078594 -0.19809371 0.08744875 -0.5958716

lstm.bias_ih_l0 f4 [256]
000000 ce 70 a6 3e 86 2a 37 3f 72 2f 50 3f bf 5a 82 3f
       0.32507938 0.7154926 0.81322396 1.0183944
000010 45 e6 18 3f 77 8b 77 3f 8d ae 34 3f 84 2f 75 3f
       0.59726363 0.9669718 0.70578843 0.9577563
000020 69 96 6b be fc 58 6c 3f f0 73 ad 3e 5b f2 cb 3e
       -0.23006596 0.9232328 0.33877516 0.3983334
000030 23 1c 1a 3f a7 b0 16 3f b2 d9 6f 3f 6f 75 e4 3e
       0.60199183 0.588633 0.9369155 0.44620845
000040 2f b1 80 3e 23 13 9b 3f 59 91 2d 3f 5f 62 54 3f
       0.2513518 1.2115215 0.6779991 0.829626
000050 0a 0c 09 3f 58 a4 46 3f f5 89 53 3f 1f 95 54 3f
       0.53533995 0.7759452 0.8263238 0.8304004
000060 c6 39 4d 3f 02 c9 66 3f ea f2 b9 3e 4d 57 e1 bd
       0.8016628 0.90150464 0.3631814 -0.110029794
000070 e9 93 18 3d 5f 81 a2 3f 21 d6 ae 3f 91 56 33 3e
       0.037250433 1.2695731 1.3659097 0.17513491
000080 5b 89 8e 3f b2 c2 b6 bd 18 31 1f 3f 18 4c 68 3f
       1.1135668 -0.08923854 0.62184286 0.9074111
000090 28 9e 52 3f cd b2 46 3f 35 71 3c 3f a1 fd 67 3f
       0.8227258 0.7761658 0.7361024 0.9062138
0000a0 1b b9 ab 3f 53 e7 9b 3f f4 ce 10 3f 66 a3 2f 3f
       1.3415865 1.217997 0.56565785 0.686087
0000b0 78 9a e5 3e 71 b1 13 3f da 61 99 3f 90 32 b6 3e
       0.44844413 0.5769263 1.1982987 0.3558545
0000c0 54 05 5d 3f 2b 9b 5c 3f f5 c6 8a 3f 8e 82 9c 3e
       0.86336255 0.8617427 1.0841967 0.30568355
0000d0 8a 86 27 3f 98 51 cb 3e 76 6f 29 3f 3b 58 ea bd
       0.65439665 0.3971069 0.661857 -0.1144261
0000e0 59 3b f5 3e 23 bb 52 be df 44 bb 3e 6d a8 ad 3f
       0.4789684 -0.205792 0.36575982 1.3567024
0000f0 fd 4b 74 3f 4d c6 dd 3e 46 39 7f 3f 3f 0a 43 3f
       0.9542845 0.43315354 0.9969677 0.7618751
000100 af 4d af be 67 80 87 3a 20 ec 63 3e 41 a4 27 3e
       -0.34238955 0.001033795 0.22258043 0.16371252
000110 94 1b 87 3e b1 ac af bd 32 a7 f1 3c fc c7 d8 3d
       0.26388228 -0.0857786 0.02949867 0.10585019
000120 5f cc fb 3e 13 60 98 3e 26 87 e7 3e 19 14 af 3e
       0.4917936 0.297608 0.45220298 0.3419502
000130 1d 46 01 bf d7 ff b6 3e 69 ca 0f 3d 1c bb a6 bd
       -0.5049761 0.35742065 0.035105143 -0.08141157
000140 64 8c 18 3e bb e5 f4 be 5c ad c5 3e 9f fc 79 3d
       0.14897305 -0.4783152 0.38608825 0.061031934
000150 d9 c7 3f be 24 0b 1d be ab 94 b1 3b df 07 04 be
       -0.1872858 -0.15336281 0.005419334 -0.12893628
000160 b5 50 e0 3d 94 11 89 3d 9e a4 9d be c7 e4 a8 3d
       0.10952894 0.06692806 -0.30789655 0.08246761
000170 09 dd 32 bd 12 de 3c 3d 57 be 03 3f 31 d9 c8 bc
       -0.043667827 0.04611022 0.5146231 -0.024517627
000180 d4 a0 ec 3e 7c 54 c3 bd 3c 7d cc bd b8 db 42 bd
       0.46216452 -0.095375985 -0.09984824 -0.04757282
000190 06 eb ad bd 28 95 b7 3e 95 7c b1 3d 89 aa a2 3d
       -0.08492093 0.35855985 0.0866634 0.07942683
0001a0 b8 c8 b5 39 58 0a 3c 3c de 89 04 3e 72 e0 9a 3e
       0.00034672557 0.0114770755 0.12943217 0.30249363
0001b0 56 ae 9f 3c 19 87 ba bc 7f c2 14 3f 03 3a 71 be
       0.01949231 -0.022769498 0.5810928 -0.23557286
0001c0 be 5c 71 be 9f cf c5 3d 31 dd 5e 3e 44 ec f7 be
       -0.23570535 0.09658741 0.21764065 -0.48422444
0001d0 79 44 d3 be e8 c3 86 3e 57 09 fb 3d 78 f6 af 3e
       -0.41263178 0.2632134 0.12257641 0.34367728
0001e0 73 8a b7 3c a8 fd b1 3e 0d 8b 7e be 61 85 ac 3d
       0.022404885 0.34763837 -0.24857731 0.084238775
0001f0 7c 62 a0 3e c4 6e cb 3e 37 00 e3 bc 0d 80 b8 3e
       0.31325138 0.39732945 -0.027710063 0.36035195
000200 86 65 1e 3d 35 2e 5b 3e 64 62 d3 bd a4 4a 34 3e
       0.03867104 0.21404345 -0.10321501 0.17606598
000210 30 f3 b3 3e 64 8b a5 bd 0d 75 0d be b6 a7 1d 3d
       0.35146475 -0.08083227 -0.13814183 0.03849002
000220 ef 5d a2 bd 82 d2 c8 3d f1 78 1e 3e 72 e6 6d be
       -0.07928073 0.09805776 0.15475823 -0.23232439
000230 eb 0b 41 be 68 21 01 be e6 b1 41 3e 4d da e4 bd
       -0.18852203 -0.126104 0.18915519 -0.1117445
000240 01 b0 4a be 33 d8 98 bc 86 b5 9c 3c 38 9f 85 3d
       -0.19793703 -0.01865778 0.019129526 0.06524509
000250 cc 3d a9 3c 00 59 c4 bd 30 78 0b be 17 4e ae bd
       0.02065935 -0.09587288 -0.13620067 -0.08510988
000260 f0 fd 5d be d8 ea 36 be d2 c6 fe 3c 48 71 10 be
       -0.216789 -0.17863023 0.031100664 -0.14105713
000270 b4 de a5 3d 79 b2 0b 3a e9 9c a3 be 61 f5 8e 3e
       0.08099118 0.00053290237 -0.3195565 0.27921584
000280 62 8e 21 be 84 94 3f bd 07 b9 20 be 13 69 8e 3d
       -0.15776971 -0.046772495 -0.15695582 0.06953635
000290 68 a0 29 3d e2 40 d1 bd 17 c0 fc 3a bd 74 95 3c
       0.04141274 -0.102174535 0.0019283321 0.018244142
0002a0 6e e2 39 bd 64 56 04 bd 43 51 3c 3d 11 53 60 be
       -0.045381956 -0.03230895 0.045975935 -0.21906687
0002b0 f1 7d 9b be 8b 17 32 bd e0 bf f8 bd 0d 20 ac bd
       -0.30369523 -0.043479484 -0.12145972 -0.08404551
0002c0 38 c9 2a be 30 3b b9 3d 18 e3 7f be e0 ab d7 ba
       -0.16678321 0.09044492 -0.24988973 -0.0016454421
0002d0 79 f4 c6 bd be 9a dc 3d ca 80 bc bd 09 a3 2d 3e
       -0.09714598 0.10771702 -0.09204252 0.16956724
0002e0 f7 c9 d9 3d 69 e7 0b 3c 54 b0 fa 3d fc d8 65 bd
       0.10634225 0.008539059 0.12240663 -0.056115136
0002f0 d1 dd f1 3d fd 28 d3 bd f5 6b 43 be 47 ac aa 3d
       0.11809886 -0.10310552 -0.19084151 0.083336405
000300 c2 e9 d9 3e 91 36 00 3f e5 f1 27 3f bf 9b 09 3f
       0.42561156 0.5008326 0.65603477 0.53753275
000310 49 e2 bf 3d 44 57 b4 3e a1 ef 43 3f 6b cc aa 3d
       0.09369332 0.35222828 0.7653752 0.08339771
000320 6f ce 6f be 4d ef 7f 3e 7e 78 09 3e cf d5 91 be
       -0.23418592 0.2499363 0.1342487 -0.28483436
000330 27 b2 6b 3e 53 46 a8 be 72 33 0e 3f b1 07 0a 3f
       0.23017178 -0.32866153 0.5554725 0.53917986
000340 69 ba 6c be 47 b0 c4 3e 70 a0 97 bd 0f 10 fd 3d
       -0.23117985 0.3841574 -0.07403648 0.123565786
000350 e3 a4 1c 3e 32 e0 62 bc b8 d5 15 be 38 8c 22 3f
       0.15297274 -0.013847398 -0.14632308 0.63495207
000360 ac c2 0a be d5 46 ba 3c 50 9c b2 be c6 40 d6 3d
       -0.13550824 0.022738853 -0.34884882 0.10461573
000370 f7 40 42 bd f3 25 24 3f ff 50 ba 3e 6d b7 f0 3e
       -0.047425237 0.64120406 0.3638992 0.47014943
000380 41 08 d1 3e 88 d3 12 3f 6d 97 9c bc bc 4c a7 3e
       0.4082661 0.5735402 -0.019115174 0.3267573
000390 81 70 1d 3d 6e 8f 7e 3e 9b 15 ca 3c ea c7 a6 3d
       0.03843737 0.24859402 0.024668505 0.08143599
0003a0 c0 8a bc 3e 8b 51 a4 3e 52 17 92 3d 98 39 2c 3e
       0.36824608 0.32093462 0.07133354 0.16818845
0003b0 4d f8 32 3f be 60 06 3f 47 ed f5 be d1 83 ba 3e
       0.69910127 0.52491367 -0.4803259 0.36428693
0003c0 8d d7 6e 3f 94 42 1f 3f 76 fd 45 3e c7 e3 01 3e
       0.93297654 0.62210965 0.19334969 0.12684546
0003d0 08 9d 47 3e 64 f3 2c be a3 20 94 3f 37 72 02 3e
       0.19493496 -0.16889721 1.157246 0.12738882
0003e0 23 17 4f 3f 54 cf 85 be b0 c6 d5 3e fd ba c7 3e
       0.8089468 -0.2613474 0.4175315 0.39009848
0003f0 c5 fe 8e 3f 7a 4f 94 bc a0 36 bb 3e 24 c5 99 3e
       1.11715 -0.018104304 0.36565113 0.3003322

lstm.bias_hh_l0 f4 [256]
000000 41 71 58 3e c6 2f 2c 3f 3f e5 4b 3f ac f2 56 3f
       0.21136953 0.67260396 0.79646677 0.8396404
000010 e5 5a 2b 3f 57 2a 6c 3f ec ed 20 3f 2d 7a 7e 3f
       0.6693557 0.92252105 0.6286304 0.99405175
000020 32 0d 7d bd a2 6c 5e 3f dc 5b fb 3e 33 59 b5 3e
       -0.061780162 0.8688451 0.4909352 0.35419616
000030 02 4d 20 3f d9 36 45 3f 62 5b 6f 3f 70 2f 9f 3e
       0.62617505 0.77036816 0.93498814 0.3109088
000040 49 48 de 3e b3 d3 a6 3f 06 e2 ef 3e c0 39 26 3f
       0.43414524 1.3033355 0.4685213 0.6493187
000050 be 74 0b 3f 61 8b 33 3f 9f 81 85 3f ca e8 4c 3f
       0.5447501 0.7013455 1.0430182 0.8004271
000060 95 30 68 3f ce 2e 83 3f a4 26 fa 3e 06 97 9a be
       0.9069913 1.0248659 0.48857605 -0.30193347
000070 f4 aa ce 3d 7d fa ab 3f 17 7e b8 3f da 5a 64 3e
       0.100912005 1.3435818 1.441348 0.22300282
000080 4e e5 98 3f 41 64 64 bc 71 b7 2f 3f 9f d7 7a 3f
       1.1944978 -0.013939918 0.68639284 0.9798526
000090 30 b6 38 3f a3 4f 45 3f aa 00 2c 3f 21 9c 64 3f
       0.72152996 0.7707464 0.67188513 0.89300734
0000a0 6f 06 95 3f be 46 a0 3f 95 bd dd 3e 54 62 f1 3e
       1.1642588 1.2521589 0.43308702 0.4714533
0000b0 91 b6 11 3f 88 14 40 3f 1c f0 77 3f 04 0c ce 3e
       0.569192 0.7503133 0.9685075 0.40243542
0000c0 72 6a 29 3f a6 9d 74 3f e4 48 81 3f 77 06 d3 3e
       0.6617805 0.9555305 1.010037 0.4121587
0000d0 9e af 4d 3f c5 54 a1 3e 66 c8 03 3f 14 b3 d9 bd
       0.80346096 0.31509987 0.5147766 -0.106298596
0000e0 63 43 02 3f 78 84 df bd 48 02 c7 3e 0c 28 a5 3f
       0.50884074 -0.10913938 0.38868928 1.2902846
0000f0 5b d5 85 3f f0 f0 12 3f b1 85 7c 3f 18 7a 09 3f
       1.0455736 0.5739889 0.98641497 0.53701925
000100 d7 78 ae be 3a 32 62 3d e2 a2 98 3e f6 00 20 3e
       -0.34076568 0.05522368 0.2981177 0.15625367
000110 6b 2a d0 3e 6b 8f 66 bd 38 ae 98 bd 33 0a f8 3d
       0.40657362 -0.056289118 -0.074551046 0.1211132
000120 5c ae 11 3f b2 ce 46 3e 53 6a fa 3e 9b 27 95 3e
       0.56906676 0.19414786 0.48909244 0.2913178
000130 1a 10 af be 14 98 a8 3e e9 1f 73 3c 93 16 ef 3d
       -0.34191972 0.32928526 0.014839151 0.116742276
000140 15 48 e1 3d a2 e8 c1 be e2 e4 a0 3e eb d4 03 3e
       0.11000077 -0.37872797 0.31424624 0.1287419
000150 3a bb f0 bd 47 96 38 bd 31 b3 2b be 3f 0e 32 be
       -0.11754461 -0.04506519 -0.16767575 -0.17388247
000160 70 6f 6a 3e fd 27 89 3d f2 38 a7 be 3c 23 e0 bc
       0.22894073 0.0669708 -0.32660633 -0.027360551
000170 96 c7 81 be 2a 69 9b bd fa f3 d5 3e fa 12 d9 3d
       -0.25347584 -0.07588418 0.41787702 0.105993226
000180 f4 20 fe 3e 9d b5 5b bd ad ea 9b bb e6 b4 90 ba
       0.49634516 -0.053639997 -0.0047582 -0.001104024
000190 37 84 51 bd 6c 07 87 3e be 19 21 3e e7 8f e8 3d
       -0.05115148 0.2637285 0.15732476 0.11355572
0001a0 64 2d 00 bc b3 18 49 3d e1 ed 9b 3d c4 54 34 3e
       -0.007823322 0.04909582 0.07613731 0.1761046
0001b0 f4 17 8e bd ab 94 55 bc ad 5b 29 3f 69 69 03 be
       -0.069381624 -0.0130359335 0.6615551 -0.1283318
0001c0 3e c5 87 be 83 40 af bd 55 8e a3 3d 13 17 94 be
       -0.2651767 -0.085572265 0.07986132 -0.28923854
0001d0 55 cc cb be 38 d4 e9 3d d6 5f ff 3d 67 e8 83 3e
       -0.3980433 0.11417431 0.12469451 0.25763246
0001e0 a3 6b c9 bc a6 01 47 3e f4 8c 67 be 05 7b 83 3e
       -0.024587458 0.19434223 -0.22612363 0.25679794
0001f0 5d d4 91 3e 7b cb e0 3e 4a 89 98 3c 85 98 0a 3f
       0.28482333 0.43905243 0.018620152 0.54138976
000200 81 c2 f2 bc 46 bc 41 3e d3 df 69 be a4 0c 41 3e
       -0.029633762 0.18919477 -0.22839288 0.18852478
000210 61 5e d2 3e 07 51 4c be 0f f8 16 be ec ce 81 3e
       0.4108763 -0.19952784 -0.14743064 0.2535318
000220 5e fa 06 3d 7c 3a 2f bd 38 0c a2 3d cb 67 ac be
       0.032953613 -0.042780384 0.07912487 -0.33672938
000230 d7 7d 1d bd a4 e6 38 be 69 eb 66 3e f3 ba c7 bd
       -0.03845009 -0.18056732 0.2255074 -0.097524546
000240 ab 2c 5a be 2b a1 7a 3c e7 30 a5 bc 73 58 bb 3d
       -0.21306102 0.0152972145 -0.02016492 0.0914773
000250 ee b7 ea 3d 98 e3 05 3d 12 1f f0 bd e2 1d 65 bc
       0.11460863 0.032687753 -0.11724676 -0.013984175
000260 14 f4 1a be 45 1b 0c bd 31 ba d3 bd 69 e9 8c bd
       -0.15132171 -0.034205694 -0.103382476 -0.06880457
000270 99 83 eb bd 2f 7c 90 bc 08 4c 88 be 49 47 1b 3e
       -0.1149971 -0.01763734 -0.26620507 0.15163912
000280 f7 9a 05 be b8 ed 2f 3c 29 c7 47 be ed 86 15 3d
       -0.13047396 0.010737829 -0.19509567 0.03650563
000290 94 48 11 3d d3 b1 8e 3d c7 25 03 3d a5 66 93 3d
       0.035469607 0.06967511 0.03201845 0.07197312
0002a0 0e 06 54 bd e1 5b b5 3a 1c ba d4 3d b4 2a bd bd
       -0.051763587 0.0013836586 0.1038706 -0.092366606
0002b0 2e 17 3c be ca 75 fa bd 60 0e cb bd d2 e6 a1 3d
       -0.18368217 -0.12229498 -0.09914851 0.079053536
0002c0 6f 73 a1 bc e3 0c ec 3d fd d5 84 be bf b6 87 bd
       -0.019708363 0.115258954 -0.2594451 -0.06626653
0002d0 b6 e4 41 be 4f 4b 87 3d 4b db 54 bb 22 f5 ee 3d
       -0.18934903 0.06606161 -0.0032479342 0.11667849
0002e0 ce a5 0d 3e f3 e8 31 3c 3b 87 a5 3c 6c d9 62 3d
       0.1383278 0.010858762 0.020206084 0.05538313
0002f0 b9 c1 86 3d 4d f5 0a bd f9 f5 83 bd 93 10 01 be
       0.065799184 -0.033925343 -0.064434 -0.12603979
000300 ff 61 f3 3e b3 25 e0 3e ce 83 0b 3f f7 d7 25 3f
       0.47535703 0.43778762 0.54497993 0.6478266
000310 91 64 a5 3d f3 69 0e 3f ca 97 4e 3f 06 55 6a 3e
       0.08075822 0.55630416 0.8070036 0.22883996
000320 45 1b 84 be cb 98 8a 3e 62 96 d7 3d e0 dc 7b be
       -0.25802055 0.27069697 0.1052673 -0.24595976
000330 5b a3 4b 3e a4 cf 6b be bb cc 10 3f 31 5e 35 3f
       0.19886534 -0.23028427 0.56562394 0.7084685
000340 6e 90 c6 bd fa ca 9a 3e 21 12 f0 bd 8d 5d 4d 3e
       -0.096955165 0.30232984 -0.11722208 0.20055218
000350 eb 95 03 3e a4 0a c6 bd e8 da 84 3c 48 26 2b 3f
       0.12850158 -0.09669998 0.016217664 0.6685529
000360 b7 ba e5 3c c6 31 a0 3d 89 78 1e be bd 89 83 3d
       0.028043134 0.078219935 -0.15475668 0.06422756
000370 43 57 62 3d 66 5f 16 3f 26 c4 b0 3e 32 f3 1b 3f
       0.055259 0.58739316 0.3452465 0.6091796
000380 3e 1a b2 3e 0d 75 17 3f ef 23 fe 3d a6 7d fb 3e
       0.34785646 0.5916298 0.124091975 0.491193
000390 eb 47 68 3e 57 ff d1 3e d2 d5 d2 bd 64 f9 cc bb
       0.22683685 0.4101512 -0.10294689 -0.0062553156
0003a0 06 c0 5d 3e 6e 83 b4 3e f5 21 01 3e c7 8f 9a 3e
       0.21655282 0.35256523 0.1261061 0.30187818
0003b0 4e 7d 34 3f db bf 9d 3e ba da f6 be 64 bf ad 3e
       0.705037 0.30810437 -0.4821375 0.33935082
0003c0 77 5e 67 3f 03 c4 12 3f 5b 3e 0b 3e 10 10 a1 3e
       0.90378517 0.5733034 0.13598005 0.31457567
0003d0 ae 2f dd 3d 2a 85 3c 3d 3b 52 86 3f 80 60 13 3e
       0.1080011 0.046025433 1.0493845 0.1439228
0003e0 69 0e 6f 3f 26 d0 8c be 07 cb d4 3e c4 21 02 3f
       0.93381363 -0.27502555 0.41561148 0.5083277
0003f0 d0 a7 99 3f 94 33 01 be a7 9e 8b 3e 81 d6 93 3e
       1.2004337 -0.12617332 0.2726948 0.2887459

lstm.weight_ih_l1 f4 [256, 64]
000000 0c d8 d2 be 03 9b 8d 3d eb 7d 4c 3e 36 7c 90 3e
       -0.41180456 0.06914332 0.19969909 0.28219765
000010 db 44 60 be f3 be 6d 3e ea 3c 1b 3e bb c7 06 be
       -0.21901266 0.23217373 0.15159956 -0.13162129
000020 21 d9 71 be fb da 55 3e 4f 3a b6 bb 48 9a ac bd
       -0.23617984 0.20884316 -0.00556115 -0.08427864
000030 53 bd a5 3e 63 56 2d bd 51 27 84 bd 2d f3 e3 be
       0.32371005 -0.042318713 -0.064528115 -0.44521466
000040 47 3d a3 3c c7 20 0a 3d e4 64 e2 bd 70 47 7a 3e
       0.01992668 0.033722665 -0.110543996 0.24441314
000050 6f 8d b3 bd c3 b0 86 3e ce 16 c3 bd fe ef 2a be
       -0.08767211 0.26306733 -0.09525834 -0.16693112
000060 fe 6d 88 3e 4e c4 f6 bd dc 12 de 3e c8 10 07 be
       0.26646417 -0.12049161 0.43373764 -0.13189995
000070 32 05 a6 be a0 aa 85 be bd fb e2 bb d0 e9 88 bd
       -0.3242584 -0.2610674 -0.006926982 -0.06685221
000080 bb 43 53 3e 13 48 12 3e b4 65 65 3e 75 9c 7d bd
       0.20631306 0.14285307 0.22402078 -0.061916787
000090 fc 80 01 3f 70 df 4e 3e f4 ac a7 be 3e 0f 6a 3e
       0.5058744 0.20202422 -0.3274914 0.22857377
0000a0 1e c9 b0 be d1 1d 58 3e 05 a9 8c 3e d0 2a 0b be
       -0.3452844 0.21105124 0.27472702 -0.1359055
0000b0 44 47 c0 3e b3 bf e8 3e 2a 69 0e be 15 ee 9c 3d
       0.3755437 0.45458755 -0.13907304 0.07662598
0000c0 d2 e0 68 3d 05 13 a6 3e 75 3d 88 be 6e f7 c3 bd
       0.05685503 0.32436386 -0.26609388 -0.09568678
0000d0 8e 07 f6 be 95 a2 34 3d bd 75 47 3d 9a 4c 0f 3e
       -0.4805264 0.044100363 0.04869627 0.13994065
0000e0 2c 46 1d 3c 90 7a 22 be 67 fe 72 3d 54 a1 ac be
       0.00959925 -0.15867066 0.05932465 -0.33716834
0000f0 ad 77 f8 3d 10 86 74 3e a6 80 89 3e 73 61 ad 3d
       0.12132201 0.23879266 0.26855963 0.084658526
000100 e9 2c 30 3e 25 b7 cd 3e a6 52 78 be 06 54 5a 3f
       0.17204632 0.4017879 -0.24250278 0.8528446
000110 bd 2e 92 3d ec f3 95 ba 81 66 d0 be fc a3 be be
       0.07137821 -0.0011440492 -0.40703204 -0.37234485
000120 78 50 5d be 35 90 e6 bd 4e 9f dc be 5e bc be bc
       -0.21612728 -0.11257974 -0.4309029 -0.02328318
000130 f3 f7 03 bf a1 51 17 3f e3 4e aa 3e ee d4 de be
       -0.51550215 0.5910893 0.3326331 -0.43521827
000140 39 6c c9 3c 78 a5 0d bf ba e9 6a 3e 75 20 ad 3e
       0.024587737 -0.5533061 0.22940722 0.33813825
000150 6c 5f 07 3f 23 db 93 3e cb d1 98 be 15 1c 36 3d
       0.5287998 0.28878126 -0.2984756 0.044460375
000160 0c 23 85 be c1 88 d2 3d 48 f2 2c 3f 66 47 8a be
       -0.260033 0.1027999 0.6755719 -0.27007598
000170 64 fa 68 3e c9 0a 0c 3e f4 65 ba 3d 47 76 37 be
       0.22751766 0.13675989 0.09101477 -0.17916213
000180 a3 9a 6c 3d 18 af 0d 3e 13 14 aa bd cb f8 d1 3e
       0.05776466 0.13836324 -0.0830461 0.41010126
000190 fc 17 a1 be 80 da d6 be 1c f5 fe be ef 67 22 be
       -0.3146361 -0.41963577 -0.4979638 -0.1585996
0001a0 12 3b ba be b1 1a 24 bc fd 75 ef 3e 03 3c 1d 3e
       -0.36373192 -0.010016129 0.46769705 0.15354924
0001b0 f9 ab 1c 3e a8 ba 42 be 93 69 f9 3e 9f f8 1d 3c
       0.15299977 -0.19016516 0.4871336 0.009641795
0001c0 51 ae 7c be 5d 46 39 be bd 52 8a be 75 46 d7 be
       -0.24675871 -0.18093248 -0.2701625 -0.42045942
0001d0 ae 5b ac be 47 b4 70 3c 6a 76 04 bf 78 04 13 3d
       -0.33663696 0.014691419 -0.51743186 0.035892934
0001e0 48 d5 1f 3e 4e b9 2f be d7 76 07 bd 2a 1d 7e be
       0.15608704 -0.17160532 -0.03307232 -0.24815813
0001f0 56 8a 03 3f d5 34 04 3f 85 8d 37 3e 07 72 39 3e
       0.5138296 0.51643115 0.17925079 0.18109904
000200 24 88 9c be 09 38 45 3c 4f 30 8e be 30 15 fb bd
       -0.30572617 0.012037286 -0.27771232 -0.122599006
000210 76 db ba 3d d5 73 a3 3d f0 08 83 bc 41 ee 45 3e
       0.0912389 0.079810776 -0.015995473 0.19329168
000220 a2 45 be 3e b9 cc 22 3d f6 3d 95 bd 1f d1 6d be
       0.371625 0.03974602 -0.07287209 -0.23224305
000230 a7 23 3f 3c 83 d5 43 3f e7 d5 5b 3b ea 9f 18 3a
       0.011666215 0.7649767 0.0033544244 0.0005822169
000240 c5 9d 7d 3c 48 36 bf 3e 91 41 16 be a7 36 50 be
       0.01547951 0.373461 -0.14673449 -0.20333348
000250 be 8e 9b 3e 6f ec 29 bf e0 53 dc 3e e7 0c 98 bd
       0.3038234 -0.66376394 0.43032742 -0.07424336
000260 97 eb 90 bd d7 a9 24 be 8b 2e 19 be a5 7d e7 bd
       -0.07076185 -0.16080414 -0.14959161 -0.11303262
000270 57 21 2f 3f 41 b7 3c 3e 68 7f 9c bd 56 c9 d8 bd
       0.6841025 0.18429281 -0.07641488 -0.10585277
000280 89 0c 2d be cb c6 1f 3c f8 18 33 bd 88 68 5d be
       -0.16899313 0.009751986 -0.043724984 -0.21621907
000290 70 b0 0d bf f6 36 6d 3c 19 29 4d be 14 90 c7 bd
       -0.5534735 0.014478436 -0.20035209 -0.097442776
0002a0 d2 ca c5 be bb 94 50 be 9e 1c ba 3e e2 e6 e2 3d
       -0.38631302 -0.20369236 0.36349958 0.11079194
0002b0 0e c9 09 3d 3e 9a 5a be d8 88 26 3d 82 92 15 be
       0.033639006 -0.21347901 0.040657848 -0.1460667
0002c0 fc f6 98 3e fd 4f 8c be 1b 2f 63 3e bd 1b c6 3c
       0.29875934 -0.27404776 0.22185938 0.024183149
0002d0 44 44 e4 bd a1 bb 3f 3e da e1 04 bd d3 2b 55 3e
       -0.11145833 0.18723918 -0.03244195 0.20817499
0002e0 b7 4e 2f 3e ee 66 55 3e 3a cf 0c 3e 4c cf 79 3e
       0.17119871 0.20840046 0.13750926 0.24395484
0002f0 8e 05 ab be fc 7b c1 3e ea 47 b8 3e c4 ca 01 bd
       -0.33402675 0.37789905 0.35992366 -0.031687513
000300 45 5c a1 3e e6 72 ef bc 67 53 0d 3f e2 25 84 3d
       0.3151571 -0.029229593 0.55205387 0.06452538
000310 51 71 9b be 00 fb 8d bd 8d 59 44 3f 7e 02 bf 3e
       -0.3035989 -0.0693264 0.76699144 0.3730659
000320 38 09 80 3e 45 65 8f 3c 8c a2 64 3e 41 35 9c be
       0.25007033 0.017504344 0.22327632 -0.3050938
000330 01 8c 20 be 6b 54 14 3e 02 36 27 be 02 b1 88 3d
       -0.15678407 0.14485328 -0.16329196 0.066743866
000340 33 12 22 be 13 07 87 3e 1b dc 36 3e fa d9 78 be
       -0.15827255 0.26372585 0.17857401 -0.24301901
000350 f1 0c 50 3f e8 18 8b be e9 a3 f5 3e a8 23 a4 3e
       0.81269747 -0.2716744 0.47976616 0.32058454
000360 14 26 ab 3d cf 1b b9 3c 0c 9f ba 3e 04 27 9f 3f
       0.08356872 0.022596268 0.36449468 1.2433782
000370 b6 de 66 3e 3b 86 57 3e 49 6a f1 bc 16 c9 45 be
       0.22545895 0.21047299 -0.029469626 -0.1931499
000380 6a b6 d6 be f8 f4 f1 bd cc af 74 3e 30 4d 53 3e
       -0.41936046 -0.11814302 0.23895186 0.20634913
000390 b4 dd eb 3e 98 f8 56 3f 6a 21 2a 3d 5b 0d fc be
       0.46067584 0.83973074 0.041535772 -0.4922894
0003a0 6b 75 70 be 22 e7 eb be 69 e5 3e be 66 0b 3a 3d
       -0.23482291 -0.46074778 -0.186422 0.045421027
0003b0 d5 9d 10 be d5 cb c9 bd a3 85 c2 bd f9 0f 27 3e
       -0.14122708 -0.09853331 -0.094981454 0.16314687
0003c0 55 4c e7 3e 93 45 e2 bd 28 94 29 3e ff 19 96 3f
       0.45175424 -0.110484265 0.16560423 1.1726683
0003d0 24 3a a0 3d b9 f5 78 be 9a 0e 5e 3e 18 44 da 3c
       0.078235894 -0.24312486 0.21685258 0.026643798
0003e0 98 13 20 bc 4c 09 29 3e f3 11 e1 3d dd ec 03 3e
       -0.0097702965 0.16507453 0.10989752 0.12883325
0003f0 c9 05 50 bf ee 07 48 3b 62 4c b4 3e 1e 45 19 3c
       -0.8125883 0.0030522305 0.35214525 0.009354858

lstm.weight_hh_l1 f4 [256, 64]
000000 10 72 55 3f 8e 0a 9c 3e c2 d6 c6 3e 8d b4 51 3e
       0.8337717 0.30476803 0.38835722 0.20479031
000010 c6 94 66 bd e9 57 4e 3f 1c 5d 2e 3c 02 63 9d be
       -0.056294225 0.8060289 0.010642316 -0.307396
000020 0d e7 d0 be 0a 5c 34 bf 1d 1c d3 be 8b b5 64 bf
       -0.40801278 -0.7045294 -0.41232386 -0.8933951
000030 67 a6 24 3f 08 1c af be 6d ee 2a 3f 52 b1 9b bf
       0.6431641 -0.34201074 0.6677006 -1.2163489
000040 cb 8e 34 be f3 db a4 bd f7 79 17 bd 98 0b 29 bf
       -0.17632596 -0.080497645 -0.03698155 -0.66033316
000050 09 ea c6 3e 71 3d 88 be 6b 81 74 be d2 ed df 3f
       0.3885043 -0.26609376 -0.23877494 1.7494452
000060 2d a5 5e bf fb 96 39 3e b3 1f 57 be 00 02 ab ba
       -0.8697079 0.18124 -0.21008186 -0.0013046861
000070 75 b0 e4 bc ec 0a 18 bf 5f eb dd be 97 13 90 3f
       -0.027916173 -0.59391665 -0.43343636 1.1255978
000080 63 5a fe 3e cb cf 82 be d9 ae 74 bf a7 29 23 3e
       0.49678335 -0.25549158 -0.95579296 0.15933858
000090 6b 59 bf 3e 39 a5 62 bf 42 7e 11 bf fe 25 8d 3f
       0.37372908 -0.8853336 -0.5683328 1.1027219
0000a0 2c d4 bf 3d 62 f6 97 bf db 69 9d bd 98 88 66 3f
       0.093666404 -1.1872065 -0.07686206 0.90052176
0000b0 33 4d 84 3e 4a 49 b3 3e e0 d9 61 3f 85 22 ee 3e
       0.25840148 0.35016853 0.88223076 0.4651071
0000c0 2e 70 06 bf 67 d1 a8 3f 7c 8a c3 be fc 5a 38 bf
       -0.5251492 1.3188905 -0.38191593 -0.7201383
0000d0 aa 2b 53 bf 12 fa 41 3f 7c cd ae 3e ab c5 67 3f
       -0.824885 0.757722 0.34141147 0.9053599
0000e0 74 5e 4a 3f d4 50 32 3e da 2c 48 3f 5a ad 18 3f
       0.79050374 0.17413646 0.7819344 0.59639513
0000f0 17 d3 85 3f 7c e4 49 3f ca e1 7b 3e 89 1d aa bf
       1.0455045 0.78864264 0.2459785 -1.3290263
000100 b0 4a 97 bf 88 6c b1 bb ff 43 cc 3e 6f dd 21 3e
       -1.1819668 -0.0054145493 0.39895627 0.15807126
000110 da bc d2 be db e3 8e bf 36 28 99 bf 24 44 aa 3d
       -0.41159707 -1.1163286 -1.1965396 0.08313778
000120 e7 fb 19 bf e7 80 22 bd 44 63 9c bf 1c 85 91 3e
       -0.6015 -0.039673712 -1.2217793 0.28421867
000130 33 65 3b bf 0c b0 8a 3f 76 9d 68 be f7 3b 4f be
       -0.7320129 1.0834975 -0.22716317 -0.20237719
000140 93 b6 d9 be 6a d5 95 3f 30 8f f3 be 5e 7b e1 bd
       -0.42522106 1.1705754 -0.4757018 -0.110098585
000150 b6 08 6c be bb e7 b8 3e 23 52 86 3e 54 db cf 3e
       -0.23050198 0.36114296 0.2623454 0.40597022
000160 8e 1f 9d 3f 50 9f 94 3f db 5e c2 be 1f 51 ef be
       1.2275255 1.1611118 -0.37962994 -0.46741578
000170 bd 56 ce 3d ea f6 b3 3f 49 46 8f bc 4d e6 8e bf
       0.10075138 1.4059727 -0.01748957 -1.1164032
000180 3b 23 ef 3e 66 c2 7e 3e 82 6f d7 3e 34 c3 1b c0
       0.46706566 0.24878845 0.4207726 -2.4337893
000190 4c 3e 6c 3e 3a 88 0a 3f 4f 70 b3 3e 8e b2 52 3f
       0.2307064 0.54114115 0.35046622 0.823037
0001a0 70 8f 8b 3f 30 b0 8b 3f f3 72 57 3a 4b 3d f6 3e
       1.0903149 1.0913143 0.0008218728 0.48093638
0001b0 5a 53 c7 3f 50 de 59 be 63 cb 66 bd bc a9 b6 3f
       1.5572312 -0.21276212 -0.05634631 1.4270549
0001c0 d1 dd 63 be 3a 4b 06 3f e2 16 8f bf 05 42 f4 be
       -0.22252585 0.52458537 -1.1178858 -0.4770662
0001d0 1c 8b ff bd 37 6a 4b 3f 93 e5 66 3d 2c af d4 bf
       -0.12477705 0.79458946 0.056371283 -1.6615958
0001e0 10 0a 50 bf 8b 33 04 be 50 99 bb bd 4d 46 93 3d
       -0.81265354 -0.12910287 -0.091601014 0.07191143
0001f0 f9 56 89 be 7f a3 b7 bf 1f fe c1 bf 75 94 13 c0
       -0.26824167 -1.434677 -1.5155677 -2.305936
000200 89 18 25 3f 24 57 a0 bd 08 4a 95 3e 9e 72 21 3b
       0.6449056 -0.07829121 0.29158044 0.0024634968
000210 bc f3 b3 be ee 24 ac 3e 4d 74 14 3f 88 c5 42 bf
       -0.35146892 0.33621925 0.5798996 -0.7608266
000220 60 d6 81 3c 98 8a 0d 3f 5d 34 8b 3f de 02 be 3e
       0.015849292 0.552896 1.0875355 0.37111562
000230 fb 38 9b be 20 8d 92 3e 50 21 28 3e 00 88 b9 be
       -0.3031691 0.28623295 0.16418958 -0.36236572
000240 cc 66 ae 3e 06 db 77 3e 10 01 a9 be 0b 74 b2 3e
       0.34062803 0.24204645 -0.33008623 0.3485416
000250 44 28 aa 3d 4c 92 60 be 4c 03 4b 3e f7 14 aa be
       0.08308461 -0.21930808 0.19825476 -0.3321912
000260 8b 5f 62 bc 7f 5c 48 3f 09 08 86 bf 0f 7c 2d bf
       -0.0138167245 0.7826614 -1.0471202 -0.67767423
000270 49 52 f0 be db c9 0a bf ec 66 b6 be 02 23 94 bd
       -0.4693778 -0.54214257 -0.35625398 -0.0723324
000280 80 9c 05 3f 84 3b 76 bf 68 ba 5c 3f e5 bc 09 3f
       0.52191925 -0.96184564 0.86221933 0.53803855
000290 b1 e9 b6 3e 19 0d 9f 3d f2 a4 45 3f 97 e3 54 bf
       0.35725167 0.0776617 0.7720481 -0.83159775
0002a0 08 88 f4 be 8a 70 ba 3e cd e9 80 bf f0 33 1d c0
       -0.47760034 0.36413985 -1.007135 -2.456295
0002b0 14 a6 39 bf 7d 6f 0b bf fd 35 e2 3e 45 47 13 bf
       -0.7251904 -0.5446699 0.44181815 -0.57530624
0002c0 00 a3 02 be 27 4f 98 be e8 61 d9 be 03 3b 3d 3f
       -0.12757492 -0.29747888 -0.4245751 0.7391817
0002d0 64 ee 93 be 80 c9 45 be 2a 68 1a 3c f2 69 34 be
       -0.28892815 -0.19315147 0.009424249 -0.1761854
0002e0 81 ba c5 be 91 5c 0a c0 3b 55 c1 3c b0 0a bf 3e
       -0.38618854 -2.1618998 0.023600211 0.3731284
0002f0 a5 96 94 bb 8e fa 62 be 3a ed 12 bf 4d 7a 82 be
       -0.00453456 -0.22165892 -0.5739323 -0.25483933
000300 29 29 ea bf dd 23 6b 3f 03 d2 62 bf 1d 4a fd 3e
       -1.8293811 0.918516 -0.886017 0.49470606
000310 7f 99 7b bf 4e 8d 83 bf 20 8d dc bd 18 08 58 be
       -0.9828109 -1.0277498 -0.10769105 -0.21096838
000320 cf e9 7d 3f a9 89 e5 3f ff 0a 26 40 bf 4b 16 3e
       0.9918489 1.7932636 2.5944211 0.14677332
000330 80 3f 1f be 99 d1 8a 3f 58 34 31 3e b0 90 2d 3e
       -0.15551567 1.0845214 0.17305124 0.16949725
000340 e1 51 32 bf 0f c7 41 bf 2f 45 84 3f 6e 93 c5 bf
       -0.6965619 -0.75694364 1.0333613 -1.5435617
000350 db 08 1e bf 85 f0 28 bf 37 e6 99 be 58 10 38 3e
       -0.6173226 -0.65992004 -0.30058452 0.17974985
000360 d9 d0 0f bf b6 c2 a8 bf 9e 1f 6b 3f 9d 1e fa bf
       -0.5617805 -1.3184421 0.9184512 -1.9540592
000370 41 62 10 3f c6 d3 8b be 85 c6 b9 be f7 b4 68 3d
       0.56399924 -0.27310008 -0.3628427 0.056813207
000380 d9 c8 0e bf 7d d6 95 3f d2 b0 c7 3e 56 ae 88 bf
       -0.5577522 1.1706082 0.3900209 -1.0678203
000390 83 a1 82 3e e3 d2 8c bf 3d 1b 07 3d 60 54 7c be
       0.2551385 -1.1001858 0.03298496 -0.24641562
0003a0 a7 a5 22 be 49 82 26 bf af b5 2e c0 1c ab af 3e
       -0.15883504 -0.6504255 -2.729839 0.34310234
0003b0 d1 8e 6a c0 b5 42 46 3f 37 c0 56 bf b5 da 0e bf
       -3.6649668 0.77445537 -0.83887047 -0.5580247
0003c0 11 92 a5 bf ab 2a 8e 3f 0f 76 07 3f 14 b5 6f 3f
       -1.2935201 1.1106771 0.5291452 0.9363568
0003d0 50 a2 a6 be 04 29 43 bf f7 ea 46 bf 0e 28 4e 3f
       -0.3254571 -0.7623446 -0.7770228 0.8052987
0003e0 55 36 06 bf 47 7e f7 be e4 a9 08 3f 1d 23 a4 3e
       -0.52426654 -0.4833853 0.5338423 0.3205804
0003f0 de d5 0b 3e bd 14 e4 3f 91 01 02 c0 9b 3f 50 3f
       0.13655803 1.7818829 -2.0313456 0.81347054

lstm.bias_ih_l1 f4 [256]
000000 b4 e2 92 3f 14 79 58 3f 30 e4 8a 3e 73 7e 82 bd
       1.1475434 0.8455975 0.27127218 -0.063717745
000010 53 1a a6 3e 6b 03 b7 be b8 ad 2e 3e 96 a8 02 be
       0.3244196 -0.35744795 0.17058456 -0.12759623
000020 b7 78 29 bf c9 11 77 bd be 40 1e 3f de 3e 86 be
       -0.6619982 -0.060319696 0.6181754 -0.2621984
000030 f1 97 fd 3e df c1 10 3f 9b 9c 3a 3f e2 4b 60 3f
       0.49529985 0.56545824 0.7289521 0.8761579
000040 f4 57 d9 3e 36 3d 80 3e f2 f1 08 3f fa f6 ef 3e
       0.42449915 0.250467 0.5349418 0.46868116
000050 e5 20 70 3d 1a 71 9c 3d 36 6f 15 3e 9f 90 50 3e
       0.05862512 0.0763876 0.14593205 0.20367669
000060 b5 12 5e 3e 57 52 de be 91 e8 76 be 0a ee 53 3f
       0.21686824 -0.43422195 -0.24112155 0.82785094
000070 f4 dc 6e 3f 6f 40 34 3e 07 a1 8f 3f d2 70 6f be
       0.933059 0.17602704 1.1221017 -0.23382881
000080 ba cb a2 3e a5 3d 4b 3f b6 bf 70 3f 11 4f 51 bf
       0.31796056 0.7939094 0.9404253 -0.8176127
000090 b1 01 28 3e 61 c7 3b be 6d 2c c0 be a0 e4 c9 3f
       0.16406895 -0.18337776 -0.37533894 1.5772896
0000a0 28 12 21 be f5 c2 2c 3f 48 fe c6 3e 01 1e 16 3f
       -0.15729582 0.6748498 0.38865876 0.5863953
0000b0 3f 4d e3 3f fd 46 6b 3f c2 8e 28 bf 20 b5 8d 3e
       1.7757949 0.91905195 -0.6584283 0.2767725
0000c0 8d 4e 29 bf a1 0a d7 3d 6f cb ad 3e 84 ec 80 3e
       -0.66135484 0.10500074 0.3394427 0.25180447
0000d0 3b 02 09 3c 20 07 a7 be 08 d4 33 3f 83 a0 1b 3f
       0.008362348 -0.32622623 0.7024541 0.60791796
0000e0 9f f6 81 3e b5 fa 12 3f c8 72 78 3f d9 65 17 bf
       0.2538347 0.574138 0.9705014 -0.5913978
0000f0 9c 60 be bd 92 2e 96 3f d8 b4 a1 3e 34 d2 97 be
       -0.092957705 1.1732962 0.31583285 -0.2965256
000100 2b 5b 49 bf 07 fc 85 be d3 85 79 bf 14 9a 47 be
       -0.78654736 -0.26168844 -0.97469825 -0.1949237
000110 b0 28 f1 3c 43 7b bd 3e 9f 89 0d bf ea 33 cf be
       0.029438347 0.37008104 -0.5528812 -0.40469295
000120 ce 37 b5 be e3 1d 8e be d9 e9 11 3f fb 5c d0 be
       -0.35394138 -0.27757177 0.5699745 -0.40695938
000130 71 26 27 be e9 b0 c4 3e 7d f9 47 bf e9 47 0e bf
       -0.16323258 0.38416222 -0.78115064 -0.55578476
000140 21 60 1d 3f aa 82 06 bf e1 6d f8 3e 6b a0 7d be
       0.61474806 -0.5254313 0.4852133 -0.24768226
000150 9c 41 c4 3e 43 ff 00 bf 6f 9b 08 bf 55 88 6f be
       0.38331306 -0.503895 -0.5336217 -0.2339185
000160 a7 63 8f 3e 8a 41 31 bf 1b 04 5c bf a6 ca ab bf
       0.28005716 -0.6924063 -0.85943764 -1.3421218
000170 8e 08 49 bf 71 35 8c bf d9 e6 30 bf 68 02 89 3d
       -0.7852868 -1.0953809 -0.69102246 0.06689912
000180 ad 18 29 3d b1 ee fd be 5b cd 5b bd aa c8 d8 3e
       0.0412833 -0.4959617 -0.05366264 0.42340595
000190 0b dc 36 bf 65 70 a1 3d 33 ff 21 bf 78 6a 30 3e
       -0.7142951 0.07882766 -0.6328003 0.17228115
0001a0 ea 99 31 bf 7d ca 09 bd 87 d0 9b 3e e7 66 3e be
       -0.6937548 -0.033640373 0.3043253 -0.18593942
0001b0 7f d6 aa 3e f1 9a a9 bd d6 f1 b5 3e ef e0 2a 3f
       0.33366773 -0.08281506 0.3553607 0.6674947
0001c0 13 c0 8b bd 2d 50 6b bf f7 d4 6d 3d 19 b2 25 3e
       -0.068237446 -0.91919214 0.058064427 0.1618122
0001d0 4b 96 2f bf 57 c6 35 be d7 53 d6 3d 91 72 96 be
       -0.68588704 -0.17751442 0.1046521 -0.29384282
0001e0 d7 f1 00 bf 73 3c cc bc 7a fd 5c 3f f5 dd fc be
       -0.5036902 -0.024931168 0.86324275 -0.4938809
0001f0 f0 7c d4 3e 79 10 96 3e 80 4c 5e 3f 71 e8 6e bf
       0.4150157 0.29309443 0.8683548 -0.9332343
000200 f4 ea f8 bd 3a 80 f3 bd 37 a8 0f 3e a0 74 6b be
       -0.12154189 -0.11889692 0.14029013 -0.22993708
000210 ce a6 b8 3c a4 f2 07 bf b3 ef 22 3e f2 09 0f be
       0.022540476 -0.53104615 0.1591175 -0.13968638
000220 93 fe 69 be fe ac 0b 3d 6b ee a3 bd e7 6e 72 3e
       -0.22851019 0.034100525 -0.08004459 0.23675118
000230 5b 94 2f be 59 47 20 3e 70 66 4f be 67 ec 0b 3d
       -0.17146437 0.15652217 -0.2025392 0.034160998
000240 9e 24 09 3f de 10 ac bd da 2c b9 bd 8a d7 f1 bd
       0.535715 -0.08401655 -0.09041758 -0.11808689
000250 24 f7 95 3e e1 8f 13 be 17 3d 93 3c 48 35 38 bb
       0.29290116 -0.14410354 0.017973466 -0.002810793
000260 e2 24 74 be e0 8f 93 3c 25 d0 12 3e 2a ee 28 3f
       -0.23842195 0.01801294 0.14337213 0.6598841
000270 0c 40 cd 3e 7a a6 97 3e da e1 cf 3d a8 c5 c4 bd
       0.40087926 0.296192 0.101505 -0.096080124
000280 eb 63 1e bc e7 de 9b 3e 31 76 c3 3d 91 90 82 3e
       -0.009667377 0.30443498 0.095440276 0.2550092
000290 b8 f6 11 bd 6c d4 23 3c 82 2b 33 be 72 c9 aa 3d
       -0.03563568 0.009999376 -0.17497066 0.08339204
0002a0 39 93 af 3e e9 91 91 bc 26 ae 4a be 7c a7 83 be
       0.3429201 -0.01776977 -0.19792995 -0.25713718
0002b0 c4 b5 f8 3d f6 63 c9 be ef 82 0e bf 40 19 92 bb
       0.12144044 -0.39334077 -0.5566854 -0.0044585764
0002c0 5a 9b c2 bc 40 ff 7d 3e df 58 32 bd fd c0 17 be
       -0.023755718 0.24804401 -0.043541785 -0.14819713
0002d0 02 6b a8 bc 6a 5a 06 bf 52 49 07 3f dc 35 8c 3e
       -0.020558838 -0.5248171 0.5284625 0.2738484
0002e0 3e da 82 3e 19 4b f4 3d fc 6f 2c be f8 e0 18 3e
       0.2555713 0.11928386 -0.16839594 0.14929569
0002f0 cc 3d 84 3e 91 3f 25 3f 11 56 99 be 77 b6 78 3e
       0.25828397 0.6455012 -0.29948476 0.24288355
000300 90 2c a6 3e 18 4a 0d 3e dc 24 05 3c fe 05 16 bf
       0.32455873 0.13797796 0.008126464 -0.58602893
000310 c5 85 4a 3e dd 67 5f 3f 17 3f 2d 3e be 1d cf 3e
       0.19777592 0.8726786 0.16918598 0.4045238
000320 50 e8 95 3e db 51 81 bd 38 7a 9c be f4 6c 45 3f
       0.29278803 -0.06314441 -0.30561996 0.77119374
000330 ec e4 4e 3f c7 57 e0 be 60 92 d0 3f d4 ad 00 3f
       0.8081806 -0.4381697 1.629467 0.5026524
000340 81 ba 90 3e 49 dc 3c bf 35 d8 6f 3e ce d2 a1 be
       0.2826729 -0.7377363 0.2342232 -0.31606144
000350 4e c4 94 be d8 66 10 3f b5 b5 1a bf 63 9f da be
       -0.2905602 0.5640693 -0.6043351 -0.42699727
000360 c5 4b bd 3d 5e 5b 0b be cf 17 2d 3e 5e f2 3a 3f
       0.092429675 -0.13609073 0.16903614 0.7302607
000370 ac 52 27 3f 7a e8 24 3f b4 22 84 3f ee b4 10 3e
       0.6536052 0.6441723 1.032309 0.14131519
000380 ef 45 a6 be d9 02 93 3f 6d 2d 3b bf 6f 87 df 3e
       -0.3247523 1.1485244 -0.7311619 0.43658015
000390 dd 0d c8 3f 4c 12 a2 3d 26 64 9d bd af f3 66 3d
       1.5629231 0.07913646 -0.076851174 0.05638474
0003a0 1b fc ac be 03 d5 bd 3c f3 aa ca bf ea f3 2c 3e
       -0.3378609 0.023172861 -1.583342 0.16889921
0003b0 b3 eb 81 3e 1e 98 93 3e a0 65 47 3e 82 05 3e be
       0.25375137 0.28826994 0.1947236 -0.18556789
0003c0 8d fd 3c 3f d5 1a 64 3e a1 ad 4b 3e c0 6c a1 3e
       0.7382439 0.2227586 0.19890453 0.31528282
0003d0 6a 64 22 3f c5 b4 4c bf da 51 40 be c4 02 89 3e
       0.6343447 -0.7996333 -0.18781224 0.26759923
0003e0 a7 bc e6 3e 21 26 7d bf 7e c2 7a be 52 eb d7 3e
       0.45065805 -0.98886305 -0.24488255 0.42171723
0003f0 46 c8 c5 3c 45 6a b1 be f3 75 b4 be 0f c8 2b 3f
       0.02414335 -0.3465139 -0.35246238 0.6710214
