model/epoch_11053.pth (torch_old, 327526 bytes, 10 tensors)

lstm.weight_ih_l0 f4 [256, 20]
0	0x3d5aa79c	0.0533825
1	0x407deb07	3.96747
2	0x407cfc26	3.95289
3	0x3f0861c2	0.53274167
4	0xbea595bd	-0.32340804
5	0x3f08cd25	0.53438026
6	0x409c79e5	4.8898797
7	0x3f46690a	0.77504027
8	0xbdcceaee	-0.10005747
9	0x3f2532c5	0.64530593
10	0x3dd393ea	0.10330947
11	0xbf55457b	-0.83309144
12	0x3ec08218	0.37599254
13	0xc02927af	-2.643047
14	0x3f7a62d3	0.97807044
15	0xbe5d8b12	-0.21635082
16	0x40a312be	5.096038
17	0x3e61a899	0.22036971
18	0x40e38168	7.1095467
19	0xc035b42e	-2.8391223
20	0xbf00f8b7	-0.5037951
21	0xbfb10449	-1.3829433
22	0x3d5b7b0a	0.053584136
23	0x3e2cfb26	0.1689268
24	0x3fcd7f15	1.6054407
25	0x3d8755d8	0.0660817
26	0xbf59126c	-0.84793735
27	0xbfa19552	-1.2623694
28	0x40358fb1	2.8368952
29	0x407b064c	3.9222593
30	0x3f312a2c	0.69204974
31	0xbde9f73c	-0.11424109
32	0x3fd08ed8	1.6293592
33	0xbf4dd0b3	-0.80396575
34	0xbe5eb068	-0.21746981
35	0x3efdfd93	0.49607524
36	0xbf353bbc	-0.7079427
37	0xc09c83e1	-4.8910985
38	0x40268923	2.6021202
39	0xbf21e517	-0.6324019
40	0x3f0c27b1	0.54748064
41	0x3f806334	1.0030274
42	0xbe856d41	-0.26059917
43	0x401de73e	2.467239
44	0xbfb86d98	-1.4408445
45	0x3dbb211d	0.09137175
46	0x3eb106ad	0.34575406
47	0x3ee2b0df	0.44275567
48	0x410e170a	8.880625
49	0x3f1938a5	0.5985206
50	0xbfcfdd64	-1.6239438
51	0xbf402996	-0.75063455
52	0x40083a47	2.128557
53	0x400258c2	2.0366673
54	0xbf1459c8	-0.57949495
55	0x40861297	4.1897693
56	0xc0158028	-2.335947
57	0xbd845c45	-0.064629115
58	0xc0587bbf	-3.3825529
59	0x40105d82	2.2557073
60	0x4017e1d2	2.373158
61	0x406c70d4	3.6943865
62	0xbfbca42e	-1.4737604
63	0x3faa4a49	1.330392
64	0x3edc7078	0.43054557
65	0x3e19f69c	0.1503548
66	0x3f989863	1.1921505
67	0xbf5879dd	-0.8456095
68	0xc04bccc3	-3.1843727
69	0x40d07a03	6.514894
70	0xbe9e59d4	-0.30927908
71	0xbe7f099d	-0.24906011
72	0x3e9a2a54	0.3011042
73	0xbf1ccc1c	-0.61248946
74	0x41145855	9.271565
75	0xbe8269e1	-0.25471404
76	0x3f924e84	1.1430211
77	0x3fb4976d	1.4108711
78	0xbfb1cc37	-1.3890446
79	0x3f2b6db3	0.6696426
80	0xbf07a8c2	-0.5299188
81	0xc04466dc	-3.068778
82	0x400995a1	2.1497576
83	0x3f00dfe6	0.5034164
84	0x3e09f0ea	0.13470808
85	0x3fc41454	1.5318704
86	0xbecd3887	-0.4008219
87	0xbf831969	-1.024213
88	0xbdd2dee8	-0.10296422
89	0x3e671501	0.22566606
90	0x3fd73e0d	1.6815811
91	0xbf83af4e	-1.0287874
92	0x40717951	3.7730296
93	0x408b6747	4.356357
94	0x413e8acc	11.908886
95	0xbefb386f	-0.49066493
96	0x40530d4d	3.2976868
97	0x3f9fd9cc	1.2488341
98	0x40cd6ea4	6.419756
99	0xbf1f7c8a	-0.62299407
100	0x3f2399a4	0.6390631
101	0x4098b513	4.772104
102	0xbfa32d38	-1.2748175
103	0x40500d5a	3.250815
104	0xbf02b0ea	-0.510512
105	0x3f707215	0.93924075
106	0xc007e4d6	-2.123342
107	0x410125cc	8.071728
108	0x3fc15ec3	1.5107044
109	0x401702d7	2.3595483
110	0xbf96376c	-1.1735663
111	0xbec4e9a1	-0.38459495
112	0x3fd61bf1	1.6727277
113	0xbf504f7d	-0.8137129
114	0xc01d2d53	-2.4558914
115	0x40146944	2.318925
116	0xbf5da3ca	-0.8657805
117	0xbebaeb26	-0.3650753
118	0x3e7acf35	0.24493106
119	0xbe4bc85b	-0.19900648
120	0xc01f0e05	-2.4852307
121	0x40c90295	6.281565
122	0x40b9bf29	5.804585
123	0xbf2108fd	-0.6290434
124	0xbf3b8209	-0.7324529
125	0x3f1af9a5	0.6053718
126	0x3fc41680	1.5319366
127	0x4013ffe4	2.3124933
128	0x40280bec	2.6257277
129	0x3fae27de	1.3605917
130	0x3f8c7ac0	1.097496
131	0xbf082c24	-0.53192353
132	0x3f0935be	0.5359763
133	0xbeecbca1	-0.46237662
134	0x3e42d467	0.19026338
135	0x3f13c4b1	0.57722
136	0x409b0ff5	4.845698
137	0x408c60e2	4.3868265
138	0x3fcc5796	1.5964229
139	0xbf67e2d4	-0.9058049
140	0xc00b97a7	-2.1811311
141	0xbf793f0c	-0.97361827
142	0x3fae6ae8	1.3626375
143	0xbffec24a	-1.9903042
144	0x40a57d6b	5.17156
145	0xbe2b60b9	-0.16736116
146	0x400c3ea9	2.1913245
147	0x40211179	2.5166914
148	0xc08320c9	-4.097752
149	0x3fbb6eba	1.4643166
150	0xbf931c1b	-1.1492952
151	0xbfddfba6	-1.7342422
152	0x3f6c49ee	0.9230031
153	0x405331a6	3.2999053
154	0x41053a11	8.326676
155	0x400b05a5	2.1722195
156	0x3f141dee	0.5785817
157	0xbf672c4f	-0.90301985
158	0xbfb7b645	-1.4352499
159	0x3f5864f4	0.8452904
160	0xc006069a	-2.094153
161	0x40a1c14c	5.054846
162	0x3ebdc3b7	0.3706338
163	0x3f12e27a	0.57376826
164	0xbf00d75e	-0.50328624
165	0xc022cfe2	-2.5439382
166	0x404a6584	3.162446
167	0x3fa9c743	1.3263935
168	0xbf23539e	-0.63799465
169	0x3fd85391	1.6900502
170	0xc01cc22a	-2.4493508
171	0x3e447fc8	0.1918937
172	0x3ca3dfb0	0.020004123
173	0x40299f19	2.6503356
174	0xbd668d0c	-0.056286857
175	0xbfa11d31	-1.2587034
176	0x4061bd2e	3.5271716
177	0x3ed91ce1	0.42404845
178	0xbfb41174	-1.4067826
179	0xbf9ee3c4	-1.2413259
180	0x40206dd7	2.506704
181	0xc0573625	-3.3626797
182	0x3ff1d80d	1.8894058
183	0x3f5e99d2	0.8695346
184	0xbff305fa	-1.8986199
185	0x3fb89b0f	1.442232
186	0x3e8efb4b	0.27926096
187	0x3dc8900d	0.097931005
188	0xc01715e1	-2.3607104
189	0x40c35e40	6.105255
190	0x3f6bb73a	0.92076457
191	0x3f2514fb	0.6448514
192	0x40a0c9bd	5.0246263
193	0xc0249e26	-2.5721526
194	0xbed008cb	-0.40631709
195	0x3ec4c878	0.38434196
196	0x3e50643e	0.2035074
197	0xc0405c88	-3.0056477
198	0x403017c6	2.751451
199	0xbf03324f	-0.5124864
200	0x403acc0a	2.9187036
201	0x3fc3aef2	1.5287764
202	0x3e98b4df	0.29825494
203	0xbf21aab4	-0.631511
204	0x3f1a8b5f	0.60368913
205	0x3f98811a	1.1914399
206	0xbf39dc3e	-0.7260169
207	0x3f8714d7	1.0553235
208	0xbdef8e78	-0.11697096
209	0xbf41cddd	-0.7570475
210	0x3dad9688	0.08475977
211	0xc01ffb09	-2.499697
212	0x3f94572f	1.1589106
213	0xbf8ecb8f	-1.1155871
214	0x401b7b23	2.4293907
215	0xbcb49639	-0.022044288
216	0x3ef9af2f	0.48766467
217	0x40419d2e	3.0252185
218	0x40955fb4	4.6679325
219	0xbf8afef8	-1.085906
220	0xbffcb2c3	-1.9742054
221	0x3ff21167	1.8911561
222	0xc001b1c4	-2.026475
223	0xbecbcc19	-0.39804152
224	0x3fafb69e	1.3727605
225	0xbe5db655	-0.21651585
226	0x3edd2ebf	0.43199727
227	0x4002473b	2.0355976
228	0x402446dc	2.566825
229	0x3ed673dc	0.4188527
230	0x3f9bb50f	1.216463
231	0xbe4ad630	-0.19808269
232	0xbfabe20e	-1.3428361
233	0xbc6974f3	-0.014249074
234	0x3fd8e300	1.6944275
235	0x3fc25851	1.5183202
236	0x3f085f09	0.5327001
237	0x3f5308a9	0.8243509
238	0xbf8d4f31	-1.1039792
239	0xbfb6af43	-1.4272236
240	0x3e86ea4b	0.26350626
241	0xbf67b553	-0.90511054
242	0xbfe32728	-1.7746325
243	0x401a86bd	2.4144738
244	0x3d884475	0.06653682
245	0x401e94f1	2.4778407
246	0x3f907500	1.1285706
247	0x3f8db1b4	1.1069856
248	0xbfff2c99	-1.9935485
249	0xc034331e	-2.81562
250	0xc036ff75	-2.8593419
251	0x3f7dca59	0.99136883
252	0x402ff025	2.7490323
253	0x3f84f605	1.0387579
254	0x3fab2263	1.3369869
255	0xbfb3a71c	-1.4035373

lstm.weight_hh_l0 f4 [256, 64]
0	0x3cf180c7	0.029480351
1	0x3f8c3052	1.0952246
2	0x3f644e8a	0.8918234
3	0x3f8e7dcd	1.1132141
4	0x3fce1cc8	1.6102533
5	0x3fa56627	1.29218
6	0xbeb96365	-0.36208645
7	0x3ef2264e	0.4729485
8	0xbf43cc49	-0.7648359
9	0x3ee645d1	0.4497514
10	0xbde0c36e	-0.10974775
11	0x3e1d2592	0.15346363
12	0xbe00a7d7	-0.12564026
13	0xbe9be397	-0.30447075
14	0x3f7f5531	0.99739367
15	0xbf8ee0aa	-1.1162312
16	0xc021552a	-2.520823
17	0x3f0bec9e	0.54657924
18	0xbf12466c	-0.57138705
19	0x3f9c3ad6	1.2205455
20	0xbc6de7fa	-0.01452064
21	0xbf02c501	-0.51081854
22	0xbfab17dc	-1.3366656
23	0xbee85a8f	-0.4538159
24	0xbf426bd4	-0.7594578
25	0xbf259d82	-0.6469346
26	0xbec6ce41	-0.38829234
27	0xbc2be54b	-0.010491679
28	0x3f813d18	1.0096769
29	0x3f12f161	0.57399565
30	0xbb8a4c09	-0.00422049
31	0x3e40b718	0.18819845
32	0x3eebbd38	0.460428
33	0xbe2cb044	-0.16864115
34	0xbedbe3e4	-0.42947304
35	0x3f50b0ac	0.8151958
36	0xbe6479e3	-0.22312121
37	0xbe43a040	-0.191041
38	0xbf82f6be	-1.023155
39	0x3d8195cd	0.063274
40	0x3f56961b	0.8382279
41	0xbf17f4fc	-0.5935819
42	0xbe9a0144	-0.3007909
43	0x3f42f0f9	0.76148945
44	0xbf5b3ffc	-0.8564451
45	0xbe56e97b	-0.20987503
46	0xbee29891	-0.44257024
47	0x3e01737d	0.12641712
48	0x3f0b151d	0.5432909
49	0x3fa01049	1.250497
50	0xbde44022	-0.11145045
51	0x3f5087f2	0.81457436
52	0x3f0cccd3	0.55000037
53	0x3e32c401	0.17457582
54	0xbfc5fd00	-1.5467834
55	0x40073e63	2.1131828
56	0xbec3db02	-0.38253027
57	0x3f031b2e	0.5121335
58	0xbf7da334	-0.99077153
59	0x3f0898c3	0.53358096
60	0x3f1ad018	0.60473776
61	0xbfedece6	-1.8587921
62	0xbfa94a47	-1.3225793
63	0x3f07389e	0.52820766
64	0xbf9ba251	-1.215891
65	0xbe565cf3	-0.20933895
66	0xbf8b569e	-1.0885808
67	0xbf55060b	-0.83212346
68	0xbf6baaf3	-0.9205772
69	0x3fe0a6e6	1.7550933
70	0x3fb593bf	1.4185714
71	0x3f82b7ff	1.0212401
72	0x3fa39c40	1.2782059
73	0x3f2172a5	0.6306556
74	0x3f9974db	1.1988786
75	0xbf375426	-0.71612775
76	0xbf4ac249	-0.79202706
77	0x3f1606b3	0.5860397
78	0xbf1967d0	-0.5992403
79	0xbf837b5c	-1.0272021
80	0xbf953ded	-1.1659523
81	0xbf5a7353	-0.8533222
82	0x3f935708	1.1510935
83	0x3e1b8db7	0.15190779
84	0xbd8a3f83	-0.06750395
85	0xbfb16755	-1.385966
86	0xbf2ff99b	-0.6874024
87	0x3da90fd3	0.08254971
88	0xbf13f47f	-0.57794946
89	0x3c978f4b	0.018500945
90	0xbf2a4159	-0.6650596
91	0xbfd72ce8	-1.6810579
92	0xbccdba65	-0.025113294
93	0xbe9b0905	-0.3028032
94	0x3bc87b8d	0.006118244
95	0x3f59ff05	0.85154754
96	0x3eb092fd	0.34487143
97	0x3f8e80f0	1.1133099
98	0xbfe817bc	-1.8132243
99	0xbf02b828	-0.5106225
100	0xbf15a9be	-0.5846213
101	0x3ed66369	0.4187272
102	0x3f5f114c	0.8713577
103	0x3e75ea59	0.24015178
104	0x3f3f10e4	0.7463515
105	0x3e36047a	0.17775145
106	0xbe8734d1	-0.26407483
107	0x3cd1c686	0.025607359
108	0x3f2c7600	0.67367554
109	0xbed0daf8	-0.4079206
110	0x3f594931	0.84877306
111	0x3f946380	1.1592865
112	0x3f9c6cbc	1.2220683
113	0xbf442e88	-0.766335
114	0xbee462d1	-0.4460664
115	0x3f034038	0.51269865
116	0x40058468	2.0862064
117	0x3f83f9ef	1.0310649
118	0x3ea15326	0.3150875
119	0x3f1646cc	0.5870178
120	0xbf844904	-1.0334783
121	0xbe93df86	-0.28881472
122	0x3dfc1426	0.123085305
123	0xbf1a0472	-0.60163033
124	0x3f1dd41f	0.61651796
125	0xbe59bb64	-0.2126289
126	0xbedc07f8	-0.4297483
127	0xbf5bc2ad	-0.85843927
128	0xbf611a86	-0.87931097
129	0x3f3956dc	0.7239816
130	0xbe2b375c	-0.16720337
131	0x3f4d7182	0.80251324
132	0xbf26c8c6	-0.65150106
133	0xbe10a279	-0.14124478
134	0x3f41d38c	0.7571342
135	0xbf57ea01	-0.84341437
136	0xbf4ea737	-0.807239
137	0x3f712415	0.9419568
138	0x3ef3391f	0.47504517
139	0xbf923238	-1.1421576
140	0xbe68f208	-0.22748578
141	0xbebe3bb9	-0.3715494
142	0xbd88bc0c	-0.06676492
143	0x3d190574	0.037358716
144	0xbf37b001	-0.71752936
145	0x3f18a39b	0.5962464
146	0xbe0b18f1	-0.13583733
147	0xbf12fa37	-0.5741305
148	0xbf673f87	-0.9033131
149	0xbf229587	-0.6350941
150	0xbf8cdfb9	-1.1005775
151	0xbf8de4d3	-1.1085457
152	0xbf82ea7e	-1.0227811
153	0x3f123f29	0.57127625
154	0xbf26b3c1	-0.6511803
155	0xbfd508b5	-1.6643282
156	0x3f83c02b	1.029302
157	0x3f2efaee	0.6835164
158	0xbef8fe8a	-0.48631698
159	0x3e08de11	0.13365962
160	0xbd47ee3f	-0.048811194
161	0xbf6de416	-0.92926157
162	0xbf1e8e63	-0.61936015
163	0xbde0d7dd	-0.10978673
164	0x3f51632c	0.8179195
165	0x3f215fad	0.63036615
166	0x3fd0a885	1.6301428
167	0x401a9a57	2.4156702
168	0x3f26a4a3	0.65094966
169	0x3f8a8976	1.08232
170	0xbd828352	-0.063727036
171	0x3e8f7f78	0.28026938
172	0xbf76fd29	-0.9648004
173	0x3de9c3a2	0.11414267
174	0xbfaa41ae	-1.3301294
175	0x3e129eca	0.14318386
176	0xbeed30a0	-0.4632616
177	0x3f1c54dc	0.61066985
178	0x3f168daa	0.5880991
179	0x3fa3f74c	1.2809844
180	0x3f05b1fd	0.52224714
181	0xbdd0c0cf	-0.10193025
182	0x3ed26cc8	0.41098619
183	0x3fb97fda	1.4492142
184	0xbf553b70	-0.8329382
185	0xbf5948e9	-0.8487688
186	0xbc86693c	-0.016407602
187	0xbf0829e2	-0.5318891
188	0x3f0bbaca	0.5458189
189	0xbf98ecf9	-1.1947318
190	0xbf37e6ec	-0.71836734
191	0xbf3d2f75	-0.7390054
192	0x3f633fea	0.887694
193	0x3efddefb	0.49584183
194	0xbe777a25	-0.24167688
195	0x3ef30f86	0.4747278
196	0xbad22b99	-0.0016034722
197	0xbf7a3ccc	-0.9774902
198	0xbf118df7	-0.56857246
199	0x3fda2855	1.7043558
200	0xbfe0bffb	-1.7558588
201	0x3f146526	0.5796684
202	0xbe695c96	-0.22789225
203	0xbd705c34	-0.05868168
204	0xbf4158a7	-0.755259
205	0x3c21cd3c	0.009875592
206	0x3f761230	0.961215
207	0xbdf6a3f4	-0.1204299
208	0xbf9ed5ff	-1.2409056
209	0xbda18f4a	-0.07888658
210	0xbf77b2ff	-0.967575
211	0x3f838ceb	1.027738
212	0x3e8db272	0.27675205
213	0xbf381fd7	-0.71923584
214	0x3daef323	0.085424684
215	0xbf19974f	-0.59996504
216	0xc02e5e00	-2.7244873
217	0x3e38cf11	0.1804774
218	0xbe00b8be	-0.12570474
219	0x3f8a8815	1.0822779
220	0x3f6fc09a	0.9365326
221	0x3f07caf7	0.53044075
222	0xbee1ee99	-0.44127348
223	0xbf838741	-1.0275651
224	0x3f736cab	0.9508769
225	0xbf0c6ce2	-0.5485364
226	0xbf0880fb	-0.5332181
227	0xbe8aed86	-0.2713434
228	0xbf5983cf	-0.8496675
229	0x3fa9fc80	1.3280182
230	0xbe1ad5e9	-0.15120663
231	0xbf8a2dd5	-1.0795237
232	0xbfc488b7	-1.5354222
233	0xbf18f4a5	-0.597483
234	0x3fd801d1	1.6875554
235	0x3f3c3ed3	0.7353336
236	0x3e9f7b3d	0.3114871
237	0x3ed7af67	0.4212601
238	0xbf6193b0	-0.8811598
239	0xbdcfb3e7	-0.101417355
240	0xbcd2b0a6	-0.025718998
241	0x3e8990fa	0.2686842
242	0xbf539aba	-0.8265797
243	0x3f8993d3	1.0748237
244	0xbff5c959	-1.9202071
245	0xbea94e0d	-0.3306736
246	0x3f0de564	0.5542815
247	0x3e9f88ee	0.31159157
248	0x3f590947	0.8477978
249	0x3f376e12	0.7165233
250	0x3e5ff77e	0.21871755
251	0xbf5f2028	-0.8715844
252	0xbe2b9526	-0.16756114
253	0xbeac65d5	-0.33671442
254	0xbdaec24c	-0.08533153
255	0xbf0f2a93	-0.5592434

lstm.bias_ih_l0 f4 [256]
0	0x3eb8e03c	0.36108577
1	0x3f3db3f9	0.7410274
2	0x3f41e390	0.7573786
3	0x3f7b0df1	0.9806815
4	0x3f2bb012	0.67065537
5	0x3f67c67b	0.9053723
6	0x3f366d4d	0.7126053
7	0x3f76ee70	0.96457577
8	0xbe914778	-0.2837484
9	0x3f588948	0.84584475
10	0x3ea0b7b3	0.3139015
11	0x3ee573b9	0.44814852
12	0x3f2f2b05	0.6842502
13	0x3f2a82e7	0.6660599
14	0x3f8c6d1f	1.0970801
15	0x3ecb73ee	0.39736885
16	0x3eb4c931	0.35309747
17	0x3fabdc32	1.3426573
18	0x3f3048b9	0.68860966
19	0x3f47e35e	0.7808131
20	0x3ee9ed59	0.45688894
21	0x3f729307	0.94755596
22	0x3f53edb7	0.827846
23	0x3f62cbbe	0.88592136
24	0x3f5b4674	0.8565438
25	0x3f4254fd	0.7591093
26	0x3eb2d24c	0.3492607
27	0xbe06fb58	-0.13181818
28	0x3d634f57	0.055495586
29	0x3faff7f9	1.374755
30	0x3fbee0e0	1.4912376
31	0x3e19712d	0.1498458
32	0x3f836682	1.0265658
33	0xbdcdbb3b	-0.10045477
34	0x3f2697ee	0.65075576
35	0x3f5efed0	0.87107563
36	0x3f64bf26	0.8935417
37	0x3f4ecb61	0.8077908
38	0x3f5ea4cf	0.8697023
39	0x3f87f26e	1.0620859
40	0x3fb2a8ef	1.3957804
41	0x3fa7fe5a	1.3124497
42	0x3f118bff	0.5685424
43	0x3f33fe06	0.70309484
44	0x3edb6f1d	0.4285821
45	0x3f11a7b4	0.5689652
46	0x3f9d3824	1.2282758
47	0x3eb50709	0.3535693
48	0x3f68fd97	0.9101195
49	0x3f712c1d	0.94207937
50	0x3f850314	1.0391564
51	0x3ec0c4d5	0.3765017
52	0x3f24dc3f	0.6439857
53	0x3ee630a9	0.44959
54	0x3f2c62f8	0.67338514
55	0xbdb6a154	-0.0891749
56	0x3ee0e309	0.43923214
57	0xbe100185	-0.1406308
58	0x3eaff4a7	0.34366342
59	0x3fb16772	1.3859694
60	0x3f801526	1.0006454
61	0x3f09d983	0.5384752
62	0x3f7318cf	0.9495973
63	0x3f4a32f4	0.78984
64	0xbeceea57	-0.40413162
65	0xbbd9d55b	-0.0066477484
66	0x3e6df404	0.23237616
67	0x3e27b429	0.1637732
68	0x3e9094bb	0.28238472
69	0xbd0fb2d9	-0.03508267
70	0x3db253d0	0.08707392
71	0x3d2fdc4c	0.0429347
72	0x3ee9cf5d	0.45666018
73	0x3e7d85fb	0.2475814
74	0x3efe08ac	0.4961599
75	0x3ec7f58b	0.39054522
76	0xbee6713e	-0.45008272
77	0x3ed83442	0.4222737
78	0x3d0a0b50	0.033702195
79	0xbe29763d	-0.1654901
80	0x3e051ec8	0.13000023
81	0xbee76adc	-0.45198715
82	0x3ec23f7a	0.37939054
83	0x3e1a2143	0.15051751
84	0xbdd1f5c4	-0.10251954
85	0xbe470891	-0.19436862
86	0x3de0be55	0.10973803
87	0xbe1f72c7	-0.15571128
88	0x3d796eee	0.060896806
89	0x3dfa0998	0.12208861
90	0xbe9dcae0	-0.30818844
91	0x3d3a7db5	0.04553004
92	0xbc8d36e1	-0.017238082
93	0x3e12502e	0.14288399
94	0x3f1790d4	0.59205365
95	0xbcd96dd2	-0.026541624
96	0x3ef76091	0.48315862
97	0xbdb04d13	-0.08608451
98	0xbe3f6667	-0.18691407
99	0xbd887592	-0.0666305
100	0xbdaecbe0	-0.0853498
101	0x3ec130a2	0.37732416
102	0x3e07cfff	0.13262938
103	0x3dc81156	0.097689316
104	0x3c877265	0.01653404
105	0x3d169684	0.036764637
106	0x3e0598e8	0.1304661
107	0x3e9b44bc	0.30325878
108	0x3d15de1c	0.036588773
109	0x3d07edf2	0.033185907
110	0x3f136680	0.5757828
111	0xbe34b974	-0.1764887
112	0xbe4c5f11	-0.1995814
113	0x3df1160f	0.117717855
114	0x3e76ca71	0.24100663
115	0xbef6dd89	-0.48215893
116	0xbebf62b5	-0.37379995
117	0x3e57ced2	0.2107499
118	0x3dc9ca29	0.09853012
119	0x3eb16336	0.34646004
120	0x3d870d39	0.06594319
121	0x3eafeefc	0.34362018
122	0xbe1c2437	-0.1524819
123	0x3e09c2e2	0.13453248
124	0x3ebb7df9	0.36619547
125	0x3edef021	0.4354258
126	0xbc378433	-0.011200952
127	0x3eb6ecd1	0.35727552
128	0x3cf4a2f1	0.029862853
129	0x3e6d142e	0.23152229
130	0xbe0d5b6d	-0.13804407
131	0x3e350efd	0.17681499
132	0x3eb500ed	0.3535227
133	0xbdbb1491	-0.09134782
134	0xbe1620b6	-0.14660916
135	0x3c958fed	0.018257106
136	0xbdb642e2	-0.08899476
137	0x3da33d06	0.07970624
138	0x3e057110	0.13031411
139	0xbe8c6ca5	-0.2742664
140	0xbe71699b	-0.23575442
141	0xbe167f31	-0.14696957
142	0x3e47c56b	0.19508903
143	0xbe05c183	-0.130621
144	0xbe68e965	-0.22745283
145	0xbcd5def1	-0.026107283
146	0xbbea6e6c	-0.0071542766
147	0x3db71363	0.089392446
148	0x3c9af04b	0.018913409
149	0xbdb1b92f	-0.08677899
150	0xbe089bfc	-0.13340753
151	0xbd979129	-0.07400734
152	0xbe32859d	-0.17433782
153	0xbe60f0b2	-0.21966818
154	0x3d2adcf7	0.041714635
155	0xbe42b753	-0.19015245
156	0x3dcdb9c3	0.10045197
157	0x3ca7487f	0.020420311
158	0xbeb63544	-0.35587513
159	0x3e8a65ed	0.27030888
160	0xbe3a6b9b	-0.1820511
161	0xbd3aa08e	-0.045563273
162	0xbe12ddc4	-0.1434241
163	0x3d98c4f7	0.07459443
164	0x3d5fc64b	0.054632466
165	0xbdae2dde	-0.08504842
166	0x3cdc6607	0.02690412
167	0x3cbde48c	0.023180269
168	0xbdb9201a	-0.09039326
169	0xbcd00fa8	-0.02539809
170	0x3da5eca4	0.08101776
171	0xbe5f107c	-0.21783632
172	0xbe9f5495	-0.31119218
173	0xbd7bb3fa	-0.061450936
174	0xbdee6ba1	-0.11641622
175	0xbdca63d6	-0.098823234
176	0xbe27c338	-0.16383064
177	0x3dc476a1	0.09592939
178	0xbe5493c6	-0.20759496
179	0xbbd5182a	-0.0065031247
180	0xbd6ecf3a	-0.058303095
181	0x3dcb516d	0.0992764
182	0xbdcda28d	-0.1004077
183	0x3e4bf55d	0.19917817
184	0x3d9c29ff	0.076251976
185	0x3a5e8f1f	0.00084899546
186	0x3e0bbc6b	0.13646095
187	0xbd92cc02	-0.07167818
188	0x3e09071b	0.13381617
189	0xbe0e08f3	-0.13870601
190	0xbe31b9d7	-0.17356049
191	0x3da724d3	0.081613205
192	0x3edefb6f	0.43551204
193	0x3ed26413	0.41091976
194	0x3f41989d	0.75623494
195	0x3f11523f	0.5676612
196	0x3ddc4de3	0.10757043
197	0x3eb4ab88	0.35287118
198	0x3f6d1cd1	0.92622095
199	0x3da6069e	0.08106731
200	0xbe511f9f	-0.20422219
201	0x3e8543df	0.26028344
202	0x3cc2f2b2	0.023797367
203	0xbe83d707	-0.2574999
204	0x3e5fb0f9	0.21844853
205	0xbeca8f46	-0.39562434
206	0x3f16fd7a	0.58980525
207	0x3f0bb782	0.54576886
208	0xbe864ea7	-0.26231882
209	0x3ece5718	0.40300822
210	0xbc82bbff	-0.015958784
211	0x3e2f3207	0.17108928
212	0x3e6c2c7d	0.23063846
213	0x3cb3827b	0.021912804
214	0xbdaceab4	-0.084432036
215	0x3f179133	0.5920593
216	0xbda78dcc	-0.081813425
217	0x3d7aa57f	0.061192986
218	0xbeababd1	-0.33529523
219	0x3e3a340e	0.1818392
220	0xbdd0f6f0	-0.102033496
221	0x3f1fe90c	0.62464976
222	0x3e73fe91	0.23827578
223	0x3edcb22f	0.43104693
224	0x3eccdf98	0.40014338
225	0x3f1ff243	0.6247904
226	0xbcbc5536	-0.02298985
227	0x3e6748eb	0.2258641
228	0x3dc92521	0.09821535
229	0x3e58fb4f	0.21189617
230	0xbd4d312e	-0.05009573
231	0x3dd76811	0.10517896
232	0x3f0b364d	0.5437973
233	0x3e795977	0.24350534
234	0x3b7fcd7f	0.0039032397
235	0x3db57435	0.08860055
236	0x3f40a926	0.752581
237	0x3f0aed3a	0.5426823
238	0xbf03da12	-0.51504624
239	0x3eca9938	0.39570022
240	0x3f8533df	1.0406455
241	0x3f1853ce	0.59502876
242	0x3e46ddc1	0.1942053
243	0x3e8353db	0.25649914
244	0x3e5a3ca7	0.213122
245	0xbe1eac2e	-0.15495369
246	0x3f9c5502	1.2213442
247	0x3e27281c	0.16323894
248	0x3f6642cd	0.8994568
249	0xbe98c89f	-0.29840562
250	0x3eae2b47	0.34017393
251	0x3ecbebda	0.39828378
252	0x3f940388	1.1563578
253	0xbda58f49	-0.0808397
254	0x3e89da62	0.26924425
255	0x3e92e950	0.28693628

lstm.bias_hh_l0 f4 [256]
0	0x3e7d4f5c	0.24737304
1	0x3f32b939	0.6981388
2	0x3f3d995d	0.7406214
3	0x3f4d4b28	0.80192804
4	0x3f3e24b2	0.7427474
5	0x3f5c655b	0.86092156
6	0x3f22acac	0.63544726
7	0x3f801c65	1.0008665
8	0xbdec7611	-0.11545957
9	0x3f4a9cee	0.79145706
10	0x3eee9fcb	0.46606287
11	0x3eceda91	0.40401128
12	0x3f355be4	0.7084334
13	0x3f590919	0.84779507
14	0x3f8c2df7	1.0951527
15	0x3e862def	0.2620692
16	0x3f093013	0.5358898
17	0x3fb79cc2	1.4344714
18	0x3ef550b6	0.4791314
19	0x3f19babf	0.60050577
20	0x3eeebeb9	0.46629885
21	0x3f5f7a10	0.8729563
22	0x3f85b38b	1.0445417
23	0x3f5b1f69	0.85594803
24	0x3f763d43	0.9618723
25	0x3f61e970	0.8824682
26	0x3ef305ee	0.47465461
27	0xbea5bee1	-0.32372192
28	0x3df408d0	0.11915743
29	0x3fb97117	1.4487637
30	0x3fc888d6	1.5666759
31	0x3e4a7598	0.19771421
32	0x3f8dc275	1.1074969
33	0xbcce13c0	-0.025155902
34	0x3f371e47	0.71530575
35	0x3f718a57	0.94351715
36	0x3f4ad72e	0.7923459
37	0x3f4d6837	0.80237144
38	0x3f4e3444	0.805485
39	0x3f8641a7	1.0488786
40	0x3f9bf643	1.2184528
41	0x3fac5dc5	1.3466116
42	0x3edf37cf	0.43597266
43	0x3efa17ca	0.48846275
44	0x3f0ca07c	0.5493238
45	0x3f3e0acb	0.7423522
46	0x3f7f9cfc	0.99848914
47	0x3ecce07d	0.4001502
48	0x3f3562b5	0.7085374
49	0x3f84975d	1.0358692
50	0x3f7709f4	0.9649956
51	0x3ef7489f	0.48297593
52	0x3f4b0553	0.79305
53	0x3ebc33d6	0.36758298
54	0x3f06bbe8	0.5263047
55	0xbda5fc31	-0.08104742
56	0x3ef02e88	0.469105
57	0xbd3421d1	-0.043977562
58	0x3ebbb210	0.36659288
59	0x3fa8e711	1.3195516
60	0x3f8bc493	1.0919365
61	0x3f2de740	0.67930984
62	0x3f70654f	0.93904585
63	0x3f10a2cc	0.5649841
64	0xbece157f	-0.40250775
65	0x3d42bb9f	0.04754221
66	0x3e9da727	0.3079159
67	0x3e2010de	0.15631434
68	0x3ed9a3a8	0.42507672
69	0xbbb74a30	-0.0055935606
70	0xbc8b1156	-0.01697604
71	0x3d6e607c	0.058197483
72	0x3f08afe6	0.533934
73	0x3e139457	0.14412056
74	0x3f0875de	0.5330485
75	0x3eae090d	0.3399128
76	0xbe92f4ff	-0.28702542
77	0x3ec9cc7f	0.3941383
78	0x3c5c2407	0.013436324
79	0x3d05c8fd	0.03266238
80	0x3dba6d58	0.09102887
81	0xbeb46dc3	-0.35239992
82	0x3e9d7700	0.30754852
83	0x3e5f771a	0.21822777
84	0xbd064160	-0.03277719
85	0xbdb0457e	-0.086070046
86	0xbd81c192	-0.06335749
87	0xbe4d7938	-0.20065773
88	0x3e38a2cb	0.1803085
89	0x3dfa2002	0.12213136
90	0xbea75f34	-0.32689822
91	0xbd83ae9e	-0.0642979
92	0xbe687f1a	-0.22704735
93	0x3cab1fea	0.020889241
94	0x3efd98d4	0.4953066
95	0x3dd4ed58	0.10396832
96	0x3f047028	0.51733637
97	0xbd35a700	-0.044348717
98	0xbdbc0e96	-0.091824695
99	0xbca52a08	-0.020161644
100	0xbd534667	-0.051580813
101	0x3e90a2d8	0.2824924
102	0x3e502b4c	0.20329016
103	0x3e06fb54	0.13181812
104	0x3c0908a3	0.008363876
105	0x3d985637	0.07438319
106	0x3d9e0bef	0.0771712
107	0x3e351d3e	0.17686936
108	0xbd5628f4	-0.05228515
109	0x3d2fcc56	0.04291948
110	0x3f27ffae	0.6562451
111	0xbd8dd15e	-0.06924699
112	0xbe6a8cc6	-0.22905263
113	0xbd83fa69	-0.06444246
114	0x3dd369d3	0.10322919
115	0xbe930870	-0.28717375
116	0xbeb7ea91	-0.35921147
117	0x3d7cc402	0.061710365
118	0x3dce20a3	0.10064819
119	0x3e855513	0.2604147
120	0x3c9b3e9a	0.01895075
121	0x3e42e4e7	0.19032632
122	0xbe052635	-0.13002856
123	0x3e9d3af6	0.30709046
124	0x3eacefda	0.33776742
125	0x3ef44cd2	0.4771486
126	0x3d0fe3d3	0.03512938
127	0x3f09cf00	0.5383148
128	0xbd1d754d	-0.038441945
129	0x3e53a23f	0.2066736
130	0xbe86c519	-0.2632225
131	0x3e41d0fd	0.18927379
132	0x3ed36c1e	0.41293424
133	0xbe5715de	-0.21004435
134	0xbe1fa3b8	-0.15589797
135	0x3e6ee61e	0.2332997
136	0x3cbe616b	0.023239812
137	0xbd7a6550	-0.061131775
138	0x3d5ff8ab	0.054680508
139	0xbec1e129	-0.37867096
140	0xbdaf7a99	-0.085683055
141	0xbe4e446f	-0.20143293
142	0x3e6cfef3	0.2314413
143	0xbdee6373	-0.11640062
144	0xbe7865ff	-0.24257658
145	0x3c009427	0.007847822
146	0xbd3e40f2	-0.046448655
147	0x3deccc98	0.11562461
148	0x3de72482	0.1128626
149	0x3d2b2385	0.04178192
150	0xbdea6663	-0.1144531
151	0xbb3cdb6a	-0.0028817304
152	0xbddef759	-0.108870216
153	0xbd9a198a	-0.075244024
154	0xbdbdfd48	-0.09276825
155	0xbdf174ff	-0.11789893
156	0xbdc3a897	-0.0955364
157	0x3b1377dd	0.0022501864
158	0xbe9ae463	-0.3025237
159	0x3e12280c	0.14273089
160	0xbe1e7830	-0.15475535
161	0x3c43bd74	0.011947025
162	0xbe39ebe6	-0.18156394
163	0x3d2a3eac	0.041563675
164	0x3d476e94	0.04868944
165	0x3db1c4d7	0.08680122
166	0x3d6972bc	0.056994185
167	0x3d9d82a8	0.07690936
168	0xbdc63206	-0.0967751
169	0x3c07e61e	0.00829461
170	0x3e0e3ef1	0.13891198
171	0xbdbaa52a	-0.09113534
172	0xbe43c4b0	-0.19117999
173	0xbe0fa251	-0.14026763
174	0xbdc0ba07	-0.09410482
175	0x3d83a307	0.064275794
176	0xbc894340	-0.0167557
177	0x3df74854	0.12074342
178	0xbe5e5c78	-0.21714962
179	0xbd91a9ef	-0.071124904
180	0xbe1a1e39	-0.15050592
181	0x3d6c03fc	0.057620987
182	0xbc3e461d	-0.011613396
183	0x3e15ccc2	0.1462889
184	0x3dddabe2	0.108238
185	0x3b4faa91	0.003168736
186	0x3d0c54d1	0.034260575
187	0x3d231a65	0.039820094
188	0x3da6f22b	0.081516586
189	0xbd8e637c	-0.06952569
190	0xbd41237e	-0.04715299
191	0xbe02d438	-0.12776268
192	0x3ef87374	0.48525584
193	0x3eb21ca0	0.34787464
194	0x3f252a86	0.6451801
195	0x3f2d8e77	0.6779551
196	0x3dc1d02b	0.09463533
197	0x3f0e93ee	0.5569447
198	0x3f77c4fa	0.9678494
199	0x3e67f236	0.2265099
200	0xbe69879a	-0.22805634
201	0x3e8fe521	0.281045
202	0xbba9de2c	-0.0051839557
203	0xbe5fdf4e	-0.21862528
204	0x3e3fa22b	0.18714206
205	0xbe9830c3	-0.29724702
206	0x3f1996c3	0.5999567
207	0x3f370e02	0.7150575
208	0xbe032aca	-0.12809291
209	0x3ea471d4	0.32118094
210	0xbd72416a	-0.059144415
211	0x3e7e07c1	0.24807645
212	0x3e531d77	0.20616709
213	0xbd799c60	-0.060940146
214	0x3d9ff755	0.07810847
215	0x3f202b43	0.6256601
216	0x3da7664f	0.08173811
217	0x3deef2ca	0.11667402
218	0xbe1097ff	-0.14120482
219	0x3e10d883	0.14145093
220	0x3a2a7f40	0.0006503947
221	0x3f12227f	0.57083887
222	0x3e60e4fd	0.21962352
223	0x3f11f058	0.5700736
224	0x3eadf195	0.33973375
225	0x3f2493c8	0.64287996
226	0x3df63490	0.12021744
227	0x3ec7d5a6	0.39030188
228	0x3e92bf43	0.28661546
229	0x3ebf3556	0.3734538
230	0xbe35fa1e	-0.17771193
231	0x3c8f418d	0.017487312
232	0x3ec8c22c	0.3921064
233	0x3e8cde80	0.27513504
234	0x3d7055f4	0.05867572
235	0x3e639ff0	0.2222898
236	0x3f422e27	0.7585167
237	0x3ea6d857	0.3258693
238	0xbf0450d2	-0.5168582
239	0x3ebdd4cb	0.3707641
240	0x3f81775f	1.0114554
241	0x3f0bd53d	0.5462225
242	0x3e0c1ec9	0.13683619
243	0x3ee37208	0.44422936
244	0x3e013797	0.12618862
245	0x3d75a2be	0.059969656
246	0x3f8e869a	1.1134827
247	0x3e38166a	0.179773
248	0x3f831d11	1.0243245
249	0xbe9fc971	-0.31208375
250	0x3ead2f9e	0.33825392
251	0x3f043a24	0.51651216
252	0x3f9eac93	1.2396415
253	0xbe417131	-0.18890835
254	0x3e3484de	0.1762881
255	0x3e8cfabd	0.27535048

lstm.weight_ih_l1 f4 [256, 64]
0	0xbeaa28d8	-0.33234286
1	0x3d2e663d	0.04257797
2	0x3e500af2	0.20316675
3	0x3eb73667	0.35783693
4	0xbe584870	-0.21121383
5	0x3d94d155	0.072664894
6	0x3df86870	0.12129295
7	0xbe86c483	-0.26321802
8	0xbe9fa285	-0.3117868
9	0x3e06d1d0	0.13165975
10	0xbe303dc6	-0.17211065
11	0xbbff31d4	-0.0077879224
12	0x3eed404a	0.4633811
13	0xbd5fdda4	-0.054654732
14	0xbd86c307	-0.06580167
15	0xbeb0ce91	-0.34532598
16	0xbcd5620e	-0.026047733
17	0xbda06ab9	-0.07832856
18	0xbe342d2e	-0.1759536
19	0x3e2c342d	0.16816778
20	0x3debebcb	0.11519583
21	0x3e90c127	0.28272364
22	0x3d58b339	0.052905295
23	0xbe30a13a	-0.17249003
24	0x3e873cf2	0.26413685
25	0xbcf90d81	-0.030401947
26	0x3e91302c	0.28357065
27	0xbe23e336	-0.16004643
28	0xbe5ba10c	-0.21448153
29	0xbe7040be	-0.23462197
30	0xbdabffff	-0.08398437
31	0xbe84b073	-0.2591587
32	0x3e9f72f1	0.3114238
33	0x3df7a50b	0.12092026
34	0x3e1da7ba	0.15396014
35	0x3d4681d8	0.048463672
36	0x3f21b2aa	0.63163245
37	0x3e6ccc07	0.23124705
38	0xbe08713e	-0.13324448
39	0x3d4c9aea	0.049952425
40	0xbe6822f7	-0.22669588
41	0x3e05271e	0.13003203
42	0x3e87d14e	0.26526874
43	0xbda4f32c	-0.08054194
44	0x3ee4614e	0.44605488
45	0x3e9c5a05	0.3053743
46	0xbdbc9837	-0.0920872
47	0x3e2c63b9	0.16834916
48	0xbb21e69f	-0.0024704111
49	0x3ee10895	0.4395186
50	0xbe5d1b5c	-0.21592468
51	0xbe27f7c4	-0.16403109
52	0xbf20b506	-0.6277622
53	0x3e5004cc	0.2031433
54	0x3d65360b	0.055959743
55	0x3ddc3cfb	0.107538186
56	0xbdfefd80	-0.12450695
57	0xbe679f8b	-0.22619455
58	0xbc03b4bc	-0.008038696
59	0xbe966ad2	-0.29378372
60	0x3e008c31	0.12553479
61	0x3e5b4d66	0.21416244
62	0x3ea133ee	0.31484932
63	0x3e3278b0	0.17428851
64	0x3dc7fd02	0.09765054
65	0x3f1245bc	0.57137656
66	0xbee76f03	-0.45201883
67	0x3f674522	0.90339863
68	0xbda90e97	-0.08254736
69	0x3ba5bc85	0.0050578737
70	0xbf00a8c7	-0.50257534
71	0xbe851e30	-0.25999594
72	0xbef7515e	-0.48304266
73	0xbdcd85dd	-0.10035298
74	0xbed60fc5	-0.41808906
75	0x3d7a4923	0.061104905
76	0xbe895fa9	-0.26830795
77	0x3ebdc3b3	0.3706337
78	0x3e7dd56d	0.24788447
79	0xbed9b7ec	-0.42523134
80	0xbd9a5677	-0.07536023
81	0xbf06d9aa	-0.5267588
82	0x3e9fa7ba	0.31182653
83	0x3f0a32e3	0.53983897
84	0x3e9729e1	0.2952414
85	0x3ed46110	0.41480303
86	0xbddae345	-0.106878795
87	0xbbb3a7ad	-0.005482635
88	0xbecdce64	-0.40196526
89	0x3ea39a50	0.3195367
90	0x3efd4b67	0.4947159
91	0xbdb3a7f3	-0.08772268
92	0x3e1d3947	0.15353881
93	0x3ea309de	0.31843466
94	0x3ca9938e	0.020700242
95	0xbe86716e	-0.26258415
96	0x3ea7511b	0.32679066
97	0x3e809c46	0.25119227
98	0x3db13bb1	0.08653963
99	0x3ed3a313	0.41335353
100	0xbe49c8cd	-0.19705506
101	0xbed0745c	-0.40713775
102	0xbee3f067	-0.4451935
103	0xbebb4f41	-0.36583903
104	0xbe8bfcf6	-0.2734143
105	0x3e282a6b	0.16422431
106	0x3ec3c37e	0.38235086
107	0x3d8eace2	0.069665685
108	0x3df74203	0.120731376
109	0xbdb1c13c	-0.08679435
110	0x3e0a4879	0.13504209
111	0x3e647e76	0.22313866
112	0xbe3c2f79	-0.18377484
113	0xbd5ad697	-0.053427305
114	0xbe9d0a21	-0.3067179
115	0xbe82f6c2	-0.25578886
116	0xbf0b3d3f	-0.5439033
117	0x3d2fb964	0.04290141
118	0xbeadb306	-0.33925647
119	0xbdfb6d57	-0.12276714
120	0x3e2e07d2	0.1699517
121	0xbe6fdc01	-0.23423769
122	0xbc71b819	-0.014753365
123	0xbe6ed4a6	-0.23323306
124	0x3ef5dca1	0.4801989
125	0x3f3a28f1	0.7271872
126	0x3ebe226c	0.37135637
127	0x3d847a19	0.06468601
128	0xbe424ca7	-0.18974553
129	0xbd873858	-0.066025436
130	0xbe528c47	-0.20561324
131	0xbe9478bb	-0.2899836
132	0xbc3cf893	-0.011533874
133	0x3e20de5c	0.15709823
134	0x3ccd63f3	0.025072074
135	0x3e7c53cf	0.24641345
136	0x3ea33701	0.31877902
137	0x3d5c337a	0.05376003
138	0xbdb07d79	-0.08617682
139	0xbe0b25f7	-0.13588701
140	0xbd31acf6	-0.04337784
141	0x3f43edde	0.7653483
142	0x3bf57a84	0.0074914116
143	0xbbf612f6	-0.0075095845
144	0x3c0887ca	0.008333156
145	0x3e63272a	0.22182909
146	0xbd91bca0	-0.071160555
147	0xbe7aad9a	-0.24480286
148	0x3e625e52	0.22106293
149	0xbf213f74	-0.62987447
150	0x3ec50801	0.3848267
151	0x3d2e996f	0.042626794
152	0xbdbd99bb	-0.092578374
153	0xbe7c5b90	-0.24644303
154	0xbe81cb46	-0.25350398
155	0xbe144638	-0.14479911
156	0x3eecc253	0.46242008
157	0x3e19f24a	0.15033832
158	0xbdcde572	-0.10053529
159	0xbdc422df	-0.09576964
160	0xbdbf2ec9	-0.093350954
161	0x3d67d8b9	0.056603167
162	0x3cd9efb4	0.026603557
163	0xbd3c4154	-0.04596074
164	0xbeb402c8	-0.35158372
165	0xbd177320	-0.036975026
166	0xbe65f39b	-0.2245621
167	0xbd25076d	-0.040290285
168	0xbee10e0b	-0.43956026
169	0xbe592257	-0.21204506
170	0x3e4774e4	0.19478184
171	0x3e7b8565	0.24562605
172	0xbd06a135	-0.032868583
173	0xbe94de87	-0.29076025
174	0x3d8d2bbd	0.06893108
175	0x3dac4cf8	0.08413118
176	0x3e8bd6f0	0.27312422
177	0xbe85078f	-0.2598233
178	0x3e386c83	0.18010144
179	0x3dc65b4b	0.096853815
180	0xbe69b242	-0.22821906
181	0x3dbba261	0.09161831
182	0xbd9ad003	-0.07559206
183	0x3e2ebfa6	0.17065296
184	0x3e1e0574	0.15431768
185	0x3e9ab3a2	0.30215174
186	0x3e19bf86	0.15014467
187	0x3e4ed4b5	0.20198329
188	0xbea7c6a9	-0.32768753
189	0x3ebcf412	0.3690496
190	0x3ea4cd73	0.32187995
191	0x3d9afb77	0.07567494
192	0x3e61ca36	0.22049794
193	0xbd50e1e4	-0.050996676
194	0x3eae19d6	0.34004086
195	0x3e168436	0.14698872
196	0xbe5f167d	-0.21785922
197	0xbd1e42ce	-0.03863793
198	0x3f1deef8	0.6169276
199	0x3eec6eff	0.46178433
200	0x3e63a256	0.22229895
201	0x3d90ec38	0.07076305
202	0x3e46dc8f	0.19420074
203	0xbe9b5826	-0.3034069
204	0x3b33dc5e	0.0027444582
205	0xbe654eb3	-0.22393303
206	0xbd82306a	-0.063568905
207	0x3e1bfa27	0.15232144
208	0x3e4ae627	0.19814359
209	0x3e9a810c	0.3017658
210	0x3e9caf18	0.30602336
211	0xbe9f60a3	-0.31128415
212	0x3f23840e	0.63873374
213	0xbee096d4	-0.43865073
214	0x3e9bdda4	0.30442536
215	0x3b307b21	0.002692886
216	0xbe185198	-0.14874876
217	0x3df58c01	0.11989594
218	0x3eb44f5b	0.35216793
219	0x3f7c2519	0.98494107
220	0x3e31481c	0.17312664
221	0x3e87baf4	0.2650982
222	0xbcee7231	-0.029107185
223	0xbd4b4c7f	-0.0496335
224	0xbed95eb5	-0.42455068
225	0xbdd866be	-0.105664715
226	0x3e422359	0.18958797
227	0x3d52a27f	0.0514245
228	0x3f2f3fad	0.68456537
229	0x3f282e6f	0.6569585
230	0xbdf3eeaa	-0.11910756
231	0xbefe2d7e	-0.49644083
232	0xbe2f34b6	-0.17109951
233	0xbeab3cc6	-0.33444804
234	0xbeb4fcea	-0.35349208
235	0xbd9c3ed1	-0.07629169
236	0xbe95029b	-0.2910355
237	0x3ccf8304	0.025331028
238	0xbdc596db	-0.09647914
239	0x3ed0853f	0.4072666
240	0x3e711bae	0.23545715
241	0xbe88c1c8	-0.26710343
242	0x3ea0846e	0.31351036
243	0x3f922a5d	1.1419178
244	0x3ed61b60	0.4181776
245	0xbefe6bbf	-0.4969158
246	0x3e7e09ad	0.24808379
247	0xbcbe0ccf	-0.023199467
248	0xbdc8cd49	-0.0980478
249	0x3ece03ab	0.40237173
250	0x3e85928e	0.26088375
251	0x3e65f5e5	0.22457083
252	0xbf22f810	-0.63659763
253	0x3aebb596	0.0017983194
254	0x3ec042f9	0.37551096
255	0x3e2aa515	0.16664536

lstm.weight_hh_l1 f4 [256, 64]
0	0x3f525364	0.82158494
1	0x3e8d339d	0.2757844
2	0x3ec963c1	0.3933392
3	0x3e4f0c2c	0.20219487
4	0x3d0d206c	0.034454748
5	0x3f3cb361	0.7371121
6	0x3e86efa5	0.2635471
7	0xbe83b860	-0.25726604
8	0xbe5a0604	-0.21291357
9	0xbf025dbf	-0.50924295
10	0xbf114cd9	-0.56757885
11	0xbf5ba036	-0.8579134
12	0x3ee84dbf	0.45371816
13	0xbedb6e86	-0.4285776
14	0x3ee640fa	0.44971448
15	0xbf9334c6	-1.150048
16	0xbe1c4734	-0.15261537
17	0xbd7fb392	-0.06242711
18	0xbd46335a	-0.048388816
19	0xbf1eba02	-0.62002575
20	0x3ef31fcf	0.47485206
21	0xbebf51fe	-0.37367243
22	0xbe33a5e8	-0.17543757
23	0x3fd5197c	1.6648402
24	0xbf7d7884	-0.9901202
25	0x3e86a647	0.26298735
26	0xbd820987	-0.063494734
27	0xbe3e6a95	-0.18595345
28	0x3df80dda	0.12112017
29	0xbf203bd6	-0.625913
30	0xbe52c2f7	-0.20582186
31	0x3f83fac7	1.0310906
32	0x3f07433c	0.52836967
33	0xbdd4b01a	-0.10385151
34	0xbf8b39bf	-1.0876998
35	0x3f07dbba	0.5306965
36	0x3dd1da0b	0.102466665
37	0xbf236c76	-0.63837373
38	0xbf6c05e6	-0.921965
39	0x3f854524	1.0411725
40	0x3dd11844	0.102097064
41	0xbfa58588	-1.2931376
42	0x3bb5a8c0	0.005543798
43	0x3f8fd342	1.1236346
44	0xbdedfaa6	-0.11620073
45	0x3ed85db5	0.42258993
46	0x3f92dbbc	1.1473308
47	0x3f2ffdbb	0.68746537
48	0xbf2050af	-0.62623113
49	0x3fa46df8	1.284606
50	0xbea68b8b	-0.32528338
51	0xbf3cd2cc	-0.7375915
52	0xbf6ab3eb	-0.91680783
53	0x3f4a0d13	0.789262
54	0x3e2aa53d	0.16664596
55	0x3f74170f	0.95347685
56	0x3f254498	0.6455779
57	0xbd4472ce	-0.04796105
58	0x3ed9ba19	0.42524794
59	0x3f186e5c	0.59543395
60	0x3f6d1110	0.9260416
61	0x3f6458a8	0.8919778
62	0x3e9cff7e	0.30663675
63	0xbfb336d0	-1.4001102
64	0xbfae167d	-1.3600613
65	0x3db3cdc5	0.08779482
66	0x3e8ed5a6	0.27897376
67	0x3de6951b	0.11258908
68	0xbecd257c	-0.4006766
69	0xbf92cc5c	-1.1468616
70	0xbfa26c2d	-1.2689263
71	0x3e644ff6	0.22296128
72	0xbf446397	-0.7671446
73	0xbec6aeab	-0.38805136
74	0xbfa1c869	-1.2639285
75	0x3e9ae6ea	0.30254298
76	0xbf618c89	-0.88105065
77	0x3f8b2993	1.0872062
78	0xbeb6bda7	-0.35691568
79	0xbb97bf50	-0.0046309605
80	0xbeb14459	-0.34622458
81	0x3fa70631	1.3048764
82	0xbf091985	-0.53554565
83	0xbe8b9e21	-0.2726908
84	0xbe13d0cf	-0.14435123
85	0x3d831ae7	0.064016156
86	0x3e2f051a	0.1709179
87	0x3f20173b	0.62535447
88	0x3f99e666	1.2023437
89	0x3f98eb44	1.1946797
90	0xbee08cd2	-0.43857437
91	0xbf2660d2	-0.64991486
92	0x3d5435b5	0.05180903
93	0x3fbfc040	1.4980545
94	0xbe923a86	-0.28560275
95	0xbf8aa940	-1.0832901
96	0x3f03c882	0.51477826
97	0xbdbbed42	-0.09176113
98	0x3ebe6cde	0.37192434
99	0xc01689d6	-2.3521628
100	0x3e8b485d	0.27203646
101	0x3f535f67	0.8256745
102	0x3e8f6171	0.2800403
103	0x3f7d01f0	0.9883108
104	0x3f8081a7	1.0039567
105	0x3f857796	1.042712
106	0x3e508c24	0.2036596
107	0x3ef8cc48	0.48593354
108	0x3fc9c461	1.5763055
109	0xbdc91dbd	-0.09820125
110	0xbf1cfc75	-0.6132272
111	0x3fb709f2	1.429991
112	0xbe73d953	-0.23813371
113	0x3f46e54e	0.7769364
114	0xbfa48ecc	-1.2856078
115	0xbee6d1ef	-0.45082042
116	0xbe1dbb25	-0.15403421
117	0x3f1c9738	0.6116824
118	0xbb5443a4	-0.003238895
119	0xbfcd7437	-1.6051091
120	0xbf2b9600	-0.67025757
121	0xbc34423b	-0.011002119
122	0x3e3405b5	0.17580302
123	0xbdfbb3d3	-0.12290158
124	0xbe415f28	-0.18883955
125	0xbfc5e018	-1.5459013
126	0xbfa92f73	-1.3217605
127	0xc017085f	-2.359886
128	0x3f224b07	0.6339573
129	0xbe06b271	-0.13154007
130	0x3efacbcd	0.48983613
131	0xbe18399f	-0.1486573
132	0xbe9f27ab	-0.31084952
133	0x3e82cf27	0.2554867
134	0x3f1ec3b9	0.620174
135	0xbf54692c	-0.8297298
136	0x3dc9dc16	0.09856431
137	0x3ecdb1c3	0.40174684
138	0x3f93f672	1.1559584
139	0x3eac2829	0.3362439
140	0xbdbc3696	-0.09190099
141	0x3e20065c	0.15627426
142	0x3df704eb	0.12061485
143	0xbeed26f8	-0.46318793
144	0x3e78bafb	0.24290077
145	0x3e648cf5	0.22319396
146	0xbe8c136c	-0.27358568
147	0x3e8ccf93	0.27502117
148	0x3e60c93d	0.21951766
149	0xbe9cd393	-0.30630168
150	0x3e299e5d	0.16564317
151	0xbe2609da	-0.16214696
152	0x3e1a68b1	0.15078999
153	0x3f493731	0.7859984
154	0xbf97625f	-1.1826895
155	0xbf0330bb	-0.5124623
156	0xbf145c40	-0.5795326
157	0xbedbb8c8	-0.42914414
158	0xbe5eceb1	-0.21758534
159	0xbe5e51bf	-0.21710871
160	0x3e17f387	0.14838992
161	0xbf8b5d83	-1.0887913
162	0x3f352e50	0.7077379
163	0x3ecdb67a	0.4017828
164	0x3e6d030f	0.23145698
165	0xbce2ed5b	-0.02770107
166	0x3f77e797	0.96837753
167	0xbf6f3a79	-0.934486
168	0xbe82cc0b	-0.25546297
169	0x3ec24930	0.37946463
170	0xbf7694db	-0.96320885
171	0xc020d500	-2.5130005
172	0xbf4b0d66	-0.7931732
173	0xbf31bedb	-0.6943185
174	0x3f0a8830	0.54114056
175	0xbea5b5ed	-0.3236536
176	0xbd176581	-0.036962036
177	0xbeda8720	-0.42681217
178	0xbec82898	-0.3909347
179	0x3f3c2132	0.7348815
180	0xbe377151	-0.1791432
181	0xbe00d09b	-0.12579577
182	0x3e6302cd	0.22169037
183	0xbe505755	-0.20345815
184	0xbeb2d291	-0.34926274
185	0xc01129f3	-2.2681854
186	0xbdaae879	-0.08345122
187	0x3ef4c704	0.47808087
188	0x3d41f56f	0.047353204
189	0xbe5bb13b	-0.21454327
190	0xbefa7012	-0.48913628
191	0xbeb9f08c	-0.36316335
192	0xbff43cf2	-1.9081099
193	0x3f629cb4	0.8852036
194	0xbf50cbbe	-0.81560886
195	0x3ebee1ae	0.37281555
196	0xbf5a869b	-0.8536164
197	0xbf5d5321	-0.8645497
198	0xbf350f23	-0.7072622
199	0x3e183630	0.14864421
200	0x3fd8b374	1.6929765
201	0x3fed7a13	1.8552879
202	0x402081a2	2.5079122
203	0x3d092188	0.033479244
204	0x3be4d16d	0.0069829733
205	0x3f753a5d	0.9579218
206	0x3c84ec1a	0.016225863
207	0x3e847c3a	0.25876027
208	0xbef84761	-0.48491958
209	0xbf3b30ba	-0.73121226
210	0x3f585729	0.84507996
211	0xbfe9dd63	-1.8270687
212	0xbefb128d	-0.4903759
213	0xbe7719b3	-0.24130897
214	0xbef178a9	-0.4716237
215	0x3e370e6b	0.17876594
216	0xbe04d48a	-0.12971702
217	0xbfc2f110	-1.5229816
218	0x3f79140f	0.9729623
219	0xbffda0c4	-1.9814687
220	0x3ecf6dc9	0.40513447
221	0xbf03077c	-0.51183295
222	0xbddd1e08	-0.10796744
223	0x3dc24fba	0.09487863
224	0xbed2b5a2	-0.411542
225	0x3f6c310f	0.9226236
226	0x3e50dd53	0.20396928
227	0xbf844913	-1.03348
228	0x3e3e3bdc	0.18577522
229	0xbf9bcf82	-1.2172701
230	0x3ea9035e	0.3301038
231	0xbeece079	-0.4626501
232	0xbe93bf18	-0.2885673
233	0xbf5402a4	-0.8281653
234	0xc0332fc6	-2.7997909
235	0x3ee5bff9	0.44873026
236	0xc06cac98	-3.6980343
237	0x3f239581	0.639
238	0xbf83ebd6	-1.0306346
239	0xbec465bf	-0.38358876
240	0xbfb18218	-1.3867826
241	0x3f685373	0.90752333
242	0x3e8d383f	0.27581975
243	0x3f815442	1.0103838
244	0xbed981ba	-0.42481786
245	0xbf2f1473	-0.6839058
246	0xbeb4ca6f	-0.35310695
247	0x3f0b7913	0.5448162
248	0xbd283168	-0.041062742
249	0xbec5bf46	-0.38622493
250	0x3f0a9588	0.54134417
251	0x3ecd0f66	0.4005081
252	0x3e07d6fc	0.13265604
253	0x4002d2a0	2.0441055
254	0xbff729a7	-1.9309586
255	0x3f3853c5	0.7200282

lstm.bias_ih_l1 f4 [256]
0	0x3f8836ec	1.0641761
1	0x3f5a958e	0.8538445
2	0x3e6ad7c1	0.22933866
3	0xbdc69bf6	-0.09697716
4	0x3eae5cd0	0.34055185
5	0xbebfdafd	-0.37471762
6	0x3e117572	0.14204958
7	0xbdd79076	-0.105256006
8	0xbf1aa73d	-0.60411435
9	0xbc35170b	-0.011052857
10	0x3f07120f	0.5276193
11	0xbe3c28d6	-0.18374953
12	0x3f29b927	0.66298145
13	0x3f1423b7	0.57866997
14	0x3f380480	0.71881866
15	0x3f646f72	0.8923255
16	0x3ef7a1f1	0.4836574
17	0x3e8889d3	0.26667652
18	0x3f054794	0.52062345
19	0x3ef046b2	0.46928936
20	0x3c192582	0.009347321
21	0xbe0b671c	-0.13613552
22	0x3e1851b4	0.14874917
23	0x3e6d4b30	0.23173213
24	0x3e620456	0.22071967
25	0xbf033f3f	-0.5126838
26	0xbea81183	-0.3282586
27	0x3f56c627	0.83896106
28	0x3f6101af	0.87893194
29	0x3e6c035e	0.2304816
30	0x3f9221af	1.141653
31	0xbe6423b9	-0.22279252
32	0x3e87329c	0.264058
33	0x3f4601f2	0.7734672
34	0x3f7c5f0d	0.98582536
35	0xbf64d11e	-0.8938159
36	0x3e6870a3	0.22699217
37	0xbe90b945	-0.2826635
38	0xbeba4adb	-0.36385235
39	0x3fc994ea	1.574857
40	0xbd9f9dfb	-0.07793804
41	0x3f3d4658	0.7393546
42	0x3eacf2ce	0.33778995
43	0x3f180697	0.59385055
44	0x3fdba274	1.7158952
45	0x3f6ccf65	0.9250396
46	0xbf416f9b	-0.7556092
47	0x3e99b206	0.30018634
48	0xbf223723	-0.6336538
49	0x3cf49272	0.029854987
50	0x3e886156	0.2663676
51	0x3eb74714	0.35796416
52	0x3e0067ab	0.12539546
53	0xbea73809	-0.3265994
54	0x3f44da88	0.7689595
55	0x3f101f27	0.56297535
56	0x3e721e93	0.23644476
57	0x3ee2eed2	0.4432283
58	0x3f60dd7f	0.87837976
59	0xbef032dd	-0.46913806
60	0xbd44aae6	-0.048014544
61	0x3f93449f	1.1505316
62	0x3e93e3a2	0.28884608
63	0xbea775cf	-0.32707068
64	0xbf550e60	-0.8322506
65	0xbebda679	-0.3704107
66	0xbf827692	-1.0192435
67	0xbe99441a	-0.2993477
68	0x3d103ec6	0.035216115
69	0x3ecb067e	0.3965339
70	0xbf09ca55	-0.5382436
71	0xbeb2d90d	-0.34931222
72	0xbedbeccf	-0.42954108
73	0xbe9d8371	-0.30764344
74	0x3f2beef9	0.6716152
75	0xbee65c15	-0.44992128
76	0xbdb1e78e	-0.08686744
77	0x3edfb6e2	0.43694216
78	0xbf6a415b	-0.91505975
79	0xbf0ebf6d	-0.5576084
80	0x3f1d6c0c	0.6149299
81	0xbf0a269b	-0.5396516
82	0x3f08afad	0.5339306
83	0xbea9d715	-0.33171907
84	0x3ecc84af	0.3994498
85	0xbf1801a6	-0.59377515
86	0xbf251ba7	-0.6449532
87	0xbe8e2d8f	-0.27769133
88	0x3e94b8ee	0.2904734
89	0xbf2bccb1	-0.6710921
90	0xbf6583ad	-0.89654046
91	0xbfb72aef	-1.4309977
92	0xbf64e55f	-0.8941249
93	0xbf8b9436	-1.0904605
94	0xbf456f8a	-0.7712332
95	0x3d25ac39	0.040447447
96	0xbc85b8cd	-0.016323471
97	0xbf0cc0cf	-0.549817
98	0xbde16e72	-0.11007394
99	0x3eb98d60	0.36240673
100	0xbf484131	-0.78224474
101	0x3e09dff1	0.13464333
102	0xbef2b66e	-0.47404808
103	0x3e3e5288	0.1858617
104	0xbf34cc53	-0.70624274
105	0xbd953165	-0.07284812
106	0x3eb3f532	0.35148007
107	0xbe893f12	-0.2680593
108	0x3e9190ee	0.28430885
109	0xbc34d273	-0.011036503
110	0x3eb21349	0.34780338
111	0x3f2ff0ff	0.68727106
112	0xbd65b5e9	-0.056081686
113	0xbf8b355d	-1.087566
114	0x3dd7809d	0.10522578
115	0x3e29aab7	0.16569029
116	0xbf33fe29	-0.7030969
117	0xbe7c291f	-0.24625061
118	0x3dd36ce4	0.103235036
119	0xbea4cb39	-0.32186297
120	0xbf034bfc	-0.5128782
121	0xbd74e394	-0.059787348
122	0x3f58fc01	0.8475953
123	0xbf06886f	-0.5255193
124	0x3edc5a04	0.43037426
125	0x3e92e715	0.28691927
126	0x3f5f6a0c	0.8727119
127	0xbf688dde	-0.9084147
128	0xbddc13bd	-0.10745952
129	0xbe311c96	-0.17296061
130	0x3e48a2d2	0.19593361
131	0xbe8cca01	-0.27497867
132	0xbd4c5b32	-0.049891658
133	0xbf113dcd	-0.56734926
134	0x3e143e88	0.14476979
135	0xbdf02b40	-0.11726999
136	0xbe69d04e	-0.22833368
137	0xbc8ac99a	-0.016941834
138	0xbdc74c22	-0.09731318
139	0x3e854429	0.26028565
140	0xbe2468c1	-0.16055585
141	0x3e200421	0.15626575
142	0xbe3c36f2	-0.18380335
143	0x3d021d8b	0.031766456
144	0x3f060e7b	0.52365845
145	0xbd843139	-0.06454701
146	0xbde797c8	-0.11308247
147	0xbe07f3c3	-0.13276581
148	0x3ec6bc94	0.3881575
149	0xbe210462	-0.15724328
150	0x3d13bc2f	0.036068138
151	0x3a7b4cf8	0.00095863594
152	0xbe57e4c3	-0.2108336
153	0xbc4d36a1	-0.012525232
154	0x3e2c407d	0.16821475
155	0x3f272cd8	0.653028
156	0x3ed3749e	0.4129991
157	0x3e6d79f3	0.23191051
158	0x3ded14f8	0.11576265
159	0xbdd547fe	-0.10414122
160	0xbc2319bb	-0.009954865
161	0x3e9bfe2c	0.30467355
162	0x3db90054	0.09033266
163	0x3e8da3bf	0.2766399
164	0xbccaad77	-0.024740918
165	0x3cda9105	0.026680479
166	0xbe36bdaf	-0.17845796
167	0xbd29089d	-0.04126798
168	0x3ec147b0	0.37750006
169	0x3c3c29bc	0.01148456
170	0xbe3531c4	-0.17694765
171	0xbe7a71bf	-0.24457453
172	0x3ddc0b99	0.107443996
173	0xbec0f76c	-0.37688768
174	0xbf12ad6a	-0.5729586
175	0xbd15c18d	-0.036561538
176	0xbad70e70	-0.0016407501
177	0x3e88f792	0.2675138
178	0xbdc15319	-0.09439678
179	0xbe22dea3	-0.15905242
180	0xbb8f70cc	-0.00437746
181	0xbf0be4f9	-0.5464626
182	0x3ef158a6	0.47137946
183	0x3e7c1182	0.24616054
184	0x3e5be342	0.2147341
185	0x3e54ef04	0.20794302
186	0xbe50b4cb	-0.20381467
187	0x3dca84f1	0.09888638
188	0x3e7f8ec5	0.24956806
189	0x3f185b09	0.5951391
190	0xbe94e97e	-0.2908439
191	0x3e71731d	0.23579068
192	0x3eabc02c	0.33545053
193	0x3e33068a	0.17482963
194	0xbbbe53df	-0.005808338
195	0xbf0ebdb7	-0.5575823
196	0x3e5c2f22	0.21502355
197	0x3f3d9368	0.7405305
198	0x3e3f5286	0.18683824
199	0x3ee2585f	0.44208047
200	0x3ebcbf4b	0.36864695
201	0xbd739f72	-0.05947823
202	0xbe870023	-0.26367292
203	0x3f47996c	0.7796848
204	0x3f58e4ca	0.84724104
205	0xbeed04f2	-0.46292835
206	0x3fd5e033	1.6709045
207	0x3efee369	0.49782875
208	0x3e38e534	0.18056184
209	0xbf3545a2	-0.70809376
210	0x3e8bf061	0.27331832
211	0xbec01e59	-0.37523153
212	0xbedd28cf	-0.43195197
213	0x3ecc129d	0.3985795
214	0xbf090c94	-0.5353482
215	0xbf130d19	-0.5744186
216	0x3e00b1bf	0.12567805
217	0xbe483334	-0.19550782
218	0x3e97fa31	0.29683068
219	0x3f34a43d	0.7056311
220	0x3f32b182	0.69802105
221	0x3f224568	0.63387156
222	0x3f8d9382	1.1060641
223	0x3e9a1cff	0.30100247
224	0xbe832f3a	-0.25621969
225	0x3f9502e0	1.1641502
226	0xbf475853	-0.7786915
227	0x3ea1fe57	0.31639358
228	0x3fc58282	1.5430453
229	0x3e51f466	0.20503387
230	0xbdd385c0	-0.10328245
231	0x3db71535	0.08939592
232	0xbee248b9	-0.44196108
233	0xbc5fd180	-0.013660789
234	0xbfcf03fc	-1.6173091
235	0x3e3a0b93	0.18168478
236	0x3e86f1db	0.26356396
237	0x3e85f76b	0.26165327
238	0x3c3fb4b6	0.0117008
239	0xbe0acfff	-0.13555907
240	0x3f4fba5f	0.81143755
241	0x3e541897	0.20712505
242	0x3de7b142	0.11313106
243	0x3e85ad8b	0.26108965
244	0x3f1af184	0.60524774
245	0xbf3fd1a5	-0.7492927
246	0xbe80990a	-0.2511676
247	0x3ea959f5	0.33076444
248	0x3efe3d95	0.49656358
249	0xbf89bbb9	-1.0760413
250	0xbea508d5	-0.322333
251	0x3e9406c8	0.28911424
252	0xbc2cabc7	-0.010539002
253	0xbecd523b	-0.401018
254	0xbef27c40	-0.4736042
255	0x3f23665b	0.6382806
