model/epoch_2632.pth (torch_old, 251719 bytes, 10 tensors)

lstm.weight_ih_l0 f4 [256, 20]
2.0429947 2.1809168 4.552208 -1.0914354 0.094011284 -0.2510575 0.5901051 -0.22258356
1.1500615 -0.84541523 -0.72626895 -0.34493235 0.5490685 -1.3486754 0.7468837 -0.2603923
2.3981402 0.944104 2.2434165 -1.2001042 -1.2667385 1.0331155 0.48599058 -0.61374354
0.7837575 1.6210169 0.8305775 0.002629048 2.2761714 1.1786993 -0.01857013 -0.36852953
2.3117435 0.41721243 -0.08721002 -0.07639357 -0.57788444 -1.4146788 3.5293925 -0.40783307
-0.4188225 -0.13871616 1.4315178 2.1353688 -1.5803272 0.6673219 -0.59374195 -0.1306498
2.203977 1.2711058 -0.11069908 -0.51945007 1.5569596 2.5110931 -0.20408444 2.0146005
0.5186246 -0.037987705 -0.75491947 0.85902184 2.5814302 1.2478569 -0.9666379 0.7976441
1.1250464 0.16176997 0.01768084 -1.1410394 -2.915617 3.911251 0.57409066 -0.47066113
1.5139762 -0.70163846 3.9405046 -0.25412613 -1.3633322 0.99549854 0.5050662 1.8839306
-0.3545432 -0.2871189 0.17014374 -0.19243771 -0.2750755 1.5070713 -1.0038354 -0.04624038
0.5411271 0.05182081 1.088401 -0.3721604 1.7986971 0.8718295 2.76613 -0.17979528
1.3407098 0.07877566 1.7589766 1.0701905 0.7510735 3.670124 -0.57434934 0.66279525
-0.8641536 0.35828638 -1.3838283 0.60717136 0.100569114 0.42539904 -0.11681981 0.1416195
0.33596143 -0.33280644 -1.1429384 1.9443449 0.118105724 -0.2219341 -1.2806729 0.71639246
-0.28081754 0.46175453 3.0792866 -0.3472038 -0.241937 -0.04847886 -0.2435134 1.6815755
1.3291136 2.1530488 1.1274759 -0.7910898 0.44814005 -0.8788351 0.9733636 1.0094042
0.56604165 -1.989987 1.1645106 -0.34380534 -0.07132524 0.97112775 0.9792379 0.47099853
2.0956514 -0.32213035 -0.77771986 1.2202843 -3.067482 -1.206954 0.529107 -0.82660085
0.21748379 1.8307164 2.3715043 0.27165163 0.84231913 -0.2567112 -2.105593 0.63091403
-0.6819826 4.4266567 0.011458097 -0.22846366 0.27476406 -1.5495877 3.1093254 0.7594799
-0.63066447 0.45369908 -0.78231525 0.08407491 -0.63397735 1.1599408 0.09389564 -0.9422107
2.4014506 1.1191415 -0.47049114 0.28462282 0.7697243 0.011707197 0.24121283 -0.1862689
-0.4379902 -0.5330809 0.9773027 -1.1095529 -0.71986204 1.2030416 -0.4628514 0.8450105
2.8583786 -1.5414904 1.2396631 0.6781147 -0.87763697 -1.2002317 -0.26952434 0.01085064
0.033497613 0.9910015 -0.3618154 -0.36342195 0.5364598 0.5877422 -0.9794444 2.5823984
1.6752559 -0.404042 0.29269153 -0.987729 0.36073545 -0.109120004 0.59855896 0.05838413
0.7853573 1.6399524 1.2272342 0.018798703 -1.4322962 -0.07164936 -0.58048576 -0.7013662
0.55985236 0.14902109 0.36819336 1.7028372 2.965856 -0.42359328 0.0048466427 0.12667798
-0.097454846 1.0118511 2.0982895 0.15641263 1.3768284 0.9784874 0.32512388 -0.1867579
-1.9440578 0.5310988 -0.44407645 0.566377 -0.69903874 0.81114155 0.5683696 0.80660874
0.9168253 0.24646536 -1.0321852 0.75756973 2.289838 1.9183916 -0.8450844 -0.98512524
00000000: 6dc0 0240 2494 0b40 b0ab 9140 28b4 8bbf
00000010: fd88 c03d 9c8a 80be 2111 173f f2ec 63be
00000020: 3735 933f 226d 58bf c3ec 39bf f99a b0be
00000030: c18f 0c3f 65a1 acbf c533 3f3f 2452 85be
00000040: 217b 1940 cdb0 713f 2394 0f40 049d 99bf
00000050: 7d24 a2bf 213d 843f c2d3 f83e 4c1e 1dbf
00000060: 55a4 483f 7b7d cf3f baa0 543f 1b4c 2c3b
00000070: cbac 1140 9edf 963f 6320 98bc e7af bcbe
00000080: 9bf3 1340 de9c d53e 2b9b b2bd 3b74 9cbd
00000090: 3cf0 13bf 3214 b5bf 91e1 6140 7fcf d0be
000000a0: e76f d6be 9c0b 0ebe fa3b b73f e2a9 0840
000000b0: 2948 cabf 9cd5 2a3f 79ff 17bf 10c9 05be
000000c0: f60d 0d40 98b3 a23f 33b6 e2bd aefa 04bf
000000d0: 744a c73f c0b5 2040 83fb 50be 37ef 0040
000000e0: 95c4 043f ff98 1bbd 6742 41bf dbe8 5b3f
000000f0: 2736 2540 c6b9 9f3f 9575 77bf 6732 4c3f
00000100: 8501 903f 07a7 253e 69d7 903c 940d 92bf
00000110: 7899 3ac0 f051 7a40 9bf7 123f 7ffa f0be
00000120: f9c9 c13f 949e 33bf 3a31 7c40 d21c 82be
00000130: ab81 aebf fed8 7e3f 054c 013f a324 f13f
00000140: b086 b5be 4001 93be 293a 2e3e 640e 45be
00000150: b2d6 8cbe b6e7 c03f ae7d 80bf 8d66 3dbd
00000160: 4e87 0a3f 0f42 543d b950 8b3f cf8b bebe
00000170: b53b e63f 3830 5f3f 4608 3140 411c 38be
00000180: 619c ab3f 2255 a13d 2526 e13f 01fc 883f
00000190: 5a46 403f 50e3 6a40 8f08 13bf f3ac 293f
000001a0: 2c39 5dbf 5071 b73e 4921 b1bf 956f 1b3f
000001b0: 2ef7 cd3d e7cd d93e 393f efbd b404 113e
000001c0: 2303 ac3e 9b65 aabe ce4b 92bf 4be0 f83f
000001d0: 6ae1 f13d b142 63be 17ed a3bf 7f65 373f
000001e0: 51c7 8fbe 176b ec3e 0813 4540 b2c4 b1be
000001f0: 55be 77be c591 46bd 945b 79be de3d d73f
00000200: 6520 aa3f 8dcb 0940 2151 903f dc84 4abf
00000210: 9d72 e53e 56fb 60bf 5b2e 793f 2834 813f
00000220: 1be8 103f e5b7 febf af0e 953f 4107 b0be
00000230: f812 92bd d49b 783f 56af 7a3f b826 f13e
00000240: 271f 0640 45ee a4be a618 47bf 4732 9c3f
00000250: a051 44c0 787d 9abf 8e73 073f 1d9c 53bf
00000260: 12b4 5e3e ea54 ea3f bac6 1740 ec15 8b3e
00000270: 3aa2 573f a76f 83be 09c2 06c0 9583 213f
00000280: 6996 2ebf 2ca7 8d40 beba 3b3c 61f2 69be
00000290: e0ad 8c3e e458 c6bf 30ff 4640 466d 423f
000002a0: 3a73 21bf 3f4b e83e d045 48bf 772f ac3d
000002b0: 574c 22bf f178 943f 5b4c c03d b834 71bf
000002c0: 5eb1 1940 0740 8f3f 37e4 f0be 15ba 913e
000002d0: a70c 453f 8bcf 3f3c 7f00 773e 46bd 3ebe
000002e0: 4040 e0be fd77 08bf 8230 7a3f d405 8ebf
000002f0: e148 38bf 44fd 993f dcfa ecbe 9c52 583f
00000300: adef 3640 8f4f c5bf 48ad 9e3f ed98 2d3f
00000310: d1ac 60bf 31a1 99bf 18ff 89be e2c6 313c
00000320: cb34 093d 46b2 7d3f de3f b9be 7112 babe
00000330: 6e55 093f 4676 163f debc 7abf 0446 2540
00000340: c96e d63f 98de cebe aadb 953e cfdb 7cbf
00000350: 51b2 b83e 4f7a dfbd 293b 193f 3324 6f3d
00000360: 2d0d 493f f6e9 d13f 0316 9d3f bdff 993c
00000370: 7b55 b7bf e6bc 92bd b79a 14bf bc8c 33bf
00000380: 7c52 0f3f fc98 183e d783 bc3e 92f6 d93f
00000390: 96d0 3d40 38e1 d8be 96d0 9e3b dfb7 013e
000003a0: 6896 c7bd 5684 813f 604a 0640 a22a 203e
000003b0: ea3b b03f 267e 7a3f a376 a63e 773d 3fbe
000003c0: e3d6 f8bf 17f6 073f fd5d e3be 15fe 103f
000003d0: 34f4 32bf f9a6 4f3f ac80 113f e97d 4e3f
000003e0: 10b5 6a3f 6a61 7c3e a51e 84bf 17f0 413f
000003f0: b58c 1240 db8d f53f 7457 58bf 2b31 7cbf

lstm.weight_hh_l0 f4 [256, 64]
0.08449426 0.48181957 0.79842925 0.4816204 0.6444707 0.38205618 0.6410446 0.37643838
-0.5474834 0.63773644 -0.08491862 -0.3655788 -0.018465053 -0.90663123 0.7423898 -0.6612025
-1.5000318 0.7668544 -0.62543446 0.62445444 -0.07139097 0.50783473 -1.0970712 -0.8901985
-1.017228 -0.6589235 -1.2471408 0.29092762 -0.09556854 -0.33328757 0.07266572 0.58004415
-0.21028784 0.48147696 -0.43598852 1.2164607 -0.66244864 -0.02652322 -0.5005519 -0.33269614
-0.3059532 -0.63645595 0.57310784 -0.26983154 -0.49914518 -0.7504121 0.048143826 -0.5832152
0.2585432 0.82079536 0.34450534 0.4860332 0.57714146 0.14669432 -1.1640074 1.2473072
0.3927231 0.6131826 -0.19699879 -0.05841972 0.46581537 -0.9505794 -0.41901022 0.5845058
-0.5962929 0.2469921 -0.2783782 -0.18931602 -1.127819 1.3233515 0.532177 -0.020902136
0.8131433 1.1863408 0.29789183 -0.585485 -0.2789225 -0.07579494 -0.30968317 -0.5489076
-0.51561105 -0.5216765 -0.13066009 0.832657 0.5565162 0.12804586 -0.19561626 0.35089007
-0.4350111 0.11110966 -0.12418837 -1.3135471 -0.06882688 0.4060213 -0.1943839 0.91495425
0.07051389 1.0095388 -0.8231137 0.46665916 -1.0738591 0.4263265 0.71715975 -0.120790176
0.49610585 0.013855131 -0.5135834 -0.264717 0.11013649 -0.22441566 -0.008767952 0.670674
0.1017353 -0.5883364 -0.44274965 0.32439053 1.029864 0.50724494 0.97781336 0.8656838
-0.850266 -0.5278305 0.55254537 -0.10380283 -0.021107651 0.5775885 -0.33232784 -0.14074443
-0.6484887 1.7155533 0.35311982 0.89354056 -0.37697342 -0.40383446 0.8018291 -0.784628
-0.754666 -0.034226965 0.55680513 -1.5593119 -0.2987494 0.08259555 -0.14149325 0.16342297
-0.60666203 -0.44092217 -0.101596996 -0.7001883 0.17682663 -0.59273916 -1.1137736 -0.7398828
-1.2928767 0.25932488 0.08398665 -0.53253096 0.56153584 0.24922736 -0.27215788 -0.122999
-0.4155762 -0.23928764 -0.8699793 -0.34083018 -0.6048465 0.40727046 0.5641538 1.0826718
-0.036911562 -0.12569861 0.48973134 0.037505537 0.47183096 0.088936 -1.0260198 -0.39888507
-0.41112065 0.08727456 0.49458572 0.6798897 0.9731879 0.38607055 0.34740105 1.0070425
0.2803612 -1.0671928 -0.37100637 -0.3033053 0.22511154 -0.2762539 -0.44790334 -0.28960934
0.15975139 0.45729768 -0.4139766 -0.101556234 0.57265735 -0.17191568 0.15649165 0.4245983
-0.7888242 0.09995157 -0.17300592 0.1452246 -0.2707238 0.72199166 0.58414024 -0.64651847
-0.55578244 -0.025745343 -0.8823831 1.415003 -0.32250637 -0.76096416 0.47389433 -0.29763785
-0.9967219 0.64610267 0.29613113 0.22553374 0.90680385 0.52816916 -0.5910106 -0.5750513
-0.53315204 -0.1522997 -0.19390842 -0.51336783 -0.9020459 0.90318406 -0.17457545 -0.78688544
-1.0782773 -0.67450833 1.1439409 0.2988793 -0.5662538 -0.22077002 -1.1036352 -0.35751894
-0.23070997 -0.18707113 -0.75196564 1.8347828 -1.4449795 -0.11940474 0.5472716 0.47185445
0.256382 0.5132955 0.9070727 -0.8456508 0.11190219 -0.67788815 -0.07662168 -0.022895431
00000000: 540b ad3d 0eb1 f63e dc65 4c3f f396 f63e
00000010: 08fc 243f de9c c33e 801b 243f 88bc c03e
00000020: df27 0cbf b242 233f d0e9 adbd 252d bbbe
00000030: 0644 97bc fc18 68bf 420d 3e3f 9144 29bf
00000040: 0b01 c0bf 9250 443f 791c 20bf 3fdc 1f3f
00000050: 6e35 92bd 7501 023f d46c 8cbf 0de4 63bf
00000060: 8734 82bf 36af 28bf 4fa2 9fbf 77f4 943e
00000070: 70b9 c3bd aba4 aabe c4d1 943d c67d 143f
00000080: b255 57be 2684 f63e e339 dfbe fcb4 9b3f
00000090: 3c96 29bf 3947 d9bc 2b24 00bf 2657 aabe
000000a0: e6a5 9cbe c7ee 22bf 32b7 123f 5c27 8abe
000000b0: f58f ffbe 021b 40bf 7632 453d 974d 15bf
000000c0: c65f 843e a51f 523f 0163 b03e 58d9 f83e
000000d0: 8bbf 133f 0937 163e 32fe 94bf c3a7 9f3f
000000e0: 0113 c93e 89f9 1c3f 0dba 49be 8449 6fbd
000000f0: 5a7f ee3e 2c59 73bf 8288 d6be 2ca2 153f
00000100: a7a6 18bf 7feb 7c3e 9687 8ebe 0fdc 41be
00000110: 5f5c 90bf 9563 a93f c03c 083f f53a abbc
00000120: 292a 503f 04da 973f 4785 983e 58e2 15bf
00000130: eece 8ebe 613a 9bbd cb8e 9ebe 3585 0cbf
00000140: 16ff 03bf 978c 05bf c2cb 05be 0229 553f
00000150: d877 0e3f 741e 033e a14f 48be dda7 b33e
00000160: c6b9 debe 768d e33d 7956 febd 5022 a8bf
00000170: 1bf5 8cbd 06e2 cf3e 930c 47be 713a 6a3f
00000180: 9669 903d 9138 813f 94b7 52bf f3ed ee3e
00000190: 3774 89bf 7847 da3e c897 373f d760 f7bd
000001a0: 9601 fe3e a200 633c 347a 03bf fd88 87be
000001b0: 3d8f e13d 38cd 65be 75a7 0fbc 4bb1 2b3f
000001c0: 995a d03d 379d 16bf 15b0 e2be 8416 a63e
000001d0: 95d2 833f ceda 013f fa51 7a3f 749d 5d3f
000001e0: 08ab 59bf e61f 07bf 9d73 0d3f 9496 d4bd
000001f0: f4e9 acbc d7dc 133f e026 aabe 4f1f 10be
00000200: 5b03 26bf 4097 db3f 1fcc b43e 13bf 643f
00000210: a902 c1be 64c3 cebe ac44 4d3f 61dd 48bf
00000220: ca31 41bf 9331 0cbd c88a 0e3f 8897 c7bf
00000230: aef5 98be db27 a93d 9be3 10be 5a58 273e
00000240: 344e 1bbf 8dc0 e1be 1612 d0bd 8a3f 33bf
00000250: 0a12 353e c1bd 17bf 2290 8ebf f668 3dbf
00000260: fc7c a5bf 3bc6 843e 3101 ac3d f353 08bf
00000270: d0c0 0f3f 7535 7f3e 4758 8bbe e6e6 fbbd
00000280: 67c6 d4be d207 75be f7b6 5ebf 4b81 aebe
00000290: 38d7 1abf c185 d03e 626c 103f fd94 8a3f
000002a0: 9430 17bd 23b7 00be 11be fa3e 689f 193d
000002b0: d493 f13e 1424 b63d 9e54 83bf aa3a ccbe
000002c0: 687e d2be 01bd b23d 573a fd3e 400d 2e3f
000002d0: d822 793f 0aab c53e 8dde b13e c5e6 803f
000002e0: 818b 8f3e c699 88bf 8cf4 bdbe d54a 9bbe
000002f0: a483 663e 2771 8dbe 9653 e5be ad47 94be
00000300: de95 233e ec22 ea3e bef4 d3be b7fc cfbd
00000310: ac99 123f aa0a 30be 593f 203e f364 d93e
00000320: 62f0 49bf 69b3 cc3d 7728 31be c2b5 143e
00000330: 4f9c 8abe 72d4 383f 378a 153f 3c82 25bf
00000340: c247 0ebf e6e7 d2bc dce3 61bf d11e b53f
00000350: 8e1f a5be 8cce 42bf 47a2 f23e fd63 98be
00000360: 2b29 7fbf fc66 253f 809e 973e 51f2 663e
00000370: 4c24 683f 1836 073f 784c 17bf 9036 13bf
00000380: a77c 08bf 74f4 1bbe ee8f 46be 136c 03bf
00000390: 7bec 66bf 1237 673f e8c3 32be 5371 49bf
000003a0: fe04 8abf 94ac 2cbf a86c 923f b506 993e
000003b0: 02f6 10bf 8911 62be eb43 8dbf b90c b7be
000003c0: 3c3f 6cbe 938f 3fbe d280 40bf 2ada ea3f
000003d0: 17f5 b8bf 798a f4bd fe19 0c3f e896 f13e
000003e0: 8044 833e 5567 033f eb35 683f 927c 58bf
000003f0: fa2c e53d 148a 2dbf d4eb 9cbd 338f bbbc

lstm.bias_ih_l0 f4 [256]
0.13700147 0.45714998 0.74473816 0.63349354 0.31028494 0.67867994 0.7326939 0.43885458
0.22921033 0.43548843 0.3628457 0.49224636 0.5414783 0.16092364 0.54109186 0.37176684
0.3326642 0.47217935 0.6093851 0.44676954 0.23608375 0.620644 0.09856355 0.9831082
0.5904415 0.9178207 0.08799508 0.07049873 0.40203986 0.8170012 0.66130227 0.20562078
0.6316265 0.113709345 0.2535252 0.43819404 0.6370654 0.4094438 0.21260029 0.37908193
0.62563413 0.67047065 0.72923076 0.66093105 0.4312707 0.13051242 0.5592482 0.32155105
0.53697836 0.39567053 0.7986898 0.23641054 0.47903052 0.18274747 0.48697338 -0.078396186
0.35996935 0.19335938 0.5319493 0.8088033 0.7673387 0.05249825 0.62188065 0.49363813
-0.003719291 0.079014614 0.17250872 0.12619185 0.17780827 -0.0012388952 0.078727834 0.12730369
0.16686462 0.31548125 0.3805447 0.16800922 -0.3357615 0.49118704 0.06744542 -0.15808447
0.22664264 -0.17698316 0.33676872 0.07924993 -0.07986543 0.0092958 0.13935953 -0.045120586
0.08926646 0.123421736 -0.16033281 0.1396677 0.070839636 0.08060932 0.40952075 0.17155664
0.56468767 -0.00048005435 0.13940811 0.054348186 0.078806505 0.2984609 0.05066839 -0.065208755
-0.046454288 0.107359126 0.12170201 0.22458023 0.28613567 0.07622417 0.28733137 -0.07068058
-0.04327932 -0.0044326326 0.09403838 -0.060926437 0.0398212 0.19578096 0.14535062 0.5353091
0.11170273 0.3321112 -0.07169914 0.09154854 0.3405093 0.46769267 0.038747948 0.3047936
0.0011392245 0.12036511 -0.085725896 0.12121034 0.10295463 -0.10973719 -0.04556327 0.026683725
-0.1649659 0.10766373 0.12381202 -0.15728669 -0.067731656 -0.098534316 0.11833223 -0.16080172
-0.0839244 0.009541416 -0.03262781 0.089366026 0.019712633 -0.09842975 -0.08092848 -0.035399184
-0.10433282 -0.02185017 0.047789786 -0.12988445 0.15610607 0.021726588 -0.20615189 0.16727303
-0.06589573 -0.00792109 -0.10209533 0.01657963 0.072050795 -0.10675846 -0.035314646 -0.031287577
-0.082286745 -0.038123704 0.12789279 -0.11008044 -0.29999602 -0.025488403 -0.09973308 -0.10851375
-0.14363754 0.045723636 -0.17883217 0.075591266 -0.060269013 0.11104509 -0.039130803 0.030406635
0.09428147 0.10685821 0.015511289 -0.13894701 0.043595232 -0.07415359 -0.16664033 0.09979036
0.5147624 0.5647511 0.6040448 0.66746473 0.30541703 0.5186083 0.574163 0.18783002
0.08158721 0.11515343 0.31896 -0.22718348 0.11735129 -0.14292267 0.619844 0.39908257
0.017101975 0.4431346 0.058682956 0.18950455 -0.06625386 -0.029376645 0.07844354 0.22471963
-0.12538214 0.13086644 -0.44036636 0.022519488 0.101973824 0.34027895 0.39659807 0.38228706
0.26211652 0.5117031 0.014215974 0.338215 0.2515396 -0.14845541 0.21739961 0.27697757
0.28111562 0.2553176 0.20540251 0.14930466 0.6957449 0.254502 0.10724355 0.14047341
0.57120293 0.7617913 0.48900107 0.08285452 0.3191803 -0.027820835 0.6568257 0.28382578
0.5163111 -0.06839787 0.3240341 0.25770396 1.0790336 -0.020165695 0.4052251 0.4357815
00000000: 1d4a 0c3e 900f ea3e 29a7 3e3f a22c 223f
00000010: abdd 9e3e f8bd 2d3f d491 3b3f 8cb1 e03e
00000020: 1db6 6a3e 57f8 de3e e9c6 b93e b707 fc3e
00000030: 529e 0a3f 2bc9 243e ff84 0a3f 3958 be3e
00000040: f652 aa3e 7ec1 f13e a900 1c3f fabe e43e
00000050: f0bf 713e 86e2 1e3f b0db c93d fbac 7b3f
00000060: 2d27 173f 4cf6 6a3f c436 b43d a361 903d
00000070: 2bd8 cd3e fe26 513f 1b4b 293f 418e 523e
00000080: 46b2 213f 72e0 e83d 0ece 813e f85a e03e
00000090: b816 233f 9ea2 d13e e4b3 593e 0717 c23e
000000a0: 8f29 203f f7a3 2b3f deae 3a3f c732 293f
000000b0: 83cf dc3e 0ca5 053e e42a 0f3f 57a2 a43e
000000c0: 6a77 093f 5495 ca3e ef76 4c3f 9b15 723e
000000d0: 7d43 f53e 2722 3b3e 9354 f93e 2e8e a0bd
000000e0: e74d b83e 0000 463e d42d 083f bc0d 4f3f
000000f0: 4f70 443f 6808 573d 9233 1f3f 23be fc3e
00000100: 59bf 73bb 6ad2 a13d 20a6 303e 7038 013e
00000110: 5f13 363e 6d62 a2ba 0f3c a13d e65b 023e
00000120: 8fde 2a3e c286 a13e c1d6 c23e 9c0a 2c3e
00000130: eee8 abbe de7c fb3e d320 8a3d e5e0 21be
00000140: 0215 683e 133b 35be f36c ac3e ca4d a23d
00000150: 7d90 a3bd 694d 183c 44b4 0e3e 5dd0 38bd
00000160: 55d1 b63d 89c4 fc3d 492e 24be 0d05 0f3e
00000170: 5f14 913d 8016 a53d b4ac d13e 8bac 2f3e
00000180: 5f8f 103f ceaf fbb9 00c1 0e3e 349c 5e3d
00000190: 4e65 a13d decf 983e a889 4f3d 2b8c 85bd
000001a0: da46 3ebd 1adf db3d e73e f93d 5cf8 653e
000001b0: 6080 923e 6b1b 9c3d 191d 933e fbc0 90bd
000001c0: a845 31bd 9e3f 91bb 3297 c03d 008e 79bd
000001d0: 8e1b 233d ce7a 483e cbd6 143e 040a 093f
000001e0: 67c4 e43d 7b0a aa3e 00d7 92bd cd7d bb3d
000001f0: 3c57 ae3e 6a75 ef3e 2bb6 1e3d e80d 9c3e
00000200: 0852 953a fc81 f63d 0f91 afbd 203d f83d
00000210: e1d9 d23d e4bd e0bd 8da0 3abd d497 da3c
00000220: d2ec 28be cd7e dc3d 2891 fd3d c30f 21be
00000230: e5b6 8abd 5ccc c9bd 2b58 f23d 35a9 24be
00000240: 8ee0 abbd 9953 1c3c bda4 05bd 8905 b73d
00000250: 637c a13c 8995 c9bd d5bd a5bd bcfe 10bd
00000260: 72ac d5bd 21ff b2bc 39bf 433d 6e00 05be
00000270: 45da 1f3e f5fb b13c 7b19 53be 9f49 2b3e
00000280: 57f4 86bd 76c7 01bc 5b17 d1bd 01d2 873c
00000290: 5e8f 933d 2ea4 dabd 17a6 10bd 6727 00bd
000002a0: f485 a8bd 9a27 1cbd 54f6 023e db71 e1bd
000002b0: 1499 99be 0ecd d0bc db40 ccbd 753c debd
000002c0: b815 13be b548 3b3d c81f 37be 98cf 9a3d
000002d0: a4dc 76bd 9c6b e33d 9f47 20bd 5617 f93c
000002e0: a516 c13d 7ad8 da3d 1023 7e3c 2048 0ebe
000002f0: ea90 323d d6dd 97bd c3a3 2abe e35e cc3d
00000300: 78c7 033f 8793 103f aea2 1a3f f8de 2a3f
00000310: 9f5f 9c3e 83c3 043f 59fc 123f 8356 403e
00000320: 3217 a73d 90d5 eb3d ba4e a33e c9a2 68be
00000330: e055 f03d 525a 12be 19ae 1e3f 8d54 cc3e
00000340: 7119 8c3c 8ae2 e23e 8a5d 703d 7b0d 423e
00000350: 1bb0 87bd 4aa7 f0bc 02a7 a03d e71c 663e
00000360: 2d64 00be da01 063e b377 e1be ca7a b83c
00000370: a7d7 d03d 0b39 ae3e e70e cb3e 21bb c33e
00000380: 2334 863e f9fe 023f 1eea 683c 842a ad3e
00000390: ccc9 803e b204 18be 019e 5e3e 01d0 8d3e
000003a0: 63ee 8f3e fdb8 823e 0955 523e 52e3 183e
000003b0: 561c 323f 164e 823e 82a2 db3d 43d8 0f3e
000003c0: 5b3a 123f c104 433f 595e fa3e a1af a93d
000003d0: 9a6b a33e 85e8 e3bc bb25 283f 9d51 913e
000003e0: f72c 043f 2f14 8cbd cce7 a53e c6f1 833e
000003f0: c61d 8a3f 8732 a5bc aa79 cf3e c11e df3e

lstm.bias_hh_l0 f4 [256]
0.023290342 0.41425467 0.727981 0.45473665 0.3823791 0.63422716 0.6555359 0.4751521
0.3974978 0.3810993 0.51501125 0.4481086 0.5656615 0.34265396 0.53916425 0.23647
0.5154525 0.56399006 0.39991242 0.26646394 0.24549435 0.5460443 0.31524515 0.9531344
0.6957692 1.0411896 0.21338691 -0.12140534 0.46569726 0.8910091 0.736738 0.25348747
0.7125594 0.18900733 0.31807342 0.51063246 0.5358696 0.40402433 0.14838013 0.36587545
0.44831747 0.7046305 0.5966626 0.446296 0.5520158 0.30388963 0.32944718 0.3681313
0.33539248 0.4894569 0.72453314 0.3428865 0.62810135 0.10073896 0.33989576 -0.07026824
0.38984367 0.29001337 0.5548841 0.7423846 0.8586297 0.19333678 0.6113279 0.26878184
-0.0020950632 0.13320386 0.24804582 0.11873257 0.32049802 0.028250622 -0.025320994 0.14256565
0.24414207 0.21201812 0.41743657 0.11737461 -0.17271382 0.4630518 0.047179036 0.040072028
0.18767172 -0.07739597 0.2649243 0.14695942 -0.010124235 0.11759439 -0.033737972 -0.09006909
0.20867738 0.12346444 -0.17904228 0.029839236 -0.13896789 -0.041385584 0.31278574 0.30206513
0.5988711 0.041256852 0.23449472 0.100817576 0.11257605 0.20362791 0.12133075 -0.031079378
-0.0546242 0.14497797 0.06840667 0.09818823 0.19726062 0.08595762 0.36779234 0.036560584
-0.072749265 -0.18659216 -0.043743007 0.1340594 0.054410502 0.046736576 0.1474692 0.4492726
0.064710416 0.17881876 -0.049245656 0.26410586 0.31208292 0.5094147 0.08507805 0.48583332
-0.06716544 0.09551643 -0.21090238 0.13366947 0.16236469 -0.22843765 -0.05485255 0.24172422
-0.05273182 -0.03317373 0.048182398 -0.26169407 0.08234101 -0.15299875 0.15468577 -0.14658144
-0.09904686 0.043495063 -0.071921885 0.11559769 0.11366328 0.030129815 -0.061972383 0.03572627
-0.03886631 0.12257505 -0.08669381 -0.05763301 -0.03988081 0.0035558527 -0.15280013 0.03969899
-0.038600184 0.04958933 -0.14023678 -0.016451051 0.06610765 0.06509056 -0.0052250167 0.022441354
-0.08866875 -0.0044314424 0.1857905 0.016621549 -0.1799765 -0.104302764 -0.077420995 0.05458664
0.0034372227 0.070537 -0.1883866 0.010969511 -0.15247045 0.069388814 0.04966257 -0.022482365
0.12626742 0.10917794 -0.08668996 -0.027449034 -0.008703002 -0.004973385 -0.040230285 -0.10958564
0.56451243 0.5017035 0.49299476 0.7777594 0.2924817 0.7226851 0.61579144 0.33327177
0.057754487 0.13591482 0.2899778 -0.18831222 0.08604649 -0.044544693 0.62999547 0.5683813
0.15132475 0.36131096 0.01549582 0.26648602 -0.09072505 -0.11222862 0.24098808 0.25832006
0.038170002 0.18634674 -0.24627477 -0.017868422 0.20465688 0.28647336 0.37794536 0.52131754
0.20170516 0.5297963 0.1574252 0.50265247 0.43993652 0.013105646 0.08978705 0.1892842
0.12942906 0.28694665 0.26017293 0.2830008 0.7016806 0.037697148 0.10543216 0.11553685
0.54201156 0.7129849 0.43163234 0.27057838 0.23225217 0.1871025 0.5489651 0.30036014
0.64118105 -0.082074985 0.3221137 0.37593228 1.1623174 -0.12823515 0.3122645 0.42419523
00000000: 63cb be3c 3019 d43e f65c 3a3f 3ed3 e83e
00000010: 32c7 c33e b65c 223f 33d1 273f 2347 f33e
00000020: d584 cb3e 731f c33e c7d7 033f 7e6e e53e
00000030: 31cf 103f 5770 af3e ab06 0a3f 3125 723e
00000040: b2f4 033f a761 103f 52c1 cc3e f66d 883e
00000050: df62 7b3e 8fc9 0b3f d067 a13e 9e00 743f
00000060: ee1d 323f b345 853f 1982 5a3e 5da3 f8bd
00000070: df6f ee3e 2c19 643f dd9a 3c3f 1cc9 813e
00000080: 4b6a 363f 238b 413e 85da a23e cfb8 023f
00000090: c02e 093f 47dc ce3e f6f0 173e 0754 bb3e
000000a0: de89 e53e aa62 343f e1be 183f e980 e43e
000000b0: e850 0d3f 6c97 9b3e 4dad a83e b57b bc3e
000000c0: 90b8 ab3e 189a fa3e 017b 393f d28e af3e
000000d0: 40cb 203f 3a50 ce3d d106 ae3e cce8 8fbd
000000e0: 9799 c73e a27c 943e e20c 0e3f eb0c 3e3f
000000f0: 28cf 5b3f 14fa 453e fc7f 1c3f c69d 893e
00000100: 544d 09bb 9866 083e b9ff 7d3e 102a f33d
00000110: 5118 a43e d96d e73c f96d cfbc bbfc 113e
00000120: 6100 7a3e 471b 593e 3fba d53e 1962 f03d
00000130: e4db 30be 2015 ed3e ce3e 413d 9122 243d
00000140: 042d 403e c781 9ebd 28a4 873e 887c 163e
00000150: 1fe0 25bc 54d5 f03d d430 0abd 2576 b8bd
00000160: 86af 553e edda fc3d dc56 37be 6a71 f43c
00000170: 994d 0ebe ee83 29bd 7425 a03e 48a8 9a3e
00000180: 9e4f 193f f2fc 283d 621f 703e 7279 ce3d
00000190: 468e e63d d683 503e 427c f83d 2e9a febc
000001a0: a0bd 5fbd 1b75 143e cc18 8c3d e916 c93d
000001b0: b0fe 493e 8c0a b03d 474f bc3e 8dc0 153d
000001c0: 91fd 94bd 0412 3fbe de2b 33bd de46 093e
000001d0: 8cdd 5e3d da6e 3f3d 2a02 173e 0f07 e63e
000001e0: e586 843d 441c 373e d0b5 49bd e238 873e
000001f0: 55c9 9f3e 0069 023f 673d ae3d 25bf f83e
00000200: 098e 89bd 1e9e c33d cbf6 57be a6e0 083e
00000210: ee42 263e 8feb 69be 11ad 60bd 8e86 773e
00000220: 52fd 57bd 2de1 07bd e85a 453d c4fc 85be
00000230: 67a2 a83d b4ab 1cbe f265 1e3e 7219 16be
00000240: 15d9 cabd e127 323d c84b 93bd 7bbe ec3d
00000250: 4bc8 e83d cdd2 f63c c1d6 7dbd b655 123d
00000260: 4832 1fbd a108 fb3d 868c b1bd 9710 6cbd
00000270: 0f5a 23bd 4f09 693b a377 1cbe 689b 223d
00000280: 3a1b 1ebd 2e1e 4b3d 3b9a 0fbe 5bc4 86bc
00000290: 7363 873d 334e 853d 9e36 abbb eed6 b73c
000002a0: f697 b5bd a235 91bb dd3f 3e3e ea29 883c
000002b0: c24b 38be b09c d5bd e68e 9ebd 3e96 5f3d
000002c0: 0743 613b b475 903d 6be8 40be 77b9 333c
000002d0: 3721 1cbe b91b 8e3d fb6a 4b3d f02c b8bc
000002e0: 3f4c 013e af98 df3d 818a b1bd ccdc e0bc
000002f0: 0997 0ebc c7f7 a2bb 83c8 24bd 706e e0bd
00000300: e383 103f a46f 003f cf69 fc3e 3d1b 473f
00000310: 29c0 953e e401 393f 82a4 1d3f 99a2 aa3e
00000320: f88f 6c3d 412d 0b3e f877 943e ebd4 40be
00000330: 2439 b03d 7f74 36bd 6247 213f 7081 113f
00000340: e0f4 1a3e c0fd b83e 2ee2 7d3c db70 883e
00000350: 0ece b9bd 1ed8 e5bd 94c5 763e 8742 843e
00000360: 2658 1c3d aed1 3e3e 742f 7cbe cc60 92bc
00000370: 9391 513e a3ac 923e 0e82 c13e 1175 053f
00000380: cc8b 4e3e bba0 073f 1234 213e d5ad 003f
00000390: 5c3f e13e 10b9 563c 46e2 b73d b8d3 413e
000003a0: 0d89 043e acea 923e 6335 853e 7be5 903e
000003b0: 57a1 333f 5368 1a3d d1ec d73d 969e ec3d
000003c0: 45c1 0a3f 2e86 363f eafe dc3e 4089 8a3e
000003d0: 83d3 6d3e cc97 3f3e fa88 0c3f cec8 993e
000003e0: 7124 243f ee16 a8bd 16ec a43e 327a c03e
000003f0: d1c6 943f 1350 03be 22e1 9f3e 1e30 d93e

lstm.weight_ih_l1 f4 [256, 64]
-0.71222526 -0.080831744 -0.038197584 -0.07859072 0.22553958 0.16359273 -0.035369262 -0.27264017
-0.5242305 0.29346937 -0.1584744 -0.097890384 0.2848604 -0.44019184 -0.15735723 -0.3928742
-0.27650174 0.18265012 0.08992532 -0.09671704 -0.20338587 0.3027645 -0.31838793 0.11025163
-0.2701972 0.68079627 0.35562065 -0.05507804 -0.46060586 0.32184485 -0.041707017 0.004676816
0.17558205 -0.192883 0.15527318 -0.03293611 0.5461313 -0.30377746 0.1604467 0.20407218
0.14823748 -0.12543681 0.30140236 -0.042218003 0.2988133 0.11455406 -0.4819664 0.27953956
0.40851843 -0.06446507 -0.039118532 -0.67981064 0.2560156 0.15745433 0.69190997 -0.0060685896
-0.10500132 -0.13136548 -0.09310806 -0.62779653 0.208306 0.0070197852 0.042347886 0.24466401
0.22523372 0.76217276 -0.24899644 0.101313956 0.10669732 -0.34005815 -0.30060816 -0.4381468
-0.23335202 -0.5355167 -0.91868365 0.65552795 -0.1880265 0.12866126 0.20034371 -0.39056313
0.072089225 -0.101871185 -0.27019006 -0.09592075 0.10491838 0.70402175 -0.5373924 0.14055021
-0.5608419 -0.13889045 0.24062967 -0.21355733 0.84156996 -0.37761915 0.044605557 -0.6527874
0.19161023 0.11406592 -0.042992838 0.5164406 -0.28133222 -0.057895083 -0.26308963 0.2653586
0.4553676 0.15209346 0.9226783 -0.063858196 0.32660466 0.51298213 -0.13054189 0.2497949
-0.07403 0.19478709 -0.6144256 0.12014782 0.061386928 0.17061864 -0.55544436 -0.24332222
0.113001056 -0.16813806 0.5126113 0.1257027 0.82506895 0.013732224 -0.07428035 -0.1662949
-0.5552192 -0.31991452 -0.65202814 -0.41515207 -0.23334041 0.17355645 0.29519102 0.36109692
-0.00924954 0.10364513 -0.47831738 -0.06921612 0.57370484 0.8347225 0.02675558 -0.41829097
-0.30882522 0.2985868 0.0837067 -0.039368384 0.12666363 -0.28407887 0.25545555 -0.17197284
0.24802628 -0.3699586 -0.41325054 -0.24012159 0.68129706 -0.26443115 0.17124051 0.1846882
-0.06675044 0.11077597 -0.12958184 -1.1202114 -0.78034186 0.25619644 -0.16275857 0.09804965
-0.050194707 -0.2935669 0.33107346 0.46308312 0.10350813 0.23910092 0.061154116 0.4621901
-0.14993058 -0.26923835 0.16787958 -0.18698943 -0.24929908 0.063647725 0.57363296 -0.039418675
0.33917516 -0.0169111 0.0029924084 0.0980135 -0.19253804 -0.18355708 0.44499317 -0.059913997
0.054544453 0.30602065 -0.32812908 0.56807935 -0.5370433 0.5099419 1.058463 1.1058866
0.14165856 0.37175664 0.07768788 -0.47669128 0.2623372 0.17264129 -0.1490679 0.604644
-0.08856116 -0.01934914 0.055540413 0.24477226 1.0058141 -0.4212902 0.08385393 -0.12113264
-0.674316 0.32743305 -0.96968156 0.6428422 -0.41839918 0.09822361 -0.54112154 -0.32829356
-0.5530872 0.055943966 0.18098173 -0.60692173 0.2183878 0.4242283 -0.19484699 0.57128966
-0.3973217 -0.2590768 -0.33541906 -0.27417323 -0.4731884 -0.12651445 -0.17654839 -0.24194692
-0.34532088 -0.5995625 -0.4062538 0.76543593 -0.13190949 0.52587247 0.5066834 -0.052018736
0.002387426 1.6078906 0.05836745 -0.31626013 -1.2135034 0.03817627 0.16845113 -0.2479828
00000000: 6554 36bf 1d8b a5bd 1275 1cbd 2cf4 a0bd
00000010: d9f3 663e da84 273e 5cdf 10bd 7e97 8bbe
00000020: f833 06bf 9e41 963e 1d47 22be c17a c8bd
00000030: 39d9 913e d360 e1be 4122 21be cf26 c9be
00000040: a391 8dbe a208 3b3e c42a b83d 9513 c6bd
00000050: 6344 50be f303 9b3e be03 a3be 9bcb e13d
00000060: 4a57 8abe aa48 2e3f e913 b63e 8399 61bd
00000070: 88d4 ebbe d9c8 a43e fad4 2abd fa3f 993b
00000080: c8cb 333e 1f83 45be efff 1e3e 04e8 06bd
00000090: 43cf 0b3f b888 9bbe 244c 243e 4cf8 503e
000000a0: 91cb 173e 8272 00be 6951 9a3e c9ec 2cbd
000000b0: 0ffe 983e 529b ea3d 4dc4 f6be cf1f 8f3e
000000c0: 5429 d13e 4306 84bd c13a 20bd 1208 2ebf
000000d0: 7a14 833e b53b 213e 0321 313f 05db c6bb
000000e0: ef0a d7bd ac84 06be 70af bebd 46b7 20bf
000000f0: 2b4e 553e 3a06 e63b fa74 2d3d 3489 7a3e
00000100: aba3 663e c11d 433f ecf8 7ebe b17d cf3d
00000110: 2084 da3d 1a1c aebe 50e9 99be c754 e0be
00000120: d5f3 6ebe 9f17 09bf da2e 6bbf aed0 273f
00000130: 058a 40be c7bf 033e e726 4d3e e4f7 c7be
00000140: 84a3 933d d7a1 d0bd 5a56 8abe 1972 c4bd
00000150: 73df d63d c53a 343f 8c92 09bf 65ec 0f3e
00000160: 5693 0fbf 4c39 0ebe a067 763e c6ae 5abe
00000170: 2171 573f 4c57 c1be 51b4 363d 131d 27bf
00000180: 7935 443e 659b e93d 4219 30bd 7335 043f
00000190: c70a 90be 6523 6dbd afb3 86be 15dd 873e
000001a0: f125 e93e 63be 1b3e a534 6c3f 16c8 82bd
000001b0: ba38 a73e cc52 033f c6ac 05be 3cca 7f3e
000001c0: 0a9d 97bd 4476 473e ff4a 1dbf 0f10 f63d
000001d0: dc70 7b3d a7b6 2e3e 9a31 0ebf 7629 79be
000001e0: 196d e73d 622c 2cbe 7f3a 033f 35b8 003e
000001f0: b837 533f 1ffd 603c 4c20 98bd 3649 2abe
00000200: d822 0ebf d6cb a3be 51eb 26bf d08e d4be
00000210: caf0 6ebe c8b8 313e 4723 973e b2e1 b83e
00000220: 628b 17bc e643 d43d 04e6 f4be 2ec1 8dbd
00000230: 52de 123f 60b0 553f 852e db3c 3c2a d6be
00000240: 571e 9ebe 5ee0 983e 6b6e ab3d be40 21bd
00000250: 1cb4 013e c972 91be 12cb 823e a619 30be
00000260: 9afa 7d3e 376b bdbe 9395 d3be 6fe2 75be
00000270: 7c69 2e3f 8563 87be ac59 2f3e e71e 3d3e
00000280: 74b4 88bd 83de e23d 1ab1 04be 1663 8fbf
00000290: 7cc4 47bf 2e2c 833e 2faa 26be 41ce c83d
000002a0: f798 4dbd 674e 96be 7682 a93e 3b19 ed3e
000002b0: 12fc d33d dfd6 743e bd7c 7a3d 2ea4 ec3e
000002c0: 6787 19be 9cd9 89be a0e8 2b3e 287a 3fbe
000002d0: 4248 7fbe bd59 823d 9cd9 123f 7a75 21bd
000002e0: 5ea8 ad3e 2689 8abc 481c 443b 4dbb c83d
000002f0: b128 45be 63f6 3bbe 25d6 e33e 6168 75bd
00000300: 016a 5f3d bdae 9c3e 8900 a8be a66d 113f
00000310: ab7b 09bf 8d8b 023f b77b 873f b18d 8d3f
00000320: f10e 113e e356 be3e d31a 9f3d e110 f4be
00000330: 1051 863e e1c8 303e 41a5 18be f3c9 1a3f
00000340: 8e5f b5bd 1682 9ebc 587e 633d 94a5 7a3e
00000350: 84be 803f 59b3 d7be 9cbb ab3d 6414 f8bd
00000360: f99f 2cbf 4ea5 a73e 0d3d 78bf 4e91 243f
00000370: 6b38 d6be 7629 c93d f186 0abf 1816 a8be
00000380: 1f97 0dbf 8025 653d 4653 393e 395f 1bbf
00000390: 0da1 5f3e 7434 d93e f885 47be 0a40 123f
000003a0: c06d cbbe b7a5 84be 0cbc abbe 6f60 8cbe
000003b0: c045 f2be 018d 01be 1ac9 34be efc0 77be
000003c0: e6cd b0be ee7c 19bf 8000 d0be 9cf3 433f
000003d0: 4813 07be 949f 063f 01b6 013f 9911 55bd
000003e0: 5d76 1c3b 5ccf cd3f b512 6f3d d9ec a1be
000003f0: 1454 9bbf b85e 1c3d 747e 2c3e 34ef 7dbe

lstm.weight_hh_l1 f4 [256, 64]
0.6431515 -0.21140373 -0.45596284 0.26624352 -0.7831047 0.51103014 0.2743172 0.3012246
-0.4494346 0.36884692 0.1080936 -0.3343124 0.45369712 -0.6140619 0.5789775 -0.9406939
0.45579022 -0.11593305 -0.07020668 -0.9761203 0.020483097 -0.1079673 0.6851779 0.7720722
0.32144612 -0.423719 -0.037718005 0.20960169 0.48132378 0.2808559 0.3508762 0.69597113
0.26862964 -0.55911225 -1.0779748 0.15873787 -0.17844538 -1.4891587 0.08432194 0.60598737
-0.1644739 -0.58182865 0.32231173 0.2931519 0.45168516 -0.079621285 0.47114736 -0.5699398
0.362898 0.9574417 -0.24382898 -0.19039632 -1.0085213 0.85773283 0.9255028 -0.20676857
0.72142875 0.38324293 0.50903475 0.61545277 0.72406477 0.57897973 0.71204007 -0.82713276
0.0036954177 -0.89101577 -0.30860883 0.42480224 0.26795423 -0.7536557 -0.11138523 -0.034298923
0.059570692 0.042087886 -0.8468862 -0.8692643 -0.19323877 0.8660038 0.37396634 -0.5605951
0.14146028 0.5050479 -0.8317233 -0.004076011 -0.27536756 0.88885677 0.3465294 0.5672175
-0.08542685 0.726542 -0.103308715 0.028458174 -0.070284575 0.28807706 -0.086371966 -0.49090979
0.06270553 0.8648893 0.68920064 0.07543651 0.60120904 0.8189383 1.5512261 0.1325694
1.4643267 0.86013234 -0.62960666 -0.3303854 -0.47223246 0.29906973 -1.4352285 0.4157621
1.3741782 -0.17101042 -1.0438693 -0.18839595 -0.5476597 0.8145217 -0.32197824 -0.7881995
-0.3107457 -0.96133536 -0.5178384 0.733604 -0.32024288 0.2437125 -0.50069094 -1.1943351
0.6848031 0.33972117 -0.10820637 0.10703004 -1.0467795 -0.12041475 0.7493031 -0.010480001
0.04411934 1.4141791 0.6068558 0.4500199 -0.5683361 0.21559696 -0.58282644 -0.23473941
-0.45420074 0.2655654 -0.016020076 -0.13692811 0.04022211 -0.33820212 -0.37045678 -0.68530965
-0.17329516 0.27832273 -1.7299378 -0.2479158 -0.22243223 -0.73982346 -0.24491553 0.061143752
0.8229849 -1.0443342 0.78269744 0.15779711 1.5446994 0.56796396 0.33562958 -0.73181385
-0.22959796 0.101664685 -1.3867743 -2.5850744 0.33644572 -0.011147572 0.011131171 -0.5950456
-0.009765305 0.14619218 -0.26397458 0.589158 -0.6637536 -0.43280637 0.60456103 0.5302124
-0.7357495 -2.0161057 0.40715286 0.4689746 -0.13837644 -0.0017985642 -0.72112685 -0.4875834
-0.97780174 0.44757694 -0.4265359 -0.11186036 -0.59787107 -0.74512744 0.15748411 -0.54996353
0.01473583 -0.15296857 1.4300094 0.06336635 -0.2288614 1.1415961 0.60054725 0.59794927
-0.50160336 -1.2614634 0.5151219 -0.9390976 -0.3581793 0.43815887 0.5360734 -0.47310326
-0.42512387 -0.4417082 0.16651705 -0.9921739 0.61373353 -0.34533918 -0.3627576 -0.2561766
-0.41568705 0.44884855 -0.17996623 -0.7491257 0.6253027 0.36829168 1.2086152 -0.27336845
0.51622564 -0.52892274 -1.394312 0.36762425 -1.3964972 1.1622338 -0.18718754 -0.65869814
-0.84911346 0.8406373 0.4442946 -0.4900592 -0.32053086 -1.0240053 -0.98099804 0.37792265
-0.6512341 0.5524932 -0.39633006 0.5703809 0.09576797 0.9168727 -1.2491219 0.66727734
00000000: 94a5 243f 387a 58be f673 e9be 1251 883e
00000010: 8d79 48bf dfd2 023f 4e73 8c3e 1c3a 9a3e
00000020: 4b1c e6be 81d9 bc3e 2d60 dd3d ff2a abbe
00000030: fd4a e83e 2933 1dbf df37 143f 51d1 70bf
00000040: 565d e93e 4f6e edbd 85c8 8fbd 05e3 79bf
00000050: 2bcc a73c f61d ddbd d267 2f3f 86a6 453f
00000060: 9694 a43e b2f1 d8be 327e 1abd d3a1 563e
00000070: 1270 f63e 58cc 8f3e 0ca6 b33e 2a2b 323f
00000080: d389 893e fb21 0fbf 14fb 89bf 2e8c 223e
00000090: 63ba 36be c19c bebf fbb0 ac3d fd21 1b3f
000000a0: d96b 28be b9f2 14bf 0b06 a53e 0118 963e
000000b0: 4743 e73e 7c10 a3bd 3a3a f13e 93e7 11bf
000000c0: c4cd b93e e61a 753f 4eae 79be 41f7 42be
000000d0: 3a17 81bf 6194 5b3f c0ed 6c3f 24bb 53be
000000e0: 8eaf 383f 6b38 c43e 1a50 023f 508e 1d3f
000000f0: 4f5c 393f 0438 143f 4248 363f f9be 53bf
00000100: d22e 723b 9c19 64bf fa01 9ebe ae7f d93e
00000110: 4c31 893e 94ef 40bf f11d e4bd 077d 0cbd
00000120: 6600 743d 5964 2c3d 89cd 58bf 1b88 5ebf
00000130: 62e0 45be 6db2 5d3f 8478 bf3e 2983 0fbf
00000140: f7da 103e d24a 013f d1eb 54bf 0f90 85bb
00000150: fafc 8cbe 1e8c 633f 4d6c b13e 2b35 113f
00000160: 46f4 aebd a8fe 393f 8593 d3bd 1e21 e93c
00000170: 5cf1 8fbd d67e 933e c9e3 b0bd 8758 fbbe
00000180: c26b 803d 6369 5d3f 746f 303f 757e 9a3d
00000190: d6e8 193f f1a5 513f 948e c63f 46c0 073e
000001a0: 0f6f bb3f a231 5c3f e72d 21bf 4628 a9be
000001b0: 74c8 f1be ab1f 993e 91b5 b7bf c5de d43e
000001c0: 12e5 af3f 5b1d 2fbe 829d 85bf deea 40be
000001d0: 6d33 0cbf 7e84 503f 55da a4be 71c7 49bf
000001e0: 0f1a 9fbe 131a 76bf 0f91 04bf 79cd 3b3f
000001f0: e0f6 a3be c58f 793e 482d 00bf f9df 98bf
00000200: 424f 2f3f efef ad3e 4d9b ddbd 9132 db3d
00000210: dffc 85bf 029c f6bd 54d2 3f3f 4fb4 2bbc
00000220: 7bb6 343d d203 b53f e75a 1b3f 0269 e63e
00000230: 7a7e 11bf 73c5 5c3e 1d34 15bf 875f 70be
00000240: 008d e8be 30f8 873e 893c 83bc e236 0cbe
00000250: f0bf 243d d428 adbe 83ac bdbe 7470 2fbf
00000260: 4974 31be 5180 8e3e 9a6e ddbf a4dd 7dbe
00000270: 46c5 63be 1265 3dbf 23cb 7abe df71 7a3d
00000280: 23af 523f beac 85bf dc5e 483f 9195 213e
00000290: b6b8 c53f 1666 113f a4d7 ab3e 2758 3bbf
000002a0: ba1b 6bbe 9335 d03d d281 b1bf dc71 25c0
000002b0: 9d42 ac3e 4ea4 36bc 845f 363c e954 18bf
000002c0: a8fe 1fbc 67b3 153e ad27 87be 0fd3 163f
000002d0: c2eb 29bf cc98 ddbe 83c4 1a3f 00bc 073f
000002e0: 145a 3cbf e007 01c0 5776 d03e 701d f03e
000002f0: 8eb2 0dbe cdbd ebba c59b 38bf 88a4 f9be
00000300: 3751 7abf ce28 e53e ea62 dabe 0b17 e5bd
00000310: 140e 19bf acc0 3ebf 8443 213e 69ca 0cbf
00000320: 8d6e 713c cba3 1cbe 8c0a b73f 38c6 813d
00000330: a55a 6abe d21f 923f 77bd 193f 3413 193f
00000340: 1469 00bf a277 a1bf 07df 033f b368 70bf
00000350: 4763 b7be 5c56 e03e 1b3c 093f 973a f2be
00000360: d6a9 d9be 9427 e2be 7283 2a3e 1cff 7dbf
00000370: a41d 1d3f 4cd0 b0be 5dbb b9be 9429 83be
00000380: efd4 d4be 7acf e53e 1149 38be b4c6 3fbf
00000390: d613 203f ba90 bc3e e7b3 9a3f f3f6 8bbe
000003a0: 5d27 043f 7b67 07bf d178 b2bf 3f39 bc3e
000003b0: 6cc0 b2bf 14c4 943f 17ae 3fbe 71a0 28bf
000003c0: 805f 59bf 0234 573f 957a e33e 0ae9 fabe
000003d0: 9f1c a4be 9b12 83bf b022 7bbf 147f c13e
000003e0: 47b7 26bf 3270 0d3f c6eb cabe 7c04 123f
000003f0: ff21 c43d 2bb8 6a3f 3ae3 9fbf b0d2 2a3f

lstm.bias_ih_l1 f4 [256]
0.6029259 0.87334514 0.06162993 0.1679019 0.0596378 0.10679989 0.2263046 -0.0510601
-0.04984337 0.2936598 0.55346453 -0.09125946 0.08163855 0.6509634 0.42342043 0.8894499
0.35794583 0.218634 0.32960916 0.41261452 0.20851661 0.40867305 0.30398896 0.069769196
0.042559963 -0.13602239 0.15092677 0.8362278 0.6244381 0.5858654 0.6786372 0.2736568
0.3389563 0.7443439 0.89824414 -0.43641925 0.33850738 0.0137871625 -0.2780956 1.0215378
0.088145554 0.5381828 0.0799595 0.9176914 0.9880202 0.5861521 -0.497826 0.0017224945
-0.3255536 0.091063544 0.056595106 0.047776937 0.34434187 0.3632599 0.46343783 0.6626202
0.29268506 0.8458102 0.9094403 -0.2729564 -0.024990812 0.8677576 0.28003767 -0.061456505
-0.25682625 0.16698919 -0.41095686 0.039923843 0.17984499 0.41097367 -0.2791992 -0.27825093
-0.21971078 -0.11803146 0.248318 -0.26799393 -0.2308179 0.43555012 -0.052232374 -0.15589117
0.21971416 -0.36557207 0.27108538 0.12860829 0.2519833 -0.33985943 -0.013755912 0.09722076
0.37853256 -0.55320215 -0.24591719 -0.53692156 -0.40434465 -0.5542799 -0.06365477 0.23126061
0.1495777 -0.30801564 0.12505032 0.2957925 -0.2950245 0.11089901 -0.39077508 0.2130303
-0.20161182 0.17975342 0.16991802 0.15216832 0.26685125 -0.011486506 0.18578814 0.8111512
0.024246017 -0.41908544 -0.027834322 0.18132201 -0.4710571 -0.15074234 -0.13000374 0.028616
-0.090787 0.17910928 0.5821031 -0.18422094 0.44734174 0.36218143 0.5521817 -0.6186597
-0.13274607 -0.2206513 0.15919964 -0.064103924 0.032560658 -0.4861482 0.029230935 -0.116705775
-0.35769546 0.069283694 0.13403927 0.27940395 -0.11428009 0.11660316 -0.23298575 -0.102605775
0.38259318 -0.14358467 0.023965886 -0.2380562 0.120421246 -0.00031681726 0.20058224 0.04701465
-0.17605628 0.010478436 0.022250548 0.5595009 0.23535095 0.28324705 0.17805158 -0.08787507
0.050329115 0.27951837 0.22696908 0.4915277 -0.044434328 -0.02590358 -0.10338529 0.14400932
0.31637055 -0.05109063 -0.015500864 -0.2494686 0.119175926 -0.41304803 -0.4190455 0.17083243
0.011417545 0.25475064 0.13560304 -0.12134762 -0.019559462 -0.39441964 0.37181625 0.1721607
0.23950037 -0.0018910712 -0.1852427 0.09211288 0.44020256 0.45616126 -0.1252731 0.14139079
0.25629696 0.12776303 0.19848773 -0.4053921 0.2523328 1.0360483 0.22397833 0.20417418
0.54279053 0.25381747 -0.38594157 0.3004102 0.53825605 -0.18721373 0.74130833 0.33629128
0.4411289 -0.26301867 0.05697178 0.10085392 -0.059745204 0.89534944 -0.2961685 -0.064181946
-0.06438748 0.42502305 0.08717407 0.9786352 0.8411352 0.7224906 0.48019812 0.3220484
-0.14423206 0.8264644 -0.103837416 0.70030457 1.1431264 -0.29415298 0.3524892 0.12588666
-0.053099755 -0.10974534 -0.7346116 0.287256 0.4953386 0.6500432 0.2978406 -0.052196093
0.6221951 0.29903543 0.24766485 0.59293383 0.86988956 -0.35047698 0.17540617 0.27617952
0.48777592 -0.292047 0.1687607 0.60744935 0.49855706 -0.20098542 -0.027216792 0.6916367
00000000: 5a59 1a3f 8c93 5f3f aa6f 7c3d 7aee 2b3e
00000010: c446 743d e7b9 da3d 65bc 673e 6524 51bd
00000020: 9028 4cbd 945a 963e daaf 0d3f 3de6 babd
00000030: 1d32 a73d 8aa5 263f 90ca d83e fdb2 633f
00000040: ad44 b73e 97e1 5f3e 88c2 a83e 3642 d33e
00000050: 6185 553e 983d d13e 71a4 9b3e 27e3 8e3d
00000060: 5b53 2e3d 7449 0bbe 8c8c 1a3e 0613 563f
00000070: 2ddb 1f3f 46fb 153f 2bbb 2d3f be1c 8c3e
00000080: ae8b ad3e 528d 3e3f 54f3 653f 5872 dfbe
00000090: d750 ad3e 8de3 613c 8c62 8ebe c0c1 823f
000000a0: a885 b43d 59c6 093f cec1 a33d d3ed 6a3f
000000b0: e4ee 7c3f 100e 163f 0de3 febe 53c5 e13a
000000c0: f6ae a6be 867f ba3d 45d0 673d c0b1 433d
000000d0: 944d b03e 34fd b93e b947 ed3e 7aa1 293f
000000e0: d1da 953e 0487 583f 14d1 683f f1c0 8bbe
000000f0: 88b9 ccbc 5d25 5e3f 1961 8f3e d1b9 7bbd
00000100: bb7e 83be 37ff 2a3e f068 d2be 2f87 233d
00000110: 4929 383e 246b d23e 33f3 8ebe e876 8ebe
00000120: ddfb 60be 7aba f1bd 1347 7e3e 8036 89be
00000130: 875b 6cbe 6d00 df3e 9df1 55bd efa1 1fbe
00000140: c0fc 603e 432c bbbe b4cb 8a3e e4b1 033e
00000150: f503 813e 0e02 aebe 7a60 61bc ae1b c73d
00000160: 05cf c13e a89e 0dbf b7d1 7bbe b173 09bf
00000170: 4306 cfbe 4ae5 0dbf 6f5d 82bd 95cf 6c3e
00000180: e62a 193e 3ab4 9dbe 310d 003e 1d72 973e
00000190: 740d 97be 051f e33d ac13 c8be 9d24 5a3e
000001a0: 5473 4ebe 4811 383e fdfe 2d3e 03d2 1b3e
000001b0: baa0 883e e631 3cbc 3f3f 3e3e 9ba7 4f3f
000001c0: 959f c63c 5e92 d6be ce04 e4bc 7aac 393e
000001d0: 652e f1be 335c 1abe b31f 05be 1a6c ea3c
000001e0: 89ee b9bd 6c68 373e b504 153f 6aa4 3cbe
000001f0: fa09 e53e d86f b93e c85b 0d3f 7b60 1ebf
00000200: 96ee 07be 6af2 61be 3b05 233e eb48 83bd
00000210: 535e 053d 6be8 f8be b775 ef3c 7003 efbd
00000220: dc23 b7be 9ce4 8d3d 9741 093e 090e 8f3e
00000230: ae0b eabd a3cd ee3d d193 6ebe fa22 d2bd
00000240: 41e3 c33e dc07 13be 1b54 c43c 01c5 73be
00000250: 6a9f f63d 7e1a a6b9 6e65 4d3e 6f92 403d
00000260: 1948 34be bfad 2b3c c846 b63c 733b 0f3f
00000270: d7ff 703e c205 913e 2753 363e d8f7 b3bd
00000280: e725 4e3d 081d 8f3e 956a 683e 85a9 fb3e
00000290: c500 36bd bf33 d4bc abbb d3bd 2e77 133e
000002a0: 52fb a13e 6944 51bd 56f7 7dbc b274 7fbe
000002b0: 8212 f43d 087b d3be 228d d6be b2ee 2e3e
000002c0: a810 3b3c ad6e 823e 86db 0a3e 1a85 f8bd
000002d0: 2a3b a0bc 5ff1 c9be b35e be3e e54a 303e
000002e0: 963f 753e d2dd f7ba 43b0 3dbe ada5 bc3d
000002f0: 3b62 e13e f88d e93e 9747 00be bfc8 103e
00000300: 5b39 833e 50d4 023e 5e40 4b3e 8e8f cfbe
00000310: c431 813e 3b9d 843f 935a 653e 0913 513e
00000320: 52f4 0a3f 5df4 813e 229a c5be 5ecf 993e
00000330: 26cb 093f f5b4 3fbe 62c6 3d3f 5f2e ac3e
00000340: a6db e13e 62aa 86be 3e5b 693d 808c ce3d
00000350: 63b7 74bd 9f35 653f 66a3 97be d371 83bd
00000360: 95dd 83bd 9f9c d93e 5288 b23d d687 7a3f
00000370: a354 573f 25f5 383f 87dc f53e 87e3 a43e
00000380: 92b1 13be 2c93 533f b6a8 d4bd 2947 333f
00000390: f751 923f 389b 96be 7779 b43e 6fe8 003e
000003a0: 217f 59bd 2ac2 e0bd 810f 3cbf 3813 933e
000003b0: 059d fd3e 3b69 263f 907e 983e 92cb 55bd
000003c0: 2e48 1f3f 2c1b 993e db9b 7d3e 83ca 173f
000003d0: 15b1 5e3f b871 b3be ad9d 333e 6767 8d3e
000003e0: c4bd f93e 2f87 95be 9bcf 2c3e cd81 1b3f
000003f0: df42 ff3e 1fcf 4dbe c0f5 debc 1a0f 313f

lstm.bias_hh_l1 f4 [256]
0.80633426 0.9626508 0.28120703 0.10639898 0.20710626 0.2548116 0.18479334 -0.067222424
0.07912864 0.12785411 0.55493695 -0.14942949 0.06456743 0.5000535 0.5020012 0.9930491
0.23098554 0.24876732 0.2928871 0.35810485 0.21798591 0.35050496 0.1310241 -0.008484863
0.109216064 -0.2148936 0.26656827 0.8782323 0.4155102 0.7966444 0.69009084 0.10185065
0.36634308 0.9252854 0.6998851 -0.34248924 0.48776454 -0.0974082 -0.2816053 0.86679274
0.0504945 0.52923054 0.15704189 0.82277524 1.0387892 0.66608715 -0.42056885 -0.011084812
-0.18028021 0.06840212 -0.1259409 0.1326137 0.30386394 0.43271327 0.36155817 0.61212337
0.3112965 0.9365849 0.8842176 -0.14695174 0.060174078 0.8541187 0.27244374 -0.19467786
-0.31248397 0.14232865 -0.34491706 0.024829816 0.33110437 0.38856918 -0.31674036 -0.36127064
-0.21901953 0.009865971 0.44160482 -0.4566657 -0.23376457 0.24981397 -0.015174056 -0.34151074
0.14862992 -0.31829756 0.31596237 0.289563 0.25618726 -0.33568302 -0.06474927 0.01636232
0.27663633 -0.4872262 -0.1881048 -0.57205915 -0.54973876 -0.44763994 -0.14319974 0.12941022
-0.07436088 -0.4806974 0.2050485 0.32628706 -0.20694077 0.12426852 -0.46627235 -0.0106229605
-0.13769686 0.4067847 -0.0015613922 0.22024553 0.39475438 -0.051285557 0.30758733 0.61393476
-0.17387678 -0.36003777 0.057417516 0.24887566 -0.44987264 -0.25179496 0.017542493 0.040809005
-0.15831381 0.1138829 0.49831685 -0.29224622 0.289833 0.31284764 0.4188602 -0.5013993
-0.109798275 -0.32279444 0.1420887 -0.17417352 -0.15775234 -0.49898624 0.17818795 0.11340366
-0.14275797 0.145583 0.056661796 0.197245 0.076945424 -0.019604567 -0.18826923 -0.08567548
0.3535913 -0.13063897 -0.0673502 -0.2835575 0.13939825 0.16112289 0.19923797 0.08152522
-0.10408742 -0.011884404 -0.08454116 0.51458573 0.20924395 0.21857053 0.19519398 0.12713912
-0.14474843 0.09466041 0.30657232 0.48401773 -0.08298438 -0.01823821 -0.20177011 0.21374284
0.3988736 -0.053508744 -0.1104916 -0.2681838 0.21563613 -0.47007647 -0.42112607 0.068226404
-0.106761545 0.08559276 0.10909105 -0.13214159 -0.033391878 -0.411002 0.29859704 0.19052663
0.061436575 -0.03760531 -0.028969735 0.038358904 0.35780948 0.4860478 -0.25127032 0.25687546
0.314855 0.16309306 0.086754695 -0.3546562 0.29039052 0.94720036 0.25362083 0.3044909
0.6776094 0.36159366 -0.49588522 0.38123974 0.43785426 -0.1618874 0.9263995 0.48731193
0.32203886 -0.2890807 0.092305146 0.23417522 -0.044359155 0.70149237 -0.33385423 -0.14727554
-0.08381454 0.34203905 0.14048205 1.112892 0.8268786 0.830064 0.39808846 0.17403175
-0.22568347 0.73918605 -0.08940318 0.5049911 0.99098694 -0.15980814 0.46425712 0.23821919
0.13801005 0.0069782343 -0.6980566 0.3853286 0.39259598 0.591977 0.14075555 -0.181267
0.7487382 0.3415891 0.24376823 0.48108283 0.72319347 -0.42825416 0.22798257 0.46510074
0.48846933 -0.24610268 0.30624285 0.69182146 0.5252543 -0.066526994 0.09752594 0.73162466
00000000: ec6b 4e3f 4870 763f 5efa 8f3e b5e7 d93d
00000010: aa13 543e ab76 823e 773a 3d3e e9ab 89bd
00000020: 320e a23d 30ec 023e 5910 0e3f 0b04 19be
00000030: ee3b 843d 8203 003f 2783 003f 7738 7e3f
00000040: 7987 6c3e dcbc 7e3e 4cf5 953e 8559 b73e
00000050: b337 5f3e 6375 b33e 2f2b 063e 1804 0bbc
00000060: acac df3d 110d 5cbe a37b 883e d5d3 603f
00000070: c1bd d43e e3f0 4b3f cba9 303f 1397 d03d
00000080: 5291 bb3e 81df 6c3f ab2b 333f c05a afbe
00000090: 46bc f93e f37d c7bd 922e 90be 21e6 5d3f
000000a0: 52d3 4e3d a77b 073f 97cf 203e 66a1 523f
000000b0: 0bf7 843f b084 2a3f cd54 d7be 129d 35bc
000000c0: 609b 38be 6916 8c3d a7f6 00be e3cb 073e
000000d0: 0e94 9b3e 988c dd3e 271e b93e 1eb4 1c3f
000000e0: 4162 9f3e 07c4 6f3f 165c 623f 847a 16be
000000f0: 1879 763d 86a7 5a3f bf7d 8b3e a259 47be
00000100: e6fd 9fbe 9abe 113e f898 b0be e667 cb3c
00000110: 8386 a93e 8af2 c63e cb2b a2be 77f8 b8be
00000120: a846 60be e2a4 213c 071a e23e 16d0 e9be
00000130: fb5f 6fbe 3ccf 7f3e 9b9c 78bc 7fda aebe
00000140: 7132 183e e6f7 a2be d2c5 a13e 9a41 943e
00000150: fa2a 833e a5de abbe 449b 84bd 460a 863c
00000160: 47a3 8d3e b675 f9be 8b9e 40be 7872 12bf
00000170: aebb 0cbf 1031 e5be f4a2 12be 1d84 043e
00000180: 844a 98bd f81d f6be 3cf8 513e 190f a73e
00000190: 48e8 53be 7e80 fe3d 40bb eebe ed0b 2ebc
000001a0: 6800 0dbe 1646 d03e a1a7 ccba 0b88 613e
000001b0: 3f1d ca3e ce10 52bd 167c 9d3e d42a 1d3f
000001c0: c10c 32be df56 b8be a12e 6b3d 43d9 7e3e
000001d0: b555 e6be 45eb 80be 46b5 8f3c 5827 273d
000001e0: 041d 22be 703b e93d 6323 ff3e 4ca1 95be
000001f0: fe64 943e 912d a03e d874 d63e b45b 00bf
00000200: ebdd e0bd 5045 a5be b37f 113e 8b5a 32be
00000210: d489 21be 207b ffbe e776 363e 2e40 e83d
00000220: 252f 12be b613 153e 3316 683d 98fa 493e
00000230: 9095 9d3d c299 a0bc a6c9 40be a076 afbd
00000240: eb09 b53e 39c6 05be e7ee 89bd 732e 91be
00000250: 6abe 0e3e 66fd 243e 0a05 4c3e b2f6 a63d
00000260: c92b d5bd ceb6 42bc ea23 adbd e4bb 033f
00000270: 0c44 563e f4d0 5f3e eee0 473e c230 023e
00000280: ef38 14be 51dd c13d 0cf7 9c3e 2cd1 f73e
00000290: b7f3 a9bd 4c68 95bc d39c 4ebe 67df 5a3e
000002a0: 2939 cc3e fc2b 5bbd 6c49 e2bd 634f 89be
000002b0: b8cf 5c3e ddad f0be d69d d7be 49ba 8b3d
000002c0: cca5 dabd 424b af3d 216b df3d 2050 07be
000002d0: ecc5 08bd db6e d2be b6e1 983e 6a19 433e
000002e0: eba4 7b3d 0708 1abd f051 edbc 3a1e 1d3d
000002f0: ce32 b73e 42db f83e 81a6 80be 2e85 833e
00000300: ad34 a13e de01 273e 72ac b13d 7f95 b5be
00000310: 11ae 943e b97b 723f 97da 813e 3be6 9b3e
00000320: cf77 2d3f ce22 b93e abe4 fdbe db31 c33e
00000330: 6f2e e03e d0c5 25be 8528 6d3f f380 f93e
00000340: 47e2 a43e 6302 94be 7b0a bd3d a1cb 6f3e
00000350: f2b1 35bd 0195 333f f1ee aabe 66cf 16be
00000360: f5a6 abbd be1f af3e 87da 0f3e 3f73 8e3f
00000370: 51ae 533f 137f 543f 40d2 cb3e 6135 323e
00000380: 9119 67be 4c3b 3d3f 0419 b7bd 1947 013f
00000390: 52b1 7d3f bfa4 23be 1cb3 ed3e bbef 733e
000003a0: 8252 0d3e aca9 e43b d6b3 32bf ca49 c53e
000003b0: 5702 c93e ce8b 173f 3922 103e 0e9e 39be
000003c0: 4fad 3f3f c4e4 ae3e 619e 793e 7d50 f63e
000003d0: 3523 393f 2144 dbbe 4374 693e af21 ee3e
000003e0: a718 fa3e 5702 7cbe ddcb 9c3e 361b 313f
000003f0: 1177 063f 4e3f 88bd aebb c73d c14b 3b3f
