model/epoch_4737.pth (torch_old, 270668 bytes, 10 tensors)

lstm.weight_ih_l0 f4 [256, 20]
0	0x3fb66202	1.424866
1	0x405581ef	3.3360555
2	0x407b2ec2	3.9247289
3	0xbf97c9b9	-1.1858436
4	0xbdb821d0	-0.08990824
5	0xbecc89a7	-0.3994877
6	0x3ffeeb05	1.9915472
7	0x3f18357b	0.59456605
8	0x3ee3d2eb	0.44496855
9	0xbdbdbf78	-0.092650354
10	0xbe8134b7	-0.2523553
11	0xbf1e0d18	-0.6173873
12	0x3edbb139	0.42908648
13	0xbfc4b567	-1.536786
14	0x3e3e4576	0.18581185
15	0xbe850784	-0.25982296
16	0x407005d7	3.7503564
17	0xbcbde550	-0.023180634
18	0x408db1d7	4.427959
19	0xbf0293b9	-0.51006657
20	0xbf768ed4	-0.9631169
21	0x3f53592e	0.8255795
22	0x3f39df16	0.7260603
23	0xbf8b263d	-1.0871044
24	0x3fef6520	1.8702736
25	0x3fae1d90	1.3602772
26	0x3dbdf569	0.09275324
27	0xbdc9e522	-0.09858157
28	0x404fc00a	3.2460961
29	0x4019d46a	2.4035897
30	0x3e998866	0.29986876
31	0x3d958e70	0.073025584
32	0x4040986b	3.0093029
33	0xbeca5bca	-0.39523154
34	0xbdde0af0	-0.1084193
35	0xbea34320	-0.3188715
36	0xbf3de305	-0.7417453
37	0xc054ee0a	-3.3270288
38	0x4031c0f8	2.7774029
39	0xbde34f7f	-0.11099147
40	0x3f33b934	0.7020447
41	0xbe02e6e3	-0.12783389
42	0x3f8d2b1f	1.1028785
43	0x3ff670de	1.9253194
44	0xbfdc066e	-1.7189462
45	0x3e857d32	0.2607208
46	0xbf522f7e	-0.8210372
47	0x3ebfc9c0	0.3745861
48	0x40895609	4.2917523
49	0x3fbb4265	1.4629637
50	0xbf43200c	-0.76220775
51	0xbe83b6be	-0.2572536
52	0x400c19c9	2.1890738
53	0x402bdf24	2.6854944
54	0xbf936d6c	-1.1517768
55	0x405351b8	3.3018627
56	0xbf7ab5df	-0.97933763
57	0x3ec5319e	0.38514417
58	0xbf8fd828	-1.1237841
59	0x3fe3ffa7	1.7812394
60	0x402891d0	2.6338997
61	0x401d6281	2.4591372
62	0xbef52bd9	-0.47885016
63	0x3f2577c3	0.64635867
64	0x3fc131d4	1.5093331
65	0x3d363613	0.044485163
66	0x3e0a702b	0.13519351
67	0xbfe09e8f	-1.7548388
68	0xc03d6cb1	-2.959759
69	0x40a2e869	5.0908704
70	0x3dd28456	0.10279147
71	0xbe7c2988	-0.24625218
72	0x3f028247	0.5098004
73	0xbf231365	-0.6370147
74	0x40da2693	6.817209
75	0xbf05f9a6	-0.5233406
76	0xbfd97785	-1.69896
77	0x3fcdadb9	1.6068641
78	0x3e2f7461	0.17134239
79	0x40086ce4	2.1316462
80	0xbf6aa4f7	-0.91657966
81	0xbfa70041	-1.3046952
82	0x3fcf8253	1.6211647
83	0x3cfb79ec	0.030697785
84	0x3e4a0337	0.19727789
85	0x3fb0acb4	1.3802705
86	0xbf11ef6a	-0.5700594
87	0xbe2845b0	-0.16432834
88	0x3d0f6a89	0.03501371
89	0xbf3bb67a	-0.7332531
90	0x3f9ad6c6	1.2096794
91	0xbea5413f	-0.3227634
92	0x40176ed7	2.3661401
93	0x40186c13	2.3815963
94	0x40c43929	6.1319776
95	0xbef17329	-0.47158173
96	0x3fc2655a	1.518718
97	0x3e3dd965	0.1853996
98	0x40326d69	2.7879279
99	0x3e22acfc	0.15886301
100	0x3f80415a	1.0019944
101	0x40908d40	4.5172424
102	0xbf3c74ac	-0.7361553
103	0x3fdd7ee6	1.7304351
104	0xbe6cf840	-0.23141575
105	0x3f6537c5	0.8953822
106	0xbfea1700	-1.8288269
107	0x3f970460	1.179821
108	0xbe794b44	-0.24345118
109	0xbd818345	-0.06323866
110	0xbe604118	-0.21899831
111	0x3da95613	0.082683705
112	0x3e306cf1	0.17229058
113	0xbe8255f9	-0.25456217
114	0xbfd0d750	-1.6315708
115	0x4009e729	2.154734
116	0xbf2e9725	-0.6819938
117	0xbf0cf06c	-0.55054355
118	0xbdf40dc4	-0.11916688
119	0x3f0dbd8e	0.5536736
120	0xbf7a862b	-0.97860974
121	0x3f57a590	0.84237003
122	0x40812591	4.0358357
123	0xbee365a2	-0.44413477
124	0xbf164366	-0.5869659
125	0xbf1b8a40	-0.6075783
126	0x3f2a6f6b	0.6657626
127	0x4014f6ed	2.3275712
128	0x400ec4b2	2.2307553
129	0x3f8ef54f	1.1168612
130	0x3fd87df9	1.6913444
131	0xbf520725	-0.8204215
132	0x3eb9a923	0.36261854
133	0x3d3805dd	0.044927467
134	0xbf150dc3	-0.58224124
135	0x3f959d2f	1.1688594
136	0x3fb29065	1.3950316
137	0xbf0f58ff	-0.5599517
138	0x3fe69f07	1.8017281
139	0xbf87aac5	-1.059899
140	0xbeed77bf	-0.46380422
141	0x3fbfaf82	1.4975436
142	0x3f8526c2	1.0402453
143	0x3ebed752	0.3727365
144	0x401f3743	2.487748
145	0x3f8dff4b	1.1093534
146	0x3e9d36b2	0.30705792
147	0x3f6e135b	0.92998284
148	0xc083c6e8	-4.1180305
149	0xbf5d0aeb	-0.86344784
150	0x3ddeb3d3	0.108741425
151	0xbf94f5a8	-1.1637468
152	0x3e5b3906	0.21408471
153	0x3fda3638	1.7047796
154	0x4089db08	4.307987
155	0x3ef001d6	0.468764
156	0x3f1f858b	0.62313145
157	0xbedfa84f	-0.43683097
158	0xc0065555	-2.0989583
159	0x3f46a47b	0.7759473
160	0xbf1cb048	-0.61206484
161	0x40b4ccb5	5.6499887
162	0xbef05ff3	-0.46948203
163	0xbf2cecea	-0.67549
164	0x3ef6498c	0.48102987
165	0xc0082731	-2.127392
166	0x408c58d7	4.3858447
167	0x3f83e84a	1.0305264
168	0xbefb8728	-0.49126554
169	0x3faf2564	1.3683286
170	0xc0009688	-2.0091877
171	0x3e9b12e1	0.3028784
172	0xbf2dbac1	-0.6786309
173	0x4007fc03	2.1247566
174	0x3f1bc42d	0.60846215
175	0xbfaee257	-1.3662823
176	0x4068d829	3.6381934
177	0x3f2029f2	0.62564003
178	0xbf390331	-0.72270495
179	0xbf12c88b	-0.57337254
180	0x3f8aef7a	1.0854332
181	0xbf2b52ef	-0.6692342
182	0x3fef259a	1.868335
183	0x3ef4646e	0.47732872
184	0xbfa1dd20	-1.2645607
185	0x3f2fd400	0.6868286
186	0x3f711e76	0.94187105
187	0xbf9b47ea	-1.2131321
188	0xbf64cf2c	-0.8937862
189	0x4021aa43	2.526017
190	0x3ece6086	0.40308017
191	0x3da9cb4d	0.0829073
192	0x403aa2bf	2.9161832
193	0xbfc67965	-1.5505797
194	0x3fd98447	1.6993493
195	0x3f4c3730	0.7977171
196	0xbfb0093e	-1.375282
197	0xc023bb60	-2.5583115
198	0x3f2526a5	0.6451209
199	0xbe2717fa	-0.1631774
200	0x3f61ea3c	0.8824804
201	0x3fc3f46d	1.5308968
202	0xbfb28e8c	-1.3949752
203	0xbeec95a0	-0.46207905
204	0x3c9794de	0.018503603
205	0x3fd88187	1.6914529
206	0xbeafa2d1	-0.34303907
207	0x3f94167c	1.1569362
208	0x3f068cda	0.5255867
209	0xbf1bb062	-0.60816014
210	0x3f4fff2e	0.8124875
211	0xbfb4da8b	-1.4129194
212	0x3f2443f6	0.641662
213	0x3f87fe33	1.062445
214	0x3f827185	1.0190893
215	0x3ea33846	0.3187887
216	0x3fe08001	1.7539064
217	0x3f3788f0	0.71693325
218	0x3fcda0a8	1.6064653
219	0xbebd4d32	-0.36972958
220	0xbff0ff95	-1.8827997
221	0xbf1661aa	-0.58742774
222	0xbfa04e2f	-1.252386
223	0xbf1bd4fe	-0.60871875
224	0x3fbf29eb	1.4934667
225	0x3e51780c	0.2045595
226	0xbd547ca1	-0.051876668
227	0x3ff7e116	1.9365566
228	0x402e6f7e	2.725555
229	0xbeb0e3ed	-0.34548894
230	0x3f038139	0.51369053
231	0xbe7666ee	-0.24062702
232	0xbf189640	-0.59604263
233	0x3fa56391	1.292101
234	0x3fa01e0a	1.2509167
235	0x3f1ae05a	0.60498583
236	0x3f1bace4	0.60810685
237	0x3f68917f	0.9084701
238	0x3ee46fe0	0.44616604
239	0xbeb99126	-0.36243552
240	0xbf4e3983	-0.80556506
241	0x3f4f99af	0.8109388
242	0xbef67163	-0.48133382
243	0x3f7455fe	0.95443714
244	0xbea0e2bb	-0.31422982
245	0x3f59191e	0.8480395
246	0x3f785956	0.97011316
247	0x3fd65ece	1.6747682
248	0xbcd8fb35	-0.026486972
249	0xbf7ffb2c	-0.9999263
250	0xbfda4739	-1.7052985
251	0x3f7ef2b6	0.995891
252	0x40073d46	2.1131148
253	0x3fc8a259	1.5674545
254	0xbf5a7c31	-0.8534575
255	0xbfaf876e	-1.3713205

lstm.weight_hh_l0 f4 [256, 64]
0	0x3d34a7f3	0.04410548
1	0x3f5bd32f	0.85869116
2	0x3f8ce235	1.1006533
3	0x3f3553c6	0.70830953
4	0x3f85db79	1.0457603
5	0x3f1ad3bc	0.6047933
6	0x3e1d7b65	0.15379103
7	0x3da6df48	0.08148056
8	0xbf2cd5e5	-0.6751388
9	0x3f5e0d89	0.86739403
10	0x3e2a8b1b	0.16654627
11	0xbf1f2a11	-0.62173563
12	0xbe821e73	-0.25413856
13	0xbf8bb364	-1.0914121
14	0x3f4d32ba	0.8015553
15	0xbf973449	-1.1812831
16	0xbfe56690	-1.7921925
17	0x3f952be7	1.1654023
18	0xbf8fba3f	-1.1228713
19	0x3f467dcd	0.77535707
20	0x3e227778	0.15865886
21	0x3d9d2504	0.07673076
22	0xbf29e035	-0.6635774
23	0xbec69a92	-0.38789803
24	0xbf6b1655	-0.9183095
25	0xbf4bb522	-0.7957326
26	0xbf9e8ace	-1.238611
27	0x3e1cf5ea	0.15328184
28	0xbe3d1dc6	-0.18468389
29	0xbd41c02c	-0.04730241
30	0x3d528ab3	0.051401805
31	0x3f13087d	0.5743483
32	0x3e50a271	0.20374466
33	0x3ed3212c	0.41236246
34	0xbf5413f3	-0.8284294
35	0x3f635ea3	0.8881628
36	0xbf4e1f1e	-0.8051623
37	0xbec909f3	-0.39265403
38	0xbf4f7420	-0.8103657
39	0xbe697918	-0.228001
40	0xbdc866ef	-0.09785258
41	0xbf2872a7	-0.65799946
42	0x3f616059	0.8803764
43	0xbd9f0967	-0.07765465
44	0xbf21e730	-0.6324339
45	0xbf461c41	-0.7738686
46	0xbe7a6da4	-0.24455887
47	0xbf1fa89e	-0.62366664
48	0x3f19229c	0.59818435
49	0x3f8786a7	1.0587968
50	0x3dc0d544	0.09415677
51	0x3f748914	0.95521665
52	0x3f45beb4	0.77244115
53	0x3f12822d	0.5722988
54	0xbf901041	-1.125496
55	0x3fe298c9	1.7702876
56	0x3eccb90c	0.3998493
57	0x3dc49c0f	0.09600078
58	0xbf08cdd7	-0.53439087
59	0x3ec8797e	0.3915519
60	0x3f24b8b9	0.64344364
61	0xbfec8761	-1.8478814
62	0xbf5a953a	-0.8538395
63	0x3f01a8bc	0.50648093
64	0xbfd2c56c	-1.6466498
65	0x3db08922	0.08619906
66	0xbf3dd3e2	-0.7415143
67	0xbf31dec7	-0.69480556
68	0xbf93fa00	-1.1560669
69	0x3ff06622	1.8781168
70	0x3f139eef	0.5766439
71	0x3e127b0b	0.1430475
72	0x3fb3bfe6	1.4042938
73	0x3fa52f6e	1.2905099
74	0xbc8e149d	-0.017343814
75	0xbf23b5f6	-0.63949525
76	0xbee1f1ce	-0.44129795
77	0x3eba8b71	0.3643451
78	0xbd07abd9	-0.03312287
79	0xbf10637d	-0.5640181
80	0xbf303490	-0.68830204
81	0xbf827f0f	-1.0195025
82	0x3e82dff4	0.25561488
83	0x3f3f01e9	0.7461229
84	0x3d6ecb5a	0.0582994
85	0xbf4c199c	-0.79726577
86	0xbebb6f08	-0.36608148
87	0x3ec9f8e1	0.39447692
88	0xbead76ae	-0.33879608
89	0x3df0bfce	0.11755334
90	0xbe736bb1	-0.2377155
91	0xbfc06072	-1.5029433
92	0x3eca73d4	0.39541495
93	0x3e867694	0.26262343
94	0x3e97a6cc	0.29619443
95	0x3f7ffbea	0.99993765
96	0x3e09fd22	0.13475469
97	0x3f8be280	1.0928497
98	0xbfbb0c16	-1.4613063
99	0x3e74a321	0.23890354
100	0xbf69f8c2	-0.913952
101	0x3eb07839	0.34466723
102	0x3f375107	0.7160801
103	0xbf1a836e	-0.60356796
104	0x3eecbb6a	0.46236736
105	0xbd85f8c9	-0.06541593
106	0xbef3a11b	-0.4758385
107	0xbe63b025	-0.22235163
108	0x3e80b7fe	0.25140375
109	0xbdf0fe72	-0.117672816
110	0x3c9a8503	0.018862253
111	0x3f7d84ae	0.9903058
112	0x3edd4d6b	0.43223128
113	0xbf8063b2	-1.0030425
114	0xbea28326	-0.31740683
115	0x3f38d3fa	0.7219845
116	0x3fa8a8cc	1.3176513
117	0x3f41349f	0.7547092
118	0x3f1e68e4	0.618788
119	0x3f82ee39	1.022895
120	0xbf2c68a7	-0.67347187
121	0xbf08f42f	-0.53497595
122	0x3f41d2bb	0.75712174
123	0xbeb01f60	-0.34398937
124	0x3e1b9afc	0.1519584
125	0x3f008734	0.50206304
126	0xbf253a47	-0.6454205
127	0x3dd01fdd	0.101623274
128	0xbfa6441c	-1.2989535
129	0x3fb9ce7e	1.4516141
130	0x3da150b1	0.07876719
131	0x3f4364c8	0.76325655
132	0xbf0d2e9d	-0.5514925
133	0xbe8b87df	-0.272521
134	0x3f5a14f6	0.85188234
135	0xbf841752	-1.0319617
136	0xbf68944c	-0.90851283
137	0x3ee84560	0.4536543
138	0x3f2ff3b8	0.6873126
139	0xbfd4b3be	-1.6617353
140	0xbed9ec2f	-0.42563006
141	0xbe2ba589	-0.16762365
142	0xbd996379	-0.07489676
143	0x3e9c4ccc	0.3052734
144	0xbf2b53cb	-0.6692473
145	0xbd8dfa11	-0.06932462
146	0xbd8ffd08	-0.07030684
147	0xbf222975	-0.6334451
148	0xbed4c75a	-0.41558343
149	0xbf233624	-0.6375449
150	0xbfbd8339	-1.4805671
151	0xbf83f882	-1.0310214
152	0xbfb068d4	-1.3781991
153	0x3e8c2541	0.27372172
154	0x3e0003b4	0.12501413
155	0xbf5eb873	-0.870002
156	0x3ef2d68a	0.47429305
157	0x3f00cb70	0.5031042
158	0xbe6b6dfe	-0.22991177
159	0xbed2a3aa	-0.4114049
160	0xbe9d5153	-0.30726108
161	0xbef010cc	-0.46887815
162	0xbfa5a7e7	-1.2941865
163	0x3e69acaa	0.22819772
164	0xbf20e25c	-0.62845397
165	0x3e87e464	0.26541436
166	0x3f1f34b8	0.6218982
167	0x3fd7bad9	1.6853896
168	0x3ed6ee4a	0.41978675
169	0xbd83678d	-0.06416235
170	0x3f009ae7	0.5023636
171	0x3eeb9d37	0.46018383
172	0x3dfc9071	0.123322375
173	0xbceba621	-0.02876574
174	0xbfbfba65	-1.4978758
175	0xbee528f1	-0.44757798
176	0xbf29dc35	-0.66351634
177	0x3f35daa1	0.71036726
178	0x3f3ba66d	0.7330082
179	0x3eeb1b1b	0.45919117
180	0x3f63d366	0.88994443
181	0x3f1f6feb	0.6228015
182	0x3ebdfee6	0.37108535
183	0x3fe52105	1.7900702
184	0x3e3d47bd	0.18484397
185	0xbf3b888b	-0.73255223
186	0xbe0fba9e	-0.14036033
187	0xbe940457	-0.2890956
188	0x3f27436e	0.65337265
189	0xbf3e687a	-0.7437817
190	0xbefacac8	-0.48982835
191	0xbf14ca51	-0.5812121
192	0x3eb84595	0.35990587
193	0x3f265d53	0.6498615
194	0xbe9fabfb	-0.31185898
195	0xbe5583c6	-0.20851049
196	0x3ed0b77a	0.40764982
197	0xbe60875d	-0.21926637
198	0xbe36a0b8	-0.17834747
199	0x3f5e9ddd	0.8695963
200	0xbf411906	-0.7542881
201	0xbc6a016b	-0.014282565
202	0xbe74cbae	-0.23905823
203	0xbcaf2f51	-0.021384867
204	0xbf549571	-0.8304053
205	0x3edf220a	0.43580657
206	0x3f7bc3f2	0.98345864
207	0xbefb3a12	-0.49067742
208	0xbf61b2cb	-0.8816344
209	0xbea6dcba	-0.32590276
210	0xbf9f5055	-1.244639
211	0x3f8e6087	1.1123208
212	0x3e5c0243	0.21485238
213	0xbe3602cb	-0.17774503
214	0xbe24fa5e	-0.16111133
215	0xbf185610	-0.5950632
216	0xbf9d1bfe	-1.2274168
217	0x3e9174ed	0.2840952
218	0x3eaf836f	0.34279963
219	0x3e961d15	0.29319063
220	0x3f217a9d	0.6307772
221	0x3f82089d	1.0158879
222	0xbf17d09f	-0.59302706
223	0xbe96da6d	-0.2946352
224	0xbdd3cca2	-0.10341765
225	0x3e4659f5	0.19370253
226	0xbeaebcd3	-0.34128436
227	0xbe461367	-0.19343339
228	0xbf2bc241	-0.6709328
229	0x3f760255	0.9609731
230	0x3e4be7d5	0.19912656
231	0xbf91f47a	-1.1402733
232	0xbf9a53a2	-1.2056773
233	0xbe886b5a	-0.26644403
234	0x3f974dad	1.182058
235	0x3f111061	0.5666562
236	0xbce8bbf8	-0.028409943
237	0xbe7d554c	-0.2473957
238	0xbf9ea9f3	-1.2395614
239	0xbd703a57	-0.058649387
240	0xbd4a7cc9	-0.04943541
241	0xbe32c7ef	-0.17459081
242	0xbf919b22	-1.1375468
243	0x3fd683e4	1.6759
244	0xc0021ce1	-2.0330126
245	0x3e70eb01	0.23527147
246	0x3f81004b	1.0078214
247	0x3ea41187	0.32044622
248	0x3f867c84	1.0506749
249	0x3f21f711	0.6326762
250	0x3f3d8998	0.74038076
251	0xbf72aa83	-0.9479143
252	0x3b6180e5	0.0034409103
253	0xbf438602	-0.76376355
254	0xbe9539f6	-0.29145783
255	0x3e1bad53	0.15202837

lstm.bias_ih_l0 f4 [256]
0	0x3e389132	0.18024138
1	0x3f0f2ad7	0.55924743
2	0x3f57dca8	0.8432107
3	0x3f38d80d	0.7220467
4	0x3eba5d97	0.36399528
5	0x3f12a1e1	0.5727826
6	0x3f41bc02	0.756775
7	0x3f050656	0.5196279
8	0xbdaf26e5	-0.085523404
9	0x3f2fd482	0.68683636
10	0x3f06b4b5	0.5261949
11	0x3e6c4788	0.23074162
12	0x3f3a4b67	0.72771305
13	0x3ecc6ccc	0.39926755
14	0x3f06df13	0.52684134
15	0x3ea7aa00	0.32746887
16	0x3e7c67c3	0.24648957
17	0x3f11d5db	0.5696694
18	0x3f0dd3ac	0.5540111
19	0x3efb8e01	0.49131778
20	0x3f02baaa	0.51066077
21	0x3f475f32	0.7787963
22	0x3edd72dc	0.43251693
23	0x3f61e73b	0.88243455
24	0x3f0f322f	0.5593595
25	0x3f7b4e00	0.98165894
26	0x3e29670a	0.16543213
27	0x3d81bfb3	0.06335392
28	0x3e8c7cac	0.27438867
29	0x3f73245d	0.9497736
30	0x3f455682	0.77085125
31	0x3e9fd726	0.31218833
32	0x3f54783c	0.82995963
33	0xbd550776	-0.05200907
34	0x3ef183c7	0.4717085
35	0x3f07132f	0.52763647
36	0x3f34418d	0.7041252
37	0x3f36d3e6	0.7141708
38	0x3edada76	0.42744797
39	0x3ee15c99	0.4401596
40	0x3f890bb4	1.0706697
41	0x3f5751b6	0.84109056
42	0x3f2a309e	0.66480434
43	0x3f32ad43	0.69795626
44	0x3ef5363f	0.4789295
45	0x3ea7b867	0.32757875
46	0x3f527910	0.82215977
47	0x3e921de7	0.2853844
48	0x3f488e09	0.7834173
49	0x3ed8933b	0.42299828
50	0x3f836366	1.0264709
51	0x3eb7f288	0.35927224
52	0x3f08b733	0.5340454
53	0x3de196df	0.110151045
54	0x3ed56e1f	0.41685578
55	0xbe555354	-0.20832568
56	0x3eca2482	0.39480978
57	0x3bf4c254	0.007469455
58	0x3efaf196	0.4901244
59	0x3f96c957	1.1780194
60	0x3f18682e	0.59533966
61	0x3e45c7df	0.19314526
62	0x3f57907a	0.8420483
63	0x3ee71c50	0.45138788
64	0xbe926312	-0.2859121
65	0x3e01655f	0.12636326
66	0x3e834428	0.25637937
67	0x3d5cfd80	0.053952694
68	0x3e960ccc	0.29306638
69	0xbe567452	-0.2094281
70	0x3de76880	0.11299229
71	0xbcefa9e5	-0.029255817
72	0x3e9a9328	0.30190396
73	0x3e71b78f	0.23605178
74	0x3eebc693	0.46049938
75	0x3e3b21b2	0.18274572
76	0xbef3fa3e	-0.47651857
77	0x3f0cb8ba	0.5496937
78	0x3cd7f8bf	0.026363729
79	0xbe3d17d7	-0.18466125
80	0x3e04ec32	0.12980726
81	0xbe783ac7	-0.24241172
82	0x3e9edcd4	0.31027853
83	0x3e012c7d	0.12614627
84	0xbe20818c	-0.15674418
85	0xbda2fb25	-0.07958058
86	0x3e2b9501	0.16756059
87	0xbe16a423	-0.1471105
88	0x3dfbd002	0.12295534
89	0xbcf7e162	-0.030258838
90	0xbeae2c8b	-0.3401836
91	0x3ddf758e	0.10911094
92	0x3ddaad35	0.10677568
93	0x3d774dae	0.060376815
94	0x3ed9fc2c	0.42575204
95	0x3e069b99	0.13145293
96	0x3efe3364	0.49648583
97	0xbc8da4ac	-0.017290436
98	0x3df9c057	0.12194889
99	0x3dd67d8f	0.10473167
100	0xbb9480be	-0.004531949
101	0x3e89f097	0.26941368
102	0x3c4321d5	0.011909922
103	0xbd06e5de	-0.032934062
104	0xbdb0a3fe	-0.08625029
105	0x3bfb10e0	0.0076619238
106	0x3d3d240c	0.046176955
107	0x3e85c1c4	0.26124394
108	0x3e29d783	0.16586117
109	0x3da44a93	0.080220364
110	0x3ee6a22c	0.45045602
111	0xbdd27ba2	-0.10277487
112	0xbdc4ad48	-0.09603363
113	0xbd0e61bc	-0.034761176
114	0xbbe6a07f	-0.0070381756
115	0xbe6d688e	-0.23184416
116	0xbd9b2bf7	-0.07576745
117	0x3e90cc43	0.2828084
118	0x3e4de4fd	0.20106883
119	0x3efb372b	0.49065527
120	0x3b837398	0.0040115826
121	0x3eb1b2c2	0.34706694
122	0xbdad1f9b	-0.08453294
123	0x3c263dbb	0.010146554
124	0x3ea1b1b0	0.31580877
125	0x3f004446	0.50104177
126	0x3c05807f	0.008148312
127	0x3eb4eea7	0.35338327
128	0x3d89fa4c	0.067371935
129	0x3e0f4c0d	0.13993855
130	0xbe0e203a	-0.13879481
131	0x3e19df2a	0.15026537
132	0x3e38f54f	0.18062328
133	0xbe2b1880	-0.16708565
134	0xbdcaf418	-0.099098384
135	0x3d3832a4	0.04497017
136	0xbe26c386	-0.16285524
137	0x3d6a1799	0.05715141
138	0x3e303fcd	0.17211838
139	0xbe57ee6f	-0.21087049
140	0xbd99b9e5	-0.0750616
141	0xbdce3b30	-0.10069883
142	0x3e1d4f75	0.15362342
143	0xbe267ae5	-0.16257818
144	0xbde41441	-0.111366756
145	0x3c3143eb	0.010819416
146	0xbc2cf0b8	-0.010555439
147	0x3db03bd3	0.086051606
148	0xbb5b8ab5	-0.0033499424
149	0xbdb0ee55	-0.08639208
150	0xbdf27d14	-0.11840263
151	0xbdc15677	-0.0944032
152	0xbe3caf97	-0.18426357
153	0xbd97da0a	-0.074146345
154	0x3d317e24	0.043333188
155	0xbdb77aad	-0.089589454
156	0x3db4a1f9	0.08819956
157	0x3cc39649	0.023875372
158	0xbe5ec985	-0.21756561
159	0x3e627057	0.22113167
160	0xbe199974	-0.14999944
161	0xbc369713	-0.011144417
162	0xbe10d4e1	-0.14143707
163	0xbd165f29	-0.036711846
164	0x3d2e31d4	0.04252799
165	0xbe00d604	-0.1258164
166	0xbd500905	-0.05078985
167	0xbd3e01e5	-0.046388526
168	0xbd9ec5d1	-0.07752574
169	0xbc713fb5	-0.014724662
170	0x3dd22058	0.10260075
171	0xbe15136f	-0.14558195
172	0xbe90b45f	-0.28262612
173	0x3c51701e	0.0127830785
174	0xbe02975d	-0.12753053
175	0xbe03751e	-0.12837645
176	0xbdc7a5a4	-0.0974839
177	0x3d9a1d5f	0.07525133
178	0xbe4f63a1	-0.20252849
179	0x3d8ca871	0.06868065
180	0xbdc64557	-0.09681194
181	0x3d9ab490	0.07553971
182	0xbd98849c	-0.07447168
183	0x3d3c1e8c	0.04592757
184	0x3da676b8	0.081281126
185	0x3c4e0c2b	0.012576143
186	0x3d9abf38	0.07556003
187	0xbe15b192	-0.14618519
188	0x3d0ad456	0.033893906
189	0xbddc4b99	-0.107566066
190	0xbdfa4759	-0.1222064
191	0x3dc94832	0.09828223
192	0x3edb41b2	0.4282356
193	0x3f19b5f2	0.6004325
194	0x3efee2a5	0.4978229
195	0x3f1bf0d6	0.6091436
196	0x3e99ea6e	0.30061668
197	0x3efa09ae	0.4883551
198	0x3f1f0dc8	0.62130404
199	0x3dc108bb	0.09425493
200	0x3df23846	0.118271396
201	0x3d41a55b	0.047276836
202	0x3ea6d136	0.3258149
203	0xbe97e8df	-0.29669854
204	0x3e27f337	0.16401373
205	0xbe3214f6	-0.17390808
206	0x3f0c819e	0.5488528
207	0x3f0fe92b	0.5621516
208	0xbdca5f3b	-0.09881445
209	0x3ea095be	0.31364244
210	0x3d4f14e6	0.05055704
211	0x3e90b799	0.28265074
212	0x3cb0c692	0.02157906
213	0xbe2864c5	-0.1644469
214	0xbdca1bd8	-0.09868592
215	0x3ec93ebe	0.3930568
216	0xbe5ec314	-0.21754104
217	0xbcd700b7	-0.026245458
218	0xbef3c4ea	-0.4761117
219	0x3dcd7d45	0.10033659
220	0xbd75e0e2	-0.060028918
221	0x3ef67181	0.48133472
222	0x3ebae22f	0.3650069
223	0x3ef72d38	0.48276687
224	0x3ec2380e	0.3793339
225	0x3f082589	0.53182274
226	0xbdb9bd59	-0.09069318
227	0x3e5d25d9	0.21596469
228	0x3ded43cb	0.11585196
229	0xbe2ae003	-0.16687016
230	0x3e0ef4c8	0.13960564
231	0x3eb06ab0	0.34456396
232	0x3e95d305	0.29262558
233	0x3e9f8ca0	0.31161976
234	0x3e0a91f9	0.13532247
235	0x3d569722	0.052390225
236	0x3f24b97a	0.64345515
237	0x3ea27378	0.3172872
238	0xbe84a600	-0.25907898
239	0x3e85ac69	0.261081
240	0x3f5bdfc3	0.8588831
241	0x3f344adf	0.70426744
242	0x3e9167f3	0.2839962
243	0xbd5afeca	-0.053465642
244	0x3e3d25c5	0.18471439
245	0xbe0e620a	-0.13904586
246	0x3f62cd6f	0.88594717
247	0x3ea1b203	0.31581125
248	0x3f43a7c9	0.76427895
249	0xbdda553e	-0.1066079
250	0x3ea76cca	0.32700187
251	0x3eb102e0	0.34572506
252	0x3f980b5c	1.1878467
253	0xbe0c5728	-0.13705122
254	0x3f03578d	0.51305467
255	0x3e997876	0.29974717

lstm.bias_hh_l0 f4 [256]
0	0x3d884146	0.06653075
1	0x3f042fda	0.51635516
2	0x3f539275	0.8264535
3	0x3f0b14ec	0.543288
4	0x3edf471e	0.43608946
5	0x3f0740b2	0.5283309
6	0x3f2dfb61	0.679617
7	0x3f0e50eb	0.5559222
8	0x3da97f9b	0.08276292
9	0x3f21e828	0.6324487
10	0x3f2da8ef	0.678359
11	0x3e3f151e	0.186604
12	0x3f407c46	0.75189626
13	0x3f14bca8	0.58100367
14	0x3f0660c3	0.52491397
15	0x3e44c811	0.19216944
16	0x3edbcac1	0.42928126
17	0x3f2956b6	0.66147935
18	0x3eb066ba	0.34453374
19	0x3e9f3cfd	0.31101218
20	0x3f05236c	0.52007174
21	0x3f34463b	0.70419663
22	0x3f2631ff	0.6492004
23	0x3f5a3ae6	0.8524612
24	0x3f2a28fe	0.664688
25	0x3f8d7170	1.1050243
26	0x3e94e6be	0.29082292
27	0xbe03a2be	-0.1285505
28	0x3ead1460	0.33804607
29	0x3f830b4b	1.0237821
30	0x3f58a644	0.846287
31	0x3eb85938	0.36005569
32	0x3f693041	0.91089255
33	0x3cbec8df	0.023289142
34	0x3f09480a	0.5362555
35	0x3f199eb8	0.6000781
36	0x3f1a5995	0.6029294
37	0x3f3570bc	0.70875144
38	0x3eb9f92c	0.36322916
39	0x3eda9999	0.4269531
40	0x3f64b20c	0.8933418
41	0x3f601069	0.8752504
42	0x3f0840a1	0.53223616
43	0x3ef775db	0.48332104
44	0x3f198465	0.59967643
45	0x3f003f23	0.5009634
46	0x3f17a4ff	0.5923614
47	0x3ea9f745	0.33196464
48	0x3f14f327	0.5818352
49	0x3f044bf2	0.51678383
50	0x3f73cb74	0.9523232
51	0x3eee7671	0.4657474
52	0x3f2ee054	0.6831105
53	0x3ce68d05	0.028143415
54	0x3e8a2056	0.26977795
55	0xbe4d00a1	-0.20019771
56	0x3ed9701c	0.42468345
57	0x3dd53d64	0.104121
58	0x3f0357d1	0.5130587
59	0x3f8e48f6	1.1116016
60	0x3f2fc707	0.68663067
61	0x3eaaffdb	0.33398327
62	0x3f54dce4	0.8314955
63	0x3e67f823	0.2265325
64	0xbe918e30	-0.28428793
65	0x3e38e2b2	0.18055227
66	0x3ea9f0ed	0.33191624
67	0x3d3e704a	0.046493806
68	0x3edf1ba8	0.43575788
69	0xbe3841d7	-0.17993866
70	0x3c1288b9	0.00894373
71	0xbc6544e2	-0.013993474
72	0x3ec223aa	0.37917835
73	0x3e07c548	0.1325885
74	0x3efeaa07	0.49739096
75	0x3e074837	0.13211142
76	0xbea07f1c	-0.31346977
77	0x3f0584c6	0.5215572
78	0x3bc7cfa7	0.006097752
79	0x3c5d1a29	0.013495007
80	0x3dba07ea	0.09083541
81	0xbe1240f4	-0.1428259
82	0x3e742832	0.23843458
83	0x3e46821b	0.19385569
84	0xbdb22eb2	-0.08700313
85	0x3ceb4175	0.028717736
86	0xbbb577d8	-0.005537968
87	0xbe44aac3	-0.19205765
88	0x3e782f0d	0.24236698
89	0xbcf787d4	-0.030216135
90	0xbeb7c0df	-0.35889336
91	0xba3be4c3	-0.0007167572
92	0xbdd3029b	-0.10303231
93	0xbd7c6344	-0.061618105
94	0x3ea874ec	0.32901704
95	0x3e861ffb	0.26196274
96	0x3f07d9ca	0.53066695
97	0x3cc8440b	0.024446508
98	0x3e5e3ef7	0.21703707
99	0x3e1ad449	0.15120043
100	0x3cef8327	0.029237343
101	0x3e32c519	0.17458
102	0x3da91bcd	0.08257256
103	0x3a9ca54a	0.0011951115
104	0xbdc15f8b	-0.094420515
105	0x3d397807	0.045280483
106	0xbbe93da2	-0.007117943
107	0x3e0a165d	0.13485093
108	0x3d9dab70	0.07698715
109	0x3db839b9	0.08995385
110	0x3f07ea17	0.5309157
111	0x3b92578e	0.0044660037
112	0xbe008412	-0.12550381
113	0xbe5e20b4	-0.21692163
114	0xbe144b8c	-0.14481944
115	0xbd16f936	-0.03685876
116	0xbd7a9655	-0.061178524
117	0x3e08f9f9	0.13376607
118	0x3e50105c	0.2031874
119	0x3ecf2944	0.4046117
120	0xbd300c34	-0.042980388
121	0x3e466c5f	0.19377278
122	0xbd7e470c	-0.062079474
123	0x3e3b16c5	0.18270405
124	0x3e9323c9	0.2873824
125	0x3f0af28b	0.5427634
126	0x3d5f249f	0.054478284
127	0x3f08d006	0.5344242
128	0xba748825	-0.00093281484
129	0x3debb41a	0.11508961
130	0xbe872755	-0.26397195
131	0x3e26a12a	0.16272417
132	0x3e75cb6a	0.24003378
133	0xbe92527d	-0.2857856
134	0xbdddfa4b	-0.10838755
135	0x3e851ffe	0.2600097
136	0xbd4f5a85	-0.050623436
137	0xbdab63a0	-0.08368611
138	0x3dc59bdc	0.096488684
139	0xbea16bda	-0.31527597
140	0x3d999f6b	0.0750111
141	0xbe1ee2a4	-0.15516144
142	0x3e4288f8	0.18997562
143	0xbe17eb20	-0.14835787
144	0xbe01868a	-0.12648979
145	0x3d37650b	0.044774096
146	0xbd4c2f79	-0.04984996
147	0x3de5f4d2	0.112283364
148	0x3db98ca8	0.09060031
149	0x3d2cb7b6	0.042167388
150	0xbdcbaa9f	-0.09944653
151	0xbcbeb0cb	-0.02327766
152	0xbdf34be5	-0.1187971
153	0x3d8fee25	0.07027844
154	0xbdbaacdc	-0.091150016
155	0xbc8e080f	-0.017337827
156	0xbddcbff3	-0.10778799
157	0x3bbaee76	0.0057046963
158	0xbe2827ad	-0.16421385
159	0x3dbf99da	0.09355517
160	0xbdfb4c7c	-0.122704476
161	0x3d3de9f2	0.046365686
162	0xbe37e305	-0.17957695
163	0xbd8ed521	-0.06974245
164	0x3d15da10	0.036584914
165	0x3d3c8ca3	0.04603256
166	0xbca99304	-0.020699985
167	0x3bf084d5	0.0073400536
168	0xbdabd7d3	-0.083907746
169	0x3c9b629f	0.018967925
170	0x3e245951	0.16049697
171	0xbc9aa964	-0.0188796
172	0xbe26838e	-0.16261122
173	0xbd873b0c	-0.06603059
174	0xbdd77ce6	-0.10521869
175	0x3d0e3a36	0.034723483
176	0x3d4b1fd0	0.049590886
177	0x3dccef01	0.10006524
178	0xbe592c44	-0.21208292
179	0x3b850417	0.0040593254
180	0xbe418c9d	-0.18901296
181	0x3d0ac9f4	0.033884004
182	0x3c6aa54a	0.014321635
183	0xbbe41d12	-0.0069614733
184	0x3de7f8b7	0.113267355
185	0x3c740d7c	0.014895793
186	0xbcda3e06	-0.026640903
187	0xbd0e143e	-0.034687273
188	0xbc96c527	-0.018404556
189	0xbd1d39ba	-0.03838513
190	0x3b89bb14	0.0042032097
191	0xbde3851b	-0.11109372
192	0x3ef4b9ef	0.47798106
193	0x3f099261	0.5373898
194	0x3ec60625	0.38676563
195	0x3f382d1b	0.71943825
196	0x3e934af8	0.28768134
197	0x3f31432b	0.69243115
198	0x3f29b5f1	0.66293246
199	0x3e75737e	0.23969838
200	0x3dc16927	0.09443884
201	0x3d8b5713	0.068037175
202	0x3e97fa7a	0.29683286
203	0xbe8401e5	-0.25782695
204	0x3e07e4bd	0.1327085
205	0xbd9aaf24	-0.07552937
206	0x3f0f1ae7	0.55900425
207	0x3f3b4055	0.7314504
208	0x3d1108fe	0.035408966
209	0x3e6d61ca	0.23181835
210	0x3bf18087	0.007370058
211	0x3eb82204	0.35963452
212	0xbb3d9185	-0.0028925848
213	0xbe7d3bdf	-0.2472987
214	0x3d82c873	0.06385889
215	0x3eda72dc	0.42665756
216	0xbd5d237e	-0.053988926
217	0x3cef8041	0.02923596
218	0xbe9064e0	-0.28201962
219	0x3d758cd5	0.05994876
220	0x3d2eb697	0.0426546
221	0x3edae519	0.42752913
222	0x3eb15556	0.3463542
223	0x3f1f2df8	0.6217952
224	0x3ea34a04	0.31892407
225	0x3f0cc74b	0.54991597
226	0x3d571b32	0.05251617
227	0x3ec2c3f3	0.38040122
228	0x3e9bc6c3	0.3042508
229	0xbbadf828	-0.0053091235
230	0x3c447986	0.011991864
231	0x3e8384cc	0.25687253
232	0x3e10516c	0.1409356
233	0x3eafbe4f	0.3432488
234	0x3e42a801	0.19009401
235	0x3e3e8cc6	0.18608388
236	0x3f263e7b	0.6493909
237	0x3dcdc905	0.10048107
238	0xbe859373	-0.26089057
239	0x3e71cfd1	0.23614432
240	0x3f5466ad	0.8296917
241	0x3f27cc4c	0.6554611
242	0x3e681123	0.22662787
243	0x3e097b5b	0.13425963
244	0x3dc84401	0.09778596
245	0x3d9b6531	0.0758766
246	0x3f4730ae	0.77808654
247	0x3eaa2934	0.3323456
248	0x3f639f34	0.889148
249	0xbdf657e2	-0.12028481
250	0x3ea67114	0.32508147
251	0x3eed8b63	0.46395406
252	0x3fa2b467	1.2711304
253	0xbe7b010a	-0.24512115
254	0x3ed716ae	0.4200949
255	0x3e9389d3	0.2881609

lstm.weight_ih_l1 f4 [256, 64]
0	0xbf12ef5b	-0.5739648
1	0x3e88469c	0.2661637
2	0x3d4bbb00	0.049738884
3	0x3cbcf363	0.023065275
4	0xbbf66564	-0.007519411
5	0x3e57e346	0.21082792
6	0x3e1f37e6	0.15548667
7	0xbe867f5e	-0.26269048
8	0xbed52a04	-0.41633618
9	0x3ed6ff3d	0.41991606
10	0xbd676e19	-0.05650148
11	0xbe92d0d8	-0.2867496
12	0x3ea39f78	0.31957603
13	0xbce59155	-0.028023401
14	0xbd4de4c4	-0.050266996
15	0xbe4f1b36	-0.20225224
16	0xbdf57e3a	-0.119869664
17	0xbdf719de	-0.12065481
18	0x3bcde835	0.0062837848
19	0xbe1ed425	-0.15510614
20	0xbeacda58	-0.33760333
21	0x3e99f716	0.30071324
22	0xbe19ac8c	-0.15007228
23	0xbdf2b847	-0.11851554
24	0x3e5c01b3	0.21485023
25	0x3e84acdb	0.25913128
26	0xbd695c9a	-0.056973077
27	0x3da76e26	0.08175306
28	0xbe345b64	-0.17612988
29	0x3ea97f9e	0.33105177
30	0x3d8a1bf1	0.06743611
31	0xbd485299	-0.048906896
32	0xbdbeeb7f	-0.09322261
33	0xbe07a56a	-0.13246694
34	0x3e2259f1	0.15854622
35	0x3b7dbd0b	0.0038717415
36	0x3f0f3705	0.5594333
37	0xbe49b0db	-0.19696371
38	0xbe84ab58	-0.25911975
39	0x3ea04f69	0.31310585
40	0xbe1a1cfe	-0.15050122
41	0x3e84f6f6	0.25969666
42	0x3e9a353d	0.30118743
43	0xbd71500e	-0.058914237
44	0x3ec74fb0	0.38927984
45	0x3ed91e31	0.42405847
46	0xbd95df40	-0.07317972
47	0x3e44e340	0.19227314
48	0x3d1a859f	0.037725087
49	0xbd4f5f94	-0.05062826
50	0xbe8e7846	-0.27826136
51	0xbeb7a5d1	-0.35868695
52	0x3ee2f8cf	0.4433045
53	0x3e650f8a	0.22369209
54	0x3daf7936	0.08568041
55	0x3dc8c36d	0.098028995
56	0xbdb80799	-0.08985824
57	0x3e8450c6	0.25842875
58	0x3d7144db	0.058903556
59	0xbe1b79b6	-0.15183148
60	0x3e52fb50	0.2060368
61	0x3ec8ab45	0.39193168
62	0x3db46e52	0.088101044
63	0x3ee799ab	0.45234427
64	0x3d21060b	0.039312404
65	0x3f412215	0.7544263
66	0xbf37d4dd	-0.7180918
67	0x3f386985	0.7203601
68	0x3e455d17	0.19273792
69	0xbea46ae5	-0.32112804
70	0xbee20325	-0.44143024
71	0xbf27081b	-0.6524674
72	0x3ed9d938	0.42548537
73	0xbed12d90	-0.40855074
74	0xbf5cc31c	-0.86235213
75	0x3f133480	0.57501984
76	0xbe98c8fc	-0.2984084
77	0xbedba40b	-0.42898592
78	0x3dce2518	0.10065669
79	0xbed89922	-0.4230433
80	0x3dd4e355	0.10394923
81	0xbef564d2	-0.47928482
82	0x3e1dabbf	0.15397547
83	0x3e57a9c5	0.21060856
84	0xbe484cd1	-0.19560553
85	0x3ed5a005	0.41723648
86	0xbdce953d	-0.10087059
87	0x3cf5e62e	0.030016985
88	0xbecd976a	-0.40154582
89	0xbee12b9f	-0.43978593
90	0x3f680133	0.9062683
91	0xbe9833d3	-0.2972704
92	0x3e0ea127	0.13928662
93	0x3ee0f200	0.4393463
94	0x3d9fe4c6	0.07807307
95	0xbeaeff34	-0.3417908
96	0x3e0a0431	0.13478161
97	0xbd01a1f3	-0.031648587
98	0x3e8e7863	0.27826223
99	0x3f2f206b	0.6840884
100	0xbe2fa0d8	-0.17151201
101	0xbeb33283	-0.34999475
102	0xbf0a966c	-0.54135776
103	0x3c4d7577	0.012540213
104	0x3de65321	0.11246324
105	0xbda4d77c	-0.08048913
106	0x3f59bfbf	0.85058206
107	0xbd4e4737	-0.050360885
108	0x3eb2d317	0.34926674
109	0x3e8cbfcb	0.27490076
110	0xbe4a3c96	-0.19749674
111	0x3f02e5ae	0.51131713
112	0x3d8e0118	0.06933802
113	0x3dd59913	0.10429587
114	0xbec0d269	-0.3766053
115	0x3e06b4dc	0.1315493
116	0xbe314a3b	-0.17313473
117	0x3ec38119	0.3818443
118	0xbf18da2e	-0.59707916
119	0xbca5c919	-0.020237492
120	0xbd87f792	-0.06639017
121	0x3e52dce5	0.20592077
122	0xbd8d7067	-0.06906205
123	0x3cd34e9b	0.025794318
124	0x3f26151f	0.6487598
125	0x3ef2e349	0.4743903
126	0xbe120172	-0.14258364
127	0x3c979ae8	0.018506482
128	0xbf1f4b56	-0.6222433
129	0xbd4d3de8	-0.050107867
130	0xbe75652e	-0.23964378
131	0xbe9f11be	-0.31068224
132	0xbea5b83d	-0.32367125
133	0x3e1d602b	0.15368716
134	0x3d4ea6ff	0.05045223
135	0x3ec79398	0.38979793
136	0x3e5d6163	0.21619181
137	0x3e6b5d69	0.22984852
138	0xbe59697d	-0.21231647
139	0xbd80de22	-0.062923685
140	0x3e94feff	0.29100797
141	0x3f0bbda5	0.5458625
142	0xbe314443	-0.17311196
143	0xbeb2298f	-0.34797332
144	0xbd0e15c1	-0.034688715
145	0x3e9b4c37	0.30331585
146	0xbdf8a42a	-0.12140687
147	0xbea50f18	-0.32238078
148	0x3df7e7e8	0.121047795
149	0xbebb69c9	-0.36604145
150	0x3e921481	0.28531268
151	0x3d4b2112	0.049592085
152	0x3dbc14fc	0.0918369
153	0xbd3d6d7e	-0.046246998
154	0xbf079deb	-0.5297534
155	0xbec7b2f5	-0.3900372
156	0x3f56350d	0.836747
157	0x3dbdc98c	0.09266958
158	0xbc725d4e	-0.014792753
159	0x3a55b003	0.0008151533
160	0xbd8dd210	-0.06924832
161	0x3da9c279	0.08289046
162	0xbd5e5180	-0.054276943
163	0xbf2aac64	-0.666693
164	0xbf0bd073	-0.54614943
165	0x3ec80abd	0.39070693
166	0xbd7b8351	-0.06140453
167	0xbdf78583	-0.12086012
168	0xbe2c5007	-0.16827403
169	0xbe85207f	-0.26001355
170	0x3eb6bfed	0.35693303
171	0x3e19063e	0.14943787
172	0x3dae3ab7	0.08507293
173	0xbdf3f3ee	-0.1191176
174	0x3cbc9161	0.02301854
175	0x3eecfbcd	0.4628586
176	0xbca6f2ff	-0.020379541
177	0xbebe9d72	-0.37229496
178	0x3e6219c8	0.22080147
179	0xbe53a5fd	-0.20668788
180	0xbe427568	-0.189901
181	0xbe751dfa	-0.23937216
182	0x3eb2953e	0.34879488
183	0x3de38f3f	0.111113064
184	0x3eb6ec02	0.35726935
185	0x3da037f2	0.07823171
186	0x3e6b5586	0.22981843
187	0x3e66ac95	0.22526772
188	0xbc776a49	-0.015101024
189	0xbe0a306e	-0.13495037
190	0x3e3f8548	0.18703187
191	0x3df0ee5e	0.11764215
192	0x3e535a04	0.20639807
193	0x3d08b9ce	0.033380322
194	0xbdb83860	-0.08995128
195	0xbcc92a58	-0.024556324
196	0xbef41d3d	-0.47678557
197	0x3e330e0f	0.17485832
198	0x3fafe1b1	1.374075
199	0x3f8a8d4d	1.0824372
200	0xbea81fc3	-0.32836732
201	0x3e8dd1a9	0.2769902
202	0xbdb7b1f3	-0.08969488
203	0xbf4171fa	-0.7556454
204	0xbeb5837a	-0.3545187
205	0x3d9d632c	0.07684931
206	0x3c755ac2	0.014975252
207	0x3db38e7f	0.08767413
208	0xbe8b4339	-0.27199724
209	0x3e66414b	0.22485845
210	0x3e03596e	0.12827083
211	0xbe72267e	-0.23647496
212	0x3f85de59	1.045848
213	0xbbf55e08	-0.007488016
214	0x3e922d00	0.28549957
215	0x3e547fb3	0.20751838
216	0x3db3a56c	0.08771786
217	0xb9e9ff58	-0.0004463147
218	0xbf20547c	-0.6262891
219	0x3ee7e680	0.45293045
220	0xbf30df21	-0.6909047
221	0x3ea09fca	0.3137191
222	0xbe75f566	-0.24019393
223	0xbcc19348	-0.0236298
224	0xbea79f9e	-0.32738966
225	0xbd9c01bb	-0.076175176
226	0x3e825841	0.25457957
227	0xbef49b4b	-0.4777473
228	0x3dd5b562	0.10434987
229	0x3f1ca6dc	0.6119211
230	0xbecfe4f1	-0.40604356
231	0xbde7aac5	-0.113118686
232	0xbee4e651	-0.44706967
233	0xbe1874f9	-0.14888372
234	0xbe15d655	-0.14632542
235	0xbe67d768	-0.22640765
236	0xbf15c7d8	-0.5850806
237	0x3e28a531	0.16469266
238	0xbf46c500	-0.7764435
239	0xbea13e21	-0.31492713
240	0xbe6b867d	-0.23000522
241	0xbea659b9	-0.32490328
242	0xbe575d67	-0.21031724
243	0x3f70302c	0.93823504
244	0x3ea00fe2	0.31262118
245	0xbe768be8	-0.24076807
246	0x3f00933a	0.5022465
247	0xbe9d6fa9	-0.30749252
248	0x3ddb7235	0.10715143
249	0x3f62e413	0.88629264
250	0x3e37fcf7	0.17967592
251	0xbe1173fc	-0.14204401
252	0xbf83480b	-1.0256361
253	0x3ceae557	0.02867381
254	0x3dff15d1	0.12455333
255	0xbe5efcac	-0.21776074

lstm.weight_hh_l1 f4 [256, 64]
0	0x3f4ad182	0.79225934
1	0xbdb5ba47	-0.0887342
2	0xbd13d628	-0.036092907
3	0x3e667d17	0.22508655
4	0xbf27f762	-0.6561185
5	0x3f66338e	0.89922416
6	0xbdc25d4f	-0.094904535
7	0x3e0a20d2	0.13489082
8	0xbf2bbe05	-0.6708682
9	0xbe6bb07b	-0.2301654
10	0x3a25d80c	0.0006326444
11	0xbf32e556	-0.6988119
12	0x3e97d83f	0.2965717
13	0xbf4a9cf4	-0.7914574
14	0x3f8aba98	1.0838194
15	0xbf8bcf1c	-1.092258
16	0x3e7e4874	0.24832326
17	0xbdd137bd	-0.10215709
18	0x3e08f96f	0.13376401
19	0xbf7b3148	-0.9812207
20	0x3cb0f664	0.021601863
21	0xbd559a97	-0.05214938
22	0x3ee54185	0.4477655
23	0x3f84fe9a	1.0390198
24	0x3e47371d	0.19454618
25	0xbe578904	-0.21048361
26	0xbecdd661	-0.4020262
27	0x3e0cc859	0.13748302
28	0x3f2d5d23	0.6772024
29	0xbe846f4d	-0.25866166
30	0x3d97a810	0.07405102
31	0x3f414181	0.75490576
32	0x3dfb0d9d	0.12258456
33	0xbea11b9f	-0.31466386
34	0xbf0d727e	-0.55252826
35	0x3e775500	0.24153519
36	0x3ecfe65f	0.40605447
37	0xbfba8b9e	-1.4573858
38	0xbdd620f8	-0.10455507
39	0x3f0c6821	0.5484639
40	0xbe7620ee	-0.24035999
41	0xbea1f64a	-0.31633216
42	0x3f592a6c	0.84830356
43	0x3f461197	0.7737059
44	0x3f57fb44	0.84367776
45	0xbdb5db19	-0.0887968
46	0x3f6b52dd	0.91923314
47	0xbe9bb476	-0.30411118
48	0x3e32ca01	0.17459871
49	0x3fa3989a	1.2780945
50	0xbe3838a3	-0.17990355
51	0xbe53d265	-0.20685728
52	0xbf9dcc6c	-1.232801
53	0x3f6396fc	0.8890226
54	0x3f8ce2bc	1.1006694
55	0x3e99bb7e	0.30025858
56	0x3f224ae5	0.6339553
57	0x3ee0cb56	0.43905133
58	0x3f4ebdfe	0.80758655
59	0x3f62ffd8	0.88671637
60	0x3f3414b8	0.70344114
61	0x3ed818af	0.42206332
62	0x3e6bb854	0.23019534
63	0xbfa218ef	-1.2663859
64	0xbe709468	-0.23494112
65	0xbf2a63e8	-0.66558695
66	0x3e14b93d	0.14523788
67	0x3e49dd11	0.19713236
68	0x3e52bd93	0.2058013
69	0xbf809760	-1.0046196
70	0xbe9d1d44	-0.3068639
71	0x3dd3462c	0.103161186
72	0xbf1e86e5	-0.6192458
73	0x3e31956f	0.1734216
74	0xbf6f07ec	-0.9337146
75	0xbe97e83f	-0.29669377
76	0xbf29dc06	-0.66351354
77	0x3f814c7c	1.0101466
78	0x3e8a41ab	0.27003226
79	0xbed88f88	-0.42297006
80	0xbdf7b1f5	-0.120944895
81	0x3f741aa2	0.9535314
82	0xbf6cd69d	-0.92514974
83	0x3ea5c00d	0.32373086
84	0xbd196786	-0.037452243
85	0x3edba6bb	0.42900643
86	0x3e90c464	0.28274834
87	0xbe2d9a13	-0.16953306
88	0xbe9b6518	-0.30350566
89	0x3f955992	1.166796
90	0xbe73e52d	-0.23817892
91	0x3e1b4513	0.15163068
92	0xbea02b06	-0.31282824
93	0x3f27ef4b	0.6559951
94	0xbe2cd968	-0.16879809
95	0xbf14357b	-0.57894105
96	0x3e659e61	0.22423698
97	0x3f2cd6a5	0.6751502
98	0xbeb71f97	-0.3576629
99	0xbf12df8b	-0.5737235
100	0x3ea952d3	0.33071002
101	0x3ef31c6b	0.4748262
102	0x3f8131c5	1.0093313
103	0x3d74e1df	0.05978572
104	0x3ef05589	0.46940258
105	0x3fa03e15	1.2518946
106	0xbf2692c0	-0.6506767
107	0x3ebcd4b4	0.3688103
108	0x3f28c973	0.6593239
109	0xbd1b9519	-0.037983987
110	0xbf73daf3	-0.95255965
111	0x3f1de818	0.6168227
112	0x3f4da679	0.8033214
113	0xbce2a947	-0.027668608
114	0xbfe67689	-1.8004924
115	0xbef2e4db	-0.47440228
116	0xbf0d25cb	-0.5513579
117	0x3f750f49	0.9572645
118	0x3d540022	0.05175794
119	0xbf9b6ad2	-1.2141974
120	0xbf90f6ae	-1.1325281
121	0xbf5b76bf	-0.8572807
122	0xbee86037	-0.45385906
123	0x3f81d69a	1.0143616
124	0xbf246142	-0.64210904
125	0xbe7de945	-0.24796017
126	0xbf8ca796	-1.0988643
127	0xc003236d	-2.0490372
128	0x3eea6c73	0.45785865
129	0x3e667c20	0.22508287
130	0xbc5599e3	-0.013037178
131	0xbe41e543	-0.18935113
132	0xbf8b1d96	-1.0868404
133	0x3db854ae	0.09000526
134	0x3f3a0a43	0.7267191
135	0xbf0740a8	-0.5283303
136	0x3ee2eb39	0.44320086
137	0x3fa95e00	1.3231812
138	0x3f8ce5b1	1.1007596
139	0x3e563fb7	0.20922743
140	0xbedcc82d	-0.43121472
141	0x3ef27356	0.4735362
142	0xbeb96f26	-0.36217612
143	0x3d3f39eb	0.046686094
144	0xbe0c1157	-0.1367849
145	0x3e8080e4	0.25098336
146	0xbdf2bdcd	-0.11852608
147	0x3dbb2fed	0.091400005
148	0xbdd6473f	-0.10462808
149	0x3dbe0f9a	0.092803195
150	0x3eb9b044	0.36267292
151	0x3e517e3f	0.20458315
152	0xbe90a2fa	-0.2824934
153	0x3eb6ea2c	0.35725534
154	0xbfc2ea49	-1.5227748
155	0x3cac23f5	0.02101324
156	0xbf16c574	-0.5889504
157	0xbf89b4ee	-1.075834
158	0xbed62b11	-0.41829732
159	0x3e813f8c	0.25243795
160	0x3ee9c7b0	0.45660162
161	0xbf9b2741	-1.2121354
162	0x3f81acc6	1.0130851
163	0xbe7831ac	-0.24237698
164	0x3f6e152e	0.9300107
165	0x3ec5c1d9	0.38624457
166	0x3f0959cd	0.5365265
167	0xbf96cc31	-1.1781064
168	0xbe5184a8	-0.2046076
169	0x3e2761d4	0.16345912
170	0xbf646bf0	-0.892272
171	0xc02da39f	-2.7131116
172	0xbb259ff1	-0.0025272334
173	0x3d1f23cd	0.0388525
174	0x3f0fb22d	0.5613125
175	0xbf173b00	-0.590744
176	0xbbdd9530	-0.0067621693
177	0xbdc9f263	-0.09860685
178	0xbf29ab0d	-0.6627663
179	0x3f00eac7	0.5035824
180	0xbf0b328a	-0.5437399
181	0xbf0ef3f7	-0.5584101
182	0x3ebb05d5	0.36527887
183	0x3e458a12	0.19290951
184	0xbf7672db	-0.96269006
185	0xc001042b	-2.0158794
186	0x3e8eb66a	0.27873546
187	0x3f59d01e	0.85083187
188	0xbd380547	-0.044926908
189	0xbd30c1a7	-0.04315343
190	0xbf43c19a	-0.7646729
191	0xbea64869	-0.3247712
192	0xbfa14943	-1.2600483
193	0x3f634527	0.88777393
194	0xbf07fca0	-0.5311985
195	0x3e764897	0.24051128
196	0xbf75e7ec	-0.9605701
197	0xbf32bafa	-0.69816554
198	0xbe993236	-0.2992112
199	0x3e92d726	0.2867977
200	0xbaff2a1e	-0.0019467508
201	0x3f6dc034	0.92871404
202	0x4011cf51	2.2782786
203	0x3e087d20	0.13328981
204	0xbe957e5b	-0.29197964
205	0x3f7b5e31	0.981906
206	0x3f4d4e07	0.80197185
207	0x3f440139	0.76564366
208	0xbf2ab66c	-0.66684604
209	0xbf5e467a	-0.8682629
210	0x3f86e484	1.0538487
211	0xbfa8be6e	-1.3183115
212	0xbec01561	-0.3751631
213	0xbeae5d6a	-0.34055644
214	0x3e2d5521	0.16927005
215	0xbf6c2ba9	-0.9225412
216	0xbe857c9b	-0.2607163
217	0xbf7049fa	-0.9386288
218	0x3f1debf8	0.61688185
219	0xbf966e7f	-1.1752471
220	0x3ea4a4d7	0.32157013
221	0xbebcdc34	-0.36886752
222	0xbf71e9a6	-0.94497144
223	0xbdb8ed69	-0.090296574
224	0xbbfc923d	-0.0077078626
225	0x3f7a4eab	0.9777629
226	0x3df134cf	0.117776506
227	0xbfaecbf3	-1.365599
228	0x3ef237db	0.4730824
229	0xbf6d432e	-0.92680633
230	0x3f984934	1.189734
231	0xbe8a320e	-0.26991314
232	0xbbe5110f	-0.006990559
233	0xbf04aee7	-0.5182938
234	0xbfd8cdf4	-1.6937852
235	0x3e8c9e6f	0.27464625
236	0xc013d5fa	-2.309935
237	0x3f5b3e2c	0.8564174
238	0xbed70830	-0.41998434
239	0xbf2eea9c	-0.68326735
240	0xbf727c30	-0.94720745
241	0x3f762366	0.96147764
242	0x3f47cb55	0.78044635
243	0x3f5de8e9	0.8668352
244	0xbf1ba3cb	-0.60796803
245	0xbf6fb402	-0.93634045
246	0xbf7e3eb8	-0.9931445
247	0x3f1ccd65	0.6125091
248	0xbf949aea	-1.1609776
249	0x3ebe8774	0.37212718
250	0xbf36a017	-0.7133803
251	0xbdb39770	-0.08769119
252	0x3e419d85	0.18907745
253	0x3f9cd6e5	1.2253081
254	0xbfc9eeee	-1.577604
255	0x3ef0e3d4	0.4704882

lstm.bias_ih_l1 f4 [256]
0	0x3f6fa79e	0.9361514
1	0x3f8574d2	1.0426276
2	0x3e081424	0.13288933
3	0xbe31e92e	-0.17374107
4	0x3eaf7489	0.34268597
5	0xbe63a25b	-0.22229902
6	0x3e0c491c	0.13699764
7	0xbde6e5a0	-0.11274266
8	0xbe2d5f50	-0.1693089
9	0x3e4c8456	0.19972357
10	0x3eb6172c	0.35564554
11	0xbe9a82d0	-0.30177927
12	0x3e5663e0	0.20936537
13	0x3f2308ff	0.636856
14	0x3f1640a5	0.5869239
15	0x3f431b71	0.7621375
16	0x3e9d5d3f	0.30735204
17	0x3eeb296c	0.4593004
18	0x3ea928d6	0.33038968
19	0x3f0e6a2f	0.55630773
20	0x3e97a7ba	0.29620153
21	0x3e5c63ed	0.21522494
22	0x3e8eeb45	0.2791387
23	0x3e977628	0.29582334
24	0x3e8da5d6	0.27665585
25	0xbee093c6	-0.43862742
26	0x3dd4c624	0.10389355
27	0x3f6c7d1f	0.9237842
28	0x3f50ecde	0.8161143
29	0x3e841b81	0.25802234
30	0x3f5e565c	0.86850524
31	0x3e4a3b03	0.19749074
32	0x3ec9cccb	0.39414057
33	0x3f51da20	0.8197346
34	0x3f2f445c	0.68463683
35	0xbf2b9d58	-0.6703696
36	0x3e05f7e3	0.13082843
37	0x3e167f20	0.14696932
38	0xbeb96f71	-0.36217836
39	0x3fa3768e	1.2770555
40	0x3dd430cc	0.1036087
41	0x3f0441fa	0.5166317
42	0x3e6a8e03	0.22905736
43	0x3f26b889	0.6512533
44	0x3fae4cfb	1.3617243
45	0x3f33dfdc	0.7026346
46	0xbf03b04d	-0.5144089
47	0x3cae65b0	0.021288723
48	0xbf24a721	-0.6431752
49	0x3dd912a6	0.1059926
50	0x3daa7a6d	0.08324132
51	0x3e36f2cd	0.17866059
52	0x3d88f7ad	0.066878654
53	0x3e644dc8	0.22295296
54	0x3f363cd9	0.71186596
55	0x3f3d8637	0.7403292
56	0x3e1f27f5	0.15542586
57	0x3f7b66fe	0.9820403
58	0x3f907ff4	1.1289048
59	0xbf0d44c2	-0.5518304
60	0xbdb32662	-0.08747555
61	0x3f90206b	1.1259893
62	0x3e8aeef2	0.27135426
63	0xbe01a4b4	-0.12660486
64	0xbea6bb32	-0.32564694
65	0x3d2c1b36	0.042018138
66	0xbf4ba3e3	-0.79546946
67	0x3dc7ba8e	0.09752379
68	0x3dab415f	0.08362078
69	0x3e8cfcee	0.2753672
70	0xbf05f1d7	-0.52322143
71	0xbec5f12e	-0.38660568
72	0xbe92d099	-0.28674772
73	0xbe3682de	-0.1782336
74	0x3e8a1523	0.2696925
75	0xbeb5f724	-0.35540116
76	0xbe381596	-0.17976984
77	0x3ee1eb64	0.441249
78	0xbdb2a4a6	-0.087228104
79	0xbea86043	-0.32885942
80	0x3eb69dba	0.3566721
81	0xbee00f37	-0.43761608
82	0x3e8f1f35	0.27953497
83	0x3d9b9810	0.07597363
84	0x3e49d750	0.19711041
85	0xbef3d165	-0.47620693
86	0xbe62bbc6	-0.22141942
87	0xbc342fb2	-0.0109977
88	0x3e9ef22a	0.31044132
89	0xbf06d524	-0.52668977
90	0xbefc83c7	-0.49319288
91	0xbf1af816	-0.605348
92	0xbf3ca734	-0.7369263
93	0xbf6c34f6	-0.9226831
94	0xbe698714	-0.22805434
95	0x3ec29136	0.38001412
96	0x3d34c473	0.04413266
97	0xbedfe2a1	-0.43727592
98	0x3d373217	0.044725504
99	0x3eaac40f	0.33352706
100	0xbeeedc97	-0.46652672
101	0x3d74fef1	0.059813444
102	0xbf08c023	-0.5341818
103	0x3e3ff0f2	0.18744257
104	0xbeadefb5	-0.33971944
105	0x3e5bb016	0.2145389
106	0x3e2c57e8	0.16830409
107	0x3e071061	0.13189842
108	0x3ea4f1cf	0.32215735
109	0xbcb2fc00	-0.021848679
110	0x3ebd53d3	0.36978015
111	0x3f3582ae	0.70902526
112	0x3da21654	0.07914415
113	0xbf019e0d	-0.5063179
114	0xbddd6e76	-0.108120844
115	0x3de9c338	0.11414188
116	0xbf1a4fd7	-0.60278076
117	0xbe4b896a	-0.19876638
118	0xbe2edc3e	-0.17076203
119	0xbdab9622	-0.08378245
120	0xbe819fc3	-0.253172
121	0x3db066fc	0.08613393
122	0x3f5a9c23	0.85394496
123	0xbed06735	-0.4070374
124	0x3ef4e568	0.47831273
125	0x3ef16353	0.4714609
126	0x3f4034ba	0.75080454
127	0xbf56e41a	-0.83941805
128	0xbdb8c960	-0.09022784
129	0xbe38b1c4	-0.18036562
130	0x3e17377f	0.14767264
131	0xbab669f7	-0.0013917078
132	0x3df92211	0.12164701
133	0xbf0605f4	-0.52352834
134	0x3daffb65	0.085928716
135	0xbe2abc59	-0.16673411
136	0xbea4ebf2	-0.32211262
137	0x3d99ab16	0.07503335
138	0x3e37d6af	0.17952989
139	0x3e7eee17	0.24895512
140	0xbe8364d8	-0.25662875
141	0x3dbe7bae	0.09300934
142	0xbe68d032	-0.2273567
143	0x3cf19eeb	0.029494723
144	0x3f04ce7e	0.5187758
145	0xbdfbb37c	-0.12290093
146	0xbd28478b	-0.041083854
147	0xbe44de36	-0.19225392
148	0x3e38eb83	0.1805859
149	0xbdc28d62	-0.09499623
150	0x3e2816ac	0.16414899
151	0x3cf74434	0.030183889
152	0xbe80c302	-0.2514878
153	0x3d6d938b	0.058002036
154	0x3db95305	0.09049038
155	0x3f084ad3	0.5323917
156	0x3e89cc6d	0.26913777
157	0x3eb06564	0.34452355
158	0x3e2f1ac5	0.17100056
159	0xbddbb456	-0.10727756
160	0xbda5abff	-0.08089446
161	0x3e94d4be	0.2906856
162	0x3e131455	0.14363225
163	0x3ef573ad	0.47939816
164	0xbd937b72	-0.0720128
165	0xbdad3c70	-0.08458793
166	0xbda9d4c6	-0.082925364
167	0x3e095ab4	0.13413507
168	0x3eb9543f	0.36197087
169	0xbe0029d2	-0.12515953
170	0xbd7ec374	-0.062198117
171	0xbebe33c0	-0.37148857
172	0x3dc98206	0.09839253
173	0xbebe98a8	-0.37225842
174	0xbee74502	-0.45169836
175	0x3e59725b	0.2123503
176	0xbd7b7c72	-0.061397977
177	0x3e9212e9	0.28530052
178	0x3d63f71f	0.055655595
179	0xbe4c9216	-0.19977602
180	0xbb0b7c13	-0.002128367
181	0xbeefa4f9	-0.46805552
182	0x3eaf1886	0.34198397
183	0x3e475019	0.19464149
184	0x3e8ccaeb	0.27498564
185	0x3d49c23a	0.049257495
186	0xbe240ca5	-0.16020449
187	0x3e11d94f	0.14243053
188	0x3ee92e75	0.45543256
189	0x3f076821	0.52893263
190	0xbe3d5932	-0.18491057
191	0x3e4b7635	0.19869311
192	0x3e4fdcc0	0.20299053
193	0x3d0bb259	0.034105632
194	0xbd28235b	-0.041049343
195	0xbf33e5e6	-0.7027267
196	0x3e11514b	0.14191167
197	0x3f82c16e	1.021528
198	0x3e925f0b	0.28588137
199	0x3eb16713	0.34648952
200	0x3f0a7acc	0.54093623
201	0x3e19a557	0.15004478
202	0xbee2e128	-0.44312406
203	0x3eb1e9bb	0.34748635
204	0x3ee48351	0.44631436
205	0xbe801441	-0.25015453
206	0x3f4b17d8	0.7933326
207	0x3e9eb9c1	0.31001094
208	0x3f1242c1	0.5713311
209	0xbe668196	-0.2251037
210	0x3e858a4e	0.2608208
211	0x3e0d2274	0.13782674
212	0xbe877a4f	-0.26460502
213	0x3f7e2552	0.99275696
214	0xbebaf7c7	-0.36517164
215	0xbea40aec	-0.32039583
216	0xbd176205	-0.036958713
217	0x3dc5c12e	0.09655987
218	0x3e34172b	0.17586963
219	0x3f877edc	1.058559
220	0x3f54073b	0.8282353
221	0x3f32849b	0.6973359
222	0x3efa4b06	0.48885363
223	0x3d8dda2b	0.06926378
224	0xbe974823	-0.29547223
225	0x3f6fcce9	0.93672043
226	0xbec0e181	-0.37672046
227	0x3f24b2fc	0.6433561
228	0x3fa8a8f5	1.3176562
229	0xbe5b331c	-0.21406215
230	0x3e601ef3	0.21886806
231	0x3dd971c7	0.106174044
232	0xbc675d83	-0.014121416
233	0xbd650482	-0.055912502
234	0xbf8ba72d	-1.0910393
235	0x3e4f1e2f	0.20226358
236	0x3ea1ed4d	0.3162636
237	0x3efc6e4d	0.49302903
238	0x3e88c76a	0.2671464
239	0xbe32a42c	-0.17445439
240	0x3effce55	0.49962106
241	0x3e85a4e2	0.26102358
242	0x3e62bf0d	0.22143193
243	0x3f322b76	0.69597566
244	0x3f3b3762	0.7313138
245	0xbf38aefd	-0.7214201
246	0xbccaa03a	-0.024734605
247	0x3e4fe983	0.20303921
248	0x3ee36c42	0.44418532
249	0xbf31c2dc	-0.69437957
250	0x3e22d13c	0.15900129
251	0x3f3050e0	0.68873405
252	0x3e821b8a	0.25411636
253	0xbec2582c	-0.37957895
254	0xbe1d2c8d	-0.15349026
255	0x3f3f4e86	0.7472919
