model/epoch_13158.pth (torch_old, 346475 bytes, 10 tensors)

lstm.weight_ih_l0 f4 [256, 20]
-0.549567 4.7995243 3.9277804 0.6738425 -0.20860927 1.1133363 6.5293946 0.40274042
-0.48984116 1.2086318 0.17745681 -0.8337929 0.62987566 -3.0106714 0.7064537 -0.43238074
6.5427384 0.6879626 7.0637374 -2.4889827 -0.62024134 -1.462932 0.27272826 -0.021956041
2.0563066 -0.18883626 -0.22661223 -0.8468734 2.8671854 3.213219 -0.20355922 0.24843012
1.3780589 0.019846328 0.8462896 0.58912647 -1.3410434 -5.1532445 2.9737544 -0.09854033
-0.03830446 3.7160237 -0.6166934 2.387435 -1.5665063 -0.40965447 0.69492394 0.745494
9.275824 -0.5274983 -1.8803318 -0.28189722 2.1928368 0.978451 0.011265038 4.5996914
-1.7794956 -1.0948162 -2.8713257 0.7091471 1.4337285 5.513124 -1.073853 1.3155465
-0.19450411 -0.4160006 1.5182728 -0.8723971 -1.8649373 8.135681 -0.14336903 -0.8158451
-0.21673527 -0.42621523 10.712096 0.2826646 1.9426624 1.7494164 -1.1063626 1.2531701
-0.31041434 -3.142909 2.3888535 0.46743533 0.105335936 1.9173726 -0.22966444 -1.0159935
-0.13274239 0.94127053 1.7265638 -0.74809754 4.457399 4.232489 11.790925 -1.0599431
3.074278 1.5982093 7.1515656 -0.97471714 0.9690828 4.68703 -0.95143366 2.6526377
-0.64881843 0.7171742 -1.6949242 9.081076 0.9550619 2.7988176 -1.3532729 -0.59785694
1.4686584 -1.2379339 -2.3760855 2.4131556 -0.28943437 -0.41104645 0.044138666 -0.95442927
-2.228348 5.2959146 7.0041647 -0.2840149 -1.203859 0.65833855 2.340527 2.30571
2.6601636 -0.28618485 1.522742 -0.90159416 0.5229181 -0.5584904 -0.444256 1.0486257
4.1395187 6.659814 1.9956514 -0.72913027 -2.4424515 0.19608779 1.4529142 -2.0173886
6.0548177 -1.0894154 1.9815927 2.5848997 -3.0924273 1.4078214 -1.0233506 -2.0413468
0.87234503 1.6446186 9.065478 2.2821467 0.7316531 -0.701671 -1.5202686 1.3237755
-2.6001842 5.169865 1.0312068 0.31576398 -0.008421632 -2.0104165 3.4385307 0.6338261
-1.1328491 1.0874146 -2.9225633 0.5736272 0.1534694 2.6786523 0.37525514 -0.9192307
3.5666924 1.4723611 -2.1951852 -2.4594533 2.9220936 -3.662771 1.2864822 0.8906946
-1.445327 2.1605067 0.21883118 -0.013762132 -2.3788147 8.03508 0.48494565 1.0391072
4.84272 -1.8390338 -0.54443306 0.074809626 -0.0485078 -2.9936848 4.106662 -0.24527879
3.271335 1.6256413 -0.1349781 0.17121968 0.18085848 1.8315355 -0.26253676 0.30301693
0.6402364 -1.184997 0.063475035 -2.8784246 0.7313313 -0.39309824 1.9813389 0.24671818
0.7152446 2.5797265 6.107385 -1.2995889 -2.5744174 1.4088304 -1.9796716 -0.7727532
1.6184839 -0.7834222 0.44747603 2.8826718 1.9151977 0.39954242 1.3111339 0.14639331
-0.9829717 -0.58416474 0.87666726 1.4756434 0.95200986 0.82799196 -0.7273506 -0.4073238
-0.400834 -0.48675743 -1.251759 2.4513662 0.18464336 2.821962 0.7952305 1.5142119
-2.2795727 -2.094987 -3.0906217 0.6790276 3.2429452 0.8231069 3.4434824 -1.0753818
00000000: 6cb0 0cbf b495 9940 c160 7b40 f180 2c3f
00000010: ab9d 55be ce81 8e3f cdf0 d040 fe33 ce3e
00000020: 76cc fabe 72b4 9a3f 3db7 353e 7473 55bf
00000030: 883f 213f d7ae 40c0 26da 343f 0261 ddbe
00000040: 1d5e d140 511e 303f 230a e240 7e4b 1fc0
00000050: 23c8 1ebf 5b41 bbbf 0aa3 8b3e 28dd b3bc
00000060: 879a 0340 4b5e 41be 090d 68be b2cc 58bf
00000070: f77f 3740 61a5 4d40 d471 50be 7764 7e3e
00000080: 3c64 b03f c494 a23c 6fa6 583f fed0 163f
00000090: 4fa7 abbf 61e7 a4c0 fe51 3e40 83cf c9bd
000000a0: 23e5 1cbd 55d3 6d40 9edf 1dbf bccb 1840
000000b0: 4783 c8bf 3bbe d1be 89e6 313f b2d8 3e3f
000000c0: c669 1441 210a 07bf b6ae f0bf d554 90be
000000d0: 7057 0c40 c47b 7a3f fe90 383c ac30 9340
000000e0: 83c6 e3bf f022 8cbf cdc3 37c0 aa8a 353f
000000f0: 6a84 b73f 836b b040 0474 89bf d463 a83f
00000100: 162c 47be 08fe d4be c356 c23f 6b55 5fbf
00000110: 44b6 eebf c02b 0241 55cf 12be 39db 50bf
00000120: daef 5dbe e238 dabe bf64 2b41 6ab9 903e
00000130: 29a9 f83f e0ec df3f 4a9d 8dbf e167 a03f
00000140: a1ee 9ebe 6c25 49c0 fae2 1840 af53 ef3e
00000150: 5eba d73d 776c f53f 282d 6bbe 130c 82bf
00000160: 9fed 07be 1bf7 703f 0b00 dd3f 5283 3fbf
00000170: 03a3 8e40 8d70 8740 a1a7 3c41 37ac 87bf
00000180: f9c0 4440 1f92 cc3f a0d9 e440 1087 79bf
00000190: cf15 783f 26fc 9540 2891 73bf d1c4 2940
000001a0: f718 26bf ba98 373f 47f3 d8bf 164c 1141
000001b0: f07e 743f d41f 3340 0c38 adbf 270d 19bf
000001c0: 00fd bb3f 9e74 9ebf c911 18c0 2471 1a40
000001d0: be30 94be ae74 d2be bfca 343d 7a55 74bf
000001e0: 419d 0ec0 2278 a940 1e22 e040 676a 91be
000001f0: 0d18 9abf e088 283f 32cb 1540 c190 1340
00000200: 1f40 2a40 d286 92be 36e9 c23f e0ce 66bf
00000210: f6dd 053f 3af9 0ebf 8675 e3be 5e39 863f
00000220: f076 8440 321d d540 8171 ff3f 48a8 3abf
00000230: 2051 1cc0 3dcb 483e 18f9 b93f e51c 01c0
00000240: 11c1 c140 f771 8bbf d4a4 fd3f ff6e 2540
00000250: 54ea 45c0 7e33 b43f 27fd 82bf 6da5 02c0
00000260: 0152 5f3f dd82 d23f 330c 1141 b10e 1240
00000270: 9e4d 3b3f b6a0 33bf 2998 c2bf 7a71 a93f
00000280: 6b69 26c0 896f a540 96fe 833f d1ab a13e
00000290: e3fa 09bc aaaa 00c0 e310 5c40 6d42 223f
000002a0: 3301 91bf 6730 8b3f 470b 3bc0 3bd9 123f
000002b0: 1527 1d3e 0a6f 2b40 7121 c03e b452 6bbf
000002c0: b044 6440 5476 bc3f ea7d 0cc0 af67 1dc0
000002d0: 9503 3b40 d76a 6ac0 73ab a43f 9004 643f
000002e0: 7a00 b9bf be45 0a40 4815 603e 917a 61bc
000002f0: 803e 18c0 b08f 0041 cc4a f83e 7701 853f
00000300: 90f7 9a40 7665 ebbf f75f 0bbf ca35 993d
00000310: 1db0 46bd 8898 3fc0 c669 8340 5d2a 7bbe
00000320: 8d5d 5140 0415 d03f b337 0abe 3654 2f3e
00000330: f732 393e c16f ea3f 386b 86be 0925 9b3e
00000340: 88e6 233f fbad 97bf 33ff 813d 1c38 38c0
00000350: 8738 3b3f 2c44 c9be 839c fd3f b1a3 7c3e
00000360: 451a 373f 3d1a 2540 b36f c340 ee58 a6bf
00000370: 41c3 24c0 8e54 b43f e165 fdbf 27d3 45bf
00000380: 7b2a cf3f 5b8e 48bf 941b e53e b27d 3840
00000390: 3325 f53f d390 cc3e 3cd3 a73f 21e8 153e
000003a0: 09a4 7bbf d28b 15bf 446d 603f e2e1 bc3f
000003b0: ebb6 733f 48f7 533f a633 3abf bf8c d0be
000003c0: 1d3a cdbe 4538 f9be a439 a0bf 2fe3 1c40
000003d0: 2613 3d3e 079b 3440 3a94 4b3f b2d1 c13f
000003e0: 85e4 11c0 4414 06c0 bfcc 45c0 c1d4 2d3f
000003f0: 6a8c 4f40 22b7 523f 0462 5c40 1ca6 89bf

lstm.weight_hh_l0 f4 [256, 64]
0.08290711 0.58526003 0.4799486 1.2664381 1.4327449 1.4606811 -0.14837994 0.125211
-1.052628 -0.025617337 0.0012058642 0.029004203 -0.3565003 -0.40452307 0.59398425 -0.8397988
-2.4941268 0.28809 -0.50236213 0.98156476 -0.27285707 -0.36525908 -1.0928407 -0.6159614
-0.6961181 -0.32202005 -0.44669792 0.13721435 0.69539243 0.710933 -0.04740433 0.028229287
0.3021493 -0.1383576 -0.90487456 0.6451475 0.03486766 -0.047363315 -0.65432125 0.46946108
0.61450493 -0.5697217 -0.28040406 0.7759792 -1.2218293 -0.67830783 -0.1729496 -0.13380764
0.17105678 1.4036971 -0.026949873 0.9569084 0.90361136 0.055164922 -1.4580345 1.6494846
-0.45794645 0.23524436 -0.9011256 0.4738879 0.46971503 -1.6255128 -1.4487385 0.5325664
-1.3576242 -0.43948382 -0.9985436 -0.89383787 -1.0020179 1.1252704 1.1755412 0.72852767
0.38073298 -0.0069437013 1.2504059 -0.5347672 -0.48401073 0.31053674 -1.0160998 -1.3261588
-0.46338117 -0.41807497 0.8342451 -0.47557297 -0.50901866 -1.1050831 -0.6299692 0.4428352
0.2305214 0.37129128 -0.48033112 -1.3464664 -0.12551847 -0.45989513 0.11542411 0.34112495
0.11092663 1.054011 -1.701289 -0.6757121 -0.3289898 0.69451046 1.182395 0.13555712
0.26605535 0.26673672 -0.55468655 0.10566742 0.6161459 -0.07641349 0.84896153 1.4175192
0.82932115 -1.2697446 -0.5071856 0.78788066 1.6996138 1.1580622 -0.07661523 0.90422916
-1.3456295 -0.071551114 0.43889493 -0.019375099 0.4695693 -0.22294694 -0.5490442 -0.7739827
-0.7834781 0.7563345 -0.10597444 0.71028364 -0.50588465 -0.08684303 0.73468304 -1.2216277
-0.6485171 1.2105916 0.13288178 -0.57400966 -0.01494082 -0.254997 -0.42715544 -0.26226974
-0.64919597 0.30837786 -0.12305749 -0.288336 -0.63296115 0.03979713 -1.1372421 -1.000543
-1.3361368 0.8032866 -1.0677767 -1.4868472 0.94889593 0.35654783 0.2140393 0.5307868
-0.21551034 -1.1361886 -0.373211 0.15786313 1.6608309 0.4359851 0.7638294 1.6122577
0.8832422 0.9211169 0.13249157 -0.42087 -1.0349196 0.3578541 -1.7060996 0.32280204
-0.12277933 0.89891905 0.5721293 1.8452718 1.147342 -0.18133004 -0.024189968 2.117824
-0.13260502 -0.7026285 -0.3263433 -0.06838031 0.30081367 -1.1525857 -0.64590293 -0.8177984
0.5822539 0.53026825 -0.6603879 0.8907188 0.32667798 -0.7660541 -0.35285288 1.4523584
-1.377538 0.8683467 -0.37239036 0.036652286 -0.5943745 0.27826113 0.54424167 -0.62468547
-1.4458852 -0.63632774 -0.03993863 1.2775722 0.9173576 -1.119686 -0.179456 -0.2336448
-2.250931 0.19556332 -0.19234899 1.1942437 0.6594279 0.46289477 -0.14243998 -1.1308551
0.8274281 -1.179726 -0.7439706 -0.13365465 -1.497353 1.248039 -0.47210672 -0.9871717
-1.3719723 -0.65270776 1.3281586 0.9140316 0.39841986 0.9524642 -0.9910676 -0.42888007
0.033775844 0.5014577 -0.43142718 0.4154245 -1.1516578 -0.8131806 0.026154207 0.295346
1.4819351 0.6097629 0.6051299 -0.86063915 -0.15599044 -0.2981255 -0.07597917 -0.5635734
00000000: 34cb a93d 9ad3 153f d3bb f53e a51a a23f
00000010: 2f64 b73f 99f7 ba3f e9f0 17be 5037 003e
00000020: 84bc 86bf 73db d1bc 170e 9e3a 399a ed3c
00000030: 3587 b6be a61d cfbe 5a0f 183f 0efd 56bf
00000040: c69f 1fc0 8880 933e ce9a 00bf d447 7b3f
00000050: ecb3 8bbe 3d03 bbbe 34e2 8bbf a5af 1dbf
00000060: cc34 32bf d0df a4be 97b5 e4be eb81 0c3e
00000070: 3d05 323f b5ff 353f 0b2b 42bd 1b41 e73c
00000080: 50b3 9a3e 9dad 0dbe dca5 67bf 6328 253f
00000090: 64d1 0e3d 0900 42bd 9981 27bf 345d f03e
000000a0: 3250 1d3f 48d9 11bf 1f91 8fbe 93a6 463f
000000b0: e764 9cbf 95a5 2dbf b319 31be df04 09be
000000c0: 8229 2f3e 59ac b33f fbc5 dcbc f3f7 743f
000000d0: 1353 673f 9df4 613d e0a0 babf 5022 d33f
000000e0: f577 eabe e6e3 703e 2bb0 66bf 6fa1 f23e
000000f0: 7d7e f03e ce10 d0bf 4370 b9bf 4656 083f
00000100: a1c6 adbf 0604 e1be 8ea0 7fbf 8fd2 64bf
00000110: 1f42 80bf dc08 903f 2278 963f ca80 3a3f
00000120: 6fef c23e fd87 e3bb 4d0d a03f 81e6 08bf
00000130: 41d0 f7be acfe 9e3e 8f0f 82bf 92bf a9bf
00000140: 4c40 edbe ec0d d6be 1691 553f 4d7e f3be
00000150: 0c4f 02bf 5d73 8dbf a945 21bf 4cbb e23e
00000160: cd0d 6c3e e419 be3e f6ed f5be 0359 acbf
00000170: ea87 00be 6077 ebbe 7a63 ec3d eea7 ae3e
00000180: 802d e33d d5e9 863f d7c3 d9bf 78fb 2cbf
00000190: 5a71 a8be 70cb 313f b858 973f 7ccf 0a3e
000001a0: 6838 883e b791 883e f0ff 0dbf 2968 d83d
000001b0: bdbb 1d3f ad7e 9cbd 8b55 593f 4571 b53f
000001c0: 644e 543f fe86 a2bf ead6 01bf 8cb2 493f
000001d0: f28c d93f 623b 943f 72e8 9cbd 907b 673f
000001e0: 963d acbf 6489 92bd d6b6 e03e 87b8 9ebc
000001f0: 636b f03e 344c 64be 298e 0cbf bb23 46bf
00000200: 0592 48bf 239f 413f 2109 d9bd 26d5 353f
00000210: a881 01bf c2da b1bd 3014 3c3f 4c5e 9cbf
00000220: 3705 26bf aaf4 9a3f 2912 083e 4cf2 12bf
00000230: 57ca 74bc f78e 82be 1eb4 dabe 3848 86be
00000240: b531 26bf b4e3 9d3e 9105 fcbd c7a0 93be
00000250: be09 22bf 5102 233d 2691 91bf cb11 80bf
00000260: 8806 abbf 31a4 4d3f e8ac 88bf 0251 bebf
00000270: d8ea 723f 708d b63e 1e2d 5b3e a5e1 073f
00000280: beae 5cbe a16e 91bf 8315 bfbe dfa6 213e
00000290: 1b96 d43f 7039 df3e 538a 433f 765e ce3f
000002a0: 291c 623f 51ce 6b3f dfab 073e 467c d7be
000002b0: 3f78 84bf a738 b73e 7961 dabf 4f46 a53e
000002c0: bb73 fbbd 8f1f 663f 1177 123f de31 ec3f
000002d0: 1adc 923f 95ae 39be 0a2a c6bc 6e8a 0740
000002e0: 9cc9 07be 76df 33bf 7816 a7be fa0a 8cbd
000002f0: 4004 9a3e ee87 93bf e559 25bf 3c5b 51bf
00000300: 970e 153f a9bf 073f 2e0f 29bf 2606 643f
00000310: 5642 a73e 1f1c 44bf 22a9 b4be e1e6 b93f
00000320: 2a53 b0bf f84b 5e3f f3a9 bebe b520 163d
00000330: ed28 18bf 3e78 8e3e 6c53 0b3f 63eb 1fbf
00000340: c412 b9bf 60e6 22bf b096 23bd 7c87 a33f
00000350: f3d7 6a3f df51 8fbf 50c3 37be 9540 6fbe
00000360: 410f 10c0 c041 483e 22f7 44be fadc 983f
00000370: 44d0 283f 8b00 ed3e c9db 11be dcbf 90bf
00000380: 54d2 533f 4301 97bf db74 3ebf c4dc 08be
00000390: 43a9 bfbf bebf 9f3f f9b7 f1be 49b7 7cbf
000003a0: ca9c afbf db17 27bf 1a01 aa3f fafd 693f
000003b0: b0fd cb3e b2d4 733f 9bb6 7dbf 2b96 dbbe
000003c0: 8a58 0a3d 885f 003f 06e4 dcbe 85b2 d43e
000003d0: 8669 93bf 9b2c 50bf 5941 d63c 9737 973e
000003e0: 0db0 bd3f 6c19 1c3f cbe9 1a3f d952 5cbf
000003f0: f5bb 1fbe e8a3 98be f89a 9bbd 5946 10bf

lstm.bias_ih_l0 f4 [256]
0.4279692 0.718391 0.7675448 1.0035326 0.7405954 0.84441334 0.6779511 1.1231858
-0.27859867 0.8837472 0.30210015 0.54288745 0.94973326 0.8260518 1.0953926 0.52394885
0.25181222 1.5160218 0.44059253 0.8469222 0.60586774 1.1264275 0.9969898 1.0444102
0.7229285 0.88661665 0.22239517 -0.1296475 0.22780718 1.3625937 1.5608363 0.31678477
0.9967294 0.109412365 0.58117396 0.80663466 1.025412 0.8273042 0.71637225 1.3580741
1.6369852 1.331207 0.51562214 0.7309608 0.41889465 0.49187925 1.4511374 0.5022438
0.81979305 0.8935002 0.8984975 0.5393053 0.81050366 0.5706953 0.6462031 -0.074784495
0.33244127 -0.32362354 0.12525739 1.3708202 1.2581646 0.641557 0.95252025 0.72817004
-0.47165266 -0.027545545 0.18379532 0.10169389 0.17843103 -0.028770793 0.07465412 -0.0018658964
0.40168464 0.20783249 0.5149002 0.39761046 -0.33890045 0.49178934 0.077157736 -0.15477693
0.10499291 -0.6281508 0.34410062 0.2102993 -0.13961947 -0.15108052 0.17650442 -0.022505943
0.19871922 0.062303957 -0.34119278 0.12299975 0.2445916 0.15763438 0.53396654 -0.030576713
0.4846164 -0.033259034 -0.2103793 0.030435149 -0.30259275 0.4227794 0.081223056 0.045377772
0.057468146 -0.014820527 0.1138563 0.32043993 0.06577249 0.12876587 0.60618734 -0.1285756
-0.25034824 0.09657955 0.13427503 -0.38186312 -0.54252416 0.28253794 0.03376595 0.19606729
0.060639918 0.34081393 -0.2295314 0.2002771 0.341667 0.33591533 -0.005434912 0.25175226
0.016055504 0.25523385 -0.064010054 0.13657978 0.3055816 -0.08797868 -0.14143172 0.007381348
-0.1062028 0.12824601 0.17104694 -0.27353466 -0.18823594 -0.12403746 0.19489415 -0.14823362
-0.22012949 -0.032529302 0.007782081 0.08732166 0.03520791 -0.08372357 -0.10846364 -0.044061355
-0.17464541 -0.2041588 0.028834663 -0.22769724 0.108659506 0.011530008 -0.4140887 0.2724092
-0.18234307 -0.036356855 -0.103972875 0.05986 0.10183345 -0.11917208 0.05351104 0.01076228
-0.082373045 -0.078672945 0.066399656 -0.23959951 -0.31524032 -0.026856733 -0.044197965 -0.08212792
-0.19491702 0.052856214 -0.20737192 -0.042671565 -0.08725284 0.10603759 -0.12445278 0.25304657
0.05069989 -0.016871734 0.13471512 -0.05728247 0.14583749 -0.17031628 -0.13123873 0.04988912
0.51483834 0.55675405 0.7628409 0.5693729 0.08425577 0.3083017 1.0921062 0.02863306
-0.12110797 0.34626672 -0.06253144 -0.21400057 0.24527942 -0.4193907 0.76140505 0.65071934
-0.21965125 0.3800763 0.016123014 0.16349596 0.23744607 -0.053362157 0.05455875 0.59163284
0.030799598 0.13289349 -0.36810678 0.19684903 -0.2216259 0.7496798 0.14061213 0.49029663
0.39225692 0.64623135 0.1566812 0.10368835 0.29170576 0.2602291 0.023751898 -0.00884018
0.52882427 0.31422544 -0.07330972 0.047275927 0.8368869 0.56843936 -0.38932756 0.3495691
1.1910268 0.4563973 0.23002648 0.4487954 0.25561997 -0.053086694 1.2859409 0.22915067
0.93440133 -0.25626123 0.29940253 0.27305928 1.1926346 -0.03058421 0.30662397 0.23436521
00000000: c71e db3e 79e8 373f d17d 443f c273 803f
00000010: a997 3d3f 792b 583f 348e 2d3f 8dc4 8f3f
00000020: 7ca4 8ebe 423d 623f dfac 9a3e acfa 0a3f
00000030: b821 733f 2178 533f d335 8c3f 8321 063f
00000040: 88ed 803e 010d c23f 5895 e13e e5cf 583f
00000050: 261a 1b3f c72e 903f b93a 7f3f 3caf 853f
00000060: d811 393f 4ff9 623f 8fbb 633e 50c2 04be
00000070: 4946 693e 7869 ae3f 7cc9 c73f 9d31 a23e
00000080: a829 7f3f 9713 e03d d1c7 143f 9c7f 4e3f
00000090: b340 833f 35ca 533f 2c64 373f 5fd5 ad3f
000000a0: bb88 d13f fe64 aa3f d0ff 033f 3f20 3b3f
000000b0: 5c79 d63e 99d7 fb3e dfbe b93f 0d93 003f
000000c0: f5dd 513f 6ebc 643f ef03 663f ea0f 0a3f
000000d0: 2b7d 4f3f 1619 123f 916d 253f 9d28 99bd
000000e0: be35 aa3e fcb1 a5be 7943 003e 0977 af3f
000000f0: 8a0b a13f 143d 243f 5ed8 733f 5a69 3a3f
00000100: 757c f1be 32a7 e1bc d734 3c3e e344 d03d
00000110: a0b6 363e bab0 ebbc 42e4 983d 1891 f4ba
00000120: 9ca9 cd3e 0ad2 543e 80d0 033f 9993 cb3e
00000130: 5c84 adbe d0cb fb3e e004 9e3d d87d 1ebe
00000140: 8606 d73d 7ece 20bf f52d b03e b358 573e
00000150: 68f8 0ebe dab4 1abe 93bd 343e 625e b8bc
00000160: 0d7d 4b3e 6f32 7f3d d2b0 aebe 4be7 fb3d
00000170: 3876 7a3e e86a 213e 08b2 083f 047c fabc
00000180: a41f f83e a03a 08bd ac6d 57be 2253 f93c
00000190: 70ed 9abe 8b76 d83e 4658 a63d 0bde 393d
000001a0: b863 6b3d ccd1 72bc 7e2d e93d b410 a43e
000001b0: bab3 863d 33db 033e 182f 1b3f 52a9 03be
000001c0: a52d 80be 80cb c53d 657f 093e 9083 c3be
000001d0: dde2 0abf d0a8 903e 2a4e 0a3d ddc5 483e
000001e0: 9061 783d 2a7f ae3e 480a 6bbe 7115 4d3e
000001f0: faee ae3e 18fd ab3e 5917 b2bb ace5 803e
00000200: d586 833c 03ae 823e b417 83bd 92db 0b3e
00000210: 3175 9c3e 2b2e b4bd 7ad3 10be 3cdf f13b
00000220: db80 d9bd ec52 033e ee26 2f3e bc0c 8cbe
00000230: ecc0 40be 5a07 febd 5592 473e 8eca 17be
00000240: a069 61be 723d 05bd d400 ff3b b3d5 b23d
00000250: 2b36 103d 4377 abbd 2f22 debd ae79 34bd
00000260: 3fd6 32be 010f 51be ac36 ec3c 7729 69be
00000270: e088 de3d 5ce8 3c3c 6f03 d4be 3879 8b3e
00000280: 24b8 3abe edea 14bd bbef d4bd c22f 753d
00000290: 0e8e d03d 7e10 f4bd 642e 5b3d 4654 303c
000002a0: 33b3 a8bd 481f a1bd 8bfc 873d 9359 75be
000002b0: 2e67 a1be a702 dcbc ed08 35bd af32 a8bd
000002c0: 5498 47be c27f 583d 4e59 54be 61c8 2ebd
000002d0: 9eb1 b2bd 3c2a d93d 19e1 febd 528f 813e
000002e0: b0aa 4f3d 9736 8abc c3f2 093e 06a1 6abd
000002f0: 6c56 153e 6467 2ebe 7263 06be 8958 4c3d
00000300: 72cc 033f 6f87 0e3f 8b49 433f 6cc2 113f
00000310: 4a8e ac3d b8d9 9d3e 23ca 8b3f e18f ea3c
00000320: 7507 f8bd df49 b13e 7c10 80bd f722 5bbe
00000330: 872a 7b3e 61ba d6be 71eb 423f 8b95 263f
00000340: 42ec 60be 5c99 c23e 6914 843c 7c6b 273e
00000350: 1025 733e 4792 5abd ff78 5f3d 4075 173f
00000360: 704f fc3c 3b15 083e 7e78 bcbe cb92 493e
00000370: e6f1 62be 04eb 3f3f a0fc 0f3e 2908 fb3e
00000380: e6d5 c83e 6b6f 253f 0971 203e 8f5a d43d
00000390: 755a 953e c03c 853e 5793 c23c 67d6 10bc
000003a0: 0761 073f 28e2 a03e 6823 96bd 67a4 413d
000003b0: 383e 563f 3e85 113f f155 c7be b9fa b23e
000003c0: 9173 983f e8ac e93e 108c 6b3e 83c8 e53e
000003d0: 9fe0 823e 6f71 59bd b699 a43f 79a6 6a3e
000003e0: ed34 6f3f ac34 83be 4a4b 993e 6dce 8b3e
000003f0: 40a8 983f bd8b fabc d1fd 9c3e 6ffd 6f3e

lstm.bias_hh_l0 f4 [256]
0.31425628 0.67550236 0.7507876 0.8247797 0.81268746 0.7999626 0.60079306 1.159477
-0.11031179 0.82935953 0.4542617 0.4987528 0.9739165 1.0077869 1.0934652 0.38864797
0.4346124 1.6078359 0.2311083 0.6666149 0.6152783 1.0518252 1.2136828 1.0144414
0.828257 1.0099739 0.34779054 -0.32155585 0.29146913 1.4366024 1.6362746 0.36465278
1.0776504 0.18471299 0.64572394 0.8790762 0.9242297 0.8218848 0.652155 1.3448668
1.4596575 1.365369 0.38305506 0.51632875 0.5396389 0.665269 1.2213514 0.54882467
0.618211 0.9872924 0.82434064 0.6457832 0.95956796 0.48868638 0.49912453 -0.06665765
0.36231408 -0.2269725 0.14818619 1.3044024 1.3494554 0.7823916 0.94196963 0.50331616
-0.4700289 0.026644915 0.2593353 0.09423482 0.32111982 0.00071852666 -0.029395843 0.013396853
0.47896117 0.104370855 0.5517887 0.34697804 -0.17584464 0.46365184 0.056892153 0.043376
0.06602116 -0.5285655 0.27225727 0.27801138 -0.069876246 -0.042781718 0.0034099955 -0.067451596
0.31813097 0.06234672 -0.35990256 0.013171473 0.0347808 0.035639185 0.43721706 0.09993373
0.5187876 0.008476356 -0.115289934 0.07690341 -0.2688221 0.32794768 0.15188263 0.07950641
0.049298123 0.022798134 0.06056262 0.19405232 -0.023101522 0.13849953 0.6866497 -0.021335289
-0.2798188 -0.08558039 -0.0035024765 -0.18687837 -0.5279359 0.13349755 0.03588393 0.11002157
0.013647544 0.18752314 -0.20707811 0.37283146 0.31323895 0.37763813 0.04089567 0.43278754
-0.052249324 0.23038527 -0.18918923 0.14903858 0.36499316 -0.20667455 -0.15072054 0.2224235
0.006032724 -0.012592263 0.0954112 -0.3779395 -0.03816553 -0.17850086 0.23124634 -0.13401322
-0.23525332 0.0014259918 -0.031511627 0.11355383 0.12915644 0.044837087 -0.089509785 0.02706449
-0.109176286 -0.059733633 -0.10564814 -0.1554432 -0.08732883 -0.00664029 -0.36073726 0.14483152
-0.15504731 0.021153994 -0.14211188 0.026829476 0.09589048 0.052677043 0.083601266 0.06449101
-0.08875508 -0.04497927 0.12429406 -0.11289764 -0.19522864 -0.10567303 -0.021886656 0.08097112
-0.047842998 0.07767035 -0.21692657 -0.10729275 -0.1794547 0.06438216 -0.035658866 0.2001569
0.0826854 -0.014551921 0.032516252 0.054215636 0.093537934 -0.10113654 -0.0048312577 -0.15948562
0.56458116 0.4937092 0.6517861 0.67966676 0.07132035 0.5123773 1.1337332 0.17407596
-0.14494224 0.3670284 -0.091512285 -0.17512509 0.21397151 -0.3210134 0.7715565 0.820008
-0.08542632 0.298249 -0.027062522 0.24048299 0.21297501 -0.13621439 0.21709806 0.62523365
0.19435185 0.18837638 -0.17401758 0.15646078 -0.11894025 0.6958689 0.12195972 0.6293238
0.33184728 0.66432095 0.29988915 0.2681275 0.48010653 0.42178658 -0.10386439 -0.09653221
0.37713775 0.34585473 -0.018536994 0.18096468 0.8428226 0.35162538 -0.39114055 0.324633
1.1618371 0.407591 0.17265688 0.6365245 0.16868517 0.16183572 1.1780794 0.24568479
1.0592734 -0.26994 0.29748252 0.39128822 1.2759184 -0.13865206 0.21366994 0.22278042
00000000: 33e6 a03e b9ed 2c3f 9e33 403f c324 533f
00000010: 490c 503f 59ca 4c3f 93cd 193f be69 943f
00000020: 26eb e1bd e850 543f fd94 e83e 875c ff3e
00000030: 9752 793f 29ff 803f abf6 8b3f defc c63e
00000040: 8485 de3e 91cd cd3f a7a7 6c3e 46a7 2a3f
00000050: e182 1d3f 35a2 863f f559 9b3f 37d9 813f
00000060: a708 543f d346 813f 9a11 b23e f8a2 a4be
00000070: 713b 953e 96e2 b73f 7271 d13f c5b3 ba3e
00000080: 73f0 893f 6725 3d3e 2a4e 253f 230b 613f
00000090: 519a 6c3f 0b67 523f a1f3 263f 9824 ac3f
000000a0: 0fd6 ba3f 69c4 ae3f cb1f c43e 1f2e 043f
000000b0: c625 0a3f 124f 2a3f 3e55 9c3f c67f 0c3f
000000c0: 1343 1e3f 32bf 7c3f fd07 533f 0c52 253f
000000d0: 3fa6 753f 1a35 fa3e 408d ff3e ce83 88bd
000000e0: 3b81 b93e 7b6b 68be 1fbe 173e a8f6 a63f
000000f0: f4ba ac3f d14a 483f ec24 713f 54d9 003f
00000100: a1a7 f0be 7046 da3c 99c7 843e 2ffe c03d
00000110: d169 a43e 825b 3c3a 8dcf f0bc 797e 5b3c
00000120: 663a f53e 63c0 d53d 0642 0d3f 1ba7 b13e
00000130: 9e10 34be c663 ed3e bf07 693d 08ab 313d
00000140: 1a36 873d 1250 07bf 4e65 8b3e 8257 8e3e
00000150: 471b 8fbd e23b 2fbd 3b7a 5f3b 1024 8abd
00000160: 10e2 a23e 465f 7f3d 2645 b8be 29cd 573c
00000170: 5076 0e3d 65fa 113d eada df3e 0eaa cc3d
00000180: 44cf 043f 6ae0 0a3c 211d ecbd 897f 9d3d
00000190: 0da3 89be c2e8 a73e 1f87 1b3e 42d4 a23d
000001a0: d4ec 493d 27c3 ba3c 8310 783d a7b5 463e
000001b0: 673f bdbc d2d2 0d3e 46c8 2f3f 58c7 aebc
000001c0: 6944 8fbe c644 afbd ce89 65bb 0b5d 3fbe
000001d0: cf26 07bf 95b3 083e 07fb 123d fd52 e13d
000001e0: f399 5f3c 1106 403e 490c 54be c4e3 be3e
000001f0: db60 a03e c959 c13e 3882 273d 5496 dd3e
00000200: 6303 56bd 1eea 6b3e d2ba 41be 929d 183e
00000210: 62e0 ba3e 7ea2 53be 7c56 1abe fcc2 633e
00000220: 28ae c53b c74f 4ebc f266 c33d 4981 c1be
00000230: 7553 1cbd eec8 36be d7cb 6c3e c33a 09be
00000240: 3fe6 70be 58e8 ba3a 5612 01bd e98e e83d
00000250: 9641 043e 18a7 373d e850 b7bd 59b6 dd3c
00000260: d197 dfbd 41ab 74bd 0d5e d8bd 812c 1fbe
00000270: 75d9 b2bd ca96 d9bb 8eb2 b8be b74e 143e
00000280: b9c4 1ebe 244b ad3c c785 11be 7dc9 db3c
00000290: 3a62 c43d e2c3 573d 2437 ab3d dd13 843d
000002a0: 39c5 b5bd 2f3c 38bd e28d fe3d e136 e7bd
000002b0: 04ea 47be 1a6b d8bd a54b b3bc 30d4 a53d
000002c0: 05f7 43bd a211 9f3d 0022 5ebe 4dbc dbbd
000002d0: f9c2 37be cbda 833d 080f 12bd eef5 4c3e
000002e0: f756 a93d 2e6b 6ebc c32f 053d 3711 5e3d
000002f0: d190 bf3d ad20 cfbd 874f 9ebb 3350 23be
00000300: 6488 103f 74c7 fc3e 74db 263f a4fe 2d3f
00000310: 6710 923d 292b 033f 2b1e 913f f840 323e
00000320: bd6b 14be 25eb bb3e cb6a bbbd fe53 33be
00000330: 591b 5b3e de5b a4be ba84 453f 0bec 513f
00000340: fff3 aebd 18b4 983e 39b2 ddbc 2c41 763e
00000350: 1f16 5a3e c97b 0bbe f44e 5e3e 500f 203f
00000360: 2c04 473e bde5 403e aa31 32be 4137 203e
00000370: f296 f3bd 7724 323f 05c6 f93d 5d1b 213f
00000380: e3e7 a93e f010 2a3f 128b 993e 0248 893e
00000390: 86d0 f53e 69f4 d73e dab6 d4bd aeb2 c5bd
000003a0: 3318 c13e df13 b13e e5da 97bc ce4e 393e
000003b0: 39c3 573f 3e08 b43e 9343 c8be 4c36 a63e
000003c0: 14b7 943f c4af d03e f7cc 303e 45f3 223f
000003d0: cebb 2c3e 43b8 253e 4ecb 963f cb94 7b3e
000003e0: 4596 873f 9335 8abe a14f 983e ee56 c83e
000003f0: 4b51 a33f cefa 0dbe 4bcc 5a3e 8d20 643e

lstm.weight_ih_l1 f4 [256, 64]
-0.30955514 -0.017356455 0.2546107 0.20370646 -0.1229708 0.045997094 -0.06871277 -0.47427943
-0.13622545 0.26896122 -0.30178016 -0.16427132 0.2644257 9.04938e-05 -0.093576014 -0.22507566
0.02576652 -0.14945936 -0.2553237 0.44982722 0.035103407 0.28675255 0.13328756 0.11090406
0.17850079 -0.25657207 0.18587774 0.21892112 0.17333014 -0.25977322 -0.2312948 -0.094063856
0.13652238 -0.0026908587 0.23739162 0.1366562 0.20667562 0.18786792 0.09348532 0.20691057
-0.33478966 0.28279677 0.3552703 -0.12593824 0.32449356 0.3747742 -0.16441342 0.16082962
0.2160816 0.6293363 -8.82639e-05 0.06473139 -0.2419573 0.17344998 0.08095717 0.006203603
-0.06735539 -0.18311031 0.038936347 -0.32495597 0.12013067 0.2571033 0.11221865 0.18952553
0.230966 0.78399944 -0.5106727 0.6897112 0.21723877 0.3236987 -0.6047681 -0.10590752
-0.68844604 0.08196188 -0.064011 -0.070369735 -0.05429774 -0.06843965 -0.08398137 -0.4942765
-0.24614212 -1.1334023 0.12724233 0.760039 0.07350243 0.2931693 -0.3706278 -0.103224784
-0.15523905 0.25518134 0.44815484 -0.37299782 -0.06252032 0.03229542 -0.025418073 -0.14068082
0.26142848 0.42054713 0.30313373 0.19321361 -0.1741748 -0.18977866 -0.5391108 -0.56335264
-0.29355612 0.057358608 0.2045624 -0.058019947 -0.04101145 -0.060529586 0.07467536 0.4692943
-0.3053973 -0.056886826 -0.51731426 -0.34135818 -0.080461726 0.21055984 -0.27647927 0.004193514
0.094354235 -0.26971632 -0.03640211 -0.18307565 0.07271151 0.49709058 0.17890981 0.1413685
-0.03992261 -0.017859025 -0.20046414 -0.24817614 -0.1257224 -0.042362187 -0.030169608 0.3114522
0.5213043 0.076311074 -0.08682 -0.12457288 -0.01409478 0.439812 -0.08350457 0.080412224
-0.060842022 0.19470373 0.12925445 -0.19584394 0.28544042 -0.51970154 0.3396889 0.26560128
-0.01082433 -0.14980128 -0.09696838 -0.047595806 0.35054654 0.26198098 -0.043233458 -0.06420697
-0.17817801 -0.07306191 -0.121245995 0.024324454 -0.34479558 -0.030351816 -0.23267432 -0.13623641
-0.41478175 -0.075120516 -0.072340414 0.120835155 -0.033092648 -0.23639962 0.058712468 0.055191997
0.040810075 -0.34759188 0.15884835 0.17898752 -0.13300405 -0.00045522017 0.15694688 0.2820672
0.2658715 0.35643414 0.14347461 0.2568207 -0.4062512 0.30149963 0.17897543 -0.068061166
0.37693158 0.12251756 0.52196157 0.26012126 -0.2324199 -0.22351588 0.3929258 0.67736274
0.2068192 -0.06333781 -0.02587143 -0.22841848 -0.25885394 -0.19359289 -0.16149114 0.15923734
0.095537685 0.30038404 0.16505687 -0.49374762 0.5807343 -0.4572263 0.34428814 0.21474174
-0.24338537 0.29942465 0.15470468 0.61784387 -0.006512008 0.63928115 -0.09813953 0.008499763
-0.348316 -0.16462833 0.31881416 -0.3380952 0.31326386 0.56803894 -0.22891742 -0.50048923
-0.13675989 -0.14308944 -0.17304699 -0.058755383 -0.6211932 -0.08437678 -0.32329512 -0.03621654
0.14314035 -0.17852691 0.12326735 0.9003956 0.08779239 -0.2115596 0.18833831 -0.22815852
-0.24506307 0.37748352 0.31134605 0.27244636 -0.62273324 -0.26773193 0.15026012 0.13861753
00000000: 037e 9ebe 202f 8ebc 555c 823e 6d98 503e
00000010: 1dd8 fbbd 7367 3c3d 48b9 8cbd c1d4 f2be
00000020: af7e 0bbe 49b5 893e ee82 9abe be36 28be
00000030: ce62 873e 7dc7 bd38 c8a4 bfbd 3c7a 66be
00000040: 4f14 d33c e00b 19be cab9 82be c14f e63e
00000050: 97c8 0f3d 3bd1 923e 897c 083e ab21 e33d
00000060: e9c8 363e 6a5d 83be bc56 3e3e dc2c 603e
00000070: 757d 313e ff00 85be 8bd8 6cbe 8da4 c0bd
00000080: 86cc 0b3e 1e59 30bb ca16 733e 9aef 0b3e
00000090: c6a2 533e 7360 403e 3b75 bf3d 5de0 533e
000000a0: 8d69 abbe bdca 903e fde5 b53e f4f5 00be
000000b0: 0524 a63e 67e2 bf3e fe5b 28be 85b0 243e
000000c0: 7f44 5d3e 2f1c 213f 521a b9b8 e491 843d
000000d0: a8c3 77be df9c 313e dfcc a53d 9847 cb3b
000000e0: 9ff1 89bd 4581 3bbe b87b 1f3d a160 a6be
000000f0: 1207 f63d 0ba3 833e e4d2 e53d fb12 423e
00000100: 5a82 6c3e 30b4 483f 72bb 02bf ea90 303f
00000110: d773 5e3e d6bb a53e 15d2 1abf 0be6 d8bd
00000120: 003e 30bf a1db a73d 3318 83bd 021e 90bd
00000130: 4f67 5ebd 162a 8cbd 6dfe abbd cf11 fdbe
00000140: ae0c 7cbe 5413 91bf d04b 023e ea91 423f
00000150: 7188 963d 491a 963e edc2 bdbe 8467 d3bd
00000160: fcf6 1ebe 21a7 823e 8d74 e53e 92f9 bebe
00000170: a70a 80bd 3448 043d 9039 d0bc a20e 10be
00000180: f4d9 853e f451 d73e 5834 9b3e cad9 453e
00000190: e15a 32be 5655 42be 2a03 0abf e137 10bf
000001a0: fd4c 96be dcf0 6a3d ce78 513e 53a6 6dbd
000001b0: 9ffb 27bd dfed 77bd 65ef 983d 5847 f03e
000001c0: 095d 9cbe 2902 69bd b56e 04bf 80c6 aebe
000001d0: 1ec9 a4bd 009d 573e b18e 8dbe bf69 893b
000001e0: cb3c c13d 4218 8abe 611a 15bd 2f78 3bbe
000001f0: c6e9 943d a882 fe3e 2234 373e e7c2 103e
00000200: e485 23bd 174d 92bc 7946 4dbe e321 7ebe
00000210: 5fbd 00be f983 2dbd 4126 f7bc aa76 9f3e
00000220: 3374 053f fb48 9c3d afce b1bd 1120 ffbd
00000230: cbed 66bc 0a2f e13e 7204 abbd 2aaf a43d
00000240: 7c35 79bd 6a60 473e 475b 043e 508b 48be
00000250: 3f25 923e 290b 05bf b4eb ad3e e4fc 873e
00000260: 8858 31bc 8265 19be 5c97 c6bd d2f3 42bd
00000270: d67a b33e 5f22 863e 9115 31bd f27e 83bd
00000280: 4c74 36be 7ca1 95bd d24f f8bd 1444 c73c
00000290: 0c89 b0be 5fa4 f8bc 2d42 6ebe 8f81 0bbe
000002a0: 465e d4be c9d8 99bd 3627 94bd 6c78 f73d
000002b0: 288c 07bd be12 72be 7c7c 703d 0111 623d
000002c0: 7728 273d 90f7 b1be 24a9 223e 8148 373e
000002d0: 3732 08be 9eaa eeb9 afb6 203e 1d6b 903e
000002e0: 4f20 883e 897e b63e 02eb 123e 017e 833e
000002f0: 2800 d0be 295e 9a3e 5645 373e a763 8bbd
00000300: 2dfd c03e 7dea fa3d 469f 053f 9d2e 853e
00000310: 7bff 6dbe 59e1 64be 922d c93e a567 2d3f
00000320: 6ac8 533e 41b7 81bd 52f0 d3bc 89e6 69be
00000330: 8188 84be 373d 46be ef5d 25be 1d0f 233e
00000340: 43a9 c33d f0cb 993e ab04 293e 7dcc fcbe
00000350: 01ab 143f 9119 eabe 8946 b03e 42e5 5b3e
00000360: 043a 79be 304e 993e e76a 1e3e 042b 1e3f
00000370: af62 d5bb eea7 233f 61fd c8bd 9742 0b3c
00000380: 7a56 b2be 5494 28be 9c3b a33e d01a adbe
00000390: 1f64 a03e 006b 113f 5469 6abe 1020 00bf
000003a0: c90a 0cbe 0a86 12be 3b33 31be 7ca9 70bd
000003b0: 8406 1fbf bccd acbd f086 a5be cb57 14bd
000003c0: 6293 123e c2cf 36be 9873 fc3d 5380 663f
000003d0: 7fcc b33d 14a3 58be c2db 403e 63a2 69be
000003e0: d0f1 7abe 8545 c13e c068 9f3e 177e 8b3e
000003f0: 726b 1fbf 2914 89be cadd 193e c1f1 0d3e

lstm.weight_hh_l1 f4 [256, 64]
1.2732549 0.26863056 0.1905505 0.20675372 0.16525812 0.9577329 0.5668031 0.18744348
-0.030927429 -0.35325637 -0.8201934 -0.8017723 -0.20511428 -0.7042539 0.20132813 -1.2701787
-0.028847234 -0.1681591 0.0019740087 -0.6101853 0.44113317 -0.14061286 -0.02796303 1.2918086
-1.0032868 0.15264256 -0.3163286 -0.37720484 0.09193197 -0.37204313 -0.12854463 1.153192
0.5617381 -0.37213564 -0.71101195 0.4303237 -0.059164204 -0.7181568 -0.87095743 0.94780123
-0.089015335 -0.86228883 0.26294377 1.276857 -0.80233157 0.3960103 1.0115669 0.63458526
-0.563141 1.0483537 -0.0021636433 -0.8297065 -0.7823159 0.83113515 0.27151307 0.8144948
0.3350406 0.24677862 0.14015213 0.98649746 0.60050446 1.1936629 0.15246509 -1.2657632
-1.3006471 -0.46276397 -0.16629498 -0.19513094 -0.33963448 -1.0604986 -1.0234339 0.24951153
-0.43745914 -0.79588753 -1.6558377 0.4938686 -0.7926926 0.28052086 -0.0020405464 -0.029937563
-0.5517761 1.342776 -0.6368959 -0.27486712 -0.61393976 0.371465 0.11920107 0.5912255
1.2838709 0.9128554 -0.67301893 -0.8953943 0.31025448 1.6087204 -0.3376894 -0.81335443
0.9834596 -0.4132432 0.6710646 -1.9250627 0.28374052 0.3897858 0.6718397 1.385953
1.3024745 0.94550157 0.2647899 0.21197098 1.4666029 -0.4282985 -0.72373646 0.85993034
-0.047608957 0.2638178 -1.4283128 -0.7295174 -0.047527514 0.56675744 -0.38957164 -1.5529855
-0.37821528 -0.2054591 0.25041518 -0.3920954 -0.50094324 -1.4703394 -1.48618 -1.9236312
0.7469755 -0.025332455 0.5503605 -0.093890585 -0.041095596 0.41525468 0.8148503 -0.81568515
0.06073455 0.5919677 0.6700403 0.09250608 0.13573384 0.047149327 0.30970824 -0.6308581
0.14379105 0.33391303 -0.16661441 0.40935838 0.1554774 0.1907486 -0.042127784 0.058305327
0.08925352 0.55523866 -1.3186902 -0.2376987 -0.5962274 -0.7196235 -0.024446592 -0.06905549
0.31817794 -1.3025286 0.53404194 0.5057536 -0.20452575 0.09872835 1.0434523 -0.735697
-0.104003444 0.55325514 -1.1913648 -2.277819 -0.7750236 -0.6139073 0.3370492 -0.29069492
0.47883895 -0.5032056 -0.13961984 0.51893926 -0.11596309 -0.44670558 0.4549232 -0.24303299
-0.34404474 -2.329811 -0.1957917 0.3353808 0.15402703 -0.09228977 -0.29609174 -0.029783532
-2.2955694 0.92707604 -0.9291526 0.5180723 -1.0399598 -0.8032879 -0.5744907 0.17727782
1.7397588 1.342619 2.513617 0.08937675 -0.13955015 0.57183915 -0.3586381 0.25485843
-0.7678516 -0.6085873 1.1524388 -1.4860379 -0.61183876 -0.36005273 -0.5600064 0.19148631
-0.32779846 -1.9332621 0.7683253 -2.0354486 0.8317378 -0.11568463 0.0004177529 0.41127437
-0.47961232 -0.061414145 0.08994338 -1.0961744 -0.049212463 -1.1182947 1.5334915 -0.4388252
-0.39930478 -1.0455487 -2.7464375 0.48514462 -2.87887 0.4676335 -0.5363168 -0.32984516
-1.3082029 1.2494456 -0.15333691 0.83453083 -0.4081871 -0.6443557 0.1465028 0.22946626
0.015667789 -0.23008664 0.20001374 0.28875563 -0.006894424 2.2258005 -1.6066778 0.5110506
00000000: 04fa a23f f289 893e ac1f 433e 3fb7 533e
00000010: 6d39 293e fc2d 753f 021a 113f 2ff1 3f3e
00000020: 855b fdbc 05de b4be 32f8 51bf f340 4dbf
00000030: 7a09 52be fc49 34bf f628 4e3e 3795 a2bf
00000040: 0951 ecbc e631 2cbe 5f5e 013b 1b35 1cbf
00000050: 35dc e13e d1fc 0fbe b912 e5bc fc59 a53f
00000060: b46b 80bf 554e 1c3e d2f5 a1be fe20 c1be
00000070: d446 bc3d 707c bebe 34a1 03be cc9b 933f
00000080: 11ce 0f3f 9088 bebe e104 36bf 6353 dc3e
00000090: 2a56 72bd 20d9 37bf 11f7 5ebf 1aa3 723f
000000a0: ac4d b6bd f6be 5cbf 91a0 863e 0d70 a33f
000000b0: 9a65 4dbf ddc1 ca3e 067b 813f 2e74 223f
000000c0: 022a 10bf 7430 863f e9cb 0dbb a567 54bf
000000d0: db45 48bf 46c5 543f c303 8b3e bb82 503f
000000e0: 718a ab3e 89b3 7c3e 0a84 0f3e 198b 7c3f
000000f0: a9ba 193f f2c9 983f cf1f 1c3e 8704 a2bf
00000100: 9b7b a6bf 66ef ecbe 3b49 2abe 68d0 47be
00000110: 92e4 adbe 6bbe 87bf e2ff 82bf f37f 7f3e
00000120: a5fa dfbe 49bf 4bbf 7df2 d3bf 58dc fc3e
00000130: e7ed 4abf 6ea0 8f3e b0ba 05bb 9f3f f5bc
00000140: 3341 0dbf 15e0 ab3f 9c0b 23bf 62bb 8cbe
00000150: 282b 1dbf a930 be3e b11f f43d 8e5a 173f
00000160: e255 a43f e4b0 693f f84a 2cbf 9038 65bf
00000170: add9 9e3e 8dea cd3f a0e5 acbe ff37 50bf
00000180: 02c4 7b3f 9d94 d3be e4ca 2b3f 7468 f6bf
00000190: 7046 913e 0192 c73e b0fd 2b3f e866 b13f
000001a0: 7cb7 a63f 640c 723f 8b92 873e ec0e 593e
000001b0: a5b9 bb3f f149 dbbe cb46 39bf 6524 5c3f
000001c0: 9c01 43bd 2013 873e f4d2 b6bf a7c1 3abf
000001d0: 36ac 42bd 0417 113f ef75 c7be 3bc8 c6bf
000001e0: 6fa5 c1be df63 52be 6b36 803e bac0 c8be
000001f0: d13d 00bf 1534 bcbf 253b bebf 8c39 f6bf
00000200: c939 3f3f 0286 cfbc 6de4 0c3f b549 c0bd
00000210: db53 28bd 439c d43e 079a 503f bed0 50bf
00000220: cbc4 783d 328b 173f c387 2b3f d473 bd3d
00000230: d0fd 0a3e a71f 413d 1492 9e3e eb7f 21bf
00000240: f63d 133e a6f6 aa3e f89c 2abe 6c97 d13e
00000250: 7835 1f3e 9a53 433e 2f8e 2cbd 91d1 6e3d
00000260: 8dca b63d 1f24 0e3f d7ca a8bf 4a67 73be
00000270: 5ca2 18bf 3f39 38bf 3844 c8bc f76c 8dbd
00000280: 38e8 a23e 42b9 a6bf f9b6 083f 1179 013f
00000290: 336f 51be 1732 ca3d d88f 853f a356 3cbf
000002a0: c2ff d4bd 21a2 0d3f a47e 98bf c9c7 11c0
000002b0: f267 46bf 0729 1dbf b691 ac3e f7d5 94be
000002c0: 612a f53e 15d2 00bf 81f8 0ebe 34d9 043f
000002d0: 0e7e edbd 98b6 e4be b2eb e83e a4dd 78be
000002e0: a226 b0be a01b 15c0 9f7d 48be 08b7 ab3e
000002f0: 43b9 1d3e 6b02 bdbd 5699 97be 98fc f3bc
00000300: 9cea 12c0 db54 6d3f f2dc 6dbf 63a0 043f
00000310: 671d 85bf 47a4 4dbf d311 13bf 5188 353e
00000320: 6bb0 de3f f0da ab3f 1adf 2040 280b b73d
00000330: 3ce6 0ebe 0d64 123f 6a9f b7be ce7c 823e
00000340: ec91 44bf 61cc 1bbf 1d83 933f 7d36 bebf
00000350: 77a1 1cbf d558 b8be 945c 0fbf fd14 443e
00000360: 33d5 a7be 2275 f7bf f8b0 443f ca44 02c0
00000370: c5ec 543f 10ec ecbd d805 db39 8e92 d23e
00000380: bf8f f5be 668d 7bbd 3c34 b83d 714f 8cbf
00000390: 0293 49bd 4824 8fbf 7349 c43f b2ad e0be
000003a0: ad71 ccbe 8ad4 85bf a2c5 2fc0 e064 f83e
000003b0: 683f 38c0 a86d ef3e 0f4c 09bf 77e1 a8be
000003c0: 3173 a7bf d5ed 9f3f 5a04 1dbe d0a3 553f
000003d0: e6fd d0be 7ff4 24bf d404 163e 34f9 6a3e
000003e0: bc59 803c d59b 6bbe 67d0 4c3e c7d7 933e
000003f0: 9fea e1bb 8473 0e40 9ea7 cdbf 36d4 023f

lstm.bias_ih_l1 f4 [256]
0.9911096 0.8519102 0.18151237 -0.17445044 0.32204902 -0.35530213 0.22469875 0.019328874
-0.5967673 -0.13558136 0.5366598 -0.27448598 0.88119954 0.50303495 0.7214431 0.62443334
0.38128164 0.09132793 0.43501785 0.70958185 -0.12491009 -0.457987 0.2152388 0.18298355
0.5422867 -0.65376973 -0.17175287 0.99228096 0.5662144 0.36780447 1.1305941 -0.2718405
0.06159344 0.64391947 0.922228 -0.9450846 0.2837821 -0.4437997 -0.36404315 1.531156
-0.38245994 0.64935994 0.29162133 0.62082696 1.6030023 1.0101916 -0.7680958 0.4012177
-0.63186777 0.018226158 0.34782815 0.31863672 0.12681302 -0.4514084 0.5852189 0.5773095
0.24057756 0.46657786 0.7698452 -0.3751222 0.082596436 1.1995316 0.41100195 -0.3813702
-1.0176144 -0.52633774 -0.98115623 -0.3696331 0.24192971 0.43125156 -0.43288097 -0.29251382
-0.459619 -0.42277107 0.84321564 -0.43569386 -0.15817173 0.48956993 -0.9826119 -0.66775054
0.6234063 -0.5497864 0.574069 -0.4167951 0.41600212 -0.58262897 -0.76680607 -0.46458125
0.258022 -0.7287554 -1.0450462 -1.6770521 -1.093166 -1.2107615 -0.78903383 -0.10660444
-0.06826173 -0.5320448 -0.35432908 0.29335475 -0.7506697 0.114181176 -0.39179972 0.21574834
-0.73750275 -0.2405433 0.43751943 -0.3693754 0.11895088 -0.005113807 0.18963987 0.5884915
-0.096260376 -1.1678916 0.14387064 0.14225645 -0.78051054 -0.39932066 0.007775269 -0.33319876
-0.3735747 -0.1082642 0.97134984 -0.64302856 0.42896372 0.28040296 0.94521713 -0.94725835
-0.090189286 -0.20390463 0.1835719 -0.30645046 -0.060046297 -0.5425763 0.04433443 -0.13474382
-0.26007858 0.036379114 -0.16675627 0.21886665 -0.19013056 0.17000659 -0.1455564 0.054157816
0.50596905 -0.03395684 -0.16827747 -0.12632866 0.5118822 -0.22896188 0.044856247 -0.005902726
-0.1070831 0.0027473683 0.2304513 0.64257723 0.44745308 0.19802907 0.15437876 -0.059877444
-0.014583447 0.36028537 0.0021942088 0.27399242 0.03831074 -0.032332417 -0.17754923 0.054738935
0.5657822 0.01655661 -0.16813876 -0.21608715 0.08278262 -0.39549732 -0.6575411 -0.056484398
-0.026523812 0.27312326 -0.11978767 -0.08845409 -0.006473704 -0.50817657 0.5585826 0.21861681
0.18209764 0.2661525 -0.2081701 0.11062592 0.21776338 0.58688784 -0.24870554 0.28150782
0.31133762 0.20426163 0.33980197 -0.49123013 0.31700313 0.73431027 0.17800945 0.32853293
0.37507793 -0.14490856 -0.21565275 0.43540472 1.0447458 -0.6459762 1.7362459 0.3979453
0.06479881 -0.7534295 0.24112155 -0.49537587 -0.6430714 0.17752787 -0.5524609 -0.5958356
0.21441445 -0.274095 0.1927802 0.82556695 0.65520966 0.80820715 1.1351691 0.5059338
-0.074496076 1.1756926 -0.82046914 0.18192722 1.6075747 0.27704903 -0.30375108 0.09814965
-0.57835245 -0.061328925 -1.6914973 0.12497206 0.28869155 0.30488667 -0.065740906 -0.15435018
0.86287856 0.2683819 -0.115034305 0.086873285 0.6078459 -0.7631132 -0.28705007 0.48066399
0.7340341 -1.0293047 -0.47765067 0.20855103 -0.04183384 -0.58063924 -0.41525522 0.59659445
00000000: 5cb9 7d3f c916 5a3f 61de 393e 23a3 32be
00000010: 9ce3 a43e 29ea b5be 6e17 663e 9657 9e3c
00000020: bec5 18bf d7d5 0abe 8962 093f 6d89 8cbe
00000030: 4b96 613f e6c6 003f 7fb0 383f ddda 1f3f
00000040: 5937 c33e 230a bb3d a9ba de3e 28a7 353f
00000050: dcd0 ffbd 467d eabe 8f67 5c3e 0a60 3b3e
00000060: 4dd3 0a3f 745d 27bf fcdf 2fbe 2006 7e3f
00000070: 6df3 103f de50 bc3e 4fb7 903f ae2e 8bbe
00000080: 6749 7c3d e8d7 243f 2217 6c3f 10f1 71bf
00000090: e34b 913e b739 e3be dd63 babe ebfc c33f
000000a0: cad1 c3be 743c 263f 644f 953e 84ee 1e3f
000000b0: 2e2f cd3f f54d 813f eda1 44bf 686c cd3e
000000c0: 16c2 21bf 064f 953c 8816 b23e 5a24 a33e
000000d0: 46db 013e 001f e7be e8d0 153f 8eca 133f
000000e0: f759 763e 4be3 ee3e 9314 453f 0410 c0be
000000f0: 5228 a93d 408a 993f d96e d23e f442 c3be
00000100: 3041 82bf 12be 06bf 0e2d 7bbf 8d40 bdbe
00000110: 6cbc 773e 01cd dc3e 93a2 ddbe 5fc4 95be
00000120: 2e53 ebbe 7375 d8be fbdc 573f 4413 dfbe
00000130: c5f7 21be e9a8 fa3e 748c 7bbf b3f1 2abf
00000140: 8e97 1f3f cdbe 0cbf 30f6 123f 2b66 d5be
00000150: 3bfe d43e 2c27 15bf 674d 44bf 98dd edbe
00000160: 761b 843e b78f 3abf 13c4 85bf a5a9 d6bf
00000170: ddec 8bbf 3cfa 9abf 1ffe 49bf 6e53 dabd
00000180: cecc 8bbd 1734 08bf 9f6a b5be 9832 963e
00000190: e42b 40bf d2d7 e93d f999 c8be 22ed 5c3e
000001a0: fbcc 3cbf fc50 76be 8c02 e03e c61e bdbe
000001b0: 859c f33d b991 a7bb f430 423e 61a7 163f
000001c0: 2924 c5bd 797d 95bf d352 133e adab 113e
000001d0: 8acf 47bf c273 ccbe afc7 fe3b 0799 aabe
000001e0: 2f45 bfbe 9fb9 ddbd 62aa 783f 859d 24bf
000001f0: 22a1 db3e fa90 8f3e c0f9 713f 867f 72bf
00000200: 29b5 b8bd 60cc 50be 46fa 3b3e 13e7 9cbe
00000210: 1bf3 75bd 48e6 0abf 0598 353d 49fa 09be
00000220: 0529 85be 4402 153d 28c2 2abe 941e 603e
00000230: 96b1 42be 3516 2e3e bd0c 15be 96d4 5d3d
00000240: 3087 013f 5416 0bbd ee50 2cbe 4d5c 01be
00000250: b60a 033f fc74 6abe 2fbb 373d a86b c1bb
00000260: 624e dbbd 310d 343b 6dfb 6b3e f17f 243f
00000270: 9218 e53e 22c8 4a3e 7715 1e3e 0d42 75bd
00000280: 69ef 6ebc 5377 b83e b7cc 0f3b bc48 8c3e
00000290: b9eb 1c3d ff6e 04bd 77cf 35be ef35 603d
000002a0: 1ad7 103f baa1 873c 912c 2cbe f345 5dbe
000002b0: ef89 a93d a07e cabe 9d54 28bf 2f5c 67bd
000002c0: 7748 d9bc d0d6 8b3e 3d53 f5bd 6b27 b5bd
000002d0: 5d21 d4bb dc17 02bf 45ff 0e3f 16dd 5f3e
000002e0: ce77 3a3e 2445 883e 8b2a 55be d88f e23d
000002f0: 5dfd 5e3e 483e 163f aaac 7ebe cb21 903e
00000300: a567 9f3e f629 513e 86fa ad3e 8482 fbbe
00000310: 3c4e a23e c2fb 3b3f 1c48 363e 7835 a83e
00000320: 370a c03e e962 14be 13d4 5cbe 5eed de3e
00000330: 3bba 853f b25e 25bf 4e3d de3f 7dbf cb3e
00000340: 3db5 843d c1e0 40bf 91e8 763e e8a1 fdbe
00000350: 54a0 24bf dec9 353e 146e 0dbf af88 18bf
00000360: 768f 5b3e 2e56 8cbe 2c68 453e 5b58 533f
00000370: d2bb 273f aae6 4e3f 394d 913f e184 013f
00000380: 6691 98bd 187d 963f 440a 52bf 214b 3a3e
00000390: 02c5 cd3f 5fd9 8d3e 4385 9bbe af02 c93d
000003a0: e80e 14bf 0a34 7bbd fc82 d8bf 5af1 ff3d
000003b0: 61cf 933e 1b1a 9c3e 2ba3 86bd f90d 1ebe
000003c0: 9ce5 5c3f 5a69 893e 1b97 ebbd 9fea b13d
000003d0: ca9b 1b3f 635b 43bf 3af8 92be 9719 f63e
000003e0: a9e9 3b3f 42c0 83bf a18e f4be 678e 553e
000003f0: f659 2bbd c6a4 14bf 559c d4be 6aba 183f

lstm.bias_hh_l1 f4 [256]
1.1945385 0.9412268 0.4010938 -0.23595338 0.46951935 -0.20729958 0.18318607 0.0031657596
-0.46779287 -0.30138722 0.53813165 -0.33265823 0.8641276 0.352129 0.80002415 0.7280315
0.25430822 0.12145374 0.3982963 0.65507376 -0.11544079 -0.516155 0.04227852 0.10472874
0.60894144 -0.7326461 -0.056111418 1.0342947 0.35728747 0.57859 1.1420459 -0.4436515
0.08898014 0.82487524 0.72387064 -0.8511517 0.43304217 -0.5549953 -0.36755285 1.3764132
-0.42011118 0.6404077 0.3687029 0.52591944 1.6537715 1.0901183 -0.69084066 0.38841003
-0.48659655 -0.0044357087 0.1652961 0.40347487 0.086336814 -0.38195422 0.48333833 0.5268118
0.25918955 0.5573469 0.74461925 -0.24911259 0.16776231 1.1858906 0.40340862 -0.51459044
-1.0732677 -0.5509977 -0.91509724 -0.38472798 0.39318913 0.40884563 -0.4704252 -0.37553534
-0.4589277 -0.2948729 1.0365009 -0.62437093 -0.16111894 0.3038364 -0.94555575 -0.85337704
0.5523192 -0.5025222 0.61894596 -0.255842 0.42020637 -0.5784541 -0.8178003 -0.54544395
0.15612401 -0.6627781 -0.9872288 -1.7121906 -1.2385559 -1.1041151 -0.8685767 -0.20845132
-0.29219833 -0.7047217 -0.2743314 0.32384932 -0.6625875 0.1275509 -0.46729952 -0.007905767
-0.6735911 -0.013513323 0.26603723 -0.3012965 0.24685885 -0.04491369 0.31144068 0.3912736
-0.2943869 -1.1088424 0.22912034 0.2098089 -0.7593272 -0.50037307 0.15532462 -0.3210056
-0.44110122 -0.17349201 0.8875637 -0.75105774 0.2714542 0.23106816 0.81189483 -0.829998
-0.06724198 -0.30605456 0.16646264 -0.4165209 -0.25035897 -0.5554156 0.1932919 0.09536574
-0.045146223 0.11267898 -0.24413468 0.13672274 0.0010979929 0.03379985 -0.100840755 0.071087204
0.47696203 -0.021011036 -0.2595956 -0.17182769 0.5308616 -0.067520484 0.043512017 0.028607972
-0.035113968 -0.019615142 0.12365921 0.59765726 0.42134452 0.1333496 0.17152132 0.15513653
-0.20966159 0.17542425 0.08179535 0.26648465 -0.00023876164 -0.024668068 -0.2759362 0.124473125
0.64828706 0.014139062 -0.2631352 -0.23480263 0.17924488 -0.45252576 -0.65962 -0.1590904
-0.14470471 0.1039703 -0.14629921 -0.09924778 -0.020306608 -0.52476037 0.48537195 0.23698509
0.004032079 0.23043786 -0.05190093 0.056872956 0.13536511 0.616773 -0.37470242 0.39698875
0.3698991 0.23959333 0.2280673 -0.4404948 0.35505724 0.6454436 0.20765087 0.42884627
0.5098918 -0.037133172 -0.32560214 0.5162347 0.9443481 -0.62064856 1.9213446 0.5489622
-0.054289527 -0.7794909 0.2764521 -0.36205807 -0.6276863 -0.01634054 -0.59014446 -0.67892665
0.19498822 -0.3570823 0.2460893 0.95983 0.64095306 0.91578054 1.0530609 0.35791665
-0.15595071 1.0884144 -0.8060355 -0.013374479 1.4554363 0.4113904 -0.19198349 0.21048392
-0.38724124 0.05539458 -1.6549453 0.2230414 0.1859458 0.24681264 -0.22282606 -0.2834262
0.98941666 0.31093365 -0.11893005 -0.024983691 0.4611545 -0.8408912 -0.23447283 0.6695877
0.7347276 -0.98337275 -0.34016985 0.2929272 -0.015136308 -0.44618532 -0.29051018 0.63658243
00000000: a3e6 983f 3df4 703f 2b5c cd3e c39d 71be
00000010: d764 f03e 5746 54be 2195 3b3e a278 4f3b
00000020: 8c82 efbe 6d4f 9abe ffc2 093f 2e52 aabe
00000030: 7737 5d3f 414a b43e 62ce 4c3f 4660 3a3f
00000040: b034 823e bdbc f83d 7eed cb3e eab2 273f
00000050: 396c ecbd bc22 04bf 3e2c 2d3d 067c d63d
00000060: 96e3 1b3f b28e 3bbf 16d5 65bd c563 843f
00000070: 62ee b63e 791e 143f 8f2e 923f 4a26 e3be
00000080: 383b b63d 062b 533f 964f 393f 14e5 59bf
00000090: b4b7 dd3e 2c14 0ebf e32f bcbe 4f2e b03f
000000a0: d018 d7be c2f1 233f a0c6 bc3e a8a2 063f
000000b0: c9ae d33f ff88 8b3f efda 30bf aedd c63e
000000c0: 2f23 f9be 6c59 91bb 6143 293e 4294 ce3e
000000d0: 5bd1 b03d 818f c3be 1f78 f73e 23dd 063f
000000e0: 7eb4 843e 49ae 0e3f 5e9f 3e3f 5f17 7fbe
000000f0: e2c9 2b3e 43cb 973f 938b ce3e 33bc 03bf
00000100: d660 89bf 2f0e 0dbf d043 6abf 11fb c4be
00000110: 1650 c93e 3754 d13e 92db f0be 2b46 c0be
00000120: 92f8 eabe 95f9 96be 10ac 843f c6d6 1fbf
00000130: 5dfc 24be 7290 9b3e f10f 72bf eb76 5abf
00000140: cb64 0d3f 4ba5 00bf 3e73 1e3f b9fd 82be
00000150: 4a25 d73e 9115 14bf 5c5b 51bf 37a2 0bbf
00000160: f9de 1f3e d3ab 29bf 07bb 7cbf 1029 dbbf
00000170: 0089 9ebf a553 8dbf 0b5b 5ebf 4374 55be
00000180: 059b 95be a468 34bf 2a75 8cbe 94cf a53e
00000190: 569f 29bf b49c 023e e241 efbe 3187 01bc
000001a0: 7770 2cbf fc66 5dbc 0836 883e 8943 9abe
000001b0: 91c8 7c3e 6bf7 37bd 2775 9f3e 0355 c83e
000001c0: e1b9 96be 8cee 8dbf 869e 6a3e 25d8 563e
000001d0: 4463 42bf 7318 00bf 6b0d 1f3e d95a a4be
000001e0: 05d8 e1be e4a7 31be 6037 633f 5245 40bf
000001f0: 0bfc 8a3e 229d 6c3e 57d8 4f3f c07a 54bf
00000200: 2ab6 89bd 2fb3 9cbe 2f75 2a3e 3a42 d5be
00000210: 0d2f 80be b72f 0ebf 50ee 453e 1d4f c33d
00000220: 3feb 38bd 3dc4 e63d 71fe 79be 0c01 0c3e
00000230: 87ea 8f3a b671 0a3d 9985 cebd 2b96 913d
00000240: 5e34 f43e 561f acbc b7e9 84be 99f3 2fbe
00000250: 8ce6 073f 2e48 8abd a839 323d 445b ea3c
00000260: aad3 0fbd efaf a0bc 0a41 fd3d 1100 193f
00000270: 78ba d73e cc8c 083e 49a3 2f3e 1cdc 1e3e
00000280: 87b1 56be 6aa2 333e 5284 a73d ad70 883e
00000290: 175c 7ab9 b014 cabc 8247 8dbe c4eb fe3d
000002a0: 24f6 253f 86a7 673c a8b9 86be 1a70 70be
000002b0: f88b 373e 75b1 e7be dbdc 28bf 98e8 22be
000002c0: 792d 14be 61ee d43d 76cf 15be 6c42 cbbd
000002d0: 0b5a a6bc b256 06bf ac82 f83e 38ac 723e
000002e0: 881f 843b e7f7 6b3e 1296 54bd 9ef3 683d
000002f0: 279d 0a3e d6e4 1d3f ffd8 bfbe 1c42 cb3e
00000300: 6a63 bd3e f457 753e 798a 693e 8988 e1be
00000310: 10ca b53e cb3b 253f 6ea2 543e bd91 db3e
00000320: 4588 023f f418 18bd 53b5 a6be f527 043f
00000330: ccc0 713f d3e2 1ebf 9fee f53f c988 0c3f
00000340: b25e 5ebd b78c 47bf 218b 8d3e ad5f b9be
00000350: 0db0 20bf 99dc 85bc b513 17bf 23ce 2dbf
00000360: feaa 473e 7ed3 b6be d5fe 7b3e 6bb7 753f
00000370: 8015 243f 9870 6a3f b3ca 863f da40 b73e
00000380: 8bb1 1fbe 2a51 8b3f 5858 4ebf a120 5bbc
00000390: bd4b ba3f c3a1 d23e 5297 44be 1989 573e
000003a0: 7c44 c6be 6de5 623d 3fd5 d3bf f764 643e
000003b0: 9368 3e3e 74bc 7c3e 842c 64be 3d1d 91be
000003c0: 694a 7d3f b232 9f3e 9991 f3bd 99aa ccbc
000003d0: 711c ec3e a544 57bf a519 70be 196a 2b3f
000003e0: 1c17 3c3f 51be 7bbf be2a aebe 8efa 953e
000003f0: 47fe 77bc 6772 e4be c0bd 94be 11f7 223f
