model/epoch_3685.pth (torch_old, 261198 bytes, 10 tensors)

lstm.weight_ih_l0 f4 [256, 20]
0	0x3f97e439	1.1866523
1	0x4033b799	2.808081
2	0x40797c4c	3.8982115
3	0xbf8c8e48	-1.0980921
4	0x3e328e67	0.17437135
5	0xbe9e8ef5	-0.30968443
6	0x3fb5d99c	1.4207034
7	0x3ed0f9ca	0.40815574
8	0x3f8412b3	1.0318207
9	0xbf520271	-0.82034975
10	0xbf3494aa	-0.70539343
11	0xbed55405	-0.41665664
12	0x3f03ae5f	0.51437944
13	0xbfe78881	-1.8088533
14	0x3eb87a2c	0.3603071
15	0xbeb4367e	-0.35197824
16	0x406ba7d2	3.682118
17	0x3f3814ea	0.7190691
18	0x404f76b0	3.241619
19	0xbfa9eab4	-1.3274751
20	0xbfb1d6a7	-1.3893632
21	0x3fd85b5a	1.6902878
22	0x3f40abd7	0.75262207
23	0xbf49cb46	-0.78825796
24	0x3f9ea1f2	1.2393172
25	0x3ff3af33	1.9037842
26	0x3ef4ac3a	0.47787648
27	0xbc4406d9	-0.011964523
28	0x403a8885	2.9145825
29	0x3fc7cd73	1.5609573
30	0x3d51b93a	0.051202036
31	0xbe247fe6	-0.16064414
32	0x4027d65f	2.6224592
33	0x3de50bea	0.11183913
34	0xbf008ef4	-0.5021813
35	0xbe082a3f	-0.13297366
36	0xbf390d47	-0.72285885
37	0xc0264ced	-2.5984452
38	0x404be2cd	3.1857178
39	0xbdee5ccd	-0.11638794
40	0x3d9a0dd1	0.075221665
41	0xbe4af1f4	-0.1981886
42	0x3f4b6d26	0.7946342
43	0x40066ce3	2.100396
44	0xbfe9ea1d	-1.8274571
45	0xbd8f5d5f	-0.07000231
46	0xbf4ea7ca	-0.80724776
47	0x3eccbd3b	0.3998812
48	0x4065b14f	3.588947
49	0x3f94683f	1.1594313
50	0xbef4afcc	-0.47790372
51	0xbebf9a4e	-0.37422413
52	0x40097a1a	2.1480775
53	0x402d6c7e	2.7097468
54	0xbf45f240	-0.7732277
55	0x402dcc78	2.7156048
56	0xbe4be5c8	-0.19911873
57	0x3e765c4b	0.24058644
58	0xbf701c4f	-0.93793195
59	0x3fcc9347	1.5982445
60	0x401be1ac	2.435649
61	0x3fd890d0	1.6919193
62	0xbf4975b0	-0.786952
63	0x3f4b4b55	0.7941182
64	0x3fb2762d	1.3942314
65	0x3e07a355	0.132459
66	0x3e6dff71	0.23241974
67	0xbfbd8710	-1.4806843
68	0xc035d537	-2.8411386
69	0x4096cbf8	4.7123985
70	0x3f0080bd	0.5019644
71	0xbf01fbc4	-0.5077479
72	0x3f9386db	1.152553
73	0xbf521b4d	-0.8207291
74	0x40abc3b3	5.367639
75	0xbee39cec	-0.4445566
76	0xbfc81dca	-1.5634091
77	0x3fa8a045	1.317391
78	0x3f531edd	0.8246897
79	0x40126e63	2.2879875
80	0xbf6aaf50	-0.91673756
81	0xbf8ebc3f	-1.1151198
82	0x3f95749a	1.1676209
83	0xbe2d6416	-0.16932711
84	0x3e2950c9	0.16534723
85	0x3fcbfbb8	1.5936193
86	0xbf1bafa7	-0.608149
87	0x3decb889	0.11558635
88	0x3f0a9be9	0.5414415
89	0xbea42d86	-0.32065982
90	0x3fb644c5	1.4239737
91	0xbf04aa3f	-0.51822275
92	0x400d5dd7	2.2088525
93	0x3fa8d3e0	1.3189659
94	0x408a5ea2	4.324052
95	0xbeb5f64b	-0.3553947
96	0x3f8a701e	1.0815465
97	0x3d7c53bd	0.061603297
98	0x40180169	2.375086
99	0x3f34ef4d	0.70677644
100	0x3f68d8b9	0.9095569
101	0x407f0425	3.984628
102	0xbf45c09e	-0.77247036
103	0x3f9a2736	1.2043216
104	0xbf282f26	-0.6569694
105	0x3f3924d8	0.72321844
106	0xbfcca7f7	-1.5988759
107	0x3f893dd7	1.0721997
108	0x3df72fe9	0.12069685
109	0x3f0c96a6	0.5491737
110	0xbeafd47f	-0.3434181
111	0x3f11ba4d	0.569249
112	0x3c861de9	0.016371684
113	0xbe44a126	-0.19202098
114	0xbfacd7c8	-1.3503351
115	0x400da6b3	2.2132995
116	0xbedc5e64	-0.43040764
117	0xbf0a3120	-0.5398121
118	0xbf348be1	-0.7052594
119	0x3eaaa4eb	0.33328947
120	0xbee717bf	-0.45135304
121	0x3efdeff7	0.4959714
122	0x4071c5ac	3.77769
123	0xbf080f02	-0.531479
124	0xbec4f84d	-0.38470688
125	0xbe941c70	-0.28927946
126	0x3db6a5c6	0.089183375
127	0x40075b87	2.1149614
128	0x3ff2d335	1.8970705
129	0x3f389826	0.7210716
130	0x400acb23	2.1686485
131	0xbf1d8358	-0.6152854
132	0x3e916cfe	0.28403467
133	0xbea168a9	-0.31525162
134	0x3f158f52	0.58421814
135	0x3f721231	0.9455901
136	0x3f497cbc	0.78705955
137	0xbfb6a5c0	-1.4269333
138	0x3fb89640	1.4420853
139	0xbf6a2eef	-0.91477865
140	0xbf040d7e	-0.5158309
141	0x3ef6d991	0.48212865
142	0x3f9e2305	1.2354437
143	0x3f63f5e5	0.8904708
144	0x4013423d	2.3009179
145	0x3f2ffbb7	0.6874346
146	0xbd8195c9	-0.063273974
147	0x3f212ecb	0.62962025
148	0xc06be301	-3.6857302
149	0xbf8095fe	-1.0045774
150	0x3e878553	0.26468906
151	0xbf8098c1	-1.0046617
152	0x3e3b9e72	0.18322161
153	0x3fc9e624	1.5773358
154	0x4060a443	3.5100257
155	0x3e6889b5	0.22708781
156	0x3f262bce	0.6491059
157	0xbe9644a4	-0.29349244
158	0xc0026f9e	-2.0380626
159	0x3f5fd961	0.8744107
160	0xbeb9149d	-0.3614854
161	0x40ac34de	5.3814535
162	0xbe83b546	-0.25724238
163	0xbf1f5d2e	-0.62251556
164	0x3eccfff5	0.4003903
165	0xbfffbb0b	-1.9978956
166	0x406fafe8	3.7451115
167	0x3f2ae32d	0.6675289
168	0xbf48fd83	-0.7851183
169	0x3f9a25a5	1.2042738
170	0xbfc06540	-1.5030899
171	0x3e81fe94	0.2538954
172	0xbf01970f	-0.5062112
173	0x3ffe746d	1.987928
174	0x3f1749b6	0.5909685
175	0xbf9b2812	-1.2121603
176	0x4049b0d3	3.1514175
177	0x3f326840	0.6969032
178	0xbe88655a	-0.26639825
179	0xbd86c0e3	-0.06579759
180	0x3fabe49e	1.3429143
181	0xbed5b38f	-0.41738555
182	0x3f4f63b0	0.81011486
183	0xbd682948	-0.056679994
184	0xbf1faa0e	-0.6236886
185	0xbf0579db	-0.5213906
186	0x3fb909eb	1.4456152
187	0xbf96b119	-1.1772796
188	0xbf7c7c5f	-0.98627275
189	0x3fea2bdc	1.8294635
190	0x3cb04b29	0.021520214
191	0x3f070868	0.527472
192	0x40312e31	2.7684443
193	0xbfc59793	-1.5436882
194	0x3fbacceb	1.4593786
195	0x3f2d8237	0.6777682
196	0xbf7b78d3	-0.9823124
197	0xbfde37c8	-1.7360773
198	0xbe03ed5c	-0.12883514
199	0xbe1c43b5	-0.15260203
200	0x3df879cd	0.12132607
201	0x3f39d3b8	0.7258868
202	0xbf338639	-0.7012668
203	0xbf06bed4	-0.5263493
204	0x3e038664	0.12844235
205	0x3fb22461	1.3917352
206	0xbf3aa5a8	-0.7290902
207	0x3fef024b	1.8672575
208	0x3fbeb521	1.4899026
209	0xbedb0055	-0.4277369
210	0x3f1c2de9	0.61007553
211	0xbfb84082	-1.4394686
212	0x3f225e15	0.6342481
213	0x3e68b8e1	0.22726776
214	0x3f00a0c6	0.5024532
215	0x3ea84304	0.3286363
216	0x3fa0dde2	1.2567713
217	0x3f4618fa	0.7738186
218	0x3fc43c26	1.5330856
219	0xbcfc274f	-0.030780463
220	0xbfee464f	-1.8615206
221	0xbed59a15	-0.41719118
222	0xbf461a03	-0.7738344
223	0xbf6490c1	-0.89283377
224	0x3f7d2269	0.9888063
225	0x3d63edb7	0.055646624
226	0x3e0fd796	0.14047083
227	0x3fee8195	1.8633295
228	0x403defc7	2.9677598
229	0xbe9131e3	-0.28358373
230	0x3e81e961	0.25373366
231	0xbdbf465b	-0.09339591
232	0xbeaa3ca1	-0.3324938
233	0x3f9334a8	1.1500444
234	0x3fdc0662	1.7189448
235	0x3f2f8b06	0.6857151
236	0x3f2c9035	0.6740754
237	0x3f5162c3	0.81791323
238	0x3f8cefc7	1.1010674
239	0xbee2b40a	-0.44277984
240	0xbfc0e12e	-1.5068719
241	0x3fa30e93	1.2738823
242	0xbea972cb	-0.33095393
243	0x3f43c574	0.76473165
244	0xbef96aba	-0.48714238
245	0x3f6f4531	0.9346495
246	0x3f403dc0	0.75094223
247	0x3fae05e6	1.359555
248	0x3e9ea9fe	0.3098907
249	0xbe6cb450	-0.23115659
250	0xbfc5ada3	-1.5443615
251	0x3f566ea5	0.8376258
252	0x4014deb0	2.3260918
253	0x3fde07b0	1.7346096
254	0xbf6508b4	-0.89466405
255	0xbf91b555	-1.1383463

lstm.weight_hh_l0 f4 [256, 64]
0	0xbd779b47	-0.06045082
1	0x3f401a13	0.75039786
2	0x3f862b24	1.0481915
3	0x3f2a1050	0.6643114
4	0x3f6fa114	0.9360516
5	0x3ea0b58f	0.31388518
6	0x3ea2b5f6	0.3177945
7	0x3c33f6b9	0.010984116
8	0xbf274b00	-0.65348816
9	0x3f3cd550	0.7376299
10	0x3db5a86d	0.08870015
11	0xbf256b6e	-0.6461705
12	0xbe9383df	-0.28811547
13	0xbfa2bc92	-1.2713797
14	0x3f34b8cb	0.7059447
15	0xbf86db2a	-1.0535634
16	0xbfe50ec9	-1.7895137
17	0x3f41e808	0.75744677
18	0xbf3fd3d1	-0.7493258
19	0x3f1cab18	0.6119857
20	0x3e01335d	0.1261725
21	0x3e77e711	0.24209239
22	0xbf37aa77	-0.71744484
23	0xbf12c0ff	-0.5732574
24	0xbf68493a	-0.90736735
25	0xbf5d22e8	-0.8638139
26	0xbfa505fc	-1.2892451
27	0x3da0a9e7	0.07844906
28	0xbe74efd9	-0.2391962
29	0xbe179b60	-0.14805365
30	0xbd009a5b	-0.031397205
31	0x3f2845f4	0.6573174
32	0x3c77231c	0.015084054
33	0x3ee97c7e	0.45602793
34	0xbeec1824	-0.46112168
35	0x3f7a2b65	0.97722465
36	0xbf5c2bf2	-0.86004555
37	0xbe40bfe7	-0.18823205
38	0xbf2b017b	-0.66799134
39	0xbe18f4c9	-0.14937128
40	0xbe197983	-0.1498776
41	0xbefda41a	-0.49539262
42	0x3f321c42	0.6957437
43	0xbe33c111	-0.17554118
44	0xbeec6b8a	-0.46175796
45	0xbf6af0de	-0.91773784
46	0xbe352cc8	-0.17692864
47	0xbf026d03	-0.5094759
48	0x3f285c45	0.6576579
49	0x3f6fb2d6	0.93632257
50	0x3d7d2da3	0.0618111
51	0x3f398c04	0.7247927
52	0x3f52ccf4	0.82343984
53	0x3ed08e0d	0.40733376
54	0xbf8e27cf	-1.1105899
55	0x3fb20752	1.3908484
56	0x3f1fb6d8	0.6238837
57	0x3eade3e3	0.33962926
58	0xbd3ac404	-0.04559709
59	0x3e9eb796	0.3099944
60	0x3f26e3de	0.6519145
61	0xbfca7efa	-1.582
62	0xbf540c27	-0.82831043
63	0x3f13b0f3	0.5769188
64	0xbf879997	-1.0593747
65	0x3eb82e15	0.35972658
66	0xbf09b051	-0.5378466
67	0xbeb85cfd	-0.36008444
68	0xbfbfc058	-1.4980574
69	0x3fe0af9d	1.7553593
70	0x3f0fe5fe	0.56210315
71	0x3d994cd2	0.074853554
72	0x3fbfff73	1.4999832
73	0x3f92f7ed	1.1481911
74	0x3e0ed589	0.13948645
75	0xbf41eb6f	-0.7574987
76	0xbe84cce2	-0.25937563
77	0x3eab651c	0.33475578
78	0xbe00d7b0	-0.12582278
79	0xbf381f1b	-0.71922463
80	0xbf1aa5b8	-0.60409117
81	0xbf44be17	-0.76852554
82	0xbd18e417	-0.0373269
83	0x3f1087c2	0.5645715
84	0x3c15fc3e	0.0091543775
85	0xbe2dceeb	-0.16973464
86	0xbe92b0c2	-0.2865048
87	0x3e12d2d6	0.1433824
88	0xbea86143	-0.32886705
89	0x3d50149d	0.05080091
90	0xbeadd558	-0.3395183
91	0xbfab92af	-1.3404139
92	0x3e2d055a	0.16896573
93	0x3ea67a5c	0.32515228
94	0xbd16cbd6	-0.036815487
95	0x3f895f88	1.0732279
96	0x3e17c691	0.14821841
97	0x3f7824ca	0.96931136
98	0xbf8cf510	-1.1012287
99	0x3debb022	0.11508204
100	0xbf8eeb41	-1.1165544
101	0x3f08accb	0.5338866
102	0x3f169963	0.588278
103	0xbea34d0e	-0.31894726
104	0x3f03335f	0.5125026
105	0xbe9d8ecd	-0.3077301
106	0xbe9a4186	-0.30128115
107	0xbd28be49	-0.041197095
108	0x3d8e33d9	0.06943483
109	0xbe85a8a6	-0.2610523
110	0x3d823bd3	0.06359067
111	0x3f1c0468	0.60944223
112	0x3d5641fc	0.05230902
113	0xbf529a4a	-0.82266676
114	0xbe7f82a8	-0.24952185
115	0x3f64da03	0.8939516
116	0x3fa8bf2d	1.3183342
117	0x3e42dfc2	0.1903067
118	0x3f15c7b3	0.5850784
119	0x3f97506e	1.182142
120	0xbf19c338	-0.60063505
121	0xbf490a51	-0.78531367
122	0x3f24167c	0.6409681
123	0xbe5dd61c	-0.21663707
124	0xbdb1540b	-0.08658608
125	0x3f1511a7	0.5823006
126	0xbebdddfa	-0.37083417
127	0xbe0a76f5	-0.13521941
128	0xbf6195d3	-0.8811924
129	0x3fe691c6	1.8013237
130	0x3e90fea6	0.2831928
131	0x3f4a9820	0.79138374
132	0xbee29732	-0.44255978
133	0xbe9627e5	-0.29327312
134	0x3f87ff47	1.062478
135	0xbf6c0461	-0.9219418
136	0xbf780685	-0.9688495
137	0x3d07040f	0.032962855
138	0x3f5ccedf	0.8625316
139	0xbfe55a7d	-1.791824
140	0xbebf497d	-0.37360755
141	0xbdd80b8d	-0.10549078
142	0xbe9a4e4e	-0.30137867
143	0x3ea903da	0.3301075
144	0xbf3d2d76	-0.7389749
145	0xbea380aa	-0.319341
146	0xbe9b43ad	-0.3032507
147	0xbf32b7d0	-0.69811726
148	0x3dc42913	0.09578147
149	0xbf18e10e	-0.59718406
150	0xbf98a2b3	-1.1924652
151	0xbf787350	-0.9705095
152	0xbf9b4507	-1.213044
153	0x3e20fe30	0.15721965
154	0x3dbafaeb	0.0912989
155	0xbf300f6f	-0.6877355
156	0x3f01b062	0.50659764
157	0x3ed9b5dc	0.4252156
158	0xbe9b30fb	-0.30310807
159	0xbeae9624	-0.34098923
160	0xbe8e62ba	-0.27809697
161	0xbebea21c	-0.37233055
162	0xbfa742d0	-1.3067265
163	0xbde0b083	-0.10971167
164	0xbf1478b8	-0.579967
165	0x3e99fde2	0.3007651
166	0x3ef9a288	0.48756814
167	0x3fb9b133	1.4507202
168	0x3e971fb3	0.29516372
169	0xbdcf162e	-0.10111652
170	0x3ed3d067	0.41369936
171	0x3e586d0e	0.21135351
172	0x3f0e05f1	0.55477816
173	0xbd945a8a	-0.072438315
174	0xbf9936be	-1.1969831
175	0xbee664d4	-0.449988
176	0xbf11e950	-0.5699663
177	0x3edd5957	0.43232223
178	0x3f281579	0.65657765
179	0x3ee8de6f	0.45482203
180	0x3f7ca91d	0.98695546
181	0x3f0ec238	0.55765104
182	0x3ef495a9	0.47770432
183	0x3f947b59	1.1600143
184	0x3e353434	0.17695695
185	0xbf6e4e86	-0.9308857
186	0xbe476314	-0.19471389
187	0xbeacaf0a	-0.33727294
188	0x3e8a2fb9	0.26989534
189	0xbf2a7e3e	-0.6659888
190	0xbf29b555	-0.66292316
191	0xbec4578a	-0.38348037
192	0x3da4012c	0.08008036
193	0x3f3bcba2	0.73357594
194	0xbf005e22	-0.50143635
195	0xbe898254	-0.26857245
196	0x3f2b73c0	0.66973495
197	0xbbd5310e	-0.006506092
198	0xbd2f2dcd	-0.04276829
199	0x3ecf17ac	0.40447748
200	0xbf60ff0c	-0.8788917
201	0x3aa18669	0.0012323383
202	0xbe96b1b4	-0.29432452
203	0xbc8680df	-0.016418872
204	0xbf192fe3	-0.59838694
205	0x3f03a853	0.5142872
206	0x3f8029b3	1.0012726
207	0xbeed2f56	-0.46325177
208	0xbf7fa67a	-0.998634
209	0xbe11924d	-0.14215966
210	0xbf88dcc6	-1.0692375
211	0x3fba0dba	1.4535439
212	0xbe172a70	-0.14762282
213	0xbee99950	-0.4562478
214	0x3e788b13	0.24271803
215	0xbeccaf04	-0.39977276
216	0xbfa47f7a	-1.2851403
217	0x3eec174e	0.4611153
218	0x3f1a6e9c	0.60325027
219	0x3e3341f0	0.17505622
220	0x3f80339c	1.001575
221	0x3f890a5a	1.0706284
222	0xbf060305	-0.5234836
223	0xbead7052	-0.33874756
224	0xbe05f5a5	-0.13081987
225	0x3d726556	0.059178673
226	0xbed7a469	-0.42117622
227	0xbeb5e514	-0.35526335
228	0xbf862bc6	-1.0482109
229	0x3f54806b	0.8300845
230	0x3e792756	0.24331412
231	0xbf26a693	-0.6509792
232	0xbf718f18	-0.9435897
233	0xbf09ab88	-0.5377736
234	0x3f7ec368	0.99516916
235	0x3eebafef	0.46032664
236	0xbd880e52	-0.066433564
237	0xbe441d75	-0.19151862
238	0xbfa4c74b	-1.2873319
239	0xbe342896	-0.17593607
240	0x3dd826a5	0.10554246
241	0xbe9bb238	-0.30409408
242	0xbf6529b9	-0.8951679
243	0x3fcf88bd	1.6213604
244	0xbfe25bc7	-1.7684258
245	0x3db7af42	0.08968975
246	0x3ee2f70e	0.44329113
247	0x3eea8df9	0.45811442
248	0x3f2b81c3	0.66994876
249	0x3f59e9bc	0.85122275
250	0x3f4e92cc	0.80692744
251	0xbf533a12	-0.82510483
252	0x3cdfa77b	0.02730154
253	0xbf394b3d	-0.7238043
254	0xbeba261e	-0.36357206
255	0x3e9abc5d	0.30221835

lstm.bias_ih_l0 f4 [256]
0	0x3de27489	0.110573836
1	0x3f023600	0.5086365
2	0x3f422f97	0.75853866
3	0x3f3f4222	0.74710286
4	0x3eb3d5bf	0.35124013
5	0x3f13fcef	0.5780782
6	0x3f39e3d2	0.7261325
7	0x3eff946c	0.49917924
8	0x3e0f3b06	0.1398736
9	0x3f115736	0.567737
10	0x3ec9d0c1	0.3941708
11	0x3ea8db5f	0.32979867
12	0x3f23e6bf	0.64023966
13	0x3ec9ad17	0.3938987
14	0x3f0902de	0.5352
15	0x3ebdc32f	0.37062976
16	0x3ec5fef6	0.38671082
17	0x3f0ed633	0.5579559
18	0x3f102669	0.5630861
19	0x3ee0d7b8	0.4391458
20	0x3ecd4596	0.40092152
21	0x3f3d801a	0.7402359
22	0x3e878b2e	0.26473373
23	0x3f76a0fb	0.96339387
24	0x3f051d1d	0.5199755
25	0x3f868b0d	1.0511185
26	0x3e227ab8	0.15867126
27	0x3db1a8f2	0.08674802
28	0x3ebd94b3	0.3702751
29	0x3f57f288	0.8435445
30	0x3f21dc72	0.63227
31	0x3e97635e	0.29568
32	0x3f448783	0.76769274
33	0x3d6fd8a3	0.05855621
34	0x3e7f364c	0.24923056
35	0x3eda8f1d	0.42687312
36	0x3f2e4e97	0.6808867
37	0x3f17aee5	0.5925124
38	0x3e7d6cd2	0.24748543
39	0x3ee62b75	0.4495503
40	0x3f660677	0.89853615
41	0x3f3ea41b	0.74469155
42	0x3f490680	0.78525543
43	0x3f1b1b60	0.60588646
44	0x3ee82159	0.45337942
45	0x3e8067cd	0.25079194
46	0x3f2570fb	0.6462552
47	0x3e973abb	0.29536995
48	0x3f255b85	0.6459277
49	0x3ea2516b	0.31702742
50	0x3f7758d1	0.966199
51	0x3e8c62fb	0.27419266
52	0x3ef5233a	0.47878438
53	0x3de6e75d	0.11274598
54	0x3ee993d7	0.45620605
55	0xbe3c9c22	-0.18418935
56	0x3ee65829	0.44989136
57	0x3d83a03c	0.06427047
58	0x3eee4d35	0.4654328
59	0x3f7379ff	0.95108026
60	0x3f1cbe9d	0.6122835
61	0x3e0fa1fd	0.14026637
62	0x3f4a7279	0.7908092
63	0x3ed4ce47	0.41563627
64	0xbe56f83c	-0.20993131
65	0x3cba47d0	0.022739321
66	0x3e806b3b	0.2508181
67	0x3d5adcea	0.053433336
68	0x3e5732c3	0.21015458
69	0xbdfaa076	-0.12237637
70	0x3df725a8	0.12067729
71	0x3db4a612	0.08820738
72	0x3e82e153	0.25562534
73	0x3e7ba650	0.24575162
74	0x3eb8aef1	0.3607097
75	0x3dd3cc37	0.10341685
76	0xbed28da2	-0.41123682
77	0x3f0e7c97	0.5565886
78	0x3d987187	0.074435286
79	0xbe811173	-0.25208625
80	0x3dff022c	0.12451586
81	0xbe2ec626	-0.17067775
82	0x3ebc0595	0.3672301
83	0x3db10a1a	0.08644505
84	0xbe19991f	-0.14999817
85	0xbd7af731	-0.061270896
86	0x3e1c6469	0.15272678
87	0xbdf7e574	-0.121043116
88	0x3dae6ff3	0.08517446
89	0x3d2519b0	0.0403077
90	0xbe8a45c4	-0.27006352
91	0x3e00ccba	0.12578097
92	0x3d95c91d	0.0731375
93	0x3d2521ff	0.040315624
94	0x3eec870d	0.46196786
95	0x3e22c8dc	0.15896934
96	0x3f046745	0.51720077
97	0x3c2fd6cc	0.010732364
98	0x3e0d7051	0.13812377
99	0x3dceadea	0.10091765
100	0x3c5a3b7c	0.013319846
101	0x3ea42f0f	0.32067153
102	0x3d4b8960	0.049691558
103	0xbdd3f7ec	-0.10350022
104	0xbd922802	-0.07136537
105	0x3d24e5b0	0.04025811
106	0x3d9d5c80	0.076836586
107	0x3e6d1980	0.23154259
108	0x3e74b8f3	0.23898678
109	0x3dca34a0	0.09873319
110	0x3e9bf902	0.30463415
111	0xbe059ea1	-0.13048793
112	0xbd2f58b0	-0.04280919
113	0xbd97b506	-0.07407574
114	0x3c9fe7a8	0.019519642
115	0xbe317e49	-0.1733333
116	0x3ba94480	0.0051656365
117	0x3e8c65f7	0.27421543
118	0x3e44c710	0.19216561
119	0x3f143b60	0.579031
120	0x3da31c42	0.07964374
121	0x3e9f3451	0.31094602
122	0xbdb71541	-0.08939601
123	0x3ddf3e80	0.10900593
124	0x3ead6fc2	0.33874327
125	0x3efa5ebb	0.489004
126	0xbc57f5d4	-0.013181169
127	0x3ec93d53	0.393046
128	0x3cb1edd6	0.021719854
129	0x3e0fd532	0.14046171
130	0xbe0b0228	-0.13575041
131	0x3e071f5d	0.13195558
132	0x3e0ba3bc	0.13636678
133	0xbe255c5d	-0.16148515
134	0xbd45c903	-0.048287403
135	0x3d0c28ec	0.034218714
136	0xbe316366	-0.17323074
137	0x3dbf4856	0.09339969
138	0x3e2b69d0	0.16739583
139	0xbe26e469	-0.16298069
140	0xbdc402f1	-0.095708735
141	0xbdd4d016	-0.10391252
142	0x3e161b1d	0.1465878
143	0xbe206e68	-0.15667117
144	0xbdd76fcc	-0.105193704
145	0x3cff7b0f	0.031186609
146	0xbc7ec91e	-0.01555088
147	0x3dbc3dc0	0.091914654
148	0x3d1635ed	0.03667252
149	0xbd9481ed	-0.07251344
150	0xbdc13c36	-0.094353124
151	0xbd79ce68	-0.06098786
152	0xbdf464c6	-0.119332835
153	0xbd082cc3	-0.033245813
154	0x3d1c5756	0.038169228
155	0xbddf8c86	-0.109154746
156	0x3e190bf7	0.1494597
157	0x3b2f99c7	0.002679454
158	0xbe6716e0	-0.2256732
159	0x3e504ca0	0.2034173
160	0xbde648a4	-0.11244324
161	0x3c08eb8e	0.008356942
162	0xbe012dc5	-0.12615116
163	0xbbd33140	-0.00644508
164	0x3d6c1676	0.057638608
165	0xbdb995a7	-0.09061747
166	0xbcd01500	-0.025400639
167	0xbd49f856	-0.049309097
168	0xbda81f0b	-0.08209046
169	0xbccd5cf4	-0.025068738
170	0x3df71855	0.12065188
171	0xbe02a095	-0.1275657
172	0xbe91f03d	-0.285036
173	0x3bbf5850	0.005839385
174	0xbdfc94e4	-0.12333086
175	0xbe0df13f	-0.1386156
176	0xbdf6656b	-0.12031063
177	0x3d7d9fb2	0.061919875
178	0xbe33c133	-0.17554168
179	0x3d987a6a	0.07445224
180	0xbda7eed4	-0.0819985
181	0x3dba16bf	0.0908637
182	0xbd70fd73	-0.058835458
183	0x3cd3e465	0.025865743
184	0x3db9bba1	0.090689905
185	0x3d2a0bf1	0.041515294
186	0x3cff1aec	0.031140767
187	0xbe1d20a1	-0.15344478
188	0x3d3bb68d	0.04582839
189	0xbdae1274	-0.084996134
190	0xbe1bf6de	-0.15230891
191	0x3da401cb	0.080081545
192	0x3edde4c9	0.43338612
193	0x3f08b63a	0.53403056
194	0x3f06f71d	0.52720815
195	0x3f26957c	0.65071845
196	0x3ec754ab	0.38931784
197	0x3ed3e722	0.41387278
198	0x3f229174	0.63503194
199	0x3e012591	0.12611987
200	0x3e0612dd	0.13093133
201	0x3e07b810	0.13253808
202	0x3e8ea8bc	0.2786311
203	0xbe88cf82	-0.26720816
204	0x3e381b22	0.179791
205	0xbe0ec6fc	-0.13943094
206	0x3f109134	0.5647156
207	0x3ef48731	0.47759393
208	0xbdf18d9d	-0.11794589
209	0x3ebf790a	0.37397033
210	0x3d3679d0	0.044549763
211	0x3e6e0c75	0.2324694
212	0x3d25c62e	0.040472202
213	0xbe05d0fb	-0.13068001
214	0xbd2619d2	-0.040551968
215	0x3e948abe	0.29012102
216	0xbe44f12a	-0.19232622
217	0xbbd03043	-0.0063534095
218	0xbf009317	-0.5022444
219	0x3c0dcc39	0.0086546475
220	0x3d216b92	0.039409228
221	0x3edd46b0	0.43217993
222	0x3edddfac	0.4333471
223	0x3ee1cb80	0.4410057
224	0x3e7b720a	0.24555221
225	0x3f270857	0.652471
226	0xbd3ff2bf	-0.04686236
227	0x3e5a871c	0.21340603
228	0x3deb6bad	0.11495147
229	0xbe615b04	-0.22007376
230	0x3e2975cb	0.1654884
231	0x3e9b58f4	0.30341303
232	0x3e78631a	0.24256554
233	0x3e9ea8bc	0.3098811
234	0x3e5c3259	0.21503581
235	0x3d6d68db	0.057961326
236	0x3f32f870	0.69910336
237	0x3e3c9bcc	0.18418807
238	0xbe6d63d1	-0.23182608
239	0x3e538d18	0.20659292
240	0x3f2fbe92	0.6865016
241	0x3f327a42	0.697178
242	0x3ed6015a	0.41797906
243	0xbbe8eaf9	-0.007108089
244	0x3e34dc9e	0.17662284
245	0xbdbb991c	-0.09160063
246	0x3f5b0eab	0.85569257
247	0x3eac0521	0.33597663
248	0x3f297b55	0.66203815
249	0xbe173466	-0.14766082
250	0x3e8af45a	0.2713955
251	0x3e6315e0	0.22176313
252	0x3f915377	1.1353596
253	0xbe3fd43a	-0.18733302
254	0x3ebe79dd	0.3720235
255	0x3ec74a27	0.3892376

lstm.bias_hh_l0 f4 [256]
0	0xbb4d9bc5	-0.0031373363
1	0x3eee75f9	0.4657438
2	0x3f3de564	0.7417815
3	0x3f117f03	0.5683443
4	0x3ed8bf46	0.4233343
5	0x3f089bad	0.5336254
6	0x3f262331	0.6489745
7	0x3f0914ee	0.5354756
8	0x3e9dc730	0.3081603
9	0x3f036adc	0.5133493
10	0x3f0bdca9	0.54633576
11	0x3e924220	0.28566074
12	0x3f2a179e	0.66442287
13	0x3f135c95	0.57563144
14	0x3f08848c	0.5332725
15	0x3e70fb07	0.2353326
16	0x3f11cad6	0.5695013
17	0x3f26570e	0.64976585
18	0x3eb50cc1	0.35361293
19	0x3e8486d8	0.25884128
20	0x3ed21722	0.41033274
21	0x3f2a6723	0.66563624
22	0x3ef67c35	0.48141637
23	0x3f6ef4a6	0.93342054
24	0x3f2013f2	0.62530434
25	0x3f965582	1.1744845
26	0x3e917096	0.2840621
27	0xbdd75c73	-0.1051568
28	0x3ede2c67	0.4339325
29	0x3f6ae4b6	0.91755235
30	0x3f352c34	0.70770574
31	0x3eafe570	0.34354734
32	0x3f593f88	0.84862566
33	0x3e091134	0.13385469
34	0x3ea0a774	0.31377757
35	0x3effa51f	0.49930665
36	0x3f14669f	0.5796909
37	0x3f164bbb	0.58709306
38	0x3e3ba9f8	0.18326557
39	0x3edf6875	0.43634382
40	0x3f38a1ce	0.72121894
41	0x3f4762ce	0.7788514
42	0x3f271683	0.65268725
43	0x3ec85230	0.39125204
44	0x3f12f9ca	0.574124
45	0x3ed92cf2	0.42417103
46	0x3ed539ad	0.41645566
47	0x3eaf1419	0.3419502
48	0x3ee380db	0.44434246
49	0x3ed2562f	0.41081378
50	0x3f645ce3	0.89204234
51	0x3ec2e6e4	0.3806678
52	0x3f20bafc	0.62785316
53	0x3cfbcdda	0.030737806
54	0x3e9e4615	0.30912843
55	0xbe34496f	-0.17606138
56	0x3ef5a3d9	0.47976568
57	0x3e24c8fe	0.16092297
58	0x3efa0b13	0.48836574
59	0x3f62792e	0.88466156
60	0x3f341d76	0.70357454
61	0x3e8fed23	0.28110608
62	0x3f47bee3	0.78025645
63	0x3e435bd2	0.19077995
64	0xbe554e6f	-0.20830701
65	0x3d9d8c80	0.07692814
66	0x3ea71826	0.3263561
67	0x3d3c4f7c	0.04597424
68	0x3eb4a81f	0.35284516
69	0xbdbe3b73	-0.09288683
70	0x3c883852	0.016628418
71	0x3dd3e7ba	0.10346933
72	0x3eaa71d7	0.33289978
73	0x3e11b3ee	0.14228794
74	0x3ecb926f	0.39760157
75	0x3d5831a6	0.052781723
76	0xbe7e250d	-0.24818821
77	0x3f0748a6	0.5284523
78	0x3d5de0c3	0.054169428
79	0xbd5ce49d	-0.05392896
80	0x3daf31bd	0.08554409
81	0xbd91984a	-0.07109125
82	0x3e973cca	0.29538566
83	0x3e1ddae5	0.15415533
84	0xbda45daa	-0.080256775
85	0x3d409ff7	0.047027554
86	0xbca6e169	-0.020371156
87	0xbe29f96e	-0.16599056
88	0x3e517efa	0.20458594
89	0x3d254678	0.040350407
90	0xbe93da18	-0.2887733
91	0x3c82affc	0.015953057
92	0xbe0bf33f	-0.1366701
93	0xbda74750	-0.08167899
94	0x3ebaffcd	0.36523286
95	0x3e943648	0.28947663
96	0x3f0d2784	0.5513842
97	0x3d56e9f1	0.052469198
98	0x3e6ecee9	0.23321117
99	0x3e16ec9d	0.14738698
100	0x3d40e09f	0.047089215
101	0x3e674213	0.22583799
102	0x3df67c2c	0.12035403
103	0xbd8e124d	-0.06937084
104	0xbda2e382	-0.0795355
105	0x3d9f7de3	0.07787683
106	0x3cc0db29	0.023542004
107	0x3dd7595a	0.10515089
108	0x3e19b6f8	0.15011203
109	0x3dde23c1	0.10846663
110	0x3ec52b30	0.38509512
111	0xbcbe6fb0	-0.023246616
112	0xbd94071e	-0.0722792
113	0xbe833156	-0.25623578
114	0xbdf23341	-0.11826182
115	0x3cb15fe2	0.021652166
116	0x3ca1d4ac	0.01975473
117	0x3e002cc8	0.12517083
118	0x3e46f26f	0.19428419
119	0x3efc6928	0.49298978
120	0x3d05be03	0.032651912
121	0x3e216fb6	0.1576527
122	0xbd89190c	-0.066942304
123	0x3e902930	0.28156424
124	0x3e9ee1db	0.3103169
125	0x3f07dd90	0.5307245
126	0x3d07c723	0.033148896
127	0x3f12f732	0.5740844
128	0xbd3ecfc3	-0.046584856
129	0x3decc656	0.11561267
130	0xbe859856	-0.26092786
131	0x3e13e16a	0.14441457
132	0x3e4879d7	0.19577728
133	0xbe8f744e	-0.2801842
134	0xbd6bd57f	-0.057576653
135	0x3e7f3d64	0.24925762
136	0xbd79d8ce	-0.060997777
137	0xbd424e0b	-0.04743771
138	0x3dbbef9f	0.091765635
139	0xbe88e715	-0.26738802
140	0x3d5eace7	0.05436411
141	0xbe222d2e	-0.15837547
142	0x3e3b54a0	0.18294
143	0xbe11dea5	-0.14245088
144	0xbdf668a6	-0.12031679
145	0x3d85685e	0.06514047
146	0xbd60a593	-0.054845404
147	0x3df1f6b6	0.118146345
148	0x3e05c218	0.13062322
149	0x3d6590a7	0.056046154
150	0xbd9a69c9	-0.07539708
151	0x3c261805	0.010137563
152	0xbd5ca343	-0.053866636
153	0x3de3b1e8	0.11117917
154	0xbdc5408b	-0.09631451
155	0xbd172786	-0.036902927
156	0xbd3e9338	-0.046527117
157	0xbc7dced1	-0.015491203
158	0xbe307508	-0.17232144
159	0x3d9b5311	0.07584203
160	0xbdae61f1	-0.085147746
161	0x3d86e572	0.06586732
162	0xbe283c19	-0.16429175
163	0xbd21b14e	-0.03947573
164	0x3d53be8e	0.0516954
165	0x3da65ca1	0.08123136
166	0x3b99a7d0	0.0046891943
167	0x3b90d2f8	0.0044196807
168	0xbdb5310d	-0.08847246
169	0x3c0d4a31	0.008623646
170	0x3e36d5cb	0.17854993
171	0xba62643f	-0.00086361537
172	0xbe28fb13	-0.16502027
173	0xbd9573a8	-0.0729745
174	0xbdcee2ef	-0.10101878
175	0x3cc8947a	0.024484862
176	0x3cdb4191	0.026764663
177	0x3db1a17e	0.0867338
178	0xbe3d89d6	-0.18509611
179	0x3c2110b1	0.00983064
180	0xbe326171	-0.17419983
181	0x3d498df5	0.049207646
182	0x3cf56a4c	0.029957913
183	0xbcdd5fd6	-0.027023237
184	0x3dfb3d9c	0.122676104
185	0x3d338c44	0.04383494
186	0xbd9187f2	-0.07106008
187	0xbd2bd0b1	-0.04194707
188	0xbbd4034a	-0.0064701186
189	0xbc818e8c	-0.015815042
190	0xbcd42985	-0.025898704
191	0xbe0465c0	-0.1292944
192	0x3ef75d5f	0.48313424
193	0x3ef12533	0.47098693
194	0x3ed51286	0.41615695
195	0x3f42d1c1	0.7610131
196	0x3ec0b535	0.3763825
197	0x3f1e31c7	0.61794704
198	0x3f2d399d	0.67666036
199	0x3e8b0a80	0.27156448
200	0x3ddb56ef	0.10709941
201	0x3e1cfa6c	0.15329903
202	0x3e7fa3ef	0.2496488
203	0xbe69d117	-0.22833668
204	0x3e180cac	0.14848584
205	0xbd2826fe	-0.04105281
206	0x3f132a7d	0.57486707
207	0x3f259ad1	0.64689356
208	0x3c8558cd	0.016277695
209	0x3e959440	0.29214668
210	0x3ab29900	0.001362592
211	0x3e9e7085	0.3094522
212	0x3c8313ac	0.016000591
213	0xbe5aa836	-0.2135323
214	0x3df9d772	0.12199296
215	0x3ea5bedc	0.32372177
216	0xbcebb8c1	-0.028774621
217	0x3d4939e3	0.04912747
218	0xbe9dc629	-0.30815247
219	0xbd01fadd	-0.031733382
220	0x3e1180bc	0.14209265
221	0x3ec1ba48	0.37837434
222	0x3ed452d3	0.4146944
223	0x3f147d36	0.58003557
224	0x3e3d95b4	0.18514138
225	0x3f2baa19	0.67056423
226	0x3dc551d1	0.09634746
227	0x3ec174a6	0.37784308
228	0x3e9b5088	0.30334878
229	0xbd6faa4c	-0.058512017
230	0x3d1b225f	0.037874576
231	0x3e5ce558	0.21571863
232	0x3dba1e6d	0.090878345
233	0x3eaeda6b	0.34151015
234	0x3e8a2430	0.26980734
235	0x3e4441c6	0.19165716
236	0x3f347d71	0.7050391
237	0xbd059a13	-0.03261764
238	0xbe6f3ea9	-0.23363747
239	0x3e3a042d	0.18165655
240	0x3f28457c	0.65731025
241	0x3f25fbaf	0.64837164
242	0x3eb8a1ee	0.36061043
243	0x3e38f346	0.18061551
244	0x3db7b214	0.089695126
245	0x3dfc9070	0.12332237
246	0x3f3f71ea	0.74783194
247	0x3eb47c52	0.352511
248	0x3f4972c0	0.7869072
249	0xbe2535d0	-0.16133809
250	0x3e89f8a4	0.2694751
251	0x3eae1368	0.3399918
252	0x3f9bfc82	1.2186434
253	0xbe973ef0	-0.29540205
254	0x3e8ee155	0.2790629
255	0x3ec15b84	0.37765133

lstm.weight_ih_l1 f4 [256, 64]
0	0xbf083f97	-0.5322203
1	0x3e45925b	0.19294111
2	0xbc9fa6e5	-0.019488761
3	0x3da89f34	0.082334906
4	0xbbd5d8e3	-0.006526099
5	0x3e3662fa	0.17811194
6	0x3ce6f3be	0.028192397
7	0xbeceebc4	-0.4041425
8	0xbef33743	-0.475031
9	0x3f012456	0.5044607
10	0xbcacb868	-0.021084026
11	0xbe6817fe	-0.22665402
12	0x3ef97171	0.4871936
13	0xbe705147	-0.23468505
14	0xbdc0a27c	-0.094059914
15	0xbecb413c	-0.39698207
16	0xbe638adc	-0.2222094
17	0x3df9357f	0.12168407
18	0x3decd2b6	0.115636274
19	0xbe8de9e7	-0.27717516
20	0xbe4cb7fe	-0.19992062
21	0x3ea4bfb2	0.32177502
22	0xbe0c6117	-0.13708912
23	0x3da4c9ab	0.080462776
24	0x3e7f5e74	0.24938375
25	0x3e87011a	0.26368028
26	0x3eaaa3c7	0.33328077
27	0x3c03040b	0.007996569
28	0xbecfb9a7	-0.4057133
29	0x3e9eacef	0.30991313
30	0x3e0f0199	0.13965453
31	0xbe29997e	-0.16562459
32	0xbc78ab32	-0.015177535
33	0xbdbbf611	-0.09177793
34	0x3d1a2e6d	0.03764193
35	0x3db31021	0.08743311
36	0x3eb1ce03	0.34727487
37	0xbe04b08d	-0.12957974
38	0xbdd69fc4	-0.104796916
39	0x3ea6971f	0.3253717
40	0x3d8970d8	0.06710976
41	0x3df11cf5	0.11773101
42	0x3e830f12	0.25597435
43	0x3c16674b	0.0091799
44	0x3e545ed3	0.20739298
45	0x3ebe2ce9	0.3714364
46	0xbe9b9961	-0.30390456
47	0x3e25d6f9	0.16195287
48	0x3e1052dd	0.1409411
49	0x3bf1d34e	0.007379926
50	0xbe97e0f5	-0.29663816
51	0xbe890481	-0.2676125
52	0x3ee24648	0.44194245
53	0x3ec966b7	0.39336178
54	0x3e820bfc	0.25399768
55	0x3ccecfd3	0.025245583
56	0xbdcece1f	-0.10097908
57	0x3e31f81f	0.17379807
58	0x3c9562b7	0.018235547
59	0xbe6fd254	-0.23420078
60	0x3e7433ad	0.23847838
61	0x3e07313e	0.13202378
62	0x3cdd777f	0.02703452
63	0x3edd1754	0.4318186
64	0x3df8e23a	0.12152524
65	0x3f435434	0.7630036
66	0xbf4c5110	-0.7981119
67	0x3f094dee	0.53634536
68	0x3e12c62d	0.1433341
69	0xbedb35e3	-0.4281455
70	0xbec24bd5	-0.3794848
71	0xbefbb79d	-0.49163523
72	0x3e5ec421	0.21754505
73	0xbee79f51	-0.45238736
74	0xbf4a4904	-0.79017663
75	0x3f28ce85	0.65940124
76	0xbeda769c	-0.42668617
77	0xbe840892	-0.2578779
78	0x3e0f5858	0.13998544
79	0xbeaa8d16	-0.33310765
80	0x3d9f7756	0.077864334
81	0xbeae6b68	-0.3406632
82	0xbda4c45c	-0.08045265
83	0x3d8867bd	0.066604115
84	0xbd410283	-0.047121536
85	0x3f47fc49	0.7811933
86	0xbe84a1d6	-0.2590472
87	0x3d5bf196	0.05369719
88	0xbf06c255	-0.5264028
89	0xbede352f	-0.4339995
90	0x3f21cf71	0.63207155
91	0xbe4f5c7e	-0.20250127
92	0x3e217584	0.15767485
93	0xbad2751a	-0.0016056628
94	0x3e599378	0.21247661
95	0xbf0bb779	-0.5457683
96	0x3e8add92	0.2712217
97	0x3d7083e5	0.058719534
98	0xbd864ccc	-0.065576166
99	0x3f1a0293	0.6016018
100	0xbdc562b1	-0.096379645
101	0xbedc86e3	-0.4307166
102	0xbedec702	-0.43511206
103	0x3e3a9ff4	0.1822508
104	0x3eac285b	0.3362454
105	0xbde87769	-0.11350901
106	0x3f5f7082	0.8728105
107	0xbd58c004	-0.052917495
108	0x3e6dbddf	0.23216961
109	0x3eb20ed9	0.34776953
110	0x3d6fe9e5	0.05857267
111	0x3f001681	0.5003434
112	0xbccf7ac4	-0.025327094
113	0x3dd0d11e	0.10196136
114	0xbeec6ec9	-0.46178272
115	0x3e0fa48c	0.14027613
116	0xbdca43c3	-0.09876206
117	0x3e84d897	0.25946495
118	0xbf13d7a5	-0.5775092
119	0xbdefc5e5	-0.11707667
120	0xbb992eac	-0.004674753
121	0x3e009c26	0.12559566
122	0x3ed1b6b2	0.40959698
123	0x3d502697	0.050818052
124	0x3f66fd56	0.9023031
125	0xbcc9d186	-0.024636041
126	0xbe571e02	-0.21007541
127	0xbdbd6ad3	-0.09248891
128	0xbf1ca964	-0.6119597
129	0xbe64e499	-0.22352828
130	0xbe282eca	-0.16424099
131	0xbee57677	-0.44816944
132	0xbeb571cd	-0.35438386
133	0x3e9af7dc	0.30267227
134	0x3e74068e	0.23830625
135	0x3ef71f56	0.48266095
136	0x3e9b55a6	0.30338782
137	0x3cb89baf	0.022535173
138	0xbe885f8b	-0.26635394
139	0xbd625bff	-0.055263516
140	0x3ef81a8b	0.4845775
141	0x3f1c7800	0.61120605
142	0x3daa3a63	0.08311918
143	0xbed54ab4	-0.41658556
144	0xbddb12e8	-0.106969655
145	0x3d9d0927	0.07667761
146	0xbd624bad	-0.05524795
147	0xbecc14e1	-0.3985968
148	0x3c933d30	0.017973512
149	0xbef1f58c	-0.4725765
150	0x3ebecef4	0.37267268
151	0xbc7df773	-0.015500891
152	0x3db67c9b	0.08910485
153	0xbe725499	-0.23665084
154	0xbf099ddf	-0.5375652
155	0xbea845b5	-0.32865682
156	0x3f42f4c6	0.76154745
157	0xbd7755b3	-0.060384464
158	0x3da6d489	0.081460066
159	0x3dfc142d	0.12308536
160	0xbc3bf6ee	-0.011472447
161	0x3dfe50df	0.12417769
162	0xbd340f26	-0.04395976
163	0xbf3c519e	-0.7356204
164	0xbf40d196	-0.753198
165	0x3e88ceab	0.26720175
166	0xbdb9681d	-0.09053061
167	0xbdafbf57	-0.08581417
168	0xbe59cd53	-0.21269731
169	0xbec094f3	-0.3761364
170	0x3f02f29e	0.51151454
171	0x3ead6b38	0.33870864
172	0x3dd56b51	0.104208596
173	0xbbfddee9	-0.00774752
174	0xbd7c9910	-0.06166941
175	0x3f02b908	0.51063585
176	0x3d85139c	0.06497881
177	0xbed643e0	-0.4184866
178	0x3e2064ff	0.15663527
179	0xbe903641	-0.28166392
180	0xbd884102	-0.06653024
181	0xbe82adad	-0.2552313
182	0x3e97919c	0.2960328
183	0x3dc0e1ba	0.09418054
184	0x3e9d6ae5	0.30745617
185	0x3d4e827a	0.0504174
186	0x3e012223	0.12610678
187	0x3e240d1f	0.1602063
188	0xbe21eee6	-0.15813789
189	0xbd5b2aa4	-0.053507462
190	0x3e741545	0.23836239
191	0x3dde43ed	0.108527996
192	0xbe402c8d	-0.18766995
193	0xbd8e1dba	-0.06939264
194	0xbd5a9b71	-0.053370897
195	0x3c56ab10	0.013102308
196	0xbf0cfad1	-0.55070215
197	0x3e7c007c	0.2460956
198	0x3f8b5df0	1.0888042
199	0x3f562167	0.8364472
200	0xbe11015a	-0.14160672
201	0x3e8165d2	0.25272995
202	0x3e770781	0.24123956
203	0xbf0ff351	-0.56230646
204	0x3ccc3c58	0.024931118
205	0x3d425813	0.047447275
206	0xbe5f54e2	-0.21809724
207	0x3e975bcb	0.2956222
208	0xbe165156	-0.14679465
209	0x3e10960a	0.14119735
210	0x3e5eb3db	0.21748297
211	0xbe78cc7c	-0.24296755
212	0x3f8c58de	1.096462
213	0xbe4270e1	-0.18988372
214	0x3e679f5b	0.22619383
215	0xbe5a3d46	-0.21312436
216	0xbe1e3919	-0.15451469
217	0x3e08300d	0.1329958
218	0xbee735ed	-0.4515833
219	0x3ec27cd7	0.3798587
220	0xbf0ddef6	-0.55418336
221	0x3ec55a3a	0.385454
222	0xbedbce76	-0.42930955
223	0xbe450383	-0.19239621
224	0xbf01a8fe	-0.50648487
225	0x3dc0d311	0.09415258
226	0x3e921412	0.28530937
227	0xbeb14cbb	-0.34628853
228	0x3e872b76	0.26400346
229	0x3f1e53fe	0.6184691
230	0xbea21b6c	-0.31661546
231	0x3e889117	0.26673195
232	0xbec18249	-0.37794712
233	0xbeb8cbf4	-0.36093104
234	0xbe2ed517	-0.17073475
235	0xbdcbdfbc	-0.09954783
236	0xbf4cfcff	-0.8007354
237	0xbd6473fc	-0.055774674
238	0xbf13811f	-0.576189
239	0xbe9e4492	-0.3091169
240	0xbcd5a47f	-0.026079414
241	0xbea5cf47	-0.32384703
242	0xbecd3f2d	-0.40087262
243	0x3f457a66	0.7713989
244	0x3c11fc6f	0.0089102825
245	0x3e0f8a3e	0.14017579
246	0x3f086123	0.5327322
247	0xbd5d48c3	-0.05402447
248	0xbcf81509	-0.030283468
249	0x3fb0efc0	1.3823166
250	0x3d8269a3	0.06367805
251	0xbe4c9449	-0.19978441
252	0xbf6eedf2	-0.93331826
253	0xbe0fcf91	-0.14044024
254	0x3dbb604c	0.091492265
255	0xbe71551a	-0.2356762

lstm.weight_hh_l1 f4 [256, 64]
0	0x3f497afa	0.7870327
1	0xbe4d6b80	-0.20060539
2	0xbe53302d	-0.20623846
3	0x3e8de326	0.27712363
4	0xbf68f23f	-0.9099464
5	0x3f419719	0.7562118
6	0x3d24927e	0.04017877
7	0x3e9df76d	0.30852833
8	0xbf3ac882	-0.729622
9	0xbd59aadd	-0.053141464
10	0x3dc0969c	0.094037265
11	0xbf243731	-0.64146715
12	0x3eae7176	0.3407094
13	0xbf8d3422	-1.1031535
14	0x3f75fe5e	0.9609126
15	0xbf7db395	-0.99102145
16	0x3eb3b894	0.3510176
17	0x3e0fff73	0.1406229
18	0x3e430018	0.19043005
19	0xbf9163ff	-1.1358641
20	0xbd0dff5e	-0.034667365
21	0x3dbf15a7	0.09330302
22	0x3f1a52df	0.602827
23	0x3f58318e	0.84450614
24	0x3ec50d6f	0.38486812
25	0xbeb18d0d	-0.34677926
26	0xbeb895fe	-0.36051935
27	0x3e209b87	0.15684329
28	0x3f22090f	0.6329507
29	0xbc894a61	-0.0167591
30	0x3e475d97	0.19469295
31	0x3f257873	0.64636916
32	0x3ecf70a5	0.40515628
33	0xbeac7f7b	-0.3369101
34	0xbf55fbc1	-0.8358727
35	0x3dce3c23	0.10070064
36	0x3e39636c	0.18104333
37	0xbfb5d74e	-1.4206331
38	0xbe1a974e	-0.1509678
39	0x3f0d5cb0	0.55219555
40	0xbe542dde	-0.20720622
41	0xbedf7511	-0.43644002
42	0x3f48378a	0.78209746
43	0x3f10895d	0.564596
44	0x3f53a3cf	0.8267183
45	0xbdff55b2	-0.12467517
46	0x3f2aa1dc	0.6665323
47	0xbeb9e353	-0.36306247
48	0x3ea95307	0.33071157
49	0x3f8df7f1	1.1091291
50	0xbe7b3db0	-0.2453525
51	0xbde7d407	-0.11319738
52	0xbf9bf945	-1.2185446
53	0x3f75cfb4	0.96020055
54	0x3f7ed67f	0.99546045
55	0x3da3d077	0.07998746
56	0x3f3f30a1	0.74683577
57	0x3f060914	0.523576
58	0x3f205ec2	0.6264459
59	0x3f23e66d	0.64023477
60	0x3f48be20	0.7841511
61	0x3e998194	0.29981673
62	0x3efd5e9c	0.49486244
63	0xbf91b969	-1.1384708
64	0xbe43bd62	-0.19115213
65	0xbf396a77	-0.7242808
66	0x3d9bf760	0.076155424
67	0x3ea3e274	0.32008708
68	0x3de66c96	0.1125118
69	0xbf645aef	-0.89201254
70	0xbd871ff7	-0.06597894
71	0x3c254ea8	0.010089554
72	0xbeda6386	-0.42654055
73	0x3e76de24	0.24108177
74	0xbf595fa7	-0.8491158
75	0xbeb32d9f	-0.34995744
76	0xbf04ab97	-0.51824325
77	0x3f8ad0f3	1.0845016
78	0x3e88c161	0.26710036
79	0xbef5cb10	-0.48006487
80	0xbde21940	-0.11039972
81	0x3f1cab92	0.61199296
82	0xbf78e7de	-0.972288
83	0x3e34c030	0.17651439
84	0xbe71977d	-0.23592944
85	0x3f498403	0.7871706
86	0x3ed7e29e	0.42165083
87	0x3e9ff34f	0.31240317
88	0xbeabd153	-0.3355814
89	0x3f85144d	1.039682
90	0x3da7d7ad	0.08195434
91	0x3e53272d	0.20620413
92	0xbe976bdb	-0.29574475
93	0x3ed14a09	0.40876797
94	0xbe96bc22	-0.2944041
95	0xbee1b7c3	-0.44085512
96	0x3d57e03f	0.052704092
97	0x3f5d8794	0.86535
98	0x3e0235ec	0.12715882
99	0xbe8c331e	-0.2738275
100	0x3f22e35d	0.6362818
101	0x3f22fc67	0.63666385
102	0x3f870409	1.0548106
103	0x3da4d1c1	0.0804782
104	0x3f58c691	0.8467799
105	0x3f856fbd	1.0424725
106	0xbf6be3bc	-0.9214437
107	0xbe2724b0	-0.16322589
108	0x3d89a866	0.067215726
109	0x3eaad067	0.33362123
110	0xbfa2b19a	-1.271045
111	0x3f20d398	0.62822866
112	0x3f98d267	1.193921
113	0xbe6fa368	-0.23402178
114	0xbfbb99d3	-1.4656318
115	0xbe9f5337	-0.31118175
116	0xbf2615a0	-0.6487675
117	0x3f680d6e	0.9064549
118	0xbe1f96b8	-0.15584838
119	0xbf81c580	-1.0138397
120	0xbf17c0e9	-0.5927873
121	0xbf4f2e7a	-0.8093029
122	0xbf24d867	-0.64392704
123	0x3f592692	0.8482448
124	0xbf1def28	-0.6169305
125	0x3d07822d	0.03308313
126	0xbf359704	-0.70933557
127	0xbfd426be	-1.6574323
128	0x3f559181	0.83425146
129	0x3e6e0302	0.23243335
130	0x3e93e5c9	0.2888625
131	0xbcb3f65a	-0.021968056
132	0xbf9e576c	-1.2370429
133	0x3d05e3db	0.032688003
134	0x3f4ccea3	0.800028
135	0xbea55890	-0.3229413
136	0x3efff89f	0.4999437
137	0x3fd0cf6f	1.6313304
138	0x3f49c243	0.78812045
139	0x3e9ee64d	0.3103508
140	0xbf20ef97	-0.62865585
141	0x3e9ebbde	0.31002706
142	0xbf28845a	-0.6582695
143	0x3d975bd5	0.073905624
144	0xbdfa6e49	-0.122280665
145	0x3e33de6f	0.1756532
146	0xbe353eb7	-0.17699705
147	0x3ce24a2b	0.027623257
148	0xbd7d491e	-0.061837308
149	0x3ce6d338	0.028176889
150	0xbde8455b	-0.113413535
151	0xbeacffef	-0.33789012
152	0xbdee41aa	-0.11633618
153	0x3e84c958	0.25934863
154	0xbfcf3eaa	-1.6190999
155	0xbe3cf88f	-0.18454193
156	0xbeeb9cba	-0.4601801
157	0xbf6a5251	-0.91531855
158	0xbeb94a64	-0.36189568
159	0x3e51a80a	0.20474258
160	0x3f20a158	0.6274619
161	0xbfa73fe8	-1.3066378
162	0x3f6f2f2d	0.9343136
163	0xbe2ab2ab	-0.16669719
164	0x3f959a7e	1.1687772
165	0x3f2bf691	0.67173105
166	0x3eb724a6	0.35770148
167	0xbf826938	-1.018836
168	0xbd1e1ae9	-0.038599882
169	0xbe2e317d	-0.17011066
170	0xbf9815d6	-1.1881664
171	0xc02348fe	-2.55133
172	0x3e76e187	0.2410947
173	0x3e5a69db	0.21329443
174	0x3dbac580	0.091197014
175	0xbf1f11f6	-0.6213678
176	0x3b4ee42a	0.0031569102
177	0x3dcd706b	0.10031208
178	0xbeb09476	-0.34488267
179	0x3f2e79b7	0.6815447
180	0xbf330716	-0.6993269
181	0xbf12e1f1	-0.5737601
182	0x3eae1efc	0.34008014
183	0x3ec77d41	0.3896275
184	0xbf590615	-0.84774905
185	0xc0086339	-2.131056
186	0x3eb73121	0.3577967
187	0x3eaf43b0	0.3423133
188	0x3e1b86b9	0.15188111
189	0xbe2b5409	-0.16731276
190	0xbeef3501	-0.46720126
191	0xbeb1fb67	-0.34762117
192	0xbfa41b99	-1.2820922
193	0x3f34eb91	0.70671946
194	0xbedb8afb	-0.4287947
195	0x3cb26143	0.021774894
196	0xbf14bc10	-0.5809946
197	0xbf313da3	-0.69234675
198	0xbdb96b41	-0.0905366
199	0xbd9a8085	-0.075440444
200	0x3da9b1b9	0.08285851
201	0x3f0a25ac	0.5396373
202	0x40019fee	2.0253863
203	0x3d6eeba0	0.05833018
204	0xbe84ca6d	-0.2593569
205	0x3f8d337b	1.1031336
206	0x3f52b6ae	0.8231
207	0x3f14c975	0.581199
208	0xbf27d78f	-0.6556329
209	0xbf571afb	-0.84025544
210	0x3f2a8ac8	0.66618013
211	0xbfa4a875	-1.2863909
212	0xbea06c54	-0.31332648
213	0xbe2bda56	-0.16782507
214	0x3f0fe7b6	0.5621294
215	0xbf36c996	-0.71401346
216	0xbe3b59d5	-0.18295987
217	0xbf557252	-0.83377564
218	0x3ee97674	0.45598185
219	0xbf881775	-1.0632159
220	0x3ed01386	0.40639895
221	0xbee9023b	-0.45509514
222	0xbf44aabd	-0.76823026
223	0x3e3754b2	0.17903402
224	0xbdea4316	-0.11438577
225	0x3f2c405f	0.6728572
226	0x3da38cba	0.07985826
227	0xbf8a6fa6	-1.0815322
228	0x3f24ab76	0.6432413
229	0xbe932e81	-0.28746417
230	0x3fa88243	1.3164753
231	0xbe82a286	-0.2551462
232	0xbc9f9225	-0.019478867
233	0xbf39bf15	-0.72557193
234	0xbfaea70e	-1.3644731
235	0x3e772c92	0.24138096
236	0xbfd956f1	-1.6979657
237	0x3fa9fba8	1.3279924
238	0xbea9ebfa	-0.33187848
239	0xbf494c4f	-0.7863206
240	0xbf89d8c8	-1.0769281
241	0x3f52fdfa	0.8241879
242	0x3f03a808	0.5142827
243	0x3e4b37a9	0.19845451
244	0xbefa121d	-0.48841944
245	0xbf986a37	-1.1907414
246	0xbf856628	-1.0421801
247	0x3eb30c35	0.3497025
248	0xbf814d35	-1.0101687
249	0x3eead647	0.45866606
250	0xbf7ae5cd	-0.980069
251	0x3e027fe1	0.12744094
252	0x3e3dd430	0.18537974
253	0x3f87dc4b	1.0614103
254	0xbf941a9c	-1.157062
255	0x3eaa6626	0.33281058

lstm.bias_ih_l1 f4 [256]
0	0x3f3cadb9	0.7370258
1	0x3f7cc503	0.98738116
2	0x3d70e72c	0.058814213
3	0xbdb954ea	-0.09049399
4	0x3e8368aa	0.2566579
5	0xbd988ce2	-0.07448746
6	0x3e315d76	0.17320809
7	0xbd47290a	-0.048623122
8	0xbda6a856	-0.08137576
9	0x3e8495ec	0.2589563
10	0x3f1160be	0.5678824
11	0xbe88317b	-0.2660025
12	0x3dcceb4a	0.10005815
13	0x3f0fe71f	0.5621204
14	0x3f1139d5	0.5672887
15	0x3f42071b	0.7579209
16	0x3ece23d4	0.4026171
17	0x3ecddd11	0.40207723
18	0x3ec4065e	0.38286108
19	0x3ef6d518	0.48209453
20	0x3eb23d27	0.3481228
21	0x3e969b46	0.2941534
22	0x3e9550a3	0.29163083
23	0x3e6a3fdc	0.22875923
24	0x3e1e4433	0.15455703
25	0xbf001aa8	-0.50040674
26	0x3da9c33e	0.082891926
27	0x3f778a7c	0.96695685
28	0x3f4c5397	0.7981505
29	0x3eed9d30	0.46408987
30	0x3f4c6ec2	0.79856503
31	0x3e97ece1	0.29672912
32	0x3e9298fe	0.2863235
33	0x3f3c2466	0.7349304
34	0x3f5452f9	0.82939106
35	0xbf00c8a4	-0.50306153
36	0x3e86facb	0.26363215
37	0x3e1fdda8	0.15611899
38	0xbec42265	-0.3830749
39	0x3f99dbd0	1.2020206
40	0x3dd75928	0.10515052
41	0x3eec873b	0.46196923
42	0x3e06ff37	0.13183294
43	0x3f653069	0.89526993
44	0x3f8f9130	1.1216183
45	0x3f23c30c	0.6396949
46	0xbf05d646	-0.5228008
47	0xba5a27e4	-0.0008321984
48	0xbeda26c7	-0.4260771
49	0x3d60b7f9	0.05486295
50	0x3e0ce31f	0.13758515
51	0x3d6adfb4	0.057342246
52	0x3e689c16	0.22715792
53	0x3e9a5425	0.30142322
54	0x3f237164	0.63844895
55	0x3f3fbd4b	0.74898213
56	0x3e74e902	0.2391701
57	0x3f5b27c8	0.85607576
58	0x3f85aef3	1.0444015
59	0xbec4d806	-0.38446063
60	0x3b0121ad	0.001970391
61	0x3f7f5181	0.9973374
62	0x3e870acf	0.26375434
63	0xbd2fe8fa	-0.042946793
64	0xbea36802	-0.3191529
65	0x3e02fe0e	0.12792227
66	0xbf338d3f	-0.701374
67	0x3d878ef9	0.06619067
68	0x3e2693a8	0.16267264
69	0x3eb04395	0.3442656
70	0xbedf90d3	-0.4366518
71	0xbeb55b29	-0.35421112
72	0xbe8c78b7	-0.27435848
73	0xbe2614aa	-0.1621882
74	0x3e7395c2	0.23787597
75	0xbe9f2bb5	-0.31088033
76	0xbe66d18a	-0.2254087
77	0x3ef689f3	0.48152122
78	0xbd9eef77	-0.07760518
79	0xbe7879ef	-0.24265264
80	0x3e8d674f	0.2761788
81	0xbebd7e9d	-0.3701066
82	0x3e84f948	0.25971437
83	0x3e03f2b4	0.12885553
84	0x3e870339	0.26369646
85	0xbec7b29c	-0.39003456
86	0xbdfeffe2	-0.124511495
87	0x3c72410c	0.014786016
88	0x3eac6ee5	0.33678356
89	0xbf111aaf	-0.5668134
90	0xbebdbefd	-0.37059775
91	0xbf139001	-0.5764161
92	0xbf118636	-0.56845415
93	0xbf385e07	-0.72018474
94	0xbe33c402	-0.1755524
95	0x3eae9b59	0.34102896
96	0x3d9995f4	0.074993044
97	0xbeaed7fe	-0.34149164
98	0x3dc245cb	0.09485968
99	0x3eb152ae	0.34633392
100	0xbeceadc8	-0.4036696
101	0x3d03bcd0	0.032162488
102	0xbee7a19b	-0.45240483
103	0x3e44d218	0.1922077
104	0xbe893c10	-0.26803637
105	0x3e6fcf46	0.23418912
106	0x3e20604f	0.15661739
107	0x3e47a951	0.19498183
108	0x3e9591ab	0.29212698
109	0x3d65133b	0.055926543
110	0x3eb1260c	0.3459934
111	0x3f47905f	0.7795467
112	0x3d081699	0.033224676
113	0xbeef7796	-0.46770924
114	0xbd3afe27	-0.045652535
115	0x3e2f6600	0.17128754
116	0xbf1213b9	-0.57061344
117	0xbe677ed7	-0.2260698
118	0xbe030ba2	-0.12797406
119	0xbc90dff9	-0.017684923
120	0xbe5922e8	-0.21204722
121	0x3e130ab7	0.14359556
122	0x3f3dffdf	0.74218553
123	0xbeb24f1d	-0.34825984
124	0x3ef360e4	0.4753486
125	0x3ece7f8f	0.40331694
126	0x3f35f875	0.7108224
127	0xbf440c14	-0.7658093
128	0xbdbf839b	-0.093512736
129	0xbe585417	-0.21125828
130	0x3e1418d4	0.14462596
131	0xbd018894	-0.03162439
132	0x3d3ede07	0.04659846
133	0xbf025d1c	-0.50923324
134	0x3d8bbc75	0.06823055
135	0xbe27b7de	-0.16378734
136	0xbeb77e50	-0.35838556
137	0x3dcc68f9	0.099809594
138	0x3df55b62	0.119803205
139	0x3e7e3669	0.24825443
140	0xbe874f6f	-0.2642779
141	0x3dcb439e	0.09925006
142	0xbe4d9c65	-0.20079191
143	0xbad588fc	-0.0016291435
144	0x3ee7bba6	0.45260352
145	0xbdca9813	-0.09892287
146	0x3c20a08c	0.009803902
147	0xbe8c6eb7	-0.2742822
148	0x3e34c2be	0.17652413
149	0xbda5a518	-0.0808813
150	0x3e35230d	0.17689152
151	0x3d40fe12	0.0471173
152	0xbe8853c6	-0.26626414
153	0x3bd1c4f2	0.0064016515
154	0x3db75031	0.08950842
155	0x3f05a2ce	0.52201545
156	0x3e6fb7e7	0.23409997
157	0x3e96d362	0.29458147
158	0x3e3dee56	0.18547949
159	0xbdd7f226	-0.10544233
160	0xbcde584b	-0.02714171
161	0x3e9be337	0.3044679
162	0x3e384873	0.17996387
163	0x3f00eb20	0.5035877
164	0xbd611ad0	-0.05495721
165	0xbd5ed3c0	-0.05440116
166	0xbdf5214a	-0.1196924
167	0x3e0c1434	0.13679582
168	0x3e84c08f	0.2592816
169	0xbde1fa45	-0.11034063
170	0xbcfc47da	-0.03079598
171	0xbe8d2372	-0.27566105
172	0x3e021843	0.12704568
173	0xbed91c5e	-0.42404455
174	0xbee75dda	-0.4518879
175	0x3e55cb94	0.2087844
176	0x3cbb205c	0.022842579
177	0x3e93ef95	0.28893724
178	0x3dd93cb0	0.10607278
179	0xbe24f1fc	-0.16107935
180	0xbd864818	-0.065567195
181	0xbed610ff	-0.41809842
182	0x3eb0a33a	0.34499532
183	0x3e307ff8	0.17236316
184	0x3e8ca6c4	0.27470982
185	0x3c062c37	0.008189253
186	0xbe2559df	-0.16147564
187	0x3e228d5f	0.15874241
188	0x3ee57168	0.44813085
189	0x3f006553	0.5015461
190	0xbe2d884d	-0.16946526
191	0x3e2f0fea	0.17095914
192	0x3e880e50	0.2657342
193	0x3dca0013	0.098632954
194	0x3d983251	0.07431472
195	0xbf1cacda	-0.6120125
196	0x3e1cc7a9	0.1531054
197	0x3f819bd7	1.0125684
198	0x3e842d41	0.25815776
199	0x3e7f2795	0.24917443
200	0x3f0e8497	0.55671066
201	0x3e30a1fe	0.17249295
202	0xbefff764	-0.49993432
203	0x3e8efe92	0.27928597
204	0x3f03738a	0.51348174
205	0xbe9d42e4	-0.30715096
206	0x3f4cb4dc	0.7996347
207	0x3e95a50a	0.29227477
208	0x3f10e037	0.56592125
209	0xbe654083	-0.2238789
210	0x3e5fdd05	0.21861656
211	0x3e26cace	0.16288301
212	0xbe528d4e	-0.20561716
213	0x3f8430c1	1.0327379
214	0xbea05b3f	-0.31319615
215	0xbe63c298	-0.222422
216	0xbdf28725	-0.11842183
217	0x3ea0a385	0.31374756
218	0x3e136bba	0.14396563
219	0x3f841e5a	1.0321763
220	0x3f5467b6	0.8297075
221	0x3f474827	0.7784447
222	0x3f01f3f6	0.5076288
223	0x3e1ea7c7	0.1549369
224	0xbe75c926	-0.24002513
225	0x3f5d41de	0.8642863
226	0xbe48defb	-0.1961631
227	0x3f321a8e	0.6957177
228	0x3f9b3992	1.2126944
229	0xbe8aef3c	-0.27135646
230	0x3e27b28f	0.16376708
231	0x3de46923	0.11152866
232	0xbd065f2b	-0.032805603
233	0xbe12a904	-0.14322287
234	0xbf6ca64d	-0.92441255
235	0x3e98275b	0.29717526
236	0x3ee03e3f	0.4379749
237	0x3f22d7a3	0.63610286
238	0x3eb242bc	0.3481654
239	0xbd88407e	-0.06652926
240	0x3f0f6cfe	0.56025684
241	0x3eb5c005	0.35498062
242	0x3e907abe	0.28218645
243	0x3f1c814d	0.611348
244	0x3f78334e	0.96953285
245	0xbf202986	-0.6256336
246	0x3e0bf634	0.13668138
247	0x3e7d9150	0.24762464
248	0x3ed3920d	0.41322365
249	0xbf0e5005	-0.5559085
250	0x3e834d69	0.25644997
251	0x3f3723ba	0.7153889
252	0x3ed8a088	0.42309976
253	0xbe967613	-0.29386958
254	0xbe0d128c	-0.13776606
255	0x3f3bebfa	0.73406947
