model/epoch_5790.pth (torch_old, 280147 bytes, 10 tensors)

lstm.weight_ih_l0 f4 [256, 20]
1.7653708 3.2030733 3.709905 -0.8716207 -0.15638337 0.054920375 1.9641366 0.22240286
0.11592284 0.21734877 -0.0855996 -0.825822 0.3824884 -1.28583 0.38420212 -0.22684352
4.237074 -0.059368614 4.9695463 -0.61810166 -0.64135736 1.3663903 0.94422835 -1.1886749
2.2504718 1.0786785 -0.5445581 -0.35422054 3.3784657 3.322506 0.5782852 -0.0838844
2.9018912 -0.49736053 -0.30915076 -0.4575702 -0.37844816 -4.2243466 2.9385824 0.17949982
0.98858255 -0.049699303 0.7678383 1.7255114 -1.5293344 0.5059261 -0.68842626 0.18507235
4.916291 2.8073876 -0.85541815 -0.27764538 2.3520043 1.8930182 -1.5178739 3.9551833
-1.7771294 0.7781819 -1.7598356 2.1266196 2.6604521 3.28964 -0.18628526 0.43318123
1.2885985 -0.47621313 -0.039747894 -1.5456359 -3.038103 5.827302 -0.30815002 0.1956977
0.55646366 -0.685351 7.797146 -0.40388426 -1.0640903 1.7260317 0.0063914075 1.8770341
-1.1648467 -0.4571195 1.7090511 0.22794257 0.1359293 1.1390303 -0.5786501 -0.93306357
-0.31097198 -0.82504547 1.4064801 -0.37731797 3.132892 3.1343524 8.074332 -0.7209646
1.8908764 0.5837294 3.9320624 0.11764524 1.323934 4.803711 -0.59438705 2.4180064
-0.15355141 1.0165118 -2.0902174 2.1959193 -0.31343532 -0.41613704 -0.41554108 -0.0032261757
0.4299441 -0.1691319 -1.6081195 2.1018596 -0.78150994 -0.55685836 0.20742555 0.15149657
-1.6028723 1.899319 4.3235874 -0.46981496 -0.5553671 -0.73727643 1.4807284 3.0192971
2.5264816 0.7928382 1.4656007 -0.80011576 0.065292284 -0.30150414 0.40700448 1.0791171
1.7545453 -1.4313339 2.6921868 -1.0378268 -0.39747742 0.9082186 1.1695228 -0.14462113
3.4649472 0.7163737 0.79953974 0.5655995 -4.182193 -0.10831878 -0.0105215795 -1.3554368
0.008100542 1.7504483 5.451417 1.1642519 0.6271295 -0.5732258 -2.0513341 0.42530656
-0.80902094 6.0141926 -0.5637315 -0.48148227 0.42832616 -2.2814667 4.086069 1.0301702
-0.37047556 1.7263979 -1.7016859 0.5461654 -0.91376215 1.6426337 0.31069142 -1.406129
3.1414082 0.19081286 -0.84669167 -0.880661 0.4653839 -0.8630269 1.7493804 1.2119273
-1.7256293 0.49214494 0.404183 -1.2039753 -1.0785179 3.7834895 0.29346517 0.10872191
3.6999252 -1.3787674 2.402366 0.7997715 -1.1297482 -2.4628987 0.7566625 -0.013992424
0.9412111 1.6755413 -1.1749058 -0.2633861 0.28017986 2.361844 -0.39526296 0.5994538
-0.2997641 0.4018154 0.48431662 -1.5343224 0.55590504 -0.06626864 0.8385884 0.6759476
2.266133 0.6596894 1.3043915 -0.46948206 -1.8527753 -0.9297822 -0.99452317 -0.65497065
1.6595031 0.13569935 -0.034398813 1.6947026 2.349234 -0.082949005 0.63964736 -0.46518415
-0.5889577 1.2199221 1.9468129 0.94448715 0.6857294 0.7207412 -0.1572418 -0.016725335
-0.39094952 0.93377066 -0.2832195 0.9226591 -0.5202087 0.8154672 1.0945548 1.5042423
-0.3842292 -1.6753739 -2.076362 1.1547114 2.0232503 1.6189122 -0.21960631 -1.3074073
00000000: acf7 e13f 27ff 4c40 156f 6d40 8922 5fbf
00000010: f622 20be 30f4 603d d468 fb3f 93bd 633e
00000020: f468 ed3d ad90 5e3e d84e afbd 1269 53bf
00000030: 85d5 c33e 1496 a4bf 24b6 c43e ab49 68be
00000040: 1c96 8740 812c 73bd 8606 9f40 e93b 1ebf
00000050: ff2f 24bf e1e5 ae3f f3b8 713f 8026 98bf
00000060: bb07 1040 2312 8a3f 2968 0bbf 655c b5be
00000070: c838 5840 f0a3 5440 800a 143f 96cb abbd
00000080: 96b8 3940 0aa6 febe 0249 9ebe a446 eabe
00000090: f5c3 c1be d92d 87c0 bc11 3c40 cdce 373e
000000a0: bf13 7d3f 7f91 4bbd 0d91 443f 8fdd dc3f
000000b0: 3bc1 c3bf 5f84 013f b43c 30bf 9b83 3d3e
000000c0: 4252 9d40 3dac 3340 affc 5abf 8927 8ebe
000000d0: 3d87 1640 6c4e f23f b149 c2bf b921 7d40
000000e0: fa78 e3bf ee36 473f 4b42 e1bf 891a 0840
000000f0: d944 2a40 7689 5240 90c1 3ebe eec9 dd3e
00000100: ccf0 a43f 35d2 f3be b0ce 22bd 66d7 c5bf
00000110: 4870 42c0 4279 ba40 d7c5 9dbe fa64 483e
00000120: 6774 0e3f 2a73 2fbf 3882 f940 ebc9 cebe
00000130: 1c34 88bf 9bee dc3f 036f d13b a742 f03f
00000140: b219 95bf 910b eabe 30c2 da3f c769 693e
00000150: 0d31 0b3e bfcb 913f 6a22 14bf 41dd 6ebf
00000160: b837 9fbe 2e36 53bf 8a07 b43f d22f c1be
00000170: 4d81 4840 3b99 4840 7730 0141 2391 38bf
00000180: 3d08 f23f 4a6f 153f e9a6 7b40 fdef f03d
00000190: ab76 a93f 00b8 9940 c029 18bf 9ec0 1a40
000001a0: 953c 1dbe 0f1d 823f 1fc6 05c0 f189 0c40
000001b0: 987a a0be ea0f d5be cdc1 d4be 3f6e 53bb
000001c0: a221 dc3e ea30 2dbe dcd6 cdbf de84 0640
000001d0: 0911 48bf 458e 0ebf 5d67 543e eb21 1b3e
000001e0: eb2a cdbf e31c f33f d45a 8a40 968b f0be
000001f0: 8a2c 0ebf 26be 3cbf 8288 bd3f 2a3c 4140
00000200: e0b1 2140 72f7 4a3f ce98 bb3f 63d4 4cbf
00000210: f6b7 853d c05e 9abe e462 d03e 8220 8a3f
00000220: f194 e03f f335 b7bf ca4c 2c40 82d7 84bf
00000230: 2982 cbbe 0481 683f ecb2 953f 9017 14be
00000240: b2c1 5d40 4464 373f a3ae 4c3f 21cb 103f
00000250: 86d4 85c0 3dd6 ddbd b462 2cbc f47e adbf
00000260: 23b8 043c b10e e03f 0272 ae40 3506 953f
00000270: 8f8b 203f edbe 12bf 0f49 03c0 c8c1 d93e
00000280: ff1b 4fbf 4474 c040 b550 10bf d884 f6be
00000290: 914d db3e 8d03 12c0 14c1 8240 9edc 833f
000002a0: f9ae bdbe 9bfa dc3f d8d0 d9bf 7fd1 0b3f
000002b0: 51ec 69bf d241 d23f f212 9f3e 09fc b3bf
000002c0: d50c 4940 7264 433e c9c0 58bf 0073 61bf
000002d0: cc46 ee3e 55ef 5cbf b2eb df3f 6f20 9b3f
000002e0: 6ce1 dcbf 6cfa fb3e 13f1 ce3e dd1b 9abf
000002f0: e00c 8abf b124 7240 1141 963e 98a9 de3d
00000300: 93cb 6c40 737b b0bf 5dc0 1940 d3bd 4c3f
00000310: 979b 90bf 22a0 1dc0 a2b4 413f 7b40 65bc
00000320: 36f3 703f 2378 d63f 5063 96bf 8bda 86be
00000330: bc73 8f3e 7428 1740 e85f cabe ce75 193f
00000340: ae7a 99be c0ba cd3e 59f8 f73e ad64 c4bf
00000350: cb4f 0e3f dab7 87bd bbad 563f e70a 2d3f
00000360: 5308 1140 68e1 283f 4df6 a63f f45f f0be
00000370: be27 edbf 3506 6ebf 1299 7ebf 28ac 27bf
00000380: 996a d43f c5f4 0a3e c5e5 0cbd 04ec d83f
00000390: da59 1640 2be1 a9bd eebf 233f 9e2c eebe
000003a0: efc5 16bf 6826 9c3f 2a31 f93f e9c9 713f
000003b0: f68b 2f3f 7f82 383f ff03 21be 9203 89bc
000003c0: 892a c8be 980b 6f3f 2502 91be 6333 6c3f
000003d0: 662c 05bf 75c2 503f 5f1a 8c3f 038b c03f
000003e0: b1b9 c4be a772 d6bf 1de3 04c0 95cd 933f
000003f0: ef7c 0140 8438 cf3f 7ae0 60be 1f59 a7bf

lstm.weight_hh_l0 f4 [256, 64]
0.05189009 0.8651483 1.3598783 1.0082872 1.3961841 0.87928087 -0.051415637 0.45092407
-0.86342365 0.9060436 -0.03917216 -0.67554235 -0.3815081 -0.7028878 0.55647546 -1.079209
-1.8532516 1.0353086 -1.0911268 0.7703375 0.03943363 0.09559329 -0.9309182 -0.3488428
-0.7209844 -0.71542823 -1.3465484 0.04318203 0.01772879 0.2923127 0.05268268 0.42588082
0.19461608 0.26963675 -0.818355 0.9544283 -0.79473937 -0.1815669 -0.8326721 -0.36322746
0.16494438 -0.5295539 0.84857327 0.094098255 -0.83946395 -0.3421805 -0.121868566 -0.4603661
0.5444348 1.2523178 0.12477279 0.8982975 0.4466012 0.41049638 -1.3615532 1.829347
0.21514185 0.009860748 -0.6192002 0.22959892 0.6858858 -2.2143137 -0.8597499 0.5182898
-1.5256813 -0.08570503 -0.5995141 -0.92893165 -0.9118694 1.8012562 0.67215335 0.49422893
1.3908672 1.1872331 0.027542802 -0.77815574 -0.56581897 0.3977613 -0.00084185833 -0.4217744
-1.0738559 -1.172811 0.5907806 0.78441566 0.1418442 -1.1713204 -0.11840037 0.49182868
-0.24022792 0.2983257 -0.13359098 -1.380572 0.36104563 0.18463723 0.16186361 0.9438282
0.12663077 1.107255 -1.6309106 0.30069962 -1.193899 0.44051185 0.6349909 -0.67828965
0.43046254 -0.09134109 -0.52934706 -0.15837333 0.26779017 -0.09627761 -0.058900665 1.1503222
0.6835049 -0.9891342 -0.26692265 0.56856835 1.5786958 0.95491415 0.51342565 1.234567
-0.5721464 -0.75837415 0.80898434 -0.38477683 0.2638097 0.2838088 -0.65924084 0.0023008916
-1.2131613 1.2955352 0.2636039 1.0444632 -0.6578705 -0.21090053 0.8867427 -1.0287443
-1.2831682 0.38284114 0.66714287 -1.7588865 -0.5799813 -0.25218508 -0.3036329 0.26348215
-0.62851584 0.39744133 0.4132999 -0.70162815 -0.21840341 -0.50337744 -1.332878 -0.8753369
-1.3037279 0.33599856 0.07177136 -1.6015505 0.80957574 0.3349124 -0.26214603 -0.45712313
-0.49176085 -0.620531 -1.2195629 0.6168499 -0.42080876 0.4118321 0.49986845 1.7428296
0.2619832 -0.02374012 0.056636665 0.47733372 -0.13116845 0.012939493 -1.5023167 -0.27309737
-0.5535981 0.38265815 0.3022956 0.49796212 0.8692025 0.7921409 0.23583531 1.7762675
0.10010789 -0.5945671 -0.2332543 -0.43372944 0.5835235 -0.9226867 -0.108052954 -0.5394043
0.3682929 0.637039 -0.39903566 0.22785468 0.2569023 -0.35848367 -0.24631035 0.89468676
-1.1095124 0.060497176 -0.41283137 0.15276511 -0.9410084 0.32084557 0.55962485 -0.9185831
-0.907733 -0.45644438 -1.2141845 1.2470336 0.23578754 -0.19854523 -0.031229049 -0.72532547
-1.5065815 -0.07611751 0.58719677 0.45288497 0.630143 0.9722395 -0.5523244 -0.3436278
0.27338254 0.27745047 -0.33593634 -0.44741455 -0.96177113 0.9725375 0.120904386 -1.0459411
-1.3343842 -0.3149409 1.0056477 0.65524054 0.0429827 0.03161786 -1.2115322 -0.3300054
0.19298942 -0.094892606 -1.077174 1.7268779 -1.7897211 0.18009433 0.89560497 0.44136977
0.7258528 0.4849341 0.67145866 -1.1435783 -0.24121022 -0.27050328 -0.3062409 0.009357655
00000000: b48a 543d 5c7a 5d3f 7e10 ae3f 8e0f 813f
00000010: 29b6 b23f 8d18 613f 3499 52bd 85df e63e
00000020: 5509 5dbf 79f2 673f fd72 20bd 58f0 2cbf
00000030: 0855 c3be 74f0 33bf 2d75 0e3f 8523 8abf
00000040: 5937 edbf fe84 843f 0baa 8bbf d734 453f
00000050: 2885 213d 6ac6 c33d a850 6ebf 869b b2be
00000060: 6f92 38bf 4e26 37bf b35b acbf a4df 303d
00000070: f83b 913c 03aa 953e cbc9 573d 0d0d da3e
00000080: 7049 473e d40d 8a3e b77f 51bf 6a55 743f
00000090: 0a74 4bbf acec 39be 002a 55bf f3f8 b9be
000000a0: 2ee7 283e d890 07bf 193c 593f 96b6 c03d
000000b0: 1ce7 56bf 4832 afbe 3a96 f9bd 1bb5 ebbe
000000c0: 1460 0b3f f34b a03f e088 ff3d d3f6 653f
000000d0: eaa8 e43e 952c d23e 6047 aebf 0b28 ea3f
000000e0: 254e 5c3e fa8e 213c e883 1ebf fb1b 6b3e
000000f0: 3696 2f3f 51b7 0dc0 9218 5cbf a4ae 043f
00000100: 8649 c3bf 1e86 afbd c279 19bf 77ce 6dbf
00000110: 4670 69bf 908f e63f 3e12 2c3f 930b fd3e
00000120: f007 b23f 41f7 973f 71a1 e13c 3735 47bf
00000130: 83d9 10bf 5ea7 cb3e 28b0 5cba d0f2 d7be
00000140: 1c74 89bf ac1e 96bf 663d 173f 77cf 483f
00000150: 9b3f 113e d4ed 95bf e57b f2bd f8d0 fb3e
00000160: 4ffe 75be 25be 983e 13cc 08be 95b6 b0bf
00000170: f9da b83e 8b11 3d3e 93bf 253e ba9e 713f
00000180: 7fab 013e 88ba 8d3f aec1 d0bf 4df5 993e
00000190: afd1 98bf c58a e13e c38e 223f 64a4 2dbf
000001a0: 9665 dc3e 0a11 bbbd 4a83 07bf 9e2c 22be
000001b0: cb1b 893e 322d c5bd d341 71bd c23d 933f
000001c0: 2dfa 2e3f e637 7dbf 16aa 88be b28d 113f
000001d0: b412 ca3f 4175 743f dd6f 033f 4b06 9e3f
000001e0: 3078 12bf cf24 42bf 9919 4f3f 7801 c5be
000001f0: 1112 873e 634f 913e 02c4 28bf 8eca 163b
00000200: df48 9bbf 19d4 a53f 17f7 863e f8b0 853f
00000210: 336a 28bf 4ff6 57be 9201 633f e5ad 83bf
00000220: db3e a4bf c103 c43e e0c9 2a3f 3123 e1bf
00000230: a879 14bf 671e 81be c575 9bbe 22e7 863e
00000240: 6ae6 20bf 6e7d cb3e 0b9c d33e e79d 33bf
00000250: 25a5 5fbe 58dd 00bf bf9b aabf 1416 60bf
00000260: 8ee0 a6bf 0108 ac3e ddfc 923d 9bff ccbf
00000270: 5b40 4f3f a379 ab3e 0138 86be 0b0c eabe
00000280: 14c8 fbbe 1fdb 1ebf a31a 9cbf e0e9 1d3f
00000290: 3f74 d7be a8db d23e c2ee ff3e 0a15 df3f
000002a0: a922 863e a47a c2bc d9fb 673d 1665 f43e
000002b0: 0651 06be 2b00 543c ea4b c0bf 6bd3 8bbe
000002c0: 9bb8 0dbf c5eb c33e 7dc6 9a3e e4f4 fe3e
000002d0: 0e84 5e3f bfc9 4a3f d07e 713e bc5c e33f
000002e0: 5e05 cd3d 8d35 18bf 37da 6ebe c911 debe
000002f0: cc61 153f 3235 6cbf de4a ddbd 6616 0abf
00000300: e390 bc3e fd14 233f 674e ccbe bd52 693e
00000310: b388 833e 2c8b b7be c838 7cbe 310a 653f
00000320: 8104 8ebf e3cb 773d a25e d3be 756e 1c3e
00000330: ede5 70bf df45 a43e 9343 0f3f 4328 6bbf
00000340: 3161 68bf 14b3 e9be 666a 9bbf cc9e 9f3f
00000350: 4a72 713e 714f 4bbe 10d4 ffbc eeae 39bf
00000360: aad7 c0bf 7fe3 9bbd 8752 163f 8ae0 e73e
00000370: 0d51 213f b0e4 783f 2265 0dbf fcef afbe
00000380: ccf8 8b3e fd0d 8e3e d9ff abbe 8513 e5be
00000390: a236 76bf 38f8 783f b89c f73d 66e1 85bf
000003a0: 1acd aabf ef3f a1be 10b9 803f d8bd 273f
000003b0: a10e 303d bb81 013d 7d13 9bbf 78f6 a8be
000003c0: 059f 453e 0e57 c2bd d6e0 89bf 560a dd3f
000003d0: 9515 e5bf a66a 383e 5e46 653f 38fb e13e
000003e0: 7dd1 393f 4849 f83e b7e4 2b3f c660 92bf
000003f0: d0ff 76be 687f 8abe 9bcb 9cbe da50 193c

lstm.bias_ih_l0 f4 [256]
0.22435991 0.60870063 0.8683534 0.7525733 0.367232 0.6210306 0.6981531 0.598249
-0.16673054 0.69138736 0.5053537 0.3349487 0.7939872 0.5776219 0.662755 0.34774747
0.16777603 0.6499516 0.5066564 0.62646884 0.60722876 0.703128 0.43758965 0.96169883
0.61901814 0.87547064 0.20009679 -0.01195077 0.18751526 0.96586585 0.9668828 0.40035897
0.8941126 -0.13359731 0.4177964 0.7006048 0.7227417 0.764183 0.57061714 0.48508066
1.1090101 0.80970156 0.6999964 0.6654217 0.4977667 0.32136172 0.9583774 0.15093547
0.8920594 0.5529875 1.0285873 0.34342375 0.518932 0.10737648 0.3714102 -0.29956758
0.28270784 0.0031201427 0.47737068 1.3335941 0.6730147 0.24921343 0.8218158 0.43073678
-0.23853911 0.1191894 0.28427404 0.055489913 0.32818455 -0.20381102 0.11650801 0.0039190524
0.35879502 0.21766296 0.4706808 0.17111698 -0.53908193 0.49884528 -0.0076774913 -0.14953555
0.1838805 -0.24121441 0.31882533 0.10587204 -0.1657205 -0.12519747 0.1898401 -0.18924133
0.112564385 0.03172484 -0.3174273 0.12567857 0.011754909 0.061994217 0.45644024 0.120872155
0.46332222 -0.07953218 0.008616858 0.10467602 -0.03001499 0.21953312 0.043512672 -0.011719096
-0.15585393 0.017356902 -0.05980772 0.2563153 0.12933104 0.008776023 0.44044334 -0.13401248
-0.07270483 -0.013326741 -0.015704254 -0.23426475 -0.12728268 0.31457448 0.20682798 0.48952293
-0.041024335 0.32000512 -0.114220195 0.0050356197 0.32314143 0.44718006 -0.006208645 0.31947568
0.0657353 0.1597859 -0.11956379 0.16602835 0.24486372 -0.17105225 -0.09902069 0.030900156
-0.14444017 0.08825322 0.17968863 -0.2791084 -0.10473051 -0.13131644 0.17522503 -0.16616479
-0.15742785 0.0103355 0.00029094986 0.073369734 -0.030836841 -0.08698055 -0.11238805 -0.09174221
-0.20837753 -0.060676295 0.039431863 -0.104248606 0.09878192 0.009359367 -0.25805014 0.25103855
-0.14755064 -0.03922219 -0.18043591 -0.019848 0.022623854 -0.095795445 -0.059940793 -0.029245155
-0.09307561 -0.012423239 0.13653614 -0.16238186 -0.26285452 -0.0008112496 -0.13202024 -0.15000601
-0.07792935 0.10128972 -0.22075137 0.058886398 -0.102549806 0.0568839 -0.09039456 0.08372618
0.06726917 0.010361169 0.07391896 -0.12357475 0.02394696 -0.12912774 -0.1405411 0.0998096
0.37082973 0.5507249 0.5455606 0.5015994 0.2551146 0.38306895 0.6306228 0.04416391
0.14063501 0.09920504 0.269265 -0.2982197 0.24701805 -0.2991907 0.55549616 0.5572638
-0.15740041 0.32888004 0.059282653 0.23552404 0.109479964 -0.043438368 -0.1947826 0.49961966
-0.14047706 0.020009559 -0.44966316 0.12946646 -0.021931365 0.55902165 0.34311235 0.5662214
0.44356754 0.48652756 -0.1526063 0.27022955 0.21801595 -0.09624081 0.05113635 0.25134867
0.18572198 0.27665648 0.095131315 0.035110302 0.6455625 0.43299165 -0.32652977 0.36195847
0.9103651 0.81448644 0.20660128 -0.023211531 0.24151959 -0.05728004 0.89505243 0.19665188
0.8432199 -0.23080364 0.27985016 0.3190461 1.2466646 0.039392844 0.44633898 0.3372809
00000000: 9bbe 653e ced3 1b3f 694c 5e3f a5a8 403f
00000010: d505 bc3e ddfb 1e3f 29ba 323f d926 193f
00000020: 69bb 2abe c3fe 303f dc5e 013f 657e ab3e
00000030: bf42 4b3f 07df 133f 50aa 293f f50b b23e
00000040: 7bcd 2b3e 3a63 263f 3cb4 013f 4360 203f
00000050: 5873 1b3f 3200 343f c00b e03e e531 763f
00000060: f977 1e3f d81e 603f 2ce6 4c3e 2acd 43bc
00000070: 0004 403e fc42 773f a285 773f dafb cc3e
00000080: 90e4 643f bccd 08be 69e9 d53e d65a 333f
00000090: 9a05 393f 7fa1 433f f713 123f 7e5c f83e
000000a0: 0bf4 8d3f 9a48 4f3f f732 333f 1459 2a3f
000000b0: 47db fe3e 8689 a43e 3958 753f d48e 1a3e
000000c0: 015e 643f 9790 0d3f c0a8 833f 3dd5 af3e
000000d0: bad8 043f 33e8 db3d 7a29 be3e ec60 99be
000000e0: 15bf 903e 4f7b 4c3b ee69 f43e 36b3 aa3f
000000f0: b14a 2c3f ce31 7f3e 8562 523f 8889 dc3e
00000100: 9943 74be 9219 f43d 5e8c 913e 6449 633d
00000110: ce07 a83e d6b3 50be c09b ee3d 656b 803b
00000120: fbb3 b73e 0ae3 5e3e 13fd f03e 4a39 2f3e
00000130: 4601 0abf a668 ff3e 7793 fbbb d91f 19be
00000140: 2b4b 3c3e e900 77be 133d a33e 71d3 d83d
00000150: a2b2 29be c433 00be 7165 423e 7bc8 41be
00000160: 2888 e63d e8f1 013d d585 a2be e2b1 003e
00000170: a997 403c a6ed 7d3d 89b2 e93e d28b f73d
00000180: 9238 ed3e c5e1 a2bd b92d 0d3c 6260 d63d
00000190: ffe1 f5bc 4acd 603e 583a 323d 7401 40bc
000001a0: 2c98 1fbe 1030 8e3c f1f8 74bd c23b 833e
000001b0: 5b6f 043e 4fc9 0f3c ca81 e13e 913a 09be
000001c0: 45e6 94bd 6758 5abc 35a6 80bc 19e3 6fbe
000001d0: 6456 02be e80f a13e b7ca 533e c0a2 fa3e
000001e0: 2209 28bd b6d7 a33e 47ec e9bd d701 a53b
000001f0: cb72 a53e c9f4 e43e e471 cbbb 5192 a33e
00000200: 3ba0 863d ea9e 233e dcdd f4bd 5603 2a3e
00000210: 8ebd 7a3e 5228 2fbe 5ccb cabd 5322 fd3c
00000220: 20e8 13be 1bbe b43d 4c00 383e 4ce7 8ebe
00000230: f37c d6bd d177 06be 316e 333e 1a27 2abe
00000240: c434 21be 3b56 293c a18a 9839 df42 963d
00000250: 8b9d fcbc dc22 b2bd b52b e6bd 57e3 bbbd
00000260: eb60 55be b587 78bd 4e83 213d 4b80 d5bd
00000270: 2d4e ca3d 0858 193c 261f 84be 2088 803e
00000280: 8417 17be 72a7 20bd 31c4 38be 4698 a2bc
00000290: a955 b93c 6730 c4bd 7a84 75bd 8993 efbc
000002a0: 6d9e bebd d78a 4bbc 21d0 0b3e 6e47 26be
000002b0: de94 86be 0aaa 54ba 5030 07be 2d9b 19be
000002c0: 6c99 9fbd fc70 cf3d a60c 62be dd32 713d
000002d0: a205 d2bd 18ff 683d c820 b9bd a278 ab3d
000002e0: 6bc4 893d e5c1 293c d362 973d c214 fdbd
000002f0: 6a2c c43c 103a 04be 02ea 0fbe fa68 cc3d
00000300: 65dd bd3e 4ffc 0c3f dca9 0b3f d168 003f
00000310: 619e 823e 9d21 c43e 7f70 213f 37e5 343d
00000320: a002 103e 032c cb3d 1add 893e 41b0 98be
00000330: 4df2 7c3e 862f 99be ff34 0e3f d7a8 0e3f
00000340: 932d 21be f762 a83e 5ed2 723d 372d 713e
00000350: 0837 e03d 6eec 31bd 1775 47be 26ce ff3e
00000360: 38d9 0fbe 16eb a33c 403a e6be db92 043e
00000370: 68a9 b3bc 0b1c 0f3f 6cac af3e e3f3 103f
00000380: 491b e33e 241a f93e d344 1cbe 875b 8a3e
00000390: 933f 5f3e e719 c5bd 5974 513d c6b0 803e
000003a0: e72d 3e3e eba5 8d3e 35d4 c23d d2cf 0f3d
000003b0: 9643 253f 15b1 dd3e e92e a7be 9f52 b93e
000003c0: b00d 693f 2f82 503f 498f 533e 1c26 bebc
000003d0: e950 773e 7a9e 6abd 2822 653f 1c5f 493e
000003e0: 42dd 573f ca57 6cbe 8548 8f3e 035a a33e
000003f0: b592 9f3f 645a 213d 8b86 e43e 15b0 ac3e

lstm.bias_hh_l0 f4 [256]
0.110649355 0.56580824 0.85159624 0.57381463 0.43932617 0.57657987 0.62099504 0.63454294
0.0015557064 0.63699967 0.6575178 0.29081124 0.8181704 0.75935704 0.66082764 0.21244733
0.35056633 0.7417615 0.2971809 0.44616032 0.61663973 0.6285283 0.65428144 0.9317255
0.72434664 0.998843 0.3254897 -0.20385495 0.2511737 1.0398759 1.0423223 0.44822633
0.9750455 -0.058299076 0.4823449 0.77304643 0.6215459 0.7587636 0.50639725 0.47187418
0.93167675 0.8438614 0.56742823 0.45078444 0.61851174 0.49474695 0.72857904 0.19751622
0.6904773 0.64677536 0.9544491 0.4498989 0.6679963 0.025368635 0.22433406 -0.29144013
0.3125815 0.099772364 0.5003032 1.2671763 0.7643057 0.39005014 0.811263 0.20588134
-0.23691507 0.17337812 0.35981053 0.048031066 0.47087604 -0.17432158 0.012459223 0.01918138
0.4360694 0.114199705 0.5075719 0.12048215 -0.37603167 0.47070995 -0.027943453 0.048619088
0.14490794 -0.14162941 0.24698183 0.17358178 -0.09597986 -0.016898854 0.016743023 -0.23418848
0.2319759 0.03176755 -0.3361371 0.015850795 -0.19805291 -0.060000185 0.35970524 0.2513828
0.49750262 -0.0377953 0.10370591 0.15114424 0.0037543373 0.12469977 0.114175394 0.022410138
-0.16402382 0.05497566 -0.11310209 0.12992363 0.04045749 0.018509587 0.5209021 -0.026771368
-0.10217464 -0.19548824 -0.15348506 -0.03927956 -0.112693846 0.16553235 0.20894656 0.40347937
-0.08801623 0.16671087 -0.09176696 0.17759266 0.29471505 0.4889041 0.04012179 0.500513
-0.0025692815 0.13493715 -0.2447392 0.17848715 0.30427465 -0.2897492 -0.10830986 0.24594024
-0.032208156 -0.052584462 0.10405881 -0.38351455 0.045342032 -0.18577898 0.21157724 -0.15194447
-0.17255184 0.04429007 -0.03900378 0.0996015 0.06311309 0.041579023 -0.09343195 -0.020616392
-0.1429105 0.083748534 -0.09505129 -0.0319967 -0.09720514 -0.008811151 -0.20469916 0.12346084
-0.12025536 0.018288312 -0.21857576 -0.05287814 0.01668075 0.07605406 -0.029850708 0.024483483
-0.09945763 0.02126909 0.19443218 -0.03568047 -0.14283854 -0.07962556 -0.10970911 0.013092577
0.0691456 0.12610401 -0.2303058 -0.005734758 -0.19474927 0.015228624 -0.0016008393 0.03083699
0.0992554 0.012680809 -0.028281592 -0.012076715 -0.02835147 -0.059946746 -0.014132083 -0.109565936
0.4205752 0.48768413 0.43450505 0.6118934 0.24218002 0.5871474 0.6722512 0.1896068
0.11680196 0.11996531 0.24028254 -0.25934827 0.21571305 -0.20081072 0.5656476 0.72656256
-0.023177315 0.24705768 0.016095616 0.31250843 0.08500841 -0.12629099 -0.032237712 0.5332182
0.023074286 0.07549127 -0.25557053 0.089078434 0.08075241 0.50521463 0.32445964 0.70524937
0.3831577 0.50461936 -0.009397166 0.43466654 0.40641537 0.06531978 -0.07647749 0.16365664
0.034031093 0.3082855 0.14990282 0.16880317 0.65149826 0.21618575 -0.32834136 0.33702236
0.88117373 0.7656801 0.1492319 0.16451311 0.15458757 0.15764223 0.7871918 0.2131859
0.9680889 -0.24448073 0.27792975 0.4372751 1.3299484 -0.06867715 0.35338128 0.32569462
00000000: 219c e23d cfd8 103f 3602 5a3f 84e5 123f
00000010: 5cef e03e bd9a 133f 88f9 1e3f 6871 223f
00000020: d8e8 cb3a 6912 233f 1653 283f 36e5 943e
00000030: 9e73 513f 3965 423f 002c 293f cb8b 593e
00000040: 6e7d b33e 15e4 3d3f 1828 983e 206f e43e
00000050: 1adc 1d3f 3be7 203f fd7e 273f 9085 6e3f
00000060: c86e 393f 2db4 7f3f 96a6 a63e 5abf 50be
00000070: d799 803e a71a 853f d16a 853f ec7d e53e
00000080: 959c 793f 03cb 6ebd e9f5 f63e 5fe6 453f
00000090: a21d 1f3f 553e 423f 40a3 013f 7e99 f13e
000000a0: 5e82 6e3f 4d07 583f fa42 113f 38cd e63e
000000b0: c956 1e3f 794f fd3e 2884 3a3f b141 4a3e
000000c0: 1fc3 303f 1293 253f c756 743f 2659 e63e
000000d0: ce01 2b3f e2d1 cf3c d4b7 653e a437 95be
000000e0: af0a a03e 7455 cc3d df13 003f d532 a23f
000000f0: 8aa9 433f a7b4 c73e efae 4f3f 8fd2 523e
00000100: dd99 72be 098a 313e 1639 b83e 39bc 443d
00000110: aa16 f13e 5b81 32be c521 4c3c 4522 9d3c
00000120: 7d44 df3e 89e1 e93d 3bf0 013f 58bf f63d
00000130: 3987 c0be e500 f13e abe9 e4bc cf24 473d
00000140: bf62 143e 4d07 11be cee8 7c3e 6cbf 313e
00000150: 1791 c4bd 776f 8abc aa28 893c 1bcf 6fbe
00000160: 178b 6d3e b11e 023d 291a acbe 87d9 813c
00000170: 62ce 4abe c1c2 75bd 492b b83e 3fb5 803e
00000180: aab8 fe3e 3fcf 1abd c463 d43d 8ec5 1a3e
00000190: 540b 763b 9862 ff3d cad4 e93d 7795 b73c
000001a0: dcf5 27be 282e 613d 12a2 e7bd b30a 053e
000001b0: c1b6 253d 6ba1 973c d759 053f a14f dbbc
000001c0: f040 d1bd 122e 48be 302b 1dbe 9be3 20bd
000001d0: 08cc e6bd 5081 293e 16f6 553e d994 ce3e
000001e0: da41 b4bd 41b6 2a3e 51f0 bbbd dada 353e
000001f0: e4e4 963e a351 fa3e bf56 243d 9f21 003f
00000200: 6461 28bb f72c 0a3e ea9c 7abe 56c5 363e
00000210: e3c9 9b3e 025a 94be 8fd1 ddbd c2d7 7b3e
00000220: b3ec 03bd ce62 57bd c91c d53d 055c c4be
00000230: 91b8 393d d83c 3ebe b4a7 583e 5597 1bbe
00000240: 6eb1 30be 8169 353d 6dc2 1fbd dffb cb3d
00000250: 7041 813d c44e 2a3d 4059 bfbd b5e3 a8bc
00000260: 2157 12be 5a84 ab3d 40aa c2bd f90e 03bd
00000270: 7d13 c7bd a55c 10bc a89c 51be 09d9 fc3d
00000280: 7148 f6bd 5fd1 953c 53d2 5fbe c096 58bd
00000290: 11a6 883c 3bc2 9b3d 7989 f4bc 9691 c83c
000002a0: 71b0 cbbd 843c ae3c 3b19 473e af25 12bd
000002b0: 4444 12be ba12 a3bd 2baf e0bd 4082 563c
000002c0: 359c 8d3d 6921 013e 49d5 6bbe a3ea bbbb
000002d0: 5a6c 47be 7b81 793c 41d3 d1ba db9d fc3c
000002e0: 6a46 cb3d 2bc3 4f3c ccae e7bc 6add 45bc
000002f0: 5841 e8bc b88a 75bd 418a 67bc 1b64 e0bd
00000300: a255 d73e bcb1 f93e 7277 de3e 0ca5 1c3f
00000310: 0afe 773e 4b4f 163f a818 2c3f 4928 423e
00000320: de35 ef3d 5fb0 f53d a00c 763e 4cc9 84be
00000330: e2e3 5c3e 53a1 4dbe 48ce 103f 0100 3a3f
00000340: 5ade bdbc b0fc 7c3e f4da 833c 1b01 a03e
00000350: e418 ae3d 6d52 01be b10b 04bd fd80 083f
00000360: 4906 bd3c 2b9b 9a3d 24da 82be c16e b63d
00000370: 8561 a53d bf55 013f 931f a63e 398b 343f
00000380: 3f2d c43e bc2e 013f 92f6 19bc 9d8c de3e
00000390: ad15 d03e 60c6 853d 3ba0 9cbd 9b95 273e
000003a0: 3064 0b3d 99d7 9d3e 2080 193e bdda 2c3e
000003b0: 97c8 263f cc5f 5d3e 5c1c a8be 328e ac3e
000003c0: 9a94 613f 9c03 443f 3fd0 183e 2076 283e
000003d0: 344c 1e3e f76c 213e 6785 493f 684d 5a3e
000003e0: add4 773f 2859 7abe cf4c 8e3e 86e2 df3e
000003f0: c03b aa3f 9ba6 8cbd 64ee b43e 72c1 a63e

lstm.weight_ih_l1 f4 [256, 64]
-0.54026407 -0.0017442722 0.057747528 0.07417895 -0.11723614 0.0758 0.17802367 -0.13142538
-0.37802285 0.33602336 -0.114587404 -0.083400995 0.43589064 0.09856103 -0.028407991 -0.4695711
-0.17917643 0.041905977 -0.071539536 0.009296705 -0.30016157 0.33366054 -0.08702289 -0.36601028
0.31034365 0.24904701 -0.120566025 -0.08996835 -0.20477395 0.2348833 0.11381339 -0.005024128
-0.0906045 -0.1734917 0.0861128 0.086605 0.5697159 -0.08839701 -0.16945295 0.39958307
-0.15084054 0.36627394 0.41758522 0.054732364 0.24899818 0.5638162 -0.13243982 0.24634436
0.20500013 0.08677415 -0.11132873 -0.16016136 0.3125972 0.17508264 0.18087086 0.0843658
-0.09940397 -0.05242794 0.08701498 -0.16591617 0.19499177 0.19617423 0.03703994 0.37829685
-0.11247335 0.6265776 -0.66453564 0.9015214 0.08052314 -0.27784657 -0.41008523 -0.39867872
0.49047664 -0.34413075 -0.46406135 0.2301044 -0.28614265 -0.12567955 0.3758223 -0.48527837
0.06943877 -0.5991929 0.07340952 0.18580401 -0.23907313 0.44967198 0.030327346 0.13281502
-0.3481889 -0.503576 0.8468755 -0.20839739 0.48327798 0.36057955 -0.08101977 -0.1291045
0.044087 0.0658523 0.07553794 0.62618816 -0.26084 -0.36267805 -0.72241145 -0.23840834
-0.07092749 -0.05715197 0.8448367 -0.10547648 0.4516231 0.39611244 -0.15221354 0.62556505
0.12196386 0.19966093 -0.35184848 0.09922794 -0.18815275 0.4589192 -0.517125 0.08981336
0.121745184 0.18365891 -0.16245674 -0.017413402 0.4794939 0.60487384 -0.19025548 -0.1817751
-0.5727895 -0.023970325 -0.2273833 -0.15869498 -0.097731456 0.017555501 0.056456205 0.36870632
0.24543048 0.1535095 -0.17921755 -0.12247532 0.252055 0.5516085 -0.11511356 -0.11428835
-0.021523613 0.3604757 -0.12447488 -0.28987 0.23954855 -0.2821837 0.3310661 0.047097772
0.015070996 -0.02847686 -0.4315029 -0.3491868 0.96871215 0.15457177 -0.095782496 3.849622e-05
-0.057520404 0.24972166 -0.038012326 -0.740242 -0.47499654 0.18728688 -0.15621963 -0.07531519
-0.11646317 -0.2891505 0.2859193 0.21583134 0.14277075 -0.04287784 -0.08844524 0.3320838
0.15497304 -0.26564166 0.34290233 -0.2179097 -0.26125637 -0.000391988 0.19066481 0.23599705
0.52669656 0.06481693 0.26144484 0.18728237 -0.13291259 -0.15579277 0.2269095 -0.0048997845
0.29200628 0.077435136 0.024258954 0.09539541 -0.21544094 -0.063971594 1.1746504 0.68738794
-0.27628577 0.13698608 -0.23868042 -0.6242033 -0.378498 -0.13392003 0.2676616 -0.2644158
-0.20312794 0.4027562 0.20528635 -0.25700036 1.1200668 -0.10026009 -0.016530462 0.27461946
-0.055529386 -0.034425557 -0.5769486 0.67660636 -0.4197609 0.1247421 -0.13743167 0.06712616
-0.3003136 0.012887115 0.5654841 -0.2965317 0.26556194 0.84796834 -0.36233875 -0.16910522
-0.32755873 -0.088940255 0.024069322 -0.13718802 -0.5999387 0.24430923 -0.7132276 -0.3259644
-0.013674581 -0.17585781 -0.3449425 0.6845406 0.22749285 -0.3925952 0.389278 -0.037303995
0.09818971 0.7312349 0.28157744 -0.16586751 -0.8680239 0.19240028 0.3377672 -0.080620594
00000000: bf4e 0abf 10a0 e4ba ac88 6c3d 22eb 973d
00000010: 8019 f0bd 083d 9b3d d64b 363e 6094 06be
00000020: 368c c1be 410b ac3e cdac eabd 24ce aabd
00000030: 0f2d df3e 5eda c93d e0b7 e8bc a06b f0be
00000040: 077a 37be 9aa5 2b3d 5283 92bd 3551 183c
00000050: c7ae 99be 8ed5 aa3e 0f39 b2bd b365 bbbe
00000060: 5de5 9e3e 2e06 7f3e 52eb f6bd 5441 b8bd
00000070: 43b0 51be 3f85 703e ff16 e93d 71a1 a4bb
00000080: da8e b9bd cfa7 31be e85b b03d f65d b13d
00000090: e7d8 113f 7e09 b5bd 1385 2dbe 2796 cc3e
000000a0: f175 1abe 4288 bb3e bbcd d53e 0b2f 603d
000000b0: 61f9 7e3e 4256 103f 4e9e 07be b241 7c3e
000000c0: 8eeb 513e a5b6 b13d 5100 e4bd 5701 24be
000000d0: bd0c a03e dd48 333e 3636 393e fac7 ac3d
000000e0: 4f94 cbbd aebe 56bd e934 b23d eee5 29be
000000f0: ecab 473e e6e1 483e 31b7 173d 20b0 c13e
00000100: 6d58 e6bd 6467 203f 021f 2abf 1bca 663f
00000110: 51e9 a43d e841 8ebe b1f6 d1be 9e1f ccbe
00000120: c11f fb3e e831 b0be 7399 edbe 7da0 6b3e
00000130: 4a81 92be 24b2 00be c86b c03e 6876 f8be
00000140: ea35 8e3d b564 19bf bb57 963d 6843 3e3e
00000150: 96cf 74be 683b e63e 0e71 f83c a900 083e
00000160: d145 b2be 5bea 00bf d5cc 583f 2066 55be
00000170: 3670 f73e e29d b83e b1ed a5bd f833 04be
00000180: 9294 343d 92dd 863d a3b3 9a3d de4d 203f
00000190: d28c 85be f0b0 b9be f5ef 38bf 5121 74be
000001a0: 6f42 91bd 2f18 6abd 3847 583f 0e04 d8bd
000001b0: 253b e73e 40cf ca3e dedd 1bbe 0825 203f
000001c0: 30c8 f93d ea73 4c3e 7c25 b4be 0538 cb3d
000001d0: 1dab 40be 75f7 ea3e 4e62 04bf 11f0 b73d
000001e0: 8a55 f93d 1511 3c3e 0f5b 26be 8da6 8ebc
000001f0: 3980 f53e 03d9 1a3f 55d2 42be 4023 3abe
00000200: 55a2 12bf 6a5d c4bc 2bd7 68be f080 22be
00000210: 6e27 c8bd 8ed0 8f3c 9f3e 673d 13c7 bc3e
00000220: 2152 7b3e 9831 1d3e ce84 37be 57d4 fabd
00000230: 5a0d 813e 3736 0d3f a8c0 ebbd 0310 eabd
00000240: 4a52 b0bc 4590 b83e b0ec febd d769 94be
00000250: 374c 753e 627a 90be 7f81 a93e 98e9 403d
00000260: 57ec 763c 4e48 e9bc f3ed dcbe 9dc8 b2be
00000270: 85fd 773f 1048 1e3e 9d29 c4bd 0077 2138
00000280: 849a 6bbd 09b7 7f3e d0b2 1bbd 8080 3dbf
00000290: bf32 f3be 22c8 3f3e 0af8 1fbe da3e 9abd
000002a0: 3e84 eebd 890b 94be 0464 923e e402 5d3e
000002b0: 7f32 123e ada0 2fbd c722 b5bd e306 aa3e
000002c0: 41b1 1e3e 2f02 88be e590 af3e b823 5fbe
000002d0: 65c3 85be bd83 cdb9 a33d 433e 36a9 713e
000002e0: 96d5 063f bdbe 843d 19dc 853e f3c6 3f3e
000002f0: 3d1a 08be 2488 1fbe f75a 683e 5f8e a0bb
00000300: d981 953e 5096 9e3d b7ba c63c ab5e c33d
00000310: 8d9c 5cbe 8a03 83bd f25a 963f a8f8 2f3f
00000320: 5475 8dbe 1446 0c3e a468 74be cacb 1fbf
00000330: 7dca c1be 5522 09be f10a 893e 8261 87be
00000340: c500 50be 1036 ce3e 9636 523e 8d95 83be
00000350: 595e 8f3f 2955 cdbd e46a 87bc ec9a 8c3e
00000360: c872 63bd d001 0dbd e7b2 13bf 1336 2d3f
00000370: e7ea d6be c978 ff3d e3ba 0cbe 7179 893d
00000380: b4c2 99be 7a24 533c 91c3 103f 01d3 97be
00000390: bcf7 873e 7414 593f 7784 b9be eb29 2dbe
000003a0: c7b5 a7be 4f26 b6bd 072d c53c 047b 0cbe
000003b0: 9595 19bf 332c 7a3e 1696 36bf cee4 a6be
000003c0: 5a0b 60bc 1214 34be 4e9c b0be 0e3e 2f3f
000003d0: e3f3 683e 3d02 c9be 724f c73e 13cc 18bd
000003e0: b017 c93d 3632 3b3f eb2a 903e 2cd9 29be
000003f0: d036 5ebf 9404 453e d3ef ac3e 691c a5bd

lstm.weight_hh_l1 f4 [256, 64]
0.81870395 -0.08348168 0.012707102 0.29115808 -0.597101 0.9545769 -0.08273705 -0.0040205885
-0.71114284 -0.75222045 -0.29124194 -0.8345129 0.49361804 -0.6218558 0.9045053 -1.2885096
0.15098555 -0.074406646 -0.062179115 -0.9339426 -0.026090736 -0.013763549 0.18949576 1.2612741
-0.04735671 -0.27287802 -0.37476867 0.20583029 0.4709001 -0.26496622 -0.083657034 0.69437057
0.031364087 -0.35312122 -0.62080866 0.23162629 0.44761434 -1.5800657 -0.14432369 0.7425522
-0.022013998 -0.34317642 0.4810069 0.83659965 0.6795683 -0.07661702 0.9135008 0.098515645
0.05126001 1.2347953 -0.32746306 -0.28070006 -1.2173481 1.0223228 0.908806 0.42322868
0.73389643 0.30703524 0.8052736 0.80993766 0.801537 0.39007026 0.27172843 -1.3438177
-0.41243118 -0.3424099 0.41662735 0.18502226 0.045962602 -1.1260879 -0.18913116 0.123907745
-0.3733777 0.49614716 -1.1006966 -0.13159521 -0.69258 1.1364012 0.42268467 -0.5903384
-0.1284499 0.9535708 -0.87933797 0.32808608 -0.061523445 0.544504 0.14252172 -0.42134756
0.1311626 1.0983313 -0.24924493 0.23361053 -0.2898988 0.91842633 0.03808334 -0.8912505
0.51767 0.74438626 -0.089262746 -1.2152249 -0.14747947 0.594841 0.4277786 0.3862377
0.24874954 1.0130371 -0.6302871 0.77356666 1.0881902 -0.3065914 -0.453224 0.48986617
0.84273463 -0.009875322 -1.6379793 -0.41816795 -0.5473417 0.9671359 -0.02318828 -1.4250861
-1.2396808 -0.70557714 -0.0851241 0.712406 -0.5738916 -0.5702273 -1.3266684 -2.0658522
0.4017544 0.14266154 0.0330529 -0.101913676 -0.8662458 0.16808133 0.4959437 -0.51384723
0.0061022434 1.2015756 0.9921532 0.1699279 -0.29424652 0.3447898 -0.29021403 0.0010038331
-0.00675292 0.16291824 -0.08675776 -0.086161226 -0.37122184 0.15887932 0.7080663 0.13529584
-0.27995387 0.40573168 -1.3633604 -0.27452418 -0.60868365 -1.117417 -0.50271356 0.14517456
0.45779684 -0.9377022 1.1168505 0.0042308206 0.75045484 0.46852204 0.76660544 -1.2294285
-0.2604733 0.24378903 -0.84515244 -2.662722 -0.303297 -0.073830895 0.73731583 -0.6510056
-0.13451454 -0.32508308 -0.71666926 0.90169835 -0.45212168 -0.5285086 0.0029421826 0.08687074
-0.9262309 -2.1396818 0.32019618 0.64058703 -0.12869038 0.071471386 -0.7421664 -0.30083838
-1.0720297 0.99824554 -0.74085724 0.4509515 -1.119256 -0.7447224 -0.6829722 0.37966198
0.18993896 1.5713505 2.6568296 0.17370316 -0.26135096 0.9728064 0.86282945 0.77869195
-0.938047 -0.95380265 1.2458953 -1.5887809 -0.1709459 -0.43358317 -0.24143833 -0.8846329
-0.39215386 -0.9471439 0.5802426 -1.2066706 0.3351894 -0.53293365 -1.1738222 -0.125156
0.011624217 1.1610051 0.29902273 -0.8891953 0.44630948 -1.3009261 0.93962276 -0.38976076
-0.07508119 -0.35846385 -1.9954064 0.32160836 -2.5044508 0.5809503 -0.4628676 -0.4791596
-0.86082274 1.1346676 0.8758701 1.5275054 -0.5885587 -0.6442061 -1.0918943 0.7572538
-1.1436443 0.3220138 -0.7020264 0.27117154 0.09066914 1.0700902 -1.4015853 0.479041
00000000: 9596 513f 71f8 aabd 7331 503c ac12 953e
00000010: 9cdb 18bf 275f 743f 0b72 a9bd 24bf 83bb
00000020: 750d 36bf 8591 40bf aa1d 95be a3a2 55bf
00000030: 81bb fc3e f131 1fbf a98d 673f e2ed a4bf
00000040: f59b 1a3e 8362 98bd 87af 7ebd dd16 6fbf
00000050: 3dbc d5bc 8280 61bc 2d0b 423e 6e71 a13f
00000060: 1cf9 41bd abb6 8bbe aee1 bfbe 2dc5 523e
00000070: d119 f13e a7a9 87be 6154 abbd 45c2 313f
00000080: a177 003d 4ecc b4be 51ed 1ebf 712f 6d3e
00000090: b52d e53e 983f cabf 97c9 13be e717 3e3f
000000a0: b356 b4bc d2b4 afbe 8946 f63e 652b 563f
000000b0: 30f8 2d3f 62e9 9cbd 30db 693f 92c2 c93d
000000c0: 04f6 513d c60d 9e3f 3da9 a7be ebb7 8fbe
000000d0: 10d2 9bbf 79db 823f 83a7 683f 6eb1 d83e
000000e0: a3e0 3b3f b933 9d3e 6926 4e3f 1358 4f3f
000000f0: 8731 4d3f 4ab7 c73e fd1f 8b3e 3802 acbf
00000100: 2e2a d3be 5a50 afbe 2e50 d53e 7a76 3d3e
00000110: 4843 3c3d a623 90bf 99ab 41be 58c3 fd3d
00000120: 5d2b bfbe 0007 fe3e a0e3 8cbf e5c0 06be
00000130: ec4c 31bf 9875 913f 206a d83e 6b20 17bf
00000140: 5f88 03be 371d 743f 4b1c 61bf e6fa a73e
00000150: 0200 7cbd 9d64 0b3f 37f1 113e deba d7be
00000160: 7d4f 063e 1f96 8c3f 103a 7fbe 9937 6f3e
00000170: 9e6d 94be fd1d 6b3f 47fd 1b3d fe28 64bf
00000180: 0586 043f 1990 3e3f 63cf b6bd 7d8c 9bbf
00000190: dc04 17be 8047 183f cc05 db3e f3c0 c53e
000001a0: 33b8 7e3e 33ab 813f 7f5a 21bf 7708 463f
000001b0: d149 8b3f 8cf9 9cbe fa0c e8be bdcf fa3e
000001c0: 75bd 573f 1acc 21bc 4ea9 d1bf 1c1a d6be
000001d0: 961e 0cbf 3896 773f 59f5 bdbc 3969 b6bf
000001e0: dcad 9ebf b4a0 34bf 8b55 aebd 3d60 363f
000001f0: 8fea 12bf 6bfa 11bf 45d0 a9bf ec36 04c0
00000200: c1b2 cd3e de15 123e 7a62 073d 1eb8 d0bd
00000210: 49c2 5dbf 831d 2c3e 55ec fd3e 7e8b 03bf
00000220: 54f5 c73b 3bcd 993f c1fd 7d3f 9401 2e3e
00000230: 7ba7 96be 4a88 b03e ef96 94be 0d93 833a
00000240: 9947 ddbb 0ad4 263e 0dae b1bd 4c75 b0bd
00000250: ca10 bebe 43b1 223e d543 353f fe8a 0a3e
00000260: 1d56 8fbe 10bc cf3e 9882 aebf 6f8e 8cbe
00000270: b1d2 1bbf 8507 8fbf d6b1 00bf a4a8 143e
00000280: 5964 ea3e 400d 70bf f5f4 8e3f b2a2 8a3b
00000290: cf1d 403f 1fe2 ef3e 4140 443f ea5d 9dbf
000002a0: c25c 85be d5a3 793e e95b 58bf 0a6a 2ac0
000002b0: bf49 9bbe a734 97bd bbc0 3c3f 4ea8 26bf
000002c0: 2ebe 09be 4a71 a6be a377 37bf b4d5 663f
000002d0: 7e7c e7be 574c 07bf a2d1 403b 49e9 b13d
000002e0: 781d 6dbf 8cf0 08c0 c1f0 a33e 83fd 233f
000002f0: 69c7 03be 975f 923d 9efe 3dbf 7d07 9abe
00000300: 4538 89bf 058d 7f3f d2a8 3dbf 1de3 e63e
00000310: c843 8fbf 21a6 3ebf 44d7 2ebf 0e63 c23e
00000320: 5c7f 423e 0322 c93f 7f09 2a40 3edf 313e
00000330: cbcf 85be d709 793f 64e2 5c3f 5b58 473f
00000340: d923 70bf 692c 74bf 7f79 9f3f 2c5d cbbf
00000350: 710c 2fbe 9dfe ddbe 9c3b 77be 4d77 62bf
00000360: 64c8 c8be 0678 72bf c78a 143f 2f74 9abf
00000370: f29d ab3e 576e 08bf ce3f 96bf e528 00be
00000380: 8073 3e3c d19b 943f 8219 993e 4ea2 63bf
00000390: ad82 e43e bf84 a6bf 1e8b 703f b98e c7be
000003a0: 2bc4 99bd 9388 b7be 7a69 ffbf daa9 a43e
000003b0: ec48 20c0 29b9 143f fbfc ecbe 6854 f5be
000003c0: e15e 5cbf ca3c 913f 0639 603f 4c85 c33f
000003d0: c8ab 16bf b1ea 24bf 31c3 8bbf 63db 413f
000003e0: f062 92bf fede a43e 01b8 33bf ffd6 8a3e
000003f0: beb0 b93d b7f8 883f 2667 b3bf dd44 f53e

lstm.bias_ih_l1 f4 [256]
1.0730051 1.072823 0.13620555 -0.19448827 0.3976112 -0.35693467 0.13969567 -0.16109158
-0.2005089 0.23772103 0.40805385 -0.34238818 0.19604148 0.5664384 0.56063294 0.77648944
0.4703759 0.48680022 0.31751865 0.4980035 0.2912298 0.18146293 0.25764063 0.21949519
0.23097661 -0.30781108 0.10066145 0.8835473 0.8614507 0.086586945 0.91618633 0.25557947
0.41167855 0.9066137 0.66997665 -0.59963304 0.038108163 0.10016978 -0.3714012 1.3532012
-0.030039622 0.52860034 0.30094683 0.6182244 1.5417544 0.8179684 -0.6350516 0.053139083
-0.6621995 0.08076469 0.14400823 0.16829798 0.027502345 0.05076423 0.6726455 0.66435146
0.26872593 0.9259649 1.1977404 -0.67996323 -0.28434515 1.2134016 0.2746448 -0.16252199
-0.43617335 -0.06466899 -0.8115368 0.12753455 0.039262116 0.26074284 -0.5690366 -0.37129188
-0.1987772 -0.20656225 0.32530236 -0.32040638 -0.13557017 0.3706707 -0.15677641 -0.40591168
0.35500008 -0.5330234 0.31527162 0.03149116 0.2816118 -0.50762576 -0.24728577 -0.09608473
0.33634648 -0.612333 -0.58155894 -0.77994704 -0.819451 -1.0128412 -0.24515706 0.4005661
-0.011898392 -0.45215124 -0.011599959 0.34547552 -0.5199711 0.011025747 -0.50823265 0.18881795
-0.41814807 0.10887772 0.19289163 0.15182239 0.40735808 -0.08512203 0.34421566 0.65317506
0.022250071 -0.62446827 -0.08421905 0.006674922 -0.62544954 -0.20841418 -0.17916885 -0.14044578
-0.39524207 -0.002418069 0.8962095 -0.47871485 0.5348417 0.4378329 0.7710956 -0.8620383
-0.10648085 -0.2056903 0.16048656 -0.030953476 0.08119877 -0.5253356 0.09237351 -0.13763791
-0.31541738 0.123804405 0.1910754 0.29566178 -0.20616491 0.08991223 -0.26279792 0.028595012
0.5465696 -0.13181672 0.028788885 -0.0864684 0.18195626 -0.10577376 0.18077326 0.005017543
-0.22461829 0.10015843 0.05448932 0.5747939 0.31504658 0.40219256 0.16850546 -0.14852835
-0.07591066 0.2945978 0.13377929 0.4244575 -0.046165507 -0.064751185 -0.12865551 0.12184882
0.4480013 -0.14218579 -0.0493409 -0.39502716 0.052361358 -0.3872423 -0.50929624 0.15922736
-0.025052233 0.27097568 0.05909101 -0.20691176 0.018980132 -0.45023286 0.37239957 0.18368702
0.2466024 0.049682986 -0.09040371 0.13254392 0.41288224 0.5576605 -0.24933171 0.21641725
0.13106506 0.032511294 -0.1510017 -0.6452056 0.15605985 1.0385962 0.34998724 0.44298923
0.623427 0.021843133 -0.47605515 0.3908131 0.5137091 -0.24638224 0.9680738 0.31912044
0.56152415 -0.36462402 0.25936475 0.048596818 -0.2843891 0.9629611 -0.38101918 -0.27830464
-0.09339664 0.030621555 0.24993145 1.0212619 0.84773284 0.6757345 0.64608306 -0.034925066
-0.26716337 0.9700556 -0.48107728 0.60498124 1.4036372 -0.15523966 0.22007358 0.06394141
-0.045650218 -0.011476833 -1.25818 0.1619478 0.34365606 0.4955337 0.32042852 -0.20744942
0.4742765 0.18519309 0.12669593 0.7138043 0.68257505 -0.7760136 0.022100672 0.18668108
0.4637586 -0.7046983 0.03819224 0.68132055 0.11376434 -0.32583597 -0.14519572 0.7528923
00000000: 3b58 893f 4452 893f 7879 0b3e ef27 47be
00000010: b293 cb3e 24c0 b6be 620c 0f3e 31f5 24be
00000020: 3552 4dbe 246d 733e 6fec d03e 814d afbe
00000030: 19bf 483e 1b02 113f a485 0f3f 03c8 463f
00000040: 1cd5 f03e e13d f93e ce91 a23e 51fa fe3e
00000050: 131c 953e 6bd1 393e 79e9 833e 59c3 603e
00000060: 2285 6c3e 6a99 9dbe 9727 ce3d 2830 623f
00000070: 0888 5c3f 7f54 b13d 308b 6a3f 50db 823e
00000080: 88c7 d23e d617 683f 9783 2b3f 8d81 19bf
00000090: 4e17 1c3d d025 cd3d 4c28 bebe b235 ad3f
000000a0: a715 f6bc 5a52 073f b415 9a3e f443 1e3f
000000b0: 3558 c53f 6166 513f be92 22bf 5ea8 593d
000000c0: e885 29bf f567 a53d e576 133e 4e56 2c3e
000000d0: 994c e13c 27ee 4f3d 7f32 2c3f f012 2a3f
000000e0: 7296 893e 090c 6d3f 8f4f 993f 1212 2ebf
000000f0: b095 91be be50 9b3f 3e9e 8c3e 2a6c 26be
00000100: 1d52 dfbe 2d71 84bd e0c0 4fbf 6b98 023e
00000110: 50d1 203d 1680 853e 62ac 11bf f819 bebe
00000120: 408c 4bbe 0e85 53be 088e a63e 4e0c a4be
00000130: e8d2 0abe 8dc8 bd3e ff89 20be a8d3 cfbe
00000140: 92c2 b53e 3974 08bf 486b a13e e0fc 003d
00000150: 6c2f 903e c3f3 01bf 7b38 7dbe 12c8 c4bd
00000160: 9b35 ac3e dbc1 1cbf 0ce1 14bf 9caa 47bf
00000170: 8ac7 51bf c8a4 81bf 740a 7bbe 0017 cd3e
00000180: 79f1 42bc 5e80 e7be c10d 3ebc 2be2 b03e
00000190: d31c 05bf 56a5 343c 891b 02bf 7e59 413e
000001a0: 8117 d6be 48fb de3d 6285 453e 5477 1b3e
000001b0: 3d91 d03e 7554 aebd 093d b03e 7b36 273f
000001c0: c845 b63c 27dd 1fbf 0a7b acbd 4eb9 da3b
000001d0: 761d 20bf 876a 55be 0a78 37be 05d1 0fbe
000001e0: 2b5d cabe 7778 1ebb fc6d 653f 1d1a f5be
000001f0: 63eb 083f a22b e03e 8566 453f 8bae 5cbf
00000200: a212 dabd 7aa0 52be 9756 243e 2592 fdbc
00000210: 8a4b a63d 657c 06bf 532e bd3d f4f0 0cbe
00000220: 637e a1be 2a8d fd3d 45a9 433e fb60 973e
00000230: e51c 53be e723 b83d 738d 86be 1640 ea3c
00000240: fceb 0b3f f6fa 06be abd6 eb3c 5816 b1bd
00000250: be52 3a3e ea9f d8bd a01c 393e 346a a43b
00000260: 5602 66be dd1f cd3d 3130 5f3d b125 133f
00000270: c94d a13e 2fec cd3e b28c 2c3e d117 18be
00000280: 0c77 9bbd 86d5 963e 70fd 083e 7e52 d93e
00000290: 0b18 3dbd 459c 84bd 45be 03be e08b f93d
000002a0: 6d60 e53e 2799 11be af19 4abd 0041 cabe
000002b0: dd78 563d 9f44 c6be 3d61 02bf 7f0c 233e
000002c0: 573a cdbc 53bd 8a3e 6a09 723d ade0 53be
000002d0: 397c 9b3c ec84 e6be 28ab be3e 7318 3c3e
000002e0: 5785 7c3e 6380 4b3d 9525 b9bd 98b9 073e
000002f0: 4d65 d33e d7c2 0e3f d050 7fbe 7c9c 5d3e
00000300: eb35 063e 902a 053d 31a0 1abe 322c 25bf
00000310: 27ce 1f3e b8f0 843f 8731 b33e 7ccf e23e
00000320: e998 1f3f 5ff0 b23c 80bd f3be a818 c83e
00000330: 7182 033f a04b 7cbe afd3 773f c163 a33e
00000340: 0cc0 0f3f 00b0 babe 75cb 843e 750d 473d
00000350: 739b 91be 9e84 763f f214 c3be f27d 8ebe
00000360: bd46 bfbd 0eda fa3c 08ee 7f3e b6b8 823f
00000370: 0505 593f f0fc 2c3f b365 253f 960d 0fbd
00000380: a3c9 88be 9055 783f c34f f6be 0de0 1a3f
00000390: 62aa b33f 25f7 1ebe f85a 613e b7f3 823d
000003a0: b9fb 3abd 5409 3cbc 0b0c a1bf a5d5 253e
000003b0: b0f3 af3e 98b6 fd3e 350f a43e 9f6d 54be
000003c0: 5fd4 f23e 42a3 3d3e 94bc 013e e1bb 363f
000003d0: 3dbd 2e3f d4a8 46bf 780c b53c 5329 3f3e
000003e0: c471 ed3e 1c67 34bf 776f 1c3d 066b 2e3f
000003f0: 47fd e83d f9d3 a6be 30ae 14be 8dbd 403f

lstm.bias_hh_l1 f4 [256]
1.2764326 1.1621344 0.35578105 -0.2559903 0.54508346 -0.20892422 0.09818387 -0.17725386
-0.07153842 0.0719167 0.4095262 -0.40055904 0.1789703 0.4155259 0.639214 0.8800885
0.34341252 0.5169308 0.28079638 0.44349527 0.30069926 0.1232953 0.08467757 0.14124161
0.2976343 -0.3866876 0.21630049 0.92555714 0.6525233 0.29736993 0.92763996 0.08377
0.43906534 1.0875565 0.4716195 -0.5057004 0.1873685 -0.0110266125 -0.3749109 1.1984584
-0.06769106 0.5196481 0.3780284 0.5233082 1.5925236 0.8979035 -0.5577889 0.040331945
-0.5169273 0.05810292 -0.038528398 0.25313294 -0.012974552 0.12021724 0.57076615 0.61385465
0.28733757 1.0167335 1.1725131 -0.5539549 -0.19917944 1.1997606 0.26705143 -0.29574153
-0.4918312 -0.08933025 -0.7454968 0.11244096 0.19052365 0.23833694 -0.606577 -0.45431158
-0.19808593 -0.078666545 0.51858693 -0.5090796 -0.13851734 0.18493374 -0.11971913 -0.59153795
0.28391573 -0.4857512 0.36014867 0.19244431 0.28581604 -0.50344986 -0.29827878 -0.17694384
0.23445043 -0.54635566 -0.5237465 -0.81508464 -0.96484256 -0.90619755 -0.3247011 0.29871783
-0.235836 -0.62483174 0.068398006 0.3759701 -0.43188995 0.024394957 -0.58373094 -0.03483507
-0.354233 0.33590716 0.021410862 0.2199003 0.53526235 -0.12492116 0.4660167 0.45595723
-0.17587325 -0.5654195 0.001032243 0.07422767 -0.60426617 -0.30947042 -0.031623404 -0.12825267
-0.46276903 -0.06764462 0.81242335 -0.5867437 0.37733352 0.38849914 0.6377733 -0.744778
-0.083532855 -0.30783358 0.14337584 -0.14102381 -0.10911376 -0.53817433 0.24133168 0.0924727
-0.10048594 0.20010142 0.11369753 0.21350847 -0.014939498 -0.04629515 -0.21808209 0.045525227
0.5175684 -0.11887093 -0.0625267 -0.13196772 0.20093328 0.055666536 0.179429 0.039528493
-0.15264949 0.07779569 -0.05230235 0.5298742 0.28893802 0.33751377 0.18564786 0.0664853
-0.27098823 0.10973749 0.21338357 0.41694957 -0.08471597 -0.05708635 -0.22703916 0.1915828
0.5305075 -0.14460361 -0.14433365 -0.4137424 0.14882049 -0.44427073 -0.511376 0.0566234
-0.14323206 0.101820566 0.032578565 -0.2177055 0.005147506 -0.46681494 0.29918036 0.20205295
0.06854087 0.013968267 0.06586828 0.07879093 0.33048916 0.5875457 -0.375327 0.3318987
0.1896261 0.06784227 -0.2627348 -0.5944706 0.19411667 0.9497484 0.37962985 0.5433029
0.7582458 0.12961914 -0.58600354 0.47164327 0.41330296 -0.22105578 1.1531681 0.47014108
0.4424374 -0.39068565 0.29469752 0.18191655 -0.26900178 0.7690968 -0.4187049 -0.3613988
-0.11282351 -0.052364618 0.30323923 1.1555216 0.83347625 0.7833079 0.5639739 -0.1829434
-0.34861815 0.8827772 -0.46664402 0.40967476 1.2514988 -0.02089822 0.33184007 0.1762744
0.14545889 0.10524607 -1.221628 0.26002088 0.24091554 0.43746606 0.16334258 -0.33652458
0.6008174 0.22774565 0.12279958 0.60195124 0.53587896 -0.8537916 0.074676976 0.37560013
0.46445206 -0.6587542 0.17567131 0.76569265 0.14046095 -0.19137886 -0.020452084 0.7928803
00000000: 2562 a33f d2c0 943f ef28 b63e 2911 83be
00000010: 978a 0b3f 3bf0 55be a014 c93d 0982 35be
00000020: bc82 92bd 1049 933d 6bad d13e 1316 cdbe
00000030: fe43 373e d0bf d43e 87a3 233f 7b4d 613f
00000040: c4d3 af3e 9455 043f 8bc4 8f3e d011 e33e
00000050: 41f5 993e 3f82 fc3d 6f6b ad3d a4a1 103e
00000060: 8663 983e ebfb c5be e07d 5d3e 50f1 6c3f
00000070: c40b 273f df40 983e d079 6d3f 9b8f ab3d
00000080: 2ccd e03e 0d35 8b3f 1c78 f13e 9575 01bf
00000090: 87dd 3f3e f7a8 34bc 52f4 bfbe 1667 993f
000000a0: 9ca1 8abd a807 053f f08c c13e 87f7 053f
000000b0: d0d7 cb3f 01dd 653f 41cb 0ebf 1c33 253d
000000c0: 5955 04bf 54fd 6d3d f4cf 1dbd a49a 813e
000000d0: 3793 54bc 7534 f63d bb1d 123f 9425 1d3f
000000e0: e91d 933e 5324 823f e914 963f fdcf 0dbf
000000f0: b2f5 4bbe c191 993f f7ba 883e 6f6b 97be
00000100: 4dd1 fbbe c7f2 b6bd e1d8 3ebf 7247 e63d
00000110: a218 433e 990e 743e a148 1bbf 879b e8be
00000120: 0ad7 4abe ed1b a1bd 1dc2 043f 0a53 02bf
00000130: 7dd7 0dbe 455f 3d3e 4e2f f5bd 086f 17bf
00000140: 675d 913e 62b4 f8be 6865 b83e 1f10 453e
00000150: 7b56 923e 17e2 00bf ffb7 98be c430 35be
00000160: c613 703e f7dd 0bbf 4014 06bf 63a9 50bf
00000170: ecff 76bf 90fc 67bf 393f a6be 8bf1 983e
00000180: fe7e 71be f9f4 1fbf 4114 8c3d 277f c03e
00000190: ae20 ddbe efd7 c73c 646f 15bf 38af 0ebd
000001a0: 075e b5be 06fc ab3e d565 af3c 8b2d 613e
000001b0: f406 093f aad6 ffbd be99 ee3e 3a73 e93e
000001c0: 1e18 34be 55bf 10bf 544c 873a ad04 983d
000001d0: 30b1 1abf e872 9ebe 8b87 01bd ab54 03be
000001e0: 10f0 ecbe 4389 8abd fafa 4f3f d634 16bf
000001f0: dc31 c13e 5ce9 c63e 1c45 233f c5a9 3ebf
00000200: 4613 abbd 5d9c 9dbe 1ed1 123e 8c68 10be
00000210: 0977 dfbd cbc5 09bf a71f 773e 5462 bd3d
00000220: 93cb cdbd 63e7 4c3e 40da e83d f7a1 5a3e
00000230: ccc4 74bc fc9f 3dbd e950 5fbe a978 3a3d
00000240: 5d7f 043f 9a72 f3bd 000e 80bd 8c22 07be
00000250: 74c1 4d3e 9802 643d 3cbc 373e a1e8 213d
00000260: 2650 1cbe 5953 9f3d fd3a 56bd d6a5 073f
00000270: afef 933e 9bce ac3e 791a 3e3e 7229 883d
00000280: f8be 8abe 0dbe e03d 3981 5a3e 6a7a d53e
00000290: 917f adbd 60d3 69bd f47c 68be 482e 443e
000002a0: 57cf 073f f812 14be 33cc 13be 0bd6 d3be
000002b0: 6664 183e 7477 e3be 8ae9 02bf f0ed 673d
000002c0: 6dab 12be 4d87 d03d 1a71 053d 31ee 5ebe
000002d0: 69ac a83b 5e02 efbe 2b2e 993e f8e6 4e3e
000002e0: 285f 8c3d 28db 643c f3e5 863d 245d a13d
000002f0: e035 a93e 6569 163f dc2a c0be a0ee a93e
00000300: 582d 423e e3f0 8a3d 2d85 86be 3a2f 18bf
00000310: 85c6 463e b622 733f d85e c23e e615 0b3f
00000320: 661c 423f e1ba 043e 5404 16bf 3a7b f13e
00000330: 729c d33e 725c 62be 039b 933f 55b6 f03e
00000340: 2887 e23e f307 c8be 98e2 963e 5548 3a3e
00000350: 9aba 89be 87e3 443f 7d60 d6be 4309 b9be
00000360: 0310 e7bd 487c 56bd 2c42 9b3e 22e8 933f
00000370: b35e 553f de86 483f 9860 103f 8455 3bbe
00000380: 147e b2be b0fd 613f f7eb eebe e4c0 d13e
00000390: 1d31 a03f be32 abbc f1e6 a93e 4781 343e
000003a0: 2df3 143e 408b d73d 4e5e 9cbf 7521 853e
000003b0: 90b2 763e 8dfb df3e 4743 273e f34c acbe
000003c0: 2bcf 193f 2836 693e 597e fb3d 7a19 1a3f
000003d0: 5d2f 093f 1692 5abf 3ef0 983d a94e c03e
000003e0: a9cc ed3e 1ea4 28bf 2ee3 333e 6f04 443f
000003f0: ffd4 0f3e d2f8 43be 218b a7bc 34fa 4a3f
